d1_cs1190382_task1.model (torch, 36815 bytes, 8 tensors)

conv1.bias f8 [32]
000000 00 de fd cb d2 ea 62 bf 72 95 8d 67 96 4b a4 bf
       -0.002309238159735605 -0.0396391869933649
000010 00 00 00 00 00 00 00 00 6f 8f c5 f3 1d ef 8a bf
       0.0 -0.013151391984770304
000020 01 4f 74 79 69 fd ce 3f 1b 21 6e c0 f5 96 97 bf
       0.24210852079760772 -0.023036804075247646
000030 82 6c 8d 63 e1 a8 d1 bf 61 ff 81 20 0f 21 89 bf
       -0.27593264314572974 -0.012270086459693354
000040 d4 2a 23 b9 b7 bd d2 3f 8a bb d8 d2 19 cd 81 bf
       0.2928294475538398 -0.008691980120685523
000050 37 15 6e 39 54 11 80 3f f0 a6 93 e0 03 8b d2 bf
       0.007845552446961264 -0.28973481112789923
000060 5c 22 28 76 eb f2 cd bf 5d 6b 78 91 9b 07 c9 3f
       -0.23397582311033005 0.19554466822668362
000070 24 b2 f5 2b 7f 4e d3 bf 00 00 00 00 00 00 00 00
       -0.30166606228775295 0.0
000080 ff a3 4b 7f 0a d4 d2 bf 99 db 6f 18 4a a5 d0 3f
       -0.2941919558639369 0.2600884665147816
000090 3d 43 89 60 2f 3f c8 3f 00 00 00 00 00 00 00 00
       0.18942825521164677 0.0
0000a0 00 00 00 00 00 00 00 00 fe 4e e5 5e c3 f8 ce bf
       0.0 -0.24196664937573326
0000b0 f5 04 3c 4c 73 df c7 3f 00 00 00 00 00 00 00 00
       0.18650666448960576 0.0
0000c0 8d a5 a6 bf 50 a4 d1 bf a0 4b ee 10 5d de a3 3f
       -0.275654017600197 0.03880587417292891
0000d0 5d d1 4e 15 f4 2e c7 3f 4b 00 2c e9 36 7a 78 bf
       0.1811204055826562 -0.005975927825375103
0000e0 de d1 c4 d8 22 ba cb bf e2 78 5b 25 6e 6b d1 3f
       -0.2166179235879459 0.27218202255416035
0000f0 75 56 9e e7 a9 e9 b0 3f fe e5 e4 ed 31 29 b0 3f
       0.06606542496441555 0.06312858636820093

conv1.lin.weight f8 [32, 1]
000000 59 68 aa aa 5f 76 ca 3f 0e 0f 9d 9f c4 4e 47 bf
       0.2067374785736458 -0.0007112941814075584
000010 c5 f6 0f bd 93 a5 00 bd 8f 14 ba b5 7d 98 7d bf
       -7.392657846322124e-15 -0.007225504926855155
000020 3b 12 69 1c 07 5f 7d 3f 57 0b 5d 7d 58 8a 93 bf
       0.007170703675516916 -0.019082434321954746
000030 82 7a 92 04 1f c8 d5 3f d0 35 5c cd 92 d3 82 bf
       0.3403394264841283 -0.009192606823058919
000040 db be 32 9a 98 e4 4d bf d3 e9 3a ee 42 b9 81 bf
       -0.0009122605446431857 -0.008654139418799034
000050 1e 55 4f 81 de 06 d4 3f 7f 3b 62 8e 81 48 ba 3f
       0.3129192602912826 0.10266885496296928
000060 77 f6 96 9c ae 8c cd 3f 81 b3 47 d1 fe 53 bb bf
       0.2308557762716423 -0.10675041779877682
000070 e6 b0 7e e9 28 86 b8 3f 7e d8 3f 5b 25 41 04 be
       0.09579711628493079 -5.89482843179815e-10
000080 51 d0 6c b0 56 51 bc 3f 8b 2b 7b 17 c5 f2 61 bf
       0.11061612899067198 -0.0021909570167272844
000090 ed 38 08 ed ba a2 d1 3f 02 2a 9e b3 29 d9 27 bf
       0.27555726192157587 -0.00018194803288580646
0000a0 b1 7c 85 79 29 f0 5a bd ca 19 65 8c c8 56 d6 3f
       -3.8281389228122666e-13 0.3490468379062831
0000b0 fe f6 51 2b 81 12 a8 3f b6 0a 27 4d 75 f4 cf be
       0.04701617864428263 -3.8093227001390573e-06
0000c0 fe 7e d4 93 98 6b ca 3f 80 af 6c 90 65 a7 a1 bf
       0.20640856951012404 -0.034480260734510715
0000d0 52 fe c3 bc 53 92 d0 3f a3 bb 0d 0d 40 59 77 bf
       0.25893109735622943 -0.005700349997694784
0000e0 bf ed b8 9b c3 51 a1 3f 1a 45 e1 b7 12 2d 50 3f
       0.03382693553836757 0.0009873087688173133
0000f0 4d 1f ba 08 2b 90 b1 bf a9 6d fe 9a 35 30 c3 3f
       -0.06860608065664771 0.14990873401698693

conv2.bias f8 [64]
000000 cd 53 59 ee 89 9a c4 3f d8 1b ad 94 2d 75 c9 bf
       0.16096614969379033 -0.19888849029140832
000010 c5 2a 1d 69 fa fa b9 3f ec 2f cb 88 31 fe c8 bf
       0.10148587290056373 -0.19525736979846842
000020 f4 68 cf 60 8f 95 ae 3f 1f 85 8f 97 3f 64 c8 bf
       0.05973480278744772 -0.19055933857365745
000030 c1 de 9c a9 97 b7 c8 bf aa 41 22 e1 69 80 b1 3f
       -0.19310279638169983 0.06836568590575234
000040 bf e1 22 e5 9f 21 c3 3f 9f 14 de f3 50 79 31 bf
       0.14946364105504803 -0.0002666304243280157
000050 21 78 c9 0c a5 24 91 bf c9 cc 62 ee 79 50 c6 3f
       -0.01674135103746022 0.17433094158113807
000060 86 19 04 fe 32 23 87 bf d8 a5 5c 7e 0a f8 74 bf
       -0.011297605874017302 -0.005119362822179473
000070 83 d6 a7 55 55 ad b2 3f 34 38 5b 50 39 c2 c4 3f
       0.07295735684587083 0.16217724250458476
000080 cb 37 b9 9e b1 69 c9 bf 62 42 5f 71 93 09 c7 bf
       -0.19853801965876836 -0.1799797347616901
000090 ad 5a 5a fc 1e f7 cd bf f7 7d 2c e5 1b 92 12 bf
       -0.23410403558655926 -7.084174403048498e-05
0000a0 65 05 8a 3b b2 41 cb bf ed eb 02 17 cd e7 90 3f
       -0.21294238955673986 0.016509251145844606
0000b0 da 12 8a a2 af 23 ca 3f 05 49 b1 ba 3a 72 b0 3f
       0.20421405254832942 0.06424300249026167
0000c0 e4 4e 5c f6 60 db 85 bf c0 bc 6b 9e 6e a2 b8 3f
       -0.010672338026359758 0.0962285172242785
0000d0 52 eb f8 1c 12 10 a1 bf 8b 59 9f c5 dd 90 93 3f
       -0.033325735127127346 0.019107308566014985
0000e0 59 4e a1 9c 18 f4 c3 bf 00 00 00 00 00 00 00 00
       -0.15588672302202403 0.0
0000f0 b2 ca 79 b6 8d 55 c6 bf 66 12 2c 3a 3e 64 ce bf
       -0.1744858876223439 -0.23743417587697307
000100 58 32 07 4a e7 f8 b8 3f 5d dd 21 06 41 b1 c6 3f
       0.09754796559645607 0.17728436278751306
000110 c5 c1 37 88 f4 2c cf bf c8 f9 4b 8e e8 52 81 3f
       -0.2435594239355067 0.008458916513970474
000120 00 00 00 00 00 00 00 00 23 81 c6 6c 9a 1e 94 3f
       0.0 0.019647992028354665
000130 cd b0 b3 7c 57 7f 93 bf 9f 06 cf af 6a e5 b0 3f
       -0.01904045771236511 0.06600062172131026
000140 46 70 c5 90 6d 1a cb bf 3c b6 ad 03 b2 fb 91 3f
       -0.21174401825817507 0.017561704134484865
000150 a4 fb 10 44 92 c8 a0 3f c9 3f 2f 28 19 d5 bd 3f
       0.03278023796928345 0.11653287154263049
000160 78 f4 e9 d1 0a 2d cd bf 86 c9 db 67 ac 2c c0 3f
       -0.22793708085729114 0.12636332579820592
000170 fc 8d de 57 3d 30 85 bf 14 07 67 de 19 23 75 bf
       -0.010345916027126194 -0.005160428094713305
000180 71 98 d5 20 2c a0 c6 bf 06 1e e5 12 a1 08 c7 3f
       -0.17676307299842933 0.17995084211928275
000190 b8 41 4e 85 0d 17 ca bf 00 00 00 00 00 00 00 00
       -0.2038285160929385 0.0
0001a0 cc 78 42 2a 9b c9 ad 3f 56 65 9f 99 76 db b6 3f
       0.05817875758042276 0.08928624392082915
0001b0 dd 42 38 bc c9 b9 ba bf 90 c1 a3 ec 2d 4a b3 3f
       -0.10439740033349261 0.0753506376966071
0001c0 c3 c1 71 aa 1b 99 ce bf 85 f5 fd f4 69 a9 d0 bf
       -0.23904748747328428 -0.26034020352366155
0001d0 94 04 c6 d3 8a 0e 85 bf 7a 06 2b 8a c5 cf 79 bf
       -0.010281643474402004 -0.006301662101294897
0001e0 00 00 00 00 00 00 00 00 01 4d 4e 60 7e 2a ba 3f
       0.0 0.10221090174882265
0001f0 96 fa 37 d7 d9 03 c5 bf 96 19 1a 45 6b c8 b1 3f
       -0.16418002136920923 0.06946440159854314

conv2.lin.weight f8 [64, 32]
000000 f0 6f c5 e3 38 8c 7a 3f 9c c7 06 ad 5e fc 6a 3f
       0.006481382585061354 0.003294167436444574
000010 81 5f 2d a1 8e af a1 39 69 9d 34 21 59 bd 45 3f
       4.359878942040189e-31 0.0006634412006051696
000020 83 11 7c e3 6f e5 b5 3f 77 fa 17 3c e3 b5 90 3f
       0.08553218177627823 0.016318846266580835
000030 00 d0 64 a2 20 93 c9 3f 5a 0c 5e 2d ab 6b 8f 3f
       0.19980247430214604 0.01534208042335743
000040 ea 84 75 16 fd 1a b7 3f cf fa 8d 39 df 24 b0 3f
       0.09025556371991042 0.0630626216425114
000050 1a 1c fc 7c 8d 1e b5 3f 9b 47 1a c0 07 73 c0 bf
       0.08249744702708064 -0.12851044540417153
000060 7f ac 78 86 7b 67 a1 bf 4a cf 9a a7 c2 30 d8 bf
       -0.03399263397690166 -0.37797609679841015
000070 bb bb e5 e0 57 d5 cb bf 5c cf 23 74 e5 f8 e0 b9
       -0.21744822007482675 -6.694372716786497e-30
000080 5c 8e 7d 13 53 b5 c0 bf e9 9a fd 62 dc 43 a1 3f
       -0.13053358508760737 0.03372086246854684
000090 a4 a7 eb 6c 75 5e c3 3f 85 e0 12 85 a7 01 20 bb
       0.15132015055070014 -6.620117686248418e-24
0000a0 5b 3b 3e 2d c6 1f 04 bb fd 4d 7d 4c c1 2f c8 bf
       -2.080784999420794e-24 -0.18895736918294395
0000b0 f9 14 0c ca 7d 19 9c bf 7d a0 76 77 12 3d 5e 3c
       -0.027440991837484472 6.5569431457277225e-18
0000c0 50 3a 82 3e 79 3c c6 bf f6 8e e5 6c 6e 68 b1 bf
       -0.17372050811941842 -0.067999745927917
0000d0 73 6e 04 eb e1 51 a2 bf 81 74 fc 1f 9c c1 db 3b
       -0.0357809638391843 2.351049087638817e-20
0000e0 43 fd 3a 0c 48 f3 c5 bf 84 2d 32 72 cb 60 b4 3f
       -0.17148686024845902 0.07960197008121922
0000f0 ce 16 80 7f 0f 12 b0 bf 62 06 e7 39 fa 6c c4 3f
       -0.06277558195878472 0.15957572772281298
000100 b7 09 f5 f5 88 46 b1 3f 44 69 84 3f 8e 86 5d bf
       0.06748252873243286 -0.0018021000997295459
000110 54 6d f6 37 58 dd e2 3c 4b 15 57 1d 43 36 a7 3f
       2.094394364501177e-15 0.04533586247593265
000120 67 54 07 80 d5 98 ce bf 3f 4c 87 32 80 85 91 bf
       -0.23903912307165173 -0.01711082752610715
000130 dc 33 3e d4 79 f9 90 3f 2f ec 8f 60 b0 7c 84 bf
       0.016576675013812422 -0.010003450342983637
000140 7c 72 8d c4 71 2e c9 bf cf de a6 da e5 09 a0 bf
       -0.19672987077037252 -0.03132551473703204
000150 b3 cd 91 fa a0 2f c0 3f a1 18 df 18 1c 31 9b bf
       0.12645351633874 -0.02655452634623912
000160 97 dc a4 2c 57 89 a9 3f f0 31 fd d5 cc 8a a4 3f
       0.04987595005007355 0.040121461030682926
000170 8e c8 f6 55 ac be c0 bf 83 24 71 32 c3 50 84 3b
       -0.13081888387165858 5.37746237615631e-22
000180 da 21 49 27 3f 8f b5 3f 49 e3 f0 d9 d3 ed c7 bf
       0.08421702107546683 -0.18694542066239198
000190 b0 f8 c2 1f 7d 09 c8 3f ef 04 4d 15 4d 2a f6 3b
       0.18778957415446973 7.50987498383857e-20
0001a0 4d b3 07 24 98 a5 50 bc c2 4a ff f9 95 a0 b8 bf
       -3.609710779740871e-18 -0.09620034554908855
0001b0 23 24 37 54 b0 a2 b2 bf 51 33 72 42 1d 62 3c 3a
       -0.07279493385353013 3.5824709376881706e-28
0001c0 1e 44 39 b8 bb 3a 78 3f 22 70 47 c0 d0 21 af 3f
       0.005915387420444977 0.06080486628681593
0001d0 26 31 d5 2c 76 9f b8 bf ed 30 60 c8 3e aa 9b bf
       -0.0961831912474663 -0.02701662157055378
0001e0 b7 22 1e ed 8d 11 c4 3f f2 af 9f db 2e 35 d7 bf
       0.1567857177544931 -0.3626210350764715
0001f0 9c 13 26 b3 72 38 cb 3f 2a f4 2a 33 a9 2a c8 bf
       0.21266015765664015 -0.18880190847804218
000200 92 de e2 b0 53 00 e1 bf 41 83 d9 45 bb 94 96 3f
       -0.5312899069603694 0.022051740778241017
000210 56 61 b7 11 22 99 2a 3e 28 13 17 59 66 70 73 bf
       3.096435231250201e-09 -0.004745864674480051
000220 c2 75 8f e4 29 d7 d0 3f 4a 90 5c d1 84 9f a0 3f
       0.2631325466189446 0.03246703200991925
000230 67 7f df 72 c4 6f cc bf 69 21 e1 6f 7a 49 20 bd
       -0.2221608696845536 -2.8931567347709255e-14
000240 22 cb c1 be 40 43 bb bf e8 58 3a d3 c0 b6 f6 3d
       -0.10649494797852957 3.3053045303189843e-10
000250 98 4a f3 ba a1 35 eb bf ab 2d d4 f2 b1 5e a6 3f
       -0.8502968455671462 0.043691216365995565
000260 f5 40 0d 01 86 d1 a9 bf ee e9 65 99 7d 22 ad 3f
       -0.050426662090673625 0.056903767562250226
000270 cf dd 56 8c 89 ca b9 bf 69 bf 3e bc 60 38 ad 3d
       -0.1007467239022539 1.328782039492253e-11
000280 a6 3c 70 fe cb b8 b5 3f 67 65 8e f9 36 70 a6 bf
       0.08485102617145177 -0.04382488056507832
000290 7a 56 55 5f 51 b4 a4 3f aa 75 a4 e5 f2 fb 99 39
       0.040438216102001115 3.202796853588564e-31
0002a0 31 7b 10 0e 7b 37 c2 bc 35 28 e1 6b 56 87 d9 bf
       -5.056155888238114e-16 -0.3988853505621848
0002b0 fc 2b 8a de c4 ac bb bf cc 66 e3 b2 70 ba 21 3a
       -0.1081049960431954 1.1188118961963808e-28
0002c0 10 85 78 f9 07 fe c3 bf 0b 92 03 b6 30 92 6a bf
       -0.1561899154776616 -0.0032435370813905843
0002d0 58 36 03 37 7b fc c2 bf 48 43 2b 9a 23 cb f6 3b
       -0.14833011804732865 7.72274225797213e-20
0002e0 95 1d b6 e0 81 eb 99 3f 9d da 24 33 99 27 94 3f
       0.02531245168714021 0.01968230604799236
0002f0 a7 1c 9f b2 19 b6 a0 3f a8 b7 fc b2 6f 53 cb bf
       0.0326393156570302 -0.21348377456291456
000300 dc 3a cb a9 01 24 c9 3f 62 c7 41 d9 65 41 41 bf
       0.19641133108822018 -0.0005265948589239062
000310 48 41 07 77 3b 2c bf 39 3c 9e d2 8e 9f a7 91 bf
       1.536936832080554e-30 -0.01724099454136606
000320 f7 3a 9d 3a de 5d b8 3f f2 d9 35 8a 34 75 90 bf
       0.09518231326113012 -0.01607210248536179
000330 ce bc 0e 22 e7 0c cd 3f 55 2a 04 ae 9f 3a ba bf
       0.2269562641426774 -0.10245702742046466
000340 69 a9 58 e5 38 d4 c9 bf a9 28 3e ae 58 77 a6 3f
       -0.20178900908042444 0.04387929083812143
000350 95 0b 89 99 a4 ce a7 3f 86 6b 23 17 dd 32 b3 bf
       0.04649843572817428 -0.07499486746693948
000360 20 83 6c 6c 22 56 c9 bf 9b 09 c1 88 7c 3a bc 3f
       -0.1979411153233963 0.11026743258211129
000370 6b 7c 6e 38 9b 4a b7 3f bd 81 0e bf 98 18 5e bc
       0.09098215224956767 -6.526047220809108e-18
000380 4c c2 d0 87 33 b3 8b 3f b6 be 7a 3c 34 b9 c8 bf
       0.01352539308763414 -0.19315197899913067
000390 b7 d0 b5 25 39 79 c2 bf 9a 82 df 53 1d c5 3d 3e
       -0.14432443944281712 6.9313633148810695e-09
0003a0 56 f2 76 58 44 c1 96 bd 82 d3 15 c2 0c af cf 3f
       -5.173876416065334e-12 0.24752959706134098
0003b0 20 2d fd 1b fd ea 8d 3f ac 20 57 52 e9 8f 56 3a
       0.014608361641555379 1.1390976763676071e-27
0003c0 cc dd 76 ce e0 53 c8 bf 96 34 21 94 ed fa b2 3f
       -0.19005975800767627 0.07414135805557218
0003d0 d3 da 79 59 66 58 cd bf d0 5b 52 ea f0 df c2 3f
       -0.2292602478880413 0.14745913926591792
0003e0 a9 d8 c1 11 f8 3c d2 3f 6e 3b 7b 8e af 02 c7 bf
       0.2849712537203098 -0.17976946312998215
0003f0 79 db 12 9b 87 b0 d0 3f 35 43 0a c6 c2 c1 c6 3f
       0.2607745184317803 0.17778811139990017
000400 37 5c 14 d9 72 52 ca 3f b6 6e b1 69 e3 90 86 3f
       0.20564113235079315 0.011018540060994435
000410 17 af 85 eb ee 33 cc bb eb e6 a9 43 5e 29 60 bf
       -1.1944377668408341e-20 -0.001972850904448422
000420 72 1a e0 82 0c 8e bb 3f ea c9 ed 20 eb d6 70 3f
       0.10763624377441675 0.0041112122261090876
000430 b8 0e db f4 4e 56 85 bf 55 b9 58 cc f9 f0 8c 3f
       -0.01041852650394702 0.014131499813711793
000440 4e c6 a9 d0 e9 a3 b6 3f 4e 49 e2 2c 61 d4 a2 3f
       0.08843861908260317 0.03677657769107388
000450 81 2e 1d 27 31 e7 a4 3f 58 5d 8c 5c 9a 00 b5 bf
       0.04082635500398358 -0.08204045066337551
000460 be 45 7b 5c 84 a1 c4 bf aa 90 26 d8 fa d6 d6 bf
       -0.16117910876941538 -0.3568713293882505
000470 83 2f 21 8b 29 42 ad 3f ec 8e 0c b7 17 2d 70 ba
       0.05714540313110119 -3.266746086115025e-27
000480 57 48 50 94 e6 ee b2 bf d3 34 82 63 c3 12 9f bf
       -0.07395783539712518 -0.030345013569377976
000490 6a 05 a9 ce b7 6c c4 3f dc 9d 2a d6 15 24 a2 39
       0.15956780997116066 4.472091470981e-31
0004a0 e1 ac cc ef ee b4 df b9 0b b3 e2 77 bc 6e b2 bf
       -6.253057995486519e-30 -0.07200220038312126
0004b0 0c 6e 59 88 82 70 cb bf 1a 40 2e d6 5b 6d 8a 3b
       -0.21437102945024866 6.995216980149576e-22
0004c0 60 ea c0 d3 28 b3 c4 3f d0 04 3b 06 ea 78 b1 bf
       0.16171751346139995 -0.06825125362503859
0004d0 2e 63 9c 05 f5 a1 c2 bf ca b9 78 c7 9c 18 77 bf
       -0.14556753896683844 -0.005638706606573904
0004e0 e6 6e a0 04 1f b3 d2 bf fe 3c 5b 18 2e 4f ac 3f
       -0.292182688253645 0.05529159591025666
0004f0 ed 7f 5b 20 d2 ca b0 bf cb 43 fc 21 0b 15 a5 bf
       -0.06559479989982693 -0.04117617406712489
000500 9b ae f0 02 57 cf b3 3f b5 25 88 5a a3 6d 70 3f
       0.0773825056245933 0.004010809040218379
000510 3f 8c b0 c4 dc 9f d6 b9 5e a7 3c e8 a2 30 4a bf
       -4.461888473672583e-30 -0.000799254936713494
000520 b8 c4 08 00 42 d2 c7 bf fe f7 85 6e 93 31 8f bf
       -0.18610405923531004 -0.01523127728500739
000530 9f 64 54 b8 49 eb b6 3f e9 21 95 64 a4 57 be bf
       0.08952770948634957 -0.11852481322888021
000540 16 18 00 66 16 d5 d0 bf ac 5b 82 6d 94 22 7a bf
       -0.2630058284852351 -0.0063806341132907445
000550 46 39 83 2e 69 52 d0 3f 61 3b 17 6b 79 91 cc 3f
       0.2550299600815332 0.22318952302017706
000560 a5 c8 58 15 db f1 ae bf 7e fb c0 a8 83 68 d8 3f
       -0.0604389632757301 0.3813790462481207
000570 92 13 e0 70 d9 9f d0 3f 45 c3 0b 89 1c be 53 ba
       0.25975643179872876 -9.96747736569775e-28
000580 a7 75 98 24 c5 21 c5 3f 32 57 3e 0a a6 0c c5 bf
       0.1650930813492952 -0.1644485044495752
000590 4a 38 88 fd fb 83 bc bf 92 d0 c6 c5 53 0b d7 b9
       -0.11138892116307023 -4.54467639066878e-30
0005a0 fc cc 9d 34 3c 7a e8 3c 3f 3f 19 29 e0 5b d0 3f
       2.7175463172575267e-15 0.25560764325654256
0005b0 f2 5d 84 e0 c8 8b c9 bf ec 23 d0 ad 09 6e fa b9
       -0.19957838976618764 -2.084946371216808e-29
0005c0 85 56 60 48 ae 13 b0 3f 0a 51 b8 d4 05 f5 af 3f
       0.06280030505180363 0.06241625043563388
0005d0 9e a1 00 ca 65 21 ca bf 66 01 2b eb d2 b6 b9 3f
       -0.20414421428109802 0.10044592133909233
0005e0 90 4c 72 27 90 41 c5 3f a8 31 03 42 c8 6c c4 bf
       0.16606332708451932 -0.15956977103486492
0005f0 1a 37 65 6a 16 98 cf 3f 98 a9 91 82 f1 76 c7 bf
       0.24682884402357602 -0.1833173644584576
000600 31 35 b6 7c 0c 28 bd bf 1c ac 20 cd 5d 7b 72 bf
       -0.11389234585495413 -0.004512182627915553
000610 40 f6 42 36 62 ae e8 ba aa 6a 4a 96 8e 66 b6 3f
       -6.379937072833949e-25 0.08750239533621121
000620 46 dc da 06 91 32 6e 3f cc 51 b4 05 d7 de 91 bf
       0.0036862213663329283 -0.017451629374663644
000630 f3 ca d6 e2 37 51 c6 3f b6 00 ae 54 33 c0 83 bf
       0.174353585969207 -0.009643937131614027
000640 84 77 4a d9 24 64 b1 bf a7 1e 88 2e e5 9e bf bf
       -0.0679343252654388 -0.12351829896953835
000650 4b 30 19 cb dd 3e c6 3f 95 d9 8d d6 83 93 b3 3f
       0.17379352967179992 0.07646965015542258
000660 31 2b fc 73 8a 9b ad 3f 6e 23 a1 c8 73 df c5 3f
       0.05782730737526832 0.17088172241553984
000670 95 4a 7a c6 d0 58 c8 bf d9 90 57 46 87 fa 13 3e
       -0.1902104348306081 1.162909124351373e-09
000680 10 db 67 f3 63 ba b8 bf 40 50 4a 4f c9 65 c6 bf
       -0.09659409229776039 -0.17498127338024183
000690 ea 31 2a 1c ab 20 b5 3f 44 af b0 27 a3 3f b1 bc
       0.08252973020189072 -2.3937217899971844e-16
0006a0 7d bb ab 7f fa f2 36 be 50 10 0d 3f 8e 67 71 bf
       -5.343261828422563e-09 -0.004249148988325471
0006b0 da bc db 0e 8f 50 d0 bf b0 3a ed bd cf d0 eb 3a
       -0.25491692019472867 7.190182143142909e-25
0006c0 e6 ed 63 0f 6a be b6 3f 14 a2 74 a5 f1 5f b2 3f
       0.088842991597566 0.07177648820346177
0006d0 1c 78 54 0f a0 cc c3 bf 59 b2 ba 86 80 31 c7 bf
       -0.15468216656239597 -0.18119818285539926
0006e0 88 dc f3 1b 5d 7d d3 3f 11 da 8a e8 c9 28 c7 bf
       0.30452659349197875 -0.18093227247818836
0006f0 65 36 d7 16 0c 85 d1 3f 32 bf 7d 2d 14 0d c8 bf
       0.2737455580762343 -0.18789913388490614
000700 c0 7c f2 d7 49 4d ce bf 66 1c 99 dc d1 57 9d 3f
       -0.23673365635202082 0.028655318345297685
000710 2e 7a 42 00 82 05 44 3e eb a0 f9 96 43 44 8c bf
       9.323244405936482e-09 -0.013802078289885297
000720 7d 4c 99 88 bb 90 cd 3f a0 ac 4b eb 6e b4 a3 3f
       0.23097938699592993 0.03848597166310097
000730 0a fb 0a a8 72 45 a2 3f 51 02 97 29 bc 95 35 bb
       0.03568609525017592 -1.7854612773655845e-23
000740 90 82 eb a3 d6 31 9f bf b6 fe f3 22 26 8c 02 3a
       -0.030463556055908614 2.926272730673972e-29
000750 87 20 b3 82 e6 af d1 bf 85 31 a2 8c 7a a0 ad bf
       -0.2763611103405385 -0.05786498038023339
000760 d2 98 c9 f2 eb 7d 72 bf d5 92 77 c2 01 d3 be 3f
       -0.004514619515793865 0.12040720937472867
000770 73 a9 b7 fc 60 bd 7f bf 5d c3 81 c6 14 fa 51 be
       -0.007748965126192042 -1.6742273706676206e-08
000780 dd 57 b5 db 8d 06 cf 3f f2 8b 11 b1 4b a6 ab 3f
       0.24238751628825997 0.05400311027985784
000790 f8 54 11 eb e4 7e c8 bf 14 37 8e bd 25 d5 8f bd
       -0.19137250402369665 -3.6189484403149913e-12
0007a0 e3 18 8d a8 ae 01 1a bb 07 9f fc 29 5b ee d1 3f
       -5.37803289990512e-24 0.2801731023814544
0007b0 a3 a9 fd ab 9b dd c5 bf e4 28 dc d0 33 53 5c 3e
       -0.17082544229499516 2.6379720677871473e-08
0007c0 ff ba 7e 92 7a fd a2 3f 31 c2 32 91 1a e8 70 3f
       0.037090139754004874 0.004127601411867008
0007d0 db 33 3a d9 24 3d a6 bf 05 f3 c3 46 ff dd 93 bd
       -0.043435241238604504 -4.517272932198255e-12
0007e0 5f e6 2c b7 68 67 cb 3f 07 ec 42 c4 d7 14 96 bf
       0.21409329361067628 -0.021563884118887013
0007f0 f1 e0 b4 a5 94 68 a2 3f 50 09 68 ab 48 f0 c0 bf
       0.03595413706574558 -0.13233288163616885

lin1.weight f8 [32, 64]
000000 ee 5d 0c 9c 50 d8 c0 3f 57 f9 47 fd c8 6c c4 bf
       0.13160140628382017 -0.15956985823863576
000010 f1 70 df ef 34 50 c2 3f 87 72 39 d5 63 0e be bf
       0.14307271683254144 -0.11740707355188294
000020 fe d2 1b 5b 70 77 b2 bf 58 1c 54 68 a4 b6 bb bf
       -0.07213499283154687 -0.10825564906200336
000030 5b ed 38 35 7e 07 af bf 5e 1f 6d e1 78 d3 a6 3f
       -0.060604042050239136 0.044582154767850865
000040 e7 98 bb 55 df a0 b2 bf a8 33 87 4e f3 59 91 ba
       -0.07276721804700835 -1.4016324107587585e-26
000050 99 8f bf a1 50 0a 4b 3f 0b 34 9e ba 0f 04 b1 3f
       0.0008252042493919087 0.06646822267630641
000060 e0 a0 33 98 68 0d b5 bf 40 dc 71 f5 d7 a6 fb b9
       -0.08223584857808275 -2.181337094331682e-29
000070 28 2e 0d a3 f9 8b c2 bf c6 0f f1 23 3e c9 b1 3f
       -0.1448967023992378 0.06947697045785536
000080 88 fc 8a 58 48 85 b7 bf e5 00 11 29 ab b0 a0 bf
       -0.09187748109524041 -0.032597874415388785
000090 a3 02 fc 80 6f 12 ad 3f 11 6d 73 fa 28 8f c0 ba
       0.056781277175109744 -1.0701144484611694e-25
0000a0 fd 56 8e 80 a2 cd a4 3f 3f 1d 68 cf 17 2a 9e bf
       0.0406313688210229 -0.029457447084522356
0000b0 5b 8b b4 b5 47 54 c8 3f fc 33 f6 34 5a df cd bf
       0.19007202503515938 -0.23337867342016227
0000c0 5d 25 be a1 c0 91 f5 3b 09 ca dc e7 31 bd b9 3f
       7.307978542152467e-20 0.10054313574509179
0000d0 a7 a7 2e 43 96 87 7b 3f 4e bc 9d 5d 91 87 a3 3f
       0.006721102678889957 0.038143675496819726
0000e0 03 0e 3b 1a 3b 1f ba 3f 8d 47 fd d0 53 98 f6 ba
       0.10203904524228595 -1.168135617257733e-24
0000f0 d5 ad c1 8a 5a d6 9f bf 10 5d a3 fe f3 56 a1 bf
       -0.031091131896045916 -0.033866524537808584
000100 66 6e a7 70 90 b8 af bf 5a b9 e3 07 70 1f b1 3f
       -0.06195498824282879 0.06688595001808065
000110 ab 95 49 52 76 61 a4 bf 2c 91 ae 05 83 4c c4 3f
       -0.03980607752309181 0.15858495500027325
000120 a0 46 87 6f dd 75 c3 b9 94 20 0c fb 12 c7 90 bf
       -1.9189445899456715e-30 -0.016384407589641173
000130 90 d9 07 6f 49 f3 8e 3f e8 fc 13 cd 33 d3 ce 3f
       0.015112470341574619 0.2408203841550638
000140 fd af 70 40 cd 55 c3 bf fb 59 73 e1 83 6e d4 3f
       -0.15105596205228258 0.31924530998858786
000150 e6 94 92 80 16 c4 b9 3f dc dc 16 21 04 7e d6 3f
       0.10064831389407267 0.3514414141786355
000160 2f 0c 28 3b b4 90 ad bf e6 93 82 bf 45 b9 7b bf
       -0.05774462911724531 -0.006768486455404043
000170 ff e9 73 5a 60 16 71 bf 16 5d 48 ad 4b 30 73 bf
       -0.004171730404090911 -0.0046847301605546145
000180 b4 f5 6b 04 ab 77 a8 3f cf ee 29 71 fe 7e c4 3f
       0.047787994661102756 0.16012554669929677
000190 ca 71 b2 e0 03 b5 97 3f 90 f7 41 73 0f a0 05 3b
       0.02315145548765133 2.235996969464878e-24
0001a0 2f 06 aa 9d 57 b4 b1 bf 75 81 e0 d7 52 72 8b 3f
       -0.06915805434439258 0.013401648724596463
0001b0 d0 c4 cf 01 23 0a bf bf b7 c2 70 88 5d eb bc 3f
       -0.1212484244749874 0.11296639042917432
0001c0 96 13 7a 4f 4a 22 be bf d5 a7 92 e3 14 ca ab bf
       -0.11771072807648716 -0.05427613523472955
0001d0 aa 5f 8f 46 74 3c 89 3f 7d 8b 9f eb b4 71 93 3f
       0.012322338488885826 0.018988444215107137
0001e0 e4 99 7f f1 43 08 d5 ba 82 e3 f2 81 56 b9 d3 3f
       -2.7183593474123015e-25 0.3081871289282888
0001f0 e6 3b 37 6f 67 ac c2 bf 93 7f 32 3b 1d 58 c1 3f
       -0.14588635378319664 0.13550153151026886
000200 38 13 ce fe 70 ea c7 3f a7 65 90 86 8b 7a c5 bf
       0.18684208337449504 -0.16780227728376682
000210 16 72 25 49 c1 d7 d0 3f 7e ee 00 db ce 9c a6 bf
       0.263168641502291 -0.04416510032066599
000220 f6 ec 49 e0 f2 c6 a1 3f ed e1 b0 5f 00 72 b9 bf
       0.034720983389854895 -0.09939577423290986
000230 3b 54 ab 5b 6f ee b2 bf b8 35 42 31 58 8e ce 3f
       -0.07395072925585648 0.23871900944906854
000240 a1 b0 51 f5 f1 7d a4 3f 04 3f 6c 85 89 94 d9 3a
       0.040023385235003824 3.3061663854399814e-25
000250 93 5a b3 ec 23 fa 87 bf f0 d7 b4 0e fa f8 c3 3f
       -0.011707573567418172 0.15603566854559814
000260 8d 4e e9 87 04 a4 b4 b9 2d 63 8f 55 86 1f 4a ba
       -1.0176647912873281e-30 -6.594408528106636e-28
000270 5f aa c8 63 09 20 9c bf e9 0f 5b 13 e3 8e bd 3f
       -0.02746596023113523 0.11546153280784179
000280 be cb 37 e1 70 67 aa bf 59 ae e0 b0 a2 50 b0 bf
       -0.051570441715646606 -0.06373040025999312
000290 54 cc b1 e6 8f f2 72 bf b6 af 68 02 c9 da ac ba
       -0.00462585650813015 -4.6617168432231695e-26
0002a0 3c ef 9c 7f 60 33 a0 bf 6f e4 7f cd 67 88 a2 3f
       -0.03164197500015439 0.0361969412187556
0002b0 15 1c ae ec 36 0d c4 3f 67 69 8d d9 0a dd b0 bf
       0.15665327603002824 -0.06587283908212314
0002c0 78 53 bb b1 5c f9 d4 bb 7c 17 26 08 44 6c 94 3f
       -1.776572888047925e-20 0.019944251057971027
0002d0 55 c9 20 8c ad d4 a7 3f b1 55 6b b6 c1 d2 a4 3f
       0.04654447875545268 0.04067044593618208
0002e0 7d f0 c2 9a ac 41 7d 3f 60 a5 85 ac 07 96 2c 3a
       0.007142709957573709 1.8040336723379488e-28
0002f0 d2 cd ee d7 49 0b b9 bf 15 63 6e 80 65 21 bd bf
       -0.09782849809453545 -0.11379084001090363
000300 82 e6 cd ed 37 7c b2 3f a4 96 be c4 9d ba c3 3f
       0.07220792346734053 0.15413257700600014
000310 cb 86 0c ad 73 7e 9e bf 4b c9 d2 ea 81 df c3 3f
       -0.029779250561779585 0.15525840726838633
000320 e1 f1 da 0d a9 d7 5a ba 9e 51 dc ef 08 55 d1 3f
       -1.3551960545017698e-27 0.27081511901749333
000330 7c 3f 30 14 9f ef 77 3f 21 17 2d 84 8c a3 c5 3f
       0.005843755151559434 0.1690536160842209
000340 4b 06 27 c2 42 f3 9d bf 5c 38 09 b5 74 4f d2 3f
       -0.02924827871334505 0.2860996025018545
000350 a5 c6 be 67 dc b5 bc 3f f0 c5 6e fe 2b 3a d4 3f
       0.1121499779972291 0.31605052802032585
000360 6b 32 79 b8 6b 37 9b bf 06 d5 9e d5 40 68 a8 3f
       -0.02657860101162372 0.04767038924857485
000370 22 14 69 4b f8 9c 79 bf 71 23 48 bb 12 95 21 ba
       -0.006253213787720065 -1.1096002048452276e-28
000380 4f 16 ed 47 1e 55 a4 bf 54 1f ef 2d 56 d5 be 3f
       -0.03971190097813048 0.12044275876462268
000390 3f b2 a7 59 4a 80 a8 3f 5b f4 97 bf fa 55 f1 ba
       0.04785377830907977 -8.962428197547833e-25
0003a0 54 fa df e7 e5 49 ac bf fa 47 e1 04 1b 3a b6 3f
       -0.055251297526400706 0.08682412022724853
0003b0 a3 52 06 bf 57 d5 9a bf 0c 0f 4a fc 38 3d b7 3f
       -0.026204463037702862 0.09077793273359819
0003c0 7f 4a 42 cc 7a 96 84 3f f6 33 df e4 a2 35 b5 bf
       0.010052642210472527 -0.08284967506115479
0003d0 9b 36 ea 0a 90 ce 8d 3f c7 c2 00 16 3f 2f 9e bf
       0.014554143269630606 -0.029477105825381125
0003e0 7e 35 c0 28 5d e7 ac ba 70 51 cf 5e c0 ec d2 3f
       -4.669655125300879e-26 0.2957001615407284
0003f0 f1 c3 27 57 a3 93 ac 3f d5 cf e1 14 d7 2d a4 bf
       0.05581388892085915 -0.03941223268421338
000400 71 59 2c b9 69 6a b6 3f a6 c7 9a d7 b9 7b a4 3f
       0.08756123324233102 0.040006454056665405
000410 69 a7 12 63 c8 b6 d2 bf 9c a5 e5 ec 1f 2b b9 3f
       -0.29240617442211786 0.09831428083057009
000420 fe ba 57 38 76 75 b1 bf 79 ef c3 50 49 d5 93 3f
       -0.06819857478670241 0.01936831050350871
000430 a6 de 0c 27 e8 be 6c 3f 26 c8 73 7c 3a 08 d1 bf
       0.0035090002278613417 -0.266127225432799
000440 35 4f e2 ea 2d d9 9c 3f 97 37 1d 48 3e ad 58 3a
       0.028172223530943803 1.2458565646434684e-27
000450 ba fb b6 4a 37 1d 75 bf 68 4e 7b 66 d7 6b c0 3f
       -0.00515481565838532 0.12829105857837253
000460 bb df 95 9c de fc a2 3f 34 2c d1 85 98 67 d0 39
       0.037085491766390054 3.235250915966818e-30
000470 db 15 58 25 3b 1d b9 3f cd 36 3c 93 ba 9d 83 3f
       0.09810228025170124 0.009578187578451214
000480 39 ee c3 43 3c 75 b0 3f 23 35 ac 8d be fa 94 bf
       0.06428887037684995 -0.020487763783468737
000490 8c b6 dd 65 21 55 c0 bf 12 62 df 6a 48 4f a0 3a
       -0.12759797548226393 2.6349739462874625e-26
0004a0 84 ce da 43 94 a2 ae 3f 0d c8 3d 55 75 1c 94 3f
       0.05983413055710421 0.019639809920995833
0004b0 85 70 fd 7f 25 ed b6 3f c1 aa 9c 4e a1 4f bc 3f
       0.08955606817966284 0.11059005898702436
0004c0 17 e9 77 81 38 73 a5 3a 9b d0 c4 07 e0 2f a4 bf
       3.4654474818486204e-26 -0.039427758167591885
0004d0 a9 ff f1 e2 42 a4 c0 bf 93 63 28 0d 58 3a b4 bf
       -0.1300128563052543 -0.07901525803789715
0004e0 c3 5b 43 7a d8 29 ad 3f b0 50 57 a6 3a 4d d1 39
       0.05695988171071733 3.412153982207576e-30
0004f0 9d 27 88 e7 f8 04 79 3f b1 b3 5e c7 f1 4c 9a bf
       0.006108257563491562 -0.025684144776892463
000500 5c e2 93 c7 ff 67 a4 3f 9a 2a 01 27 e3 c8 9b bf
       0.03985595046282661 -0.02713351178707999
000510 59 f2 87 81 05 71 93 3f e4 ad a1 63 67 bd c4 bf
       0.018985830336520546 -0.16203014721700904
000520 99 35 30 ed ab 7c b1 3a de c7 ae 0f 3f e5 b0 bf
       5.650353922004091e-26 -0.06599802143935515
000530 c9 41 fd dd ba 4b 79 3f 9e ef eb 91 5d 9e c1 bf
       0.00617573733309524 -0.13764543175772997
000540 cb c9 66 ae 00 73 80 bf e0 b3 23 17 7d 38 d3 bf
       -0.008031850168525608 -0.30032279262269235
000550 6f 0f f0 a0 e0 5e ca bf a9 c6 a4 8e 04 dd d1 bf
       -0.20602043016708246 -0.27911485605282366
000560 f5 4b 79 01 03 43 aa bf fa bd 29 1d a4 c7 c0 bf
       -0.05129250901213559 -0.1310925619504671
000570 88 ba 58 f7 1f 66 db 3e 81 c3 5a 46 3f 0a b8 3e
       6.53241283070253e-06 1.432897329161682e-06
000580 7a 25 18 e9 36 2e aa 3f 62 d4 ab 7e 54 50 a3 bf
       0.05113383860959693 -0.03772224470405018
000590 87 20 e8 ac db 01 b2 3f c1 92 0d 84 1c 81 f7 b9
       0.07034085246425735 -1.854165600744825e-29
0005a0 99 ef fe ff ed 89 c1 3f d7 b4 ab 20 d3 f8 c0 bf
       0.13702178001210255 -0.13259352774858854
0005b0 23 eb 68 54 d4 d3 b1 3f f5 ab ee 2a 62 c1 b8 bf
       0.06963851033007677 -0.09670079754020817
0005c0 16 34 0e 95 d8 a2 ad bf 17 5e d9 5e 0e 68 a9 bf
       -0.05788304156804018 -0.04962201030565099
0005d0 c6 dd cc 75 b4 6a 63 bf 6b f3 87 7a 92 5e 88 bf
       -0.002370216809506084 -0.011899132122374664
0005e0 8a 61 85 90 94 05 c2 39 aa 69 8b da 80 13 d5 bf
       1.777086501759694e-30 -0.3293153890823769
0005f0 85 95 ef aa 1b 9d c1 bf a4 97 8b 23 64 b7 80 bf
       -0.13760705801466258 -0.008162290892368258
000600 ba 56 c7 d6 c2 62 a1 bf 1e 41 0f 8a a9 f1 65 3f
       -0.033956612318133364 0.002678710109172879
000610 b7 a6 40 f4 35 cd a1 3a 8f 15 5c c4 99 96 b3 3f
       2.876004323227589e-26 0.0765167335885819
000620 59 50 f6 5a 28 a0 52 bf ce 07 eb be 38 88 b1 3f
       -0.0011368173689776577 0.0684848276241887
000630 35 a6 9e 86 f0 43 b6 3f 47 ad f8 50 e0 7f 34 ba
       0.08697417532553049 -2.587402748527762e-28
000640 e8 af c1 1e 60 2d b1 bf 65 3d 51 0e fd 3e 03 ba
       -0.06709862471478767 -3.036491099921047e-29
000650 1a e5 a1 8c 25 95 07 3a 0c 59 da e9 2d c8 b2 bf
       3.720678900525719e-29 -0.07336699446964107
000660 3e ed 33 07 8a 13 a0 3f fb 97 05 e3 29 68 2f 3a
       0.031399072055104046 1.9820533598929402e-28
000670 ef 5d 70 5a 82 1d 50 3a 4a b4 f4 4f 30 2a a2 bf
       8.136132290210419e-28 -0.035478124389876145
000680 2f a4 b5 24 d3 96 a5 bf f6 21 72 d5 8e 47 c0 bf
       -0.04216632674326381 -0.1271837751594515
000690 10 58 3c 69 16 b9 94 bf cc 01 ce 8f cb 5e f5 ba
       -0.02023730294521192 -1.1048182846953377e-24
0006a0 e6 b2 11 89 c5 6c 9c 3f d1 c0 fb 46 26 50 80 3a
       0.02775868081191648 6.588802182350586e-27
0006b0 94 97 c5 b3 a7 24 bd bf 5f ca ba 5c 6b ba 3b 3a
       -0.11384056223832167 3.4997909629111166e-28
0006c0 11 8d 60 f5 48 0e f7 3a bd 8e 8f 23 0c fa b1 bf
       1.1919569621411944e-24 -0.07022167080099968
0006d0 5c b3 86 f4 68 ac c0 bf de d7 88 a8 4a 71 47 3a
       -0.1302615350699864 5.917730438746858e-28
0006e0 40 9f be c9 0c 97 b2 bf 38 c6 4c 25 bb 39 74 ba
       -0.07261733937650394 -4.084509593549748e-27
0006f0 9e 44 0a 32 95 38 78 3f 46 fe 81 27 52 12 bb bf
       0.0059133365581526525 -0.10574830498261986
000700 1c 14 44 37 82 af 91 bf c3 48 5d 26 23 f1 b5 bf
       -0.017271074889340196 -0.0857107132590356
000710 67 94 98 21 39 25 ac 3f d2 54 2a f2 86 f0 8a bf
       0.05497149024112318 -0.013154081597614473
000720 c8 ce 54 ab eb 28 6c ba cf 81 de 6e ad a5 03 3a
       -2.8434178084087057e-27 3.099778065862612e-29
000730 66 70 a8 9c d7 fb 20 ba 9f dd 53 a0 55 ce 8b ba
       -1.0718258626869593e-28 -1.123075155941778e-26
000740 bc 62 24 cb 28 f1 c1 bf 48 1f e4 c4 3e dd 96 39
       -0.14017209929513352 2.81823504669159e-31
000750 ae ad aa 84 ef 6e 46 3a 8c 69 d7 22 30 9b de 39
       5.662971737884061e-28 6.036009300014753e-30
000760 01 1b 8d 75 11 3c aa 3f f7 b0 42 c4 44 5e a5 3f
       0.05123953399611559 0.04173483749159062
000770 1a d7 e4 8f 24 e8 ce 39 d5 c7 80 27 7e 43 e0 b9
       3.047646556510423e-30 -6.414876350415076e-30
000780 31 4b 63 6c 20 d1 ae 3f ba 99 34 58 6d 62 bf bf
       0.06018925974935597 -0.12259562877134203
000790 5d 52 53 fc 19 c0 c2 bf 29 2a de 0e 74 a6 65 3a
       -0.14648747273044452 2.1861123841487646e-27
0007a0 43 df 00 3e 5b 92 8c b9 ad ed 8c de 1d a2 bf bf
       -1.760867255409315e-31 -0.12356745417940003
0007b0 7b cd f9 d7 54 ef b5 3f 47 c3 bd d2 c9 2d 93 bf
       0.08568315766188121 -0.018729356277108946
0007c0 e8 b8 f6 66 03 8a a7 3f 4c 51 4c f8 23 dc b0 bf
       0.0459748328388388 -0.06585907756772719
0007d0 45 18 e1 bd dc e0 5a 3a 32 65 04 88 18 09 3a 3a
       1.3570108102124098e-27 3.2861459539093916e-28
0007e0 57 28 69 82 66 fb be b9 a6 08 db 83 d5 55 a7 ba
       -1.5275321584075522e-30 -3.7700193047713693e-26
0007f0 fe 97 72 76 43 84 95 bf dc 56 c7 e7 a3 51 b6 bf
       -0.02101235781142207 -0.0871832314363376

lin1.bias f8 [32]
000000 de c3 30 1d f1 4f be 3f a8 a2 45 e9 3e fe a3 3f
       0.11840731585176864 0.039049116111362026
000010 63 0d 08 66 2c 3c c8 3f 75 ae fb ae d7 cd b6 bf
       0.18933634740833857 -0.08907840749787417
000020 81 0c 1f dc 5b 4e c0 3f ea 8c 64 3a 81 56 cf 3f
       0.12739132164105985 0.2448274169083569
000030 27 59 a3 91 21 8e bb 3f b7 f1 c3 5a 37 08 81 3f
       0.10763749890916029 0.008316452462616348
000040 b7 38 7b 20 d0 a2 a9 3f 59 50 cd d8 bb 8b b3 bf
       0.05007028957844411 -0.0763509182264114
000050 67 1b 04 d3 ae 61 be bf 0c f5 3c 24 3d 76 d0 bf
       -0.11867802287825456 -0.25721672572019894
000060 01 b8 6b 7c f7 3f bc bf 48 24 af 3b 1f 96 c5 bf
       -0.11035105502716648 -0.16864385999932296
000070 00 6e cd e2 f1 ca ad 3f 63 8b 55 c4 38 2b a8 3f
       0.058188971458289274 0.047204755751201664
000080 2e 33 52 72 37 31 d0 3f 79 37 15 35 ce 52 bd bf
       0.25300394214791566 -0.11454476161926931
000090 15 7f 9f 8c 59 00 c0 3f 5e 7d 1c 7e dc 07 d1 bf
       0.12501067510947253 -0.2661048156314417
0000a0 c7 ff d4 f6 2f 2a b1 3f a2 a3 83 03 dc 15 7e 3f
       0.06704997802898936 0.00734506552564876
0000b0 a4 ce 5f c4 6f 92 d0 3f f5 7e b9 63 9c dd d0 bf
       0.2589377801625494 -0.263526055705355
0000c0 0b a1 d9 8d 4e b6 b9 3f 5e fe 15 1d 8b 6a c4 3f
       0.10043803179872073 0.15950144691668106
0000d0 35 34 e3 f1 6d 01 98 3f b7 da cf 14 b0 e4 ca 3f
       0.023442953003542228 0.21010399833877155
0000e0 71 f5 62 3b 04 78 c1 bf 0a b7 22 15 db a7 9a bf
       -0.13647511386617908 -0.026030944027914983
0000f0 f4 18 48 5b 71 44 7c bf 55 a1 b5 b2 6f ff c9 3f
       -0.006901209639641904 0.2031077978711077

lin2.weight f8 [1, 32]
000000 5f ac 40 17 ee 31 c6 bf f4 c5 be 3c 11 fd cd bf
       -0.1733987439668878 -0.23428550211023913
000010 fe e9 df 06 75 b2 a2 3f 77 00 57 6b bc 3d c3 3f
       0.036517769898598104 0.15032153359607367
000020 97 ec 55 13 dd 53 c1 3f 67 55 dc d0 69 e8 c1 3f
       0.13537181324122535 0.13990519235873508
000030 54 7c a1 5b 94 fb ba 3f 80 b7 00 2f 3e 2b bb bf
       0.10540129887657318 -0.10612858436135575
000040 06 7a cb 61 e9 b4 af bf 3e 92 4c 24 8d 23 a1 3f
       -0.06192712134155802 0.03347436016182258
000050 b5 ac c6 00 cb b7 bd bf eb 12 e6 39 cb 2b cf bf
       -0.11608570832202043 -0.24352398230634917
000060 05 2a 43 d5 98 c8 91 3f f5 63 32 c0 fc f7 b9 bf
       0.017366779343129597 -0.10144023601823433
000070 79 cc ea 15 c4 52 bb bf bd 56 80 1a ce 42 8a 3f
       -0.10673165831649269 0.012822733100658618
000080 92 87 72 32 4a 7c c7 3f 17 d5 1d 72 87 a5 67 3f
       0.1834805246663192 0.002886547606005717
000090 e9 49 a9 e5 74 c9 c7 bf 74 00 ee 0a 58 98 c9 bf
       -0.18583546842508206 -0.19996166738201604
0000a0 01 cf c5 ff 5e ff 6d 3f bc 07 10 ec 43 aa 16 3f
       0.003661809487477075 8.64604908344104e-05
0000b0 8e 11 91 59 6a 19 c0 3f a2 9f 84 0c a5 ff bf bf
       0.12577561734555015 -0.1249945788919136
0000c0 22 a0 14 03 42 b5 b6 bf 4b 9d 75 b2 7c d3 a5 3f
       -0.0887032754441184 0.04262914350948196
0000d0 69 9c 95 f9 a6 15 8b 3f 51 ec 69 46 3d 47 ce 3f
       0.013224892131530734 0.23654905260250073
0000e0 ca ca cf 6f 9f be cb bf c2 f8 c1 e2 f9 57 b2 bf
       -0.21675484618716317 -0.07165490900112828
0000f0 c4 38 93 a3 a8 90 a6 bf 22 84 61 bd f0 bc bb 3f
       -0.04407240864530729 0.10835175155217816

lin2.bias f8 [1]
000000 2c 1d 98 aa c2 91 b6 3f
       0.08816162743470518
