d2_cs1190382_task2.model (torch, 20024 bytes, 15 tensors)

tgnn._attention f8 [12]
0.4539805620275793 0.3528080880668126 0.014169556295189492 -0.0853318487302451 -0.09977777541230387 -0.12390367177353372 -0.11179091218905488 -0.16860966252713908
-0.22908356742405217 -0.13656058536171464 -0.11002929171026268 -0.10815132643334914
00000000: da66 bb7c 040e dd3f 49b8 0060 6894 d63f
00000010: 55e6 17a7 ed04 8d3f f686 9adb 4ed8 b5bf
00000020: 4c73 434a 098b b9bf 2b24 1faa 26b8 bfbf
00000030: 368d d747 549e bcbf 05fd 2b5d 0095 c5bf
00000040: 8a93 113f 9c52 cdbf 178d 0638 d17a c1bf
00000050: 2a64 7f31 e12a bcbf 81dd 0c2a ceaf bbbf

tgnn._base_tgcn.conv_z.bias f8 [16]
0.4078111150217777 0.6014462842921202 -0.33982208477732656 0.1432821396379472 -0.28163247204583386 0.5591665207481298 0.29637988773982016 -0.4958105072219341
0.5213315804112664 0.49195951755626943 0.595804153832761 0.705280596869064 0.6718580451625676 -0.7177272856871642 0.1328532287186408 -0.4101414354104727
00000000: 62af 7dca 9319 da3f 64bb 2a47 0c3f e33f
00000010: 24f0 2421 a5bf d5bf 1346 ecb3 1157 c23f
00000020: 646c 3b34 4406 d2bf cc33 f42f b1e4 e13f
00000030: 2e38 4259 e3f7 d23f 1c02 62fe 5bbb dfbf
00000040: d6a0 0791 bfae e03f 200c b7c5 437c df3f
00000050: 900b 71df d310 e33f abca 419d a891 e63f
00000060: 13e3 7071 dc7f e53f 9c24 6f36 9ff7 e6bf
00000070: 70dd 41a8 5501 c13f 75a3 f4dc c13f dabf

tgnn._base_tgcn.conv_z.lin.weight f8 [16, 1]
0.15225503183444797 0.9497820863833267 -0.4471250212469539 0.10421077217078706 0.09921683156566798 0.1397758853477774 0.36581158788254897 -0.17254665110142792
-0.002093237980599165 0.7574216474638286 0.11436495779578071 0.16004392189355077 0.46104031491226416 -0.3283621282451374 -0.4278320012327007 -0.3878437366772994
00000000: b7b0 30c7 177d c33f 25fa ea66 9d64 ee3f
00000010: 7ba7 de43 b29d dcbf c44b 5da2 8ead ba3f
00000020: 798b c936 4666 b93f 7c48 2b1c 2de4 c13f
00000030: 2404 9d01 7569 d73f 0eea c137 0216 c6bf
00000040: 57e0 6b95 d625 61bf 7b77 a452 cc3c e83f
00000050: 8892 8a99 0547 bd3f a06a 3ab9 517c c43f
00000060: c4e2 ab3c af81 dd3f 5fb3 8396 e203 d5bf
00000070: f281 5e79 9961 dbbf 2932 3f89 6ed2 d8bf

tgnn._base_tgcn.linear_z.weight f8 [16, 32]
1.386456380697679e-19 -9.594396323763851e-06 6.234886997355369e-07 -7.092085124495909e-67 -1.6768997924318267e-07 1.5540486334207743e-08 -1.1042367312908989e-07 1.109700929316564e-53
4.920949233721604e-57 -2.3307387345628353e-06 1.6712825803483664e-11 2.7206752768859572e-09 2.085703808967051e-87 -3.644486718247554e-11 6.968653467778405e-05 3.6419282011097627e-51
-2.4920669699392686e-07 -9.76828865215433e-06 7.382148885302078e-05 5.433502276324458e-10 -5.545979849619878e-07 1.4773331482098529e-05 7.039683603912516e-08 -1.5140050713267815e-08
2.483339083543261e-06 4.8663455814912875e-09 -6.508454286619706e-08 4.420782373388239e-10 -3.4278467822146967e-06 -1.0286813854931838e-09 -6.585082701619519e-11 -4.5538871888372985e-11
2.0975147918812488e-278 -5.05119607116e-313 2.02622722710988e-224 1.1929239279460021e-269 1.6380087346920474e-252 -7.463131998962051e-277 4.129805643742143e-230 -1.1201841440541519e-271
-1.8357770255599128e-273 -5.39062921856e-313 -7.925512001217744e-249 3.477057207588347e-271 -1.3850936213120435e-287 -1.3968645078257982e-238 -7.116942355683745e-225 5.600806278503968e-298
0.0003873334863599967 3.73773165953274e-05 -1.036556730791541e-12 1.4440824283795436e-10 -3.212861091566548e-05 -6.891162644751529e-05 -1.076848936985068e-10 4.226288272574306e-08
6.064396996134975e-13 -8.16766248579456e-07 5.25507026283026e-09 -3.8935761139691306e-06 -5.619151482888008e-10 -5.774453541605071e-10 3.225135661013285e-13 -8.89516488798694e-12
-0.36517241561181557 -0.0448131063982037 0.05909457290303422 -0.34301482555407614 -0.03322597082060702 -0.36448487973469923 -0.06221806886201164 0.40173589254592745
-0.1258695189288528 -0.04521840259457179 -0.36693536498629786 -0.3663974177258558 -0.5352864141090309 0.37052187046995083 0.03630845311260474 0.19429875402507368
-0.0005291566763690273 3.865686470964068e-05 1.6825702865919604e-10 7.205834765849535e-10 -1.6870139492138526e-05 7.877562536441793e-05 6.483068198277648e-10 0.00046015519338547117
-1.237394091630333e-07 -1.146123966337145e-12 -1.0669802557879971e-07 -7.659207176334019e-07 -9.658654553796642e-08 3.546396733796963e-10 2.4407659226571453e-08 -4.2654746962988857e-10
0.04863333291008908 0.35051073035688546 -0.28605281546654804 0.04314027355378303 0.0697676679835096 -0.009921277599963457 0.2675187443989248 -0.1688416697524797
0.39025621665463567 0.3212576498543492 0.06612891640117499 0.0046509148765752125 0.3194112199213195 -0.16698589976601616 -0.14722395639253358 -0.2530263993191661
1.85332026510263e-07 2.5034906910502735e-05 -4.76952529351366e-12 7.680101212968636e-08 -2.7388838989777507e-09 -3.9642271073971825e-13 -1.866597449248569e-07 -6.740801891826466e-10
-2.1417012962977903e-06 1.6040416074451814e-05 1.591417106439912e-11 9.26838758854054e-05 -2.3644805508477693e-10 -2.0823525513219128e-13 -1.0326908064627353e-07 -1.1717030427664695e-10
0.24241775507893068 0.15716376010164257 -0.13879943468608302 0.18913973079199592 0.08646431611746141 0.2386165863813224 0.13313634171096017 -0.2574162278096127
0.13726426032351494 0.15145340522438427 0.19281928559644756 0.2597149126964358 0.12829001647808677 -0.3764489711949731 -0.13577041637332005 -0.10711774047041554
-7.141710560779804e-10 -7.439131086461377e-11 8.824790192941321e-08 -2.4921857866699248e-05 -2.9545209421556043e-13 8.2045905946878e-06 -2.3067951167596134e-11 -5.329395223015294e-06
2.2815115618361234e-07 -6.263333109652287e-10 -0.00034530424231916425 -4.786464977624553e-10 0.00013255494592021244 3.410354200921375e-07 -8.153234940025166e-11 3.44668317846211e-06
0.01150688289434494 0.3168327611964402 -0.3155982190108748 0.01087558337016488 -0.004840007094785127 0.005228303991513961 0.31524197554234157 -0.022419156811180587
0.01929438029756277 0.3166632260350438 0.010644150431580434 0.00867708979788153 0.3100580447709397 -0.012890856833790203 -0.3156984004083764 -0.3093921039480055
1.2159948673341245e-10 -5.6497028997449184e-11 -1.340661811973506e-06 -2.0947614023062622e-09 6.461641947641012e-10 -1.5958915185999451e-12 -8.062030237979573e-08 -1.0288781880384122e-08
8.979772520246528e-06 4.742869201043417e-08 3.1736530661715285e-12 7.761943327840504e-06 -8.075373945776846e-13 1.492876134150005e-13 3.1390838724670694e-08 -2.560192259175294e-13
-0.07474461551351883 -0.37464501119881427 0.2551431024902439 -0.025562479507475238 -0.06659668038035861 -0.14575213043645527 -0.22888995091196046 0.1254024409069975
-0.10208105920708022 -0.33845969609875026 -0.14380971056968306 -0.14425224048602944 -0.2506577915702934 0.2227568103389347 0.23682864000287968 0.20239394900615237
-2.2867624541494143e-09 1.1384868348881993e-05 -1.331676338495502e-07 5.999991991609825e-11 8.326530645614012e-05 3.130373787817447e-05 5.821046898149762e-13 8.619892782735087e-07
5.045085317300544e-10 -2.7269449910144207e-06 -1.8297175763506178e-05 8.194097692420474e-08 6.779198482526806e-11 -1.26855450361692e-11 -1.658112056102756e-11 0.0003652903435315064
-0.07610960437934959 0.16315673810076334 -0.15792385254517574 -0.12673763376233677 0.14397438574149418 -0.07401963071667252 0.15673149607241996 -0.15764648979576923
0.267706517313867 0.16153217095264868 -0.11183679104041903 -0.0168749124714043 0.15033519437683737 -0.2713598048489898 -0.153935542637339 -0.14549467730434362
2.0069313983278187e-12 -4.0984211689552966e-12 -6.062991734574921e-10 -0.00019499054476363088 4.47384820981499e-08 -1.2172764557281788e-10 1.819624886532733e-12 -5.113295394584786e-09
3.0362276443008253e-13 1.5464809899211263e-09 -5.673026300962503e-07 1.3665326305060359e-08 4.067458501187173e-10 -8.519881584871651e-11 1.336602729154257e-10 -0.00023357709802767837
00000000: 6515 4755 e275 043c 7118 39ca f31e e4be
00000010: c78e 7926 baeb a43e 646d 81fa c61e 33b2
00000020: 4345 04a8 c881 86be 1a07 db81 bcaf 503e
00000030: 7934 28cd 41a4 7dbe cb28 92e6 9001 f134
00000040: e8e3 fc18 a9e3 3e34 24cd 832b 398d c3be
00000050: 0369 5804 3e60 b23d acc4 3805 d45e 273e
00000060: 7c97 8b58 a798 f02d 4694 dbb8 2809 c4bd
00000070: 00e7 b58c 9544 123f f22a 4d1d 3dcd 7535
00000080: cf15 eea4 56b9 90be 85c7 9b5e 4f7c e4be
00000090: 9399 7e85 135a 133f 6f38 fcf0 5bab 023e
000000a0: 9d49 cddd f59b a2be 7999 db37 5ffb ee3e
000000b0: 29ca 8d3c a2e5 723e a6a8 005b aa41 50be
000000c0: 7b3d 5a19 eed4 c43e 40ff 5b82 9ae6 343e
000000d0: dbf1 ff62 9378 71be 44ef 8b62 1f61 fe3d
000000e0: a885 98b2 3ec1 ccbe ae53 ae46 30ac 11be
000000f0: bca1 400a d719 d2bd 74ac 90c5 0609 c9bd
00000100: 0832 0cfb dfcb 4706 6e1b d2cd 1700 0080
00000110: 3e0c ac84 1000 7e11 37c2 e14c 6735 1908
00000120: c838 f066 b004 a80b 0605 e8ca 8f75 9a86
00000130: 39a7 8536 6c07 5010 bb18 3f31 ac4c ae87
00000140: d021 6422 88c7 4f87 6a17 5167 1900 0080
00000150: e0eb ce95 4b5f 6c8c 1636 c20c 3083 c707
00000160: 2371 d345 6adf 6084 ae98 a13d 731b 8d8e
00000170: 3924 9cb8 1b13 6591 789a 0de8 4f71 3702
00000180: f16f 14a8 6062 393f ab69 b1d1 b298 033f
00000190: 9653 b18b 3c3c 72bd cc81 38d1 e9d8 e33d
000001a0: 82dc 49aa 3ad8 00bf 94a1 45ba 9410 12bf
000001b0: 634d aa96 a699 ddbd 715f cafd 90b0 663e
000001c0: 1ac3 eabd 5256 653d 200a 98f9 f767 abbe
000001d0: 99ca a3c7 0292 363e 480a 800d b254 d0be
000001e0: 13fe 1c6d a84e 03be f702 4657 43d7 03be
000001f0: abf8 b44d e3b1 563d c441 5d5c 888f a3bd
00000200: 720f 9d1f fc5e d7bf 122d d354 bef1 a6bf
00000210: 71af fad3 a441 ae3f d410 7374 f4f3 d5bf
00000220: 98ce 1a94 fe02 a1bf ae35 9663 b853 d7bf
00000230: 6f19 f7f5 0bdb afbf e24d 0776 0ab6 d93f
00000240: 296c ae0d 7e1c c0bf 5360 a4d0 dd26 a7bf
00000250: 902a 1778 de7b d7bf 712b 9e27 0e73 d7bf
00000260: c1ec 52f9 1021 e1bf 87c1 075d a1b6 d73f
00000270: bbbc 5f85 0597 a23f 8c7a 1815 c8de c83f
00000280: 4ba1 4a4f e356 41bf 21d3 eec1 6f44 043f
00000290: 97ed 4895 0420 e73d bf73 02bd 51c2 083e
000002a0: bd7b 8a28 8bb0 f1be 8144 4bf0 8aa6 143f
000002b0: 92d3 142d 9146 063e 8176 b581 1f28 3e3f
000002c0: 0cb4 7f5a a79b 80be a581 bdf7 ae29 74bd
000002d0: bde3 3c84 3ba4 7cbe a6ee 5078 35b3 a9be
000002e0: f568 7e7a 60ed 79be dc81 d319 e35e f83d
000002f0: 45b8 fd53 2035 5a3e b3d0 7806 e74f fdbd
00000300: cf49 b0dc 77e6 a83f d7e9 f18e c46e d63f
00000310: 0ce2 d677 b04e d2bf d1a4 1b60 7b16 a63f
00000320: 25af 4e3c 4bdc b13f 566d 9c56 9b51 84bf
00000330: d3a9 90f0 061f d13f bffb e494 9a9c c5bf
00000340: 13e9 e535 f5f9 d83f 41b6 ed3e 7c8f d43f
00000350: a651 431d d3ed b03f 0674 a974 d60c 733f
00000360: e866 e2c1 3b71 d43f abaf 3141 cb5f c5bf
00000370: 8363 f20e 3cd8 c2bf db6d 86a3 9531 d0bf
00000380: 3406 c4be f5df 883e 2a65 f9b3 4140 fa3e
00000390: d326 c511 02fa 94bd ffe2 9bb1 b99d 743e
000003a0: b917 3890 de86 27be 7cb7 8f12 51e5 5bbd
000003b0: ed25 d87a 940d 89be 7b14 f8a4 4529 07be
000003c0: aa90 3fbd 44f7 c1be d7c4 cfff d0d1 f03e
000003d0: 1f2c c5e0 707f b13d f730 f9dc e84b 183f
000003e0: 0f01 6e5f a33f f0bd 42ac b13a 774e 4dbd
000003f0: 4811 1ee1 98b8 7bbe 9df5 0047 901a e0bd
00000400: c351 0485 8b07 cf3f 7c60 e02c f11d c43f
00000410: b80a 570c 2ec4 c1bf 661c 100f bb35 c83f
00000420: 40d9 fe81 8622 b63f 7b3d 6501 fd8a ce3f
00000430: 3a61 c794 9c0a c13f eab9 f9e9 8179 d0bf
00000440: 65e3 7f12 e091 c13f 8e3d 273f d362 c33f
00000450: b460 d666 4dae c83f d523 144c 2b9f d03f
00000460: 939d 96a8 ce6b c03f de4b f96c bd17 d8bf
00000470: 2a3a 0bcd ec60 c1bf 4f50 2478 116c bbbf
00000480: 2e92 4240 ea89 08be 78f2 34b8 d272 d4bd
00000490: 47db 3e82 59b0 773e e2d8 2908 e921 fabe
000004a0: ec19 c14a 64ca 54bd 4aed 5158 ce34 e13e
000004b0: 6654 7e0f 0d5d b9bd 58ed 1101 655a d6be
000004c0: 4480 fcca 369f 8e3e bcb7 a13b 4985 05be
000004d0: a2e0 8c6d 3ea1 36bf e002 3018 3872 00be
000004e0: 528c b750 ce5f 213f bd36 b6a3 f1e2 963e
000004f0: 6457 c73b 5469 d6bd 2a7d b11d b2e9 cc3e
00000500: e74f aead eb90 873f 36f7 e8ea fc46 d43f
00000510: a0f6 54df c232 d4bf a9bf 3217 f045 863f
00000520: dbc0 f382 1dd3 73bf f479 832a 466a 753f
00000530: 72f8 d1ad ec2c d43f 674e 3b25 0cf5 96bf
00000540: 159c 7ff1 e7c1 933f caa5 ead5 3544 d43f
00000550: 938e faaf 99cc 853f cc37 4047 4bc5 813f
00000560: f2c8 89b2 fdd7 d33f fcfb 2584 8566 8abf
00000570: c6d2 4910 6734 d4bf 6d3a 068a 14cd d3bf
00000580: 9c80 68ce 66b6 e03d 5da2 6bfd 3f0f cfbd
00000590: fb56 4d40 197e b6be 38a8 77d5 6dfe 21be
000005a0: 8f43 d369 b833 063e 95b7 9ba6 4113 7cbd
000005b0: b492 c15b 2fa4 75be 40d5 f051 5118 46be
000005c0: b11b a089 fad4 e23e b568 54bf 8c76 693e
000005d0: 2b8f 1f6f 6eea 8b3d e7dd 2d5e 2947 e03e
000005e0: 4429 ba74 a669 6cbd 4c05 f332 a702 453d
000005f0: eda2 2af3 52da 603e f05c dc48 0804 52bd
00000600: a6c2 2e8f 7622 b3bf 6d57 ad11 2ffa d7bf
00000610: 7bb7 3fbc 4354 d03f db04 f5f5 0c2d 9abf
00000620: 717c 41e4 7a0c b1bf df00 c67c 01a8 c2bf
00000630: a263 c612 444c cdbf 455e 44eb 2f0d c03f
00000640: 00e0 d5fa fb21 babf dc86 70db 52a9 d5bf
00000650: dc3b df49 5b68 c2bf 8b90 a17f db76 c2bf
00000660: 330c 52fa c60a d0bf d5f9 ae8f 4b83 cc3f
00000670: 72c5 c89f 6650 ce3f 38e2 f17f 0be8 c93f
00000680: db1f 2ad1 a4a4 23be cb5f 2b64 34e0 e73e
00000690: e960 17e5 9adf 81be 4ca9 c877 1e7e d03d
000006a0: d230 8e12 d7d3 153f a1b9 513e 8469 003f
000006b0: de82 9607 227b 643d 0ac2 0d78 6eec ac3e
000006c0: 499e be37 b455 013e 9b23 ebdc 11e0 c6be
000006d0: 7a75 1e58 9c2f f3be b868 24e9 f0fe 753e
000006e0: 6c83 94d4 6fa2 d23d 487a 6fb5 53e5 abbd
000006f0: 39d1 71a7 2b3b b2bd 8628 3a14 8ef0 373f
00000700: ab86 b845 eb7b b3bf 7be5 21eb 51e2 c43f
00000710: 354d f84a d936 c4bf b240 1754 f038 c0bf
00000720: 0a57 1caf c06d c23f c1aa 3055 f3f2 b2bf
00000730: 572d f114 c70f c43f 6842 009b c22d c4bf
00000740: e380 3284 1a22 d13f 3f2b bf0f 16ad c43f
00000750: 7318 0200 56a1 bcbf 890b c034 a847 91bf
00000760: 1fa6 a403 2f3e c33f 649f d183 f55d d1bf
00000770: 98e1 a8ec 28b4 c3bf 44d2 61d0 919f c2bf
00000780: 560e 072f 35a7 813d ead4 a379 6906 92bd
00000790: d7f9 a65d 10d5 04be 4248 8c06 cc8e 29bf
000007a0: d7d9 9c66 cf04 683e be76 9228 e9ba e0bd
000007b0: 1676 bc54 6e01 803d e92e bdb3 20f6 35be
000007c0: 0293 8bdb 945d 553d 63ba 6fcd 7e91 1a3e
000007d0: b23f 30ad 1709 a3be f796 a4b3 9758 4d3e
000007e0: 37ef 8275 8cf3 fb3d 5e0a d66b 556b d7bd
000007f0: 8160 e9b5 c05e e23d 7ef7 86fe 8b9d 2ebf

tgnn._base_tgcn.linear_z.bias f8 [16]
-2.7747219781552207e-128 -6.113794825439772e-178 -0.2266178676953458 0.2642375067059983 0.0599368677963399 0.23246354552486134 -0.09536581902719286 0.48879401962370794
3.385005432920347e-06 8.54247988568044e-309 1.5015607592019885e-168 -0.13760199012589155 9.518221096257001e-27 -0.11046664992851263 0.07503388805301571 3.8289296741414505e-08
00000000: b9a7 429d c43b 73a5 33e3 1d7c dbd1 239b
00000010: fe6a 3875 d001 cdbf 2c72 6b6e 44e9 d03f
00000020: e218 058e 0bb0 ae3f 6f4f c58e 5dc1 cd3f
00000030: bfc7 e0f1 e469 b8bf c8e8 30b6 6648 df3f
00000040: 06c7 b26a 3e65 cc3e 92df af2e 8824 0600
00000050: a965 6b80 d6aa 161d 9f44 ba27 f19c c1bf
00000060: 23b9 f9ab e390 873a 48dc bdd8 8a47 bcbf
00000070: 9188 47bf 6b35 b33f 39e6 12dd 708e 643e

tgnn._base_tgcn.conv_r.bias f8 [16]
0.0 0.0 0.0 0.0 0.0 0.0 0.0 0.0
0.0 0.0 0.0 0.0 0.0 0.0 0.0 0.0
00000000: 0000 0000 0000 0000 0000 0000 0000 0000
00000010: 0000 0000 0000 0000 0000 0000 0000 0000
00000020: 0000 0000 0000 0000 0000 0000 0000 0000
00000030: 0000 0000 0000 0000 0000 0000 0000 0000
00000040: 0000 0000 0000 0000 0000 0000 0000 0000
00000050: 0000 0000 0000 0000 0000 0000 0000 0000
00000060: 0000 0000 0000 0000 0000 0000 0000 0000
00000070: 0000 0000 0000 0000 0000 0000 0000 0000

tgnn._base_tgcn.conv_r.lin.weight f8 [16, 1]
1.2784789958235966e-12 1.1872807682526625e-12 -1.0849374508915953e-10 -8.200471133474963e-12 7.703889037781202e-12 3.88064732045276e-05 -1.3352313110228467e-06 2.3022593957831298e-11
3.81338939472746e-05 -8.802328399251344e-09 -4.372220214430227e-11 1.4083528876609788e-07 -2.0093779600578157e-13 1.5547881166368508e-07 1.16252052526448e-08 2.4063368478572702e-11
00000000: 13e2 6eed c17d 763d 9608 9c87 09e3 743d
00000010: 3583 508f 91d2 ddbd a7ec 9070 7408 a2bd
00000020: 9887 e76a e7f0 a03d a0bc 2b44 8458 043f
00000030: 226a 2c5a c666 b6be 032e a7ba 4850 b93d
00000040: e290 759e 3efe 033f 15de 3097 21e7 42be
00000050: 8fc0 a558 5a09 c8bd 84f9 004d 10e7 823e
00000060: 5fec 7f0c 8c47 4cbd e4e3 2217 36de 843e
00000070: faf0 5930 06f7 483e 5627 e06f 3c75 ba3d

tgnn._base_tgcn.linear_r.weight f8 [16, 32]
0.00084916175052319 5.892669760026343e-09 3.339902970082282e-09 -3.698890233775494e-08 3.884676709144038e-13 0.0005460233022954484 1.3540311022503866e-06 -1.667549738111676e-12
4.4962940303147074e-09 -1.0992278761541105e-05 -2.071316030700403e-10 6.821885550495435e-07 -2.3618662445538247e-10 -6.815276055575762e-07 -9.277887271020195e-06 -1.9138109398835436e-08
-3.046851001809374e-13 -5.1202972437809054e-11 -6.904941211577871e-06 -0.00034268190959488905 -0.0005514199939911038 2.2880770061509433e-07 -0.00044984618636956903 -5.366222431309241e-09
3.890191633644006e-06 9.917544736521212e-09 1.0604869090624178e-11 0.0004867350865068837 -1.36420470106788e-12 3.179741836791336e-08 -3.903268367547685e-06 -8.19851840332888e-07
2.51371633483585e-05 9.640940993400437e-10 4.404722389106603e-08 -0.0004824578895967045 -1.053098417613225e-08 -2.6019614593645073e-07 2.1975053759086362e-07 -1.551860482570072e-12
1.677840698173229e-11 1.495204969807128e-09 3.200793196853091e-09 5.182886226591242e-05 1.0714392854569535e-10 -2.462868220722957e-05 -0.00029164092834221416 4.863673302661337e-07
1.8670847918460024e-06 -9.239894223103447e-06 0.0007089051314281287 -3.301584024199401e-13 0.00014115291454133586 -1.561882211332688e-12 4.4511092966696233e-08 -5.0602060004053145e-12
-4.018832043455057e-05 1.7580159117253096e-05 4.46410754807054e-06 -5.465514050723073e-08 8.804360639322161e-09 -4.625113950156544e-08 -9.098278526342081e-05 -4.6546530515522374e-11
-1.2246126054238242e-11 -1.7713373006664786e-05 -3.3379170702158714e-05 1.88080893882152e-05 -2.7897795359355526e-05 -7.095721548784848e-11 -4.383284933013005e-11 -1.3925256457421839e-05
4.385687273660113e-10 5.7111231538995175e-06 -2.1936647877480216e-09 -1.4263460303339902e-05 1.1111143328943407e-05 1.8888443598250986e-12 2.0257348806558732e-11 2.7743594000819435e-09
-1.1929140126398654e-08 3.060794559018403e-10 -3.9039471401652857e-10 2.1302718567812714e-07 1.4750365052376218e-07 -6.85046971620389e-09 -8.96834218849129e-12 -1.8571257451264228e-08
-1.7713375876356836e-06 8.616170610542308e-13 -0.0009236143206626472 -1.2966640473525864e-07 0.0004458939999246854 -8.107699995665916e-10 2.2745018666537833e-09 3.829390173900103e-09
-1.6241176967609023e-05 -4.9012448671383965e-12 -8.56218881969214e-12 -7.246137713186921e-09 -2.684484117769747e-12 -1.8056640567996613e-06 9.793350862468508e-08 1.2155610033054804e-07
4.575420231254909e-13 -1.0876742602623559e-11 -9.496977504888705e-07 4.396130877278045e-12 -0.0002811720414502166 3.6564498156789804e-11 0.0006734926717083306 -1.0997190323497015e-11
-1.1991010959790016e-11 3.1346099646136383e-06 -3.4987507820554215e-12 -2.145271836133733e-13 -2.2688409500529323e-12 -2.9978934955559353e-12 -1.6293433608732233e-09 5.5304060897175114e-11
-5.715282829537034e-07 8.858795151634472e-07 -1.5092566859700538e-11 -8.437949905386023e-12 -4.4914642141698166e-11 2.080643008509191e-06 1.7757532480094492e-11 -6.156024078458369e-09
-3.3749997597477246e-09 2.589801950812307e-06 -7.042207318552165e-08 0.0004914979576122585 -7.068619487802207e-10 -1.2352123147370637e-09 -6.18357444926465e-09 -2.637322127184928e-08
1.3853990497283042e-05 1.7372593813057227e-12 5.7293218719785185e-06 -5.059739990125004e-07 1.6442681894601225e-09 5.260975204006199e-06 1.386390821442966e-09 8.673885422510923e-06
-1.127222054511493e-06 5.126158481931623e-12 -7.762181458670145e-06 7.226141651096005e-07 5.676664984689141e-11 -7.771028059668146e-11 -1.0541551711562333e-11 -2.1451504504942786e-12
3.512617434569712e-12 -6.012217315559096e-08 -5.285506281210301e-11 4.5760634984907066e-12 2.5011167274868097e-12 -2.7760046193190696e-05 -8.804359169596711e-10 4.341121645921425e-06
-6.228065570355594e-11 1.919873312572152e-11 -2.1853147766268004e-06 9.82741060814998e-11 3.134402938603906e-08 1.875897170931033e-06 0.00024898820698550936 1.621397799317032e-08
-2.5294180685660496e-10 0.00013881752687576275 -8.857064627789294e-06 2.8847416785455763e-08 -4.511181269512367e-09 3.817537727741984e-12 3.091750751209838e-08 -4.674675079892681e-12
-8.900123896737026e-11 -1.116250860908425e-08 -2.874006774759028e-13 -2.240201395019832e-08 1.2148854872565629e-08 -7.230101546275977e-08 -1.1050026161099142e-09 -0.000855398439125762
-1.722752746001694e-12 1.2888294444997384e-10 -8.525498396105331e-07 -0.00011021831077852881 1.4228325608324835e-10 -5.734450007648176e-08 2.945558884116232e-10 2.8374222925736925e-05
-2.1712184139590834e-11 1.9435538435102587e-12 4.660241411635707e-12 1.647388334885669e-05 -3.7341204559761994e-11 -1.2521180013879398e-12 3.497627921809203e-09 8.20784279011557e-10
-4.0910168809646965e-05 8.476978390863361e-08 -1.0426954649695857e-12 1.3171055903129007e-05 1.7373815554882724e-07 1.4570235462427924e-12 5.1420419293261365e-12 1.5727877265483875e-06
-4.099579794261203e-08 3.1245869201928943e-07 2.0394444037053863e-06 -3.4997009767702237e-11 -2.5740031942394298e-12 -5.184847593102368e-13 0.00026121814865270296 -3.507752937626199e-05
9.453192163739927e-11 9.803815814563904e-11 0.0002949811884060251 -0.00020456228697360713 1.1370247446070345e-07 -1.1078127629484186e-11 1.4129597703815669e-09 4.4522307108989415e-05
7.316559084833003e-13 -6.925118829951415e-10 4.086529345512728e-12 5.142375755762614e-11 5.066515536239208e-07 7.27629166461702e-12 2.9188236509410583e-07 2.348311363832093e-12
2.0399809951018514e-09 0.00023734613736782736 -4.784749551290585e-11 -4.4742018722277025e-12 -0.00023505824138684203 2.451464519777207e-07 -2.6492579512366977e-11 -1.1343746243046664e-07
-6.244989701597251e-05 -4.4608182505750526e-07 -1.0907677559256736e-11 -1.4280070099954762e-08 1.0761381907125596e-05 -7.341808420224397e-08 -4.722996859657804e-13 -2.2652495038766589e-07
0.0006953338853224539 1.2148883040657876e-07 0.00027123939694615167 -1.1860325569983722e-10 -2.6040217236202425e-09 -1.6838507567255123e-06 0.00016081895309652232 7.350990170079167e-12
00000000: 220c 48f9 48d3 4b3f eb17 5e15 0f4f 393e
00000010: b242 b038 86b0 2c3e 1300 924d b7db 63be
00000020: d37e 33ed 0256 5b3d 1d8b f41c 60e4 413f
00000030: bbaf f8f0 84b7 b63e 176d fcf3 f955 7dbd
00000040: 0c5d e941 ba4f 333e b8db 0c4a 6f0d e7be
00000050: 9020 ed9e cb77 ecbd 4c29 4a7f f4e3 a63e
00000060: 7e63 6ffe 093b f0bd 5cd1 cd0d 47de a6be
00000070: a21a f11d 0775 e3be 40be 6db9 a48c 54be
00000080: bb26 3b04 b870 55bd cacd 2f80 2d26 ccbd
00000090: bce8 adc9 1ff6 dcbe 7062 3a98 3f75 36bf
000000a0: cf37 976b a511 42bf ce64 9dd1 c5b5 8e3e
000000b0: 7ac0 9fa8 2a7b 3dbf 04f6 7855 390c 37be
000000c0: 43b7 debb 0f51 d03e 0516 3d56 3a4c 453e
000000d0: 5d91 19b4 0252 a73d c3c8 4247 0fe6 3f3f
000000e0: df89 c1ef d4ff 77bd 35b2 0633 3412 613e
000000f0: 8e75 363d 1a5f d0be 24e9 5343 7982 abbe
00000100: 92d1 40b6 b45b fa3e 48ff e574 2190 103e
00000110: 297c 34ea cda5 673e ca1a 86db 4c9e 3fbf
00000120: c5b2 4a43 789d 46be 277d 78c0 2276 91be
00000130: 03b6 9a2b 927e 8d3e 40a9 8f52 f54c 7bbd
00000140: 867a 8ea3 b372 b23d 3415 df22 fbaf 193e
00000150: 7070 8e61 9e7e 2b3e 64e6 b925 5a2c 0b3f
00000160: 01cb 3b6d 9573 dd3d ff1a 6b27 36d3 f9be
00000170: b3ff d83f ec1c 33bf 7a41 eb11 dd51 a03e
00000180: 7a3a 4d70 1153 bf3e 1439 6864 a160 e3be
00000190: 0666 7f2d ba3a 473f b10b 68e3 9a3b 57bd
000001a0: d453 aa4d 4e80 223f 12ce cf96 177a 7bbd
000001b0: a3b7 65db 8ee5 673e 70eb 3214 4941 96bd
000001c0: 12d8 f22c fc11 05bf 3893 e155 236f f23e
000001d0: 1421 088a 4cb9 d23e af30 d8cc be57 6dbe
000001e0: de1b 5b9a 3fe8 423e 1dda 3f4d b5d4 68be
000001f0: 325e 4c59 c0d9 17bf 9e2f f87f d796 c9bd
00000200: 1010 6fc2 f4ed aabd 464a 68b9 e592 f2be
00000210: ce16 8092 1380 01bf 2451 a80f c2b8 f33e
00000220: 16da 30e6 c140 fdbe c564 928e 2b81 d3bd
00000230: 03a4 ced4 ec18 c8bd ff5d a1ac 1034 edbe
00000240: c140 07f5 6123 fe3d 5513 2f94 45f4 d73e
00000250: 3931 767d ebd7 22be 5945 960e a3e9 edbe
00000260: 87c7 37e9 3f4d e73e 3790 01a4 4c9d 803d
00000270: 72e4 0bd1 ef45 b63d 9d9a bb7e e1d4 273e
00000280: 2f8c 3938 1d9e 49be 41dd d352 9b08 f53d
00000290: 2912 137d e5d3 fabd 2118 05f1 8e97 8c3e
000002a0: e16d c4d4 2fcc 833e c882 c7cd 2b6c 3dbe
000002b0: 94ac 3b52 bab8 a3bd 569c 8c10 d4f0 53be
000002c0: 85f9 3946 d6b7 bdbe e31d 46ad c150 6e3d
000002d0: d012 93a6 d643 4ebf da2a 06c2 4d67 81be
000002e0: da38 ac25 dc38 3d3f 122c e5bb 9bdb 0bbe
000002f0: 8aac 4ab8 ae89 233e 3550 9082 7572 303e
00000300: dd61 cb2e b507 f1be 1fa5 d3a6 4f8e 95bd
00000310: 123b bc73 15d4 a2bd 9d03 ae71 361f 3fbe
00000320: f869 ecbb eb9c 87bd 80bf 55a0 444b bebe
00000330: e2ff f280 f049 7a3e 3f9e 13c4 a250 803e
00000340: d563 5013 2c19 603d 15dc 4ace 0feb a7bd
00000350: bbeb 6670 d7dd afbe 28aa d474 9a55 933d
00000360: 27e3 fab8 486d 32bf 5b49 d7e1 fe19 c43d
00000370: 2ef3 e17f aa11 463f 65d7 da26 de2e a8bd
00000380: 4b78 b8cc 565e aabd c5af 640d 864b ca3e
00000390: 67bd 0882 7cc6 8ebd 2bb5 c706 2831 4ebd
000003a0: cdef cbc2 f9f4 83bd 9902 95f0 a75e 8abd
000003b0: 90e7 c889 edfd 1bbe 65b3 cdc8 5a67 ce3d
000003c0: 3f8b 44fc 632d a3be 0554 cca7 a5b9 ad3e
000003d0: 10b8 460e 2e98 b0bd f6a7 d2bc 248e a2bd
000003e0: 1c05 6086 2cb1 c8bd 1181 2e97 2574 c13e
000003f0: a277 0a11 4d86 b33d 4cea eebb 9e70 3abe
00000400: 85cb 21f5 b3fd 2cbe 2e22 e5ad 8eb9 c53e
00000410: ca95 8e36 5ee7 72be 6b1f b6d3 fb1a 403f
00000420: 13bd c49a 9f49 08be 9098 1a6e 8538 15be
00000430: 8250 5e79 e98e 3abe 7347 f875 6a51 5cbe
00000440: 0d51 92f4 cd0d ed3e 9743 25b3 eb8f 7e3d
00000450: 90e9 1e01 d007 d83e ee2d 2d97 48fa a0be
00000460: f40c be66 913f 1c3e 9078 41da ed10 d63e
00000470: 8331 f54b 69d1 173e 6159 29bc c130 e23e
00000480: 9796 8ac1 61e9 b2be afce 6396 8a8b 963d
00000490: b5b2 a918 4a47 e0be 320c 975a 353f a83e
000004a0: eee0 d21a 3235 cf3d 7d0a 84f6 5f5c d5bd
000004b0: fb3c 20b5 5d2e a7bd e503 e10a 73de 82bd
000004c0: 9a3e c116 b6e5 8e3d fec6 9e74 9023 70be
000004d0: 2bec 5854 b00e cdbd dc05 e380 3020 943d
000004e0: ce06 5da1 0300 863d fe70 3bd9 c71b fdbe
000004f0: a0a7 0b6f 6540 0ebe 53c4 8b6e 3e35 d23e
00000500: 7967 208d 9c1e d1bd 6c77 8284 f61b b53d
00000510: 2ca1 ed80 ed54 c2be 0a50 fde8 6c03 db3d
00000520: 0363 20fe e3d3 603e 8cd8 7fc0 ea78 bf3e
00000530: 6879 c234 5451 303f 6331 fe44 dd68 513e
00000540: e601 8aa0 cc61 f1bd bac5 e079 f131 223f
00000550: d59d 7ab1 1993 e2be e03b f17d 84f9 5e3e
00000560: 8ace 8ca4 1860 33be fd50 d255 2aca 903d
00000570: 7c15 9f16 4599 603e 5e5d 4e5b 378f 94bd
00000580: 6458 5ec9 e776 d8bd aa2d e66c a7f8 47be
00000590: c0d6 9daf 5939 54bd b1be b696 d10d 58be
000005a0: c06d 3752 e716 4a3e 8bed 4bea 7c68 73be
000005b0: eea2 b057 dafb 12be afa0 1929 9a07 4cbf
000005c0: 37d7 1fb0 964e 7ebd 6b83 775c aab6 e13d
000005d0: 4383 7fec 589b acbe a0e5 2d29 a0e4 1cbf
000005e0: e622 5ea3 258e e33d a935 5a3a 5ec9 6ebe
000005f0: 0def 0eca e13d f43d b546 93c0 a5c0 fd3e
00000600: 9ab2 1ac0 6fdf b7bd 6bf6 c182 7e18 813d
00000610: ef8e 9122 f77e 943d 8a41 bfa4 2c46 f13e
00000620: e67f f5ad 4e87 c4bd 58a2 25c5 0907 76bd
00000630: 9659 c579 5d0b 2e3e 0834 f5e2 b133 0c3e
00000640: 2465 67b2 de72 05bf 9f23 39cf 55c1 763e
00000650: 03cd 3906 e257 72bd c7d0 b223 289f eb3e
00000660: 757c 4bfa 9851 873e 1a76 78c7 d9a1 793d
00000670: 8e3d f2ad 6c9d 963d 9675 b364 1263 ba3e
00000680: ed1b ad68 6b02 66be 7697 3cdc fff7 943e
00000690: 3990 046b ac1b c13e 4ed4 4329 643d c3bd
000006a0: 9c34 5ad1 23a4 86bd 4cda 2775 183e 62bd
000006b0: 956b d467 831e 313f 6d01 62bb 0664 02bf
000006c0: b46d 4fb5 17fc d93d 544f 3173 d2f2 da3d
000006d0: e4aa a08e f654 333f 988c 43aa f8cf 2abf
000006e0: 7dc1 9c15 9385 7e3e 47db 6472 6e5c a8bd
000006f0: 68b4 1a46 4346 183e 19dc e4d2 ae57 073f
00000700: ebe1 66a9 2bbe 693d 9de9 0c21 66cb 07be
00000710: d60c f2e3 05f9 913d 95ac 7c1f 4045 cc3d
00000720: 996f 838c 1a00 a13e 7324 4924 3000 a03d
00000730: 1920 ab37 8096 933e 7c38 df55 eda7 843d
00000740: 19c0 c734 f785 213e 5df2 afcb 031c 2f3f
00000750: 80b3 25b4 ef4d cabd bc00 7ce3 80ad 93bd
00000760: ab04 38eb 3ecf 2ebf c5cb 717f 9573 903e
00000770: fbf5 1d8a ff20 bdbd c41d 88f1 5c73 7ebe
00000780: 6b9d b00f f15e 10bf 4ec4 469d a0ef 9dbe
00000790: 1891 bf00 7afc a7bd ad3f 0c33 8daa 4ebe
000007a0: 49d8 3511 7991 e63e a5cd a798 40b5 73be
000007b0: 38fd dbed 189e 60bd 35f8 1389 5667 8ebe
000007c0: 43a2 0c26 e2c8 463f b1a3 ac0d 534e 803e
000007d0: 306e da56 a4c6 313f 2584 0628 fb4c e0bd
000007e0: 5a01 74e8 4d5e 26be b095 887c 1540 bcbe
000007f0: 8ff3 ca49 3014 253f 142c b654 3d2a a03d

tgnn._base_tgcn.linear_r.bias f8 [16]
-4.637409102376508e-06 3.7755623982070285e-06 -4.5587591078178236e-07 8.357278631108005e-10 -1.4953356851305414e-06 -1.9265488655559407e-11 -2.405370145152116e-11 3.933221696257689e-06
-0.0002725366415926827 9.334997808959088e-08 -5.605571195959719e-12 1.296341011995158e-11 -2.9384155984711605e-06 -3.5850135056080157e-06 3.8502699412264715e-05 3.088592577042733e-09
00000000: a5b5 c54e 6173 d3be 106f 0d61 f5ab cf3e
00000010: 2723 7b75 e397 9ebe b995 b0d8 23b7 0c3e
00000020: 3a90 25f9 6a16 b9be 7f1e afc2 c02e b5bd
00000030: d09d b3da 8372 babd d786 56bf 437f d03e
00000040: cc19 6df6 67dc 31bf 3c11 8a2e f60e 793e
00000050: 0b8f f4e4 4fa7 98bd 164e 9c49 c081 ac3d
00000060: cbac 120f 33a6 c8be afcb 7f04 c212 cebe
00000070: b3ea a2ad be2f 043f 2b55 210c e387 2a3e

tgnn._base_tgcn.conv_h.bias f8 [16]
0.16575373309042435 -0.1836638590337906 -0.17174598180317904 -0.153541272555295 0.12170983543437991 -0.20170439421168435 0.21290586051016133 -0.223678009945633
-0.16639577576310774 -0.11042959093565946 0.16043809762055877 -0.24802949285873246 0.1380184487298982 0.19170528492560635 -0.2793373161196138 -0.1950976168585576
00000000: be19 6817 6b37 c53f b5ee 001e 4c82 c7bf
00000010: 4933 88b7 c5fb c5bf 1309 1b8c 3da7 c3bf
00000020: dccd ca32 6028 bf3f 6aa1 4c18 73d1 c9bf
00000030: eb49 02ce 7f40 cb3f 7782 c624 7ba1 ccbf
00000040: 252c 8cef 744c c5bf 044e 9419 1d45 bcbf
00000050: 5e08 284f 3c89 c43f c5c7 2230 6ebf cfbf
00000060: 7c10 c5a9 96aa c13f 5ce8 9c7c cc89 c83f
00000070: 5d50 529f a9e0 d1bf 7eaf f76d f5f8 c8bf

tgnn._base_tgcn.conv_h.lin.weight f8 [16, 1]
0.17414826917666587 -0.2242215855036669 -0.21111000713307115 -0.16757171221062195 0.10716619351305641 -0.2623311209919269 0.10889173660819501 -0.11883680521097897
-0.18583726350257504 -0.1125273331844388 0.18693489164609006 -0.14056979288395033 0.12787407838828163 0.24471315834360907 -0.39449713043998685 -0.07987518114159599
00000000: 8a67 6290 7d4a c63f 80d3 65fc 4ab3 ccbf
00000010: d057 3f18 a705 cbbf c8f4 d667 fd72 c5bf
00000020: 3519 6060 3e6f bb3f ba88 5878 08ca d0bf
00000030: 946e 892f 54e0 bb3f 1239 f1bf 166c bebf
00000040: ad93 8ff4 83c9 c7bf 24ea ee5f 97ce bcbf
00000050: 1af6 0c87 7bed c73f d4fb 9ee3 30fe c1bf
00000060: 1687 5784 2d5e c03f 384b fec1 c252 cf3f
00000070: fbc1 66e4 703f d9bf 29e6 c32a b372 b4bf

tgnn._base_tgcn.linear_h.weight f8 [16, 32]
-0.1574927716024452 0.15774704649797278 0.1577248608148373 0.15746181004547924 -0.1569493240029222 0.1578486663375807 -0.1576139295693316 0.1576977760054216
0.15755564818344553 0.15715456763706592 -0.15756101955669338 0.15783481600693008 -0.1571252287134196 -0.15772053697315572 0.15815306838951831 0.15742183973999882
-1.5774390313799888e-05 -2.656471129897019e-09 3.1788643958634653e-06 6.180277459470106e-10 -4.438759282418595e-05 5.145612224962752e-12 4.424980632500033e-11 1.1013144656091525e-08
-6.203352209057633e-05 -5.877248265557158e-13 -3.787425671746831e-05 -2.6227604511729087e-07 2.454813953975835e-08 -2.2099191756699998e-13 5.718654980039581e-13 2.258387213699361e-12
-3.6796716993929014e-10 2.6466443545163487e-09 4.113754944737608e-09 8.586344777410156e-12 -1.3072594952311222e-11 3.669846478785706e-08 -1.1318484153830501e-12 1.726273536840722e-11
7.156714162545015e-11 2.7256269893133305e-14 -5.342384724191371e-10 5.745404054423816e-10 -3.4691789784768475e-11 -8.769988549204623e-12 2.0818171252168513e-06 2.1492636367175157e-16
2.570696789589446e-12 -6.512891328916316e-09 -7.837029678974806e-13 -2.371444661700626e-05 1.2323414751276328e-12 9.322696488178336e-09 -6.441932378528734e-08 -2.8740309210995453e-13
4.3133854895741373e-11 -2.406172009516429e-08 7.118918121760445e-10 5.315804422909278e-11 -6.470640173307512e-07 -1.16138484321353e-09 8.036712181772056e-06 7.133184796015871e-11
0.2395806287796972 -0.290519328055742 -0.2758365524423958 -0.23376895295206349 0.16507067149640642 -0.3332308385548295 0.20079973813344837 -0.21581921062716666
-0.2543880255709224 -0.17124691491656227 0.2554419110110297 -0.24688190132638418 0.18940484574534808 0.31088178139570155 -0.45775617502371957 -0.16215902010629246
6.0078939108892625e-06 -7.307490977628036e-11 2.3215178688022975e-06 1.381573764721947e-09 -3.842080075724632e-05 5.06222588493765e-09 2.920662647470335e-07 -0.0001104493850647527
-3.691508946936383e-07 1.346421882810386e-09 -1.710643902497243e-10 2.2789557912081536e-08 2.0112686840551706e-10 2.8350942567769736e-07 -4.2003767559587095e-12 2.0993490860705497e-12
0.14423497732793011 -0.14383404370422403 -0.14507890279623517 -0.14340974659172862 0.1435041004944689 -0.13346249815502956 -0.1513045263682935 0.1523466012407988
-0.1420809445804098 -0.14194521618289394 0.137297556475271 0.15445047871863213 0.14351317501939123 0.1097786330348785 -0.11317382331903432 0.15212851921919168
-2.4466738554120058e-05 5.8445778212435365e-09 -4.54786453439243e-06 -4.167039772945951e-10 4.53162125469509e-11 3.3106939657495425e-11 -3.2891421785541043e-06 5.759684348204107e-13
-3.0605821369140236e-08 2.2014220973798746e-06 2.455738589367385e-11 -0.00010119660513892593 -1.237214005535172e-11 2.686601144109649e-09 3.089339879004034e-09 0.00026746269748982734
-0.10678733208784222 0.11470074612106981 0.11329998289785527 0.10531070135642316 -0.08361453288727784 0.11659597647482525 -0.08398236120245266 0.08908591445983573
0.1086052641380767 0.08629841587057685 -0.10749059443084115 0.09783579696356325 -0.09332235194147266 -0.11397871347640341 0.12413410331828968 0.06537215916048134
3.2690691814325012e-12 -5.74066122901966e-12 -3.7449842039246035e-05 -2.4912956023783425e-07 -9.14633949522816e-08 -2.5298966397740807e-08 6.198115366693e-12 2.187189612422704e-07
0.00011798130832270422 1.2160424599435848e-11 -1.1858608852569605e-09 6.4593913629630294e-09 1.6922225057787228e-10 2.0136953420947814e-10 0.00033861532524141763 -3.4292023552268907e-13
0.13290886341623165 -0.13297176999266938 -0.13300904562984406 -0.13293081102736468 0.13286567870759172 -0.1329303030352349 0.132060769050717 -0.13204317165636167
-0.13291437285940053 -0.13294901753211677 0.1329040215805964 -0.13200063864974323 0.132863298613908 0.1329012054538513 -0.13293485429730664 -0.13194501670542536
3.526533479434026e-11 5.74894399217008e-09 -5.518921523603322e-08 -2.614547953229667e-12 -1.5293945250741432e-11 1.9369289399492922e-11 2.241460289285592e-11 8.757623418872345e-08
-1.759382054259204e-12 -1.1391216542395189e-08 -3.049210600647967e-10 -1.2241786535560906e-09 -2.2499684947471965e-09 2.0333794707388868e-07 -4.60832961058012e-06 4.67292698000719e-13
0.32599407239806943 -0.35995118472040644 -0.3738408709072231 -0.25184450878325065 0.1583107158791445 -0.27593300353511324 0.07129973688033142 -0.07262617806845229
-0.2614252991621402 -0.11851003474557012 0.19046226246185802 -0.07660044975817006 0.2119639777184246 0.18544862463449888 -0.42775347554576093 -0.05684337337345663
-0.00014356102353399244 -5.793629937458985e-11 -1.4013441209418263e-06 5.808027617381818e-09 5.882208706644206e-08 -7.737392010276636e-13 -1.6978011937153526e-07 -8.027170527228429e-06
-1.4337147226440342e-08 6.346261162122069e-06 -4.2330886904554366e-07 2.3584532722313607e-13 3.4764455965501297e-09 -2.9361167848319424e-11 2.903219142868122e-06 6.702907392798082e-07
0.040185418100279216 -0.036149057208160876 -0.04154662756268567 -0.0370336715278252 0.03584376120381271 0.017106606218426423 -0.022248745601505 0.0254969527856641
-0.028235528815797887 -0.02526290859324511 -0.0002729372095021759 0.03733523397934482 0.03634114948200788 -0.024373486918542825 0.05153319472889925 0.04558723462091148
6.754192947476297e-09 1.285909121191984e-10 4.2268047795498315e-08 -2.572235423843933e-08 -3.347529181957883e-09 4.591178830374138e-10 -8.092347372689247e-07 8.81323628963036e-08
8.191124548639549e-12 -6.5408555352265285e-06 -5.204389860274513e-07 3.445608505501619e-08 2.2254079395720803e-05 5.543408476743063e-13 4.298562004810289e-08 -3.8805052067456236e-11
00000000: 77c7 b11f b928 c4bf d4eb df22 0e31 c43f
00000010: e5a1 7b07 5430 c43f 81d4 4166 b527 c43f
00000020: dd65 dc5a ea16 c4bf 528d d195 6234 c43f
00000030: 4b79 7278 b12c c4bf 2530 4cd3 702f c43f
00000040: d2bd 1f92 c82a c43f 2c88 3510 a41d c43f
00000050: be69 0fa1 f52a c4bf a9c0 7566 ee33 c43f
00000060: 24af 59f3 ad1c c4bf 9587 1ac2 2f30 c4bf
00000070: 3a5d 3f18 5c3e c43f 6502 ae1a 6626 c43f
00000080: d739 23d9 678a f0be 13d1 804c a4d1 26be
00000090: 5660 e52e 8faa ca3e 1d7d 5fc3 3a3c 053e
000000a0: 4670 8313 9a45 07bf 9a08 44bf 71a1 963d
000000b0: d053 4b4a 9b53 c83d c8d4 5a51 8aa6 473e
000000c0: 56e6 66cb ff42 10bf 8177 c22e c1ad 64bd
000000d0: c6dc 3b8d 65db 03bf 75bd c33e de99 91be
000000e0: 7ae8 55c0 bd5b 5a3e 6f72 40ac 121a 4fbd
000000f0: 6c78 8f0f e81e 643d 9785 9a97 6fdd 833d
00000100: 3e5b 36cf 5849 f9bd 58c8 eb50 08bc 263e
00000110: 2688 c713 1fab 313e ba68 46b1 aee1 a23d
00000120: d1d9 ed7a 37bf acbd 82f4 af70 ccb3 633e
00000130: 92e7 c760 64e9 73bd 256a 5a2d 07fb b23d
00000140: e4b3 6902 17ac d33d 5fc6 90bd 15b0 1e3d
00000150: e65c b817 365b 02be 849b 59fa b5bd 033e
00000160: d32c cf73 6f12 c3bd 39d4 978c 1049 a3bd
00000170: 810a 6b11 ab76 c13e d3a2 b71c 62f9 ae3c
00000180: ef38 26ce b19c 863d c166 64ef fff8 3bbe
00000190: 22fc 8302 f892 6bbd 9ca5 d35c ccdd f8be
000001a0: 657c d9fc f8ad 753d f625 71e3 3405 443e
000001b0: 044a 98ba dc4a 71be 8e33 50d2 6439 54bd
000001c0: 504e 16e7 8cb6 c73d b72e 9e06 09d6 59be
000001d0: e20b 9bd9 dd75 083e 592f ad62 5439 cd3d
000001e0: 75bd 6ad2 3cb6 a5be 9161 3716 d3f3 13be
000001f0: a139 c64f adda e03e 3f0d e855 889b d33d
00000200: cc94 aefa 93aa ce3f 5abd 3661 de97 d2bf
00000210: c003 f25a 4ea7 d1bf 41e8 df1b 24ec cdbf
00000220: ac8b cd27 0921 c53f 4025 6770 a753 d5bf
00000230: 1a0d 2a4a ceb3 c93f f300 bfc1 f69f cbbf
00000240: 498d 94b6 e447 d0bf 87c3 8d3d 6beb c5bf
00000250: c37c 7407 2959 d03f 3be7 157e d399 cfbf
00000260: 9f10 1701 6b3e c83f 9612 01b3 7ce5 d33f
00000270: 1c36 518e e04b ddbf bcd0 0d74 a0c1 c4bf
00000280: 0d73 a94d ed32 d93e b48e b68b 3016 d4bd
00000290: cef9 06f2 6b79 c33e d31b e3c5 39bc 173e
000002a0: 28ce 72a9 c024 04bf b0c0 bee9 f9bd 353e
000002b0: 4d43 4504 a999 933e ed3a a3fc 21f4 1cbf
000002c0: ce49 f2cd f6c5 98be 08c8 bd45 a021 173e
000002d0: 97fa 610c cb82 e7bd a549 1592 5878 583e
000002e0: ec57 7ac7 85a4 eb3d 73a3 f5a3 a706 933e
000002f0: 7b0e 1f2c 3479 92bd 7f38 7f5a 5077 823d
00000300: 9008 48af 4a76 c23f f86a e168 2769 c2bf
00000310: e9b8 6c0b f291 c2bf f201 c525 405b c2bf
00000320: 239a 3ba5 575e c23f 75be 6894 4c15 c1bf
00000330: 208a 3e5c f25d c3bf b834 feea 1780 c33f
00000340: 6dc7 2d59 b52f c2bf 8d22 aac6 422b c2bf
00000350: 71e5 7061 f792 c13f 535a 7985 08c5 c33f
00000360: b96f a0c4 a35e c23f 1434 afd6 731a bc3f
00000370: 1525 ebad f5f8 bcbf 48ec 6a83 f278 c33f
00000380: 734e 8b78 bda7 f9be c65b f767 2e1a 393e
00000390: 5aaf f97b 3b13 d3be 8367 7ae0 bba2 fcbd
000003a0: ae28 9f9f b0e9 c83d dd78 7635 6333 c23d
000003b0: 86a3 0d09 6197 cbbe 722d f9c9 dc43 643d
000003c0: 6d46 6d9b 6e6e 60be ba8f cb98 8477 c23e
000003d0: 642e b324 4a00 bb3d deb4 2a70 3087 1abf
000003e0: 2086 7d4a e534 abbd 4c0d 2bfd e513 273e
000003f0: 6e62 b1bd 8789 2a3e 1beb e289 4787 313f
00000400: 7ac2 f122 6a56 bbbf feb2 6a31 075d bd3f
00000410: 8903 2f49 3a01 bd3f 0fa2 3e62 a4f5 ba3f
00000420: e99e 3814 c367 b5bf a2f7 cde1 3bd9 bd3f
00000430: 432e ce36 de7f b5bf c1a5 23a1 55ce b63f
00000440: c87f a5f9 8dcd bb3f 2059 dc29 a717 b63f
00000450: 9543 b5eb 8084 bbbf 6f2b 564c c40b b93f
00000460: a90d 9341 f9e3 b7bf 2f41 d27e b52d bdbf
00000470: c101 12aa 40c7 bf3f c8c5 a9d5 3abc b03f
00000480: b1a1 6414 4ac1 8c3d 11ba 05f2 683f 99bd
00000490: 2584 3ec6 6ea2 03bf 8bdc a964 03b8 90be
000004a0: b5d5 6c0f 518d 78be 2620 917e 202a 5bbe
000004b0: 7485 a21f 7542 9b3d 16be 2c54 205b 8d3e
000004c0: 1eb4 7171 97ed 1e3f c3ad d3e0 b5bd aa3d
000004d0: 636e 05a9 785f 14be 4982 9008 2dbe 3b3e
000004e0: cd96 7f87 fa41 e73d 2fbd b984 0fad eb3d
000004f0: 0133 72bf 0531 363f 59ed a174 8021 58bd
00000500: c851 dc5a 2803 c13f a972 b40d 3805 c1bf
00000510: 78b3 86be 7006 c1bf 0b24 ff76 e003 c1bf
00000520: 71ac 6718 be01 c13f 9883 1734 dc03 c1bf
00000530: f226 1406 5ee7 c03f c74b f667 cae6 c0bf
00000540: 9bbb 4c92 5603 c1bf 95fa 2a31 7904 c1bf
00000550: 7207 19bd ff02 c13f 19a0 069d 65e5 c0bf
00000560: 5855 3121 aa01 c13f 74fa 821d e802 c13f
00000570: 6b4c da61 0204 c1bf 5c5b cf05 93e3 c0bf
00000580: 0dfc cf96 2763 c33d cca6 55e0 07b1 383e
00000590: 41ff 57e2 25a1 6dbe 697f b147 70ff 86bd
000005a0: daf1 eae5 dcd0 b0bd ee2a 7164 f84b b53d
000005b0: 480e 145b 26a5 b83d 25aa a867 3182 773e
000005c0: 4089 b967 8df3 7ebd a5e2 9a34 6376 48be
000005d0: 3f31 5b5f 3af4 f4bd 1897 caa1 fe07 15be
000005e0: a805 c9a8 bb53 23be 2e0c 567f a34a 8b3e
000005f0: 4509 74ff 2754 d3be 6b4e d799 ff70 603d
00000600: a0ee e83d 16dd d43f 5cf5 a1b1 7009 d7bf
00000610: 7f19 9d42 02ed d7bf 05ae 396e 381e d0bf
00000620: bd54 a789 8643 c43f d780 84e6 e2a8 d1bf
00000630: 304b 1d16 b340 b23f 9031 a313 a197 b2bf
00000640: ece5 8f2d 31bb d0bf 62e4 7a73 ac56 bebf
00000650: 2bab 3242 1161 c83f b1fa 914a 169c b3bf
00000660: c987 1db8 a221 cb3f 6159 f2d0 c7bc c73f
00000670: 4e0a 0e1d 5060 dbbf a841 441b 931a adbf
00000680: b193 57cd 1bd1 22bf 4808 922b cfd9 cfbd
00000690: 5b43 ce27 ba82 b7be 24e1 3670 fef1 383e
000006a0: c183 c932 7294 6f3e c54a ad20 3939 6bbd
000006b0: 8c14 2bb9 99c9 86be e087 a6ea 8dd5 e0be
000006c0: af9e 4017 eec9 4ebe 18b7 33fc 3e9e da3e
000006d0: 4d5a 3918 6468 9cbe a7e0 1a99 9c98 503d
000006e0: 3478 fbe2 c8dc 2d3e 2168 808e 3724 c0bd
000006f0: 54f7 4f9a 9d5a c83e 64d0 74ec c07d a63e
00000700: 2298 08e1 2e93 a43f 8206 fb14 2182 a2bf
00000710: 7f1a 487d 9945 a5bf 5d29 20d0 13f6 a2bf
00000720: ffa2 450c 1d5a a23f c3c7 03e9 6484 913f
00000730: b823 f10a 60c8 96bf fec5 7289 df1b 9a3f
00000740: 117f 6543 c6e9 9cbf 65dc d618 85de 99bf
00000750: ae18 8063 20e3 31bf f40d dc91 9a1d a33f
00000760: 466d 0ca1 4e9b a23f 4889 d104 5df5 98bf
00000770: 3cbd 0914 8f62 aa3f 8ab0 9fc3 3557 a73f
00000780: 9a8c 764d 5002 3d3e d62a c2f7 63ac e13d
00000790: 2e5c 9ab8 46b1 663e 7672 dac3 819e 5bbe
000007a0: e6b3 a565 4bc1 2cbe 2fdf 8020 e38c ff3d
000007b0: e306 a701 4627 abbe 87f6 b2ec 68a8 773e
000007c0: 2703 7374 3103 a23d 9285 dcad 306f dbbe
000007d0: 975a f16e 8976 a1be 45fb a0b7 9b7f 623e
000007e0: a90a fab0 c855 f73e ee90 e4f7 0e81 633d
000007f0: 52a2 dc0c e613 673e f2ae 2058 5355 c5bd

tgnn._base_tgcn.linear_h.bias f8 [16]
-0.15586587705997318 6.892185210342588e-78 0.24679539738432577 -0.03038164474573307 -0.047576945163096615 0.058933005434845954 0.2619024800922885 -0.0034900148463958575
-0.6324866503988383 -6.389810213823518e-68 -6.76812325604682e-27 0.3942641498948212 -7.586766460188056e-12 0.2541800838125759 -0.13206481462700445 -1.0261707462588258e-36
00000000: f678 44be 69f3 c3bf a3c8 d739 b689 e92f
00000010: 18d5 48d8 fd96 cf3f 8f92 53aa 5d1c 9fbf
00000020: 8ec5 095f 015c a8bf 75cc fe85 772c ae3f
00000030: fd35 af9e 02c3 d03f c423 1774 1797 6cbf
00000040: bbd3 d3a4 543d e4bf b72b 8ec9 2290 fbb1
00000050: 16e2 f6c8 cec1 80ba d924 72b3 9f3b d93f
00000060: 40e7 7946 f8ae a0bd 5940 d18a 7c44 d03f
00000070: 973c e3f5 7fe7 c0bf 93e5 7a45 01d3 75b8
