d2_cs1190382_task1.model (torch, 36815 bytes, 8 tensors)

conv1.bias f8 [32]
000000 bd 3a 1b 0c f0 80 7b 3f 10 1e 23 11 2b c7 8d bd
       0.006714761433342428 -3.385366755922526e-12
000010 3e 76 75 e6 14 d6 81 bf 3c cc 8c 4e 44 0f 1b 3f
       -0.008709109576268689 0.00010322431957092507
000020 c0 25 cc 4d 3f 67 98 3f d3 0d ca b0 7a c4 50 bf
       0.023831357119922236 -0.0010234068060136394
000030 2a b6 e4 bb 13 cb b9 bf 33 6b f0 28 e1 77 71 bf
       -0.10075496041528056 -0.00426471665471233
000040 e4 00 71 6d e8 c7 6a bf 80 23 e8 18 e9 70 79 bf
       -0.0032691516494481754 -0.006211195503518563
000050 2c 95 fb 89 8a f1 c3 bf 15 7e a7 4d 08 ff b3 3f
       -0.15580875146330564 0.07811023612838881
000060 c0 9c 8a 32 d6 06 a5 bf 43 b9 c4 e5 a7 0e b3 3f
       -0.041067784947978137 0.07444238051968903
000070 5f ba c7 32 f8 5d 93 bf 7d 01 6c 3d ad c4 f5 33
       -0.018913152789475137 2.1674282723527145e-58
000080 5b db ce 84 73 8a ae 3f f4 57 02 cd 22 18 76 bf
       0.059650049173277174 -0.005394111576739736
000090 02 ac c5 a3 3a 06 67 3f 8b 4f 37 f5 f3 e8 e0 be
       0.0028105874354671387 -8.063303233031362e-06
0000a0 9f 3e 06 5a 6c fe fb 33 07 d4 f3 74 2d e9 93 bf
       2.7872975852531573e-58 -0.019444189322673135
0000b0 b0 af 53 61 ce e2 71 bf 75 ae 10 00 a0 89 f2 37
       -0.004366689846602087 3.404818957391238e-39
0000c0 b5 7c 96 f5 84 73 43 bf fc 61 eb ae d5 b4 9f bf
       -0.0005936049666849438 -0.03096326713679963
0000d0 3d 70 93 43 cf 06 b6 bf d0 35 32 a4 d5 5b 82 bf
       -0.0860414066295911 -0.008964222977989517
0000e0 66 d6 46 11 69 af 74 bf 34 b0 35 5d dd 5d 81 3f
       -0.0050500969122616365 0.008479813963923367
0000f0 68 6a 9a 4d 28 76 76 bf 54 34 b2 d2 d3 d9 80 bf
       -0.005483777460222862 -0.008227972857890155

conv1.lin.weight f8 [32, 1]
000000 ac 25 aa 82 46 9b cc 3f b1 b9 e1 8c 10 fa 90 bf
       0.22348863010510678 -0.016578920935381884
000010 09 62 7f 24 82 8a 81 bf 74 0f fb a6 6a 54 69 bf
       -0.008564964999025386 -0.0030920107891194096
000020 bf d6 da ea 9a 45 a2 3f 81 4d 9d 5e 41 67 91 bf
       0.03568729512100565 -0.016995450401123605
000030 0c 34 f9 cd f7 4e d0 3f d8 d4 67 42 2c 0e fb be
       0.25481982340426224 -2.5802004666138117e-05
000040 4d ea 67 a2 ec 95 88 bf 72 86 19 92 ea a0 81 bf
       -0.012004708009944265 -0.008607704719170804
000050 dc c0 5a 42 f3 2f d1 3f b7 41 61 97 5b 28 c9 3f
       0.2685516498559204 0.1965441216621124
000060 b4 8b 9a 4f 6f 1a cd 3f ff 02 16 30 17 4f b7 3f
       0.22736922633074885 0.09105057643865776
000070 48 cb bd 46 a8 fa b5 3f 78 e1 0e c1 f6 d4 8f bd
       0.08585597731670902 -3.618866932046161e-12
000080 77 27 71 46 95 1d c4 3f e5 fd 2e 33 b0 b6 7b bf
       0.1571528047518844 -0.006766021996497317
000090 48 63 0f e1 29 f2 d2 3f 2f 57 e3 74 43 91 87 bf
       0.296030492577803 -0.011507536892547769
0000a0 0f 8d bd c3 4c 6d 90 bf e9 44 60 a0 93 dc d5 3f
       -0.016041945883796645 0.3415879312679651
0000b0 fd ba 20 ea 52 42 b6 3f 3b 44 d8 7c 60 d6 93 bf
       0.08694952217113534 -0.019372470493241627
0000c0 aa 27 40 92 ca 04 c8 3f 43 a6 22 ca 1e 5b 9f bf
       0.18764621869223436 -0.03062103375183357
0000d0 35 19 3f 7d de 7e c5 3f 53 3c 8e da 74 4e 7f bf
       0.16793423762846663 -0.007643181285756989
0000e0 4f ec 76 3c 68 b2 73 bf 58 ab 3d 57 df 08 47 bf
       -0.004808814213386261 -0.0007029619723487408
0000f0 37 d1 5f cf 57 90 99 bf 3a 97 48 d6 f7 0a c7 3f
       -0.024964687378045993 0.1800222202593263

conv2.bias f8 [64]
000000 2b 89 07 b7 37 e9 a0 bf c3 83 4c 8b 36 83 95 bf
       -0.03302930936094336 -0.021008350612763637
000010 f0 fd 34 ad aa 8b 5c bf c8 32 66 c0 da ad a1 bf
       -0.0017422835124561963 -0.034529529558402994
000020 e4 48 92 86 76 7d 64 3f a1 6d 94 6b 48 47 ab bf
       0.0025012316660389822 -0.05327822030286745
000030 4b 0e 13 7f 8a f4 ac bf 56 f7 c9 ee a9 a3 47 bf
       -0.05655319977952596 -0.0007214145421838662
000040 f1 6f e5 b3 11 9e 97 bf 8a 91 41 09 3e 69 cc be
       -0.023063923459048345 -3.3868673857009455e-06
000050 29 9c b0 25 ad 6f 93 bf 11 d7 01 63 28 31 92 bf
       -0.01898069899121083 -0.0177656469754402
000060 cf cd b4 54 9b 96 7a bf c5 e0 e8 87 cc 10 8b bf
       -0.006491286050095592 -0.013215635202059048
000070 c4 4a 10 ca 2a d6 94 bf 2f 58 3d a0 ed 7b 79 bf
       -0.02034823282526578 -0.00622170279151217
000080 df c8 2c 75 89 49 a9 bf a8 e4 6e 2c 0e 2e 82 bf
       -0.04938916735990672 -0.008876906138413368
000090 eb f0 df 2d c8 5f 78 bf ff 7a 32 cf 69 4f 68 bf
       -0.005950719785684048 -0.002967554720796683
0000a0 04 4a 50 1e 15 02 b1 bf 53 49 7a 92 bf 45 92 bf
       -0.06643802633360713 -0.017844193759239357
0000b0 a6 0c 99 23 ae 0c bf b4 54 72 ae 12 1b db 96 bf
       -1.2662978179674859e-54 -0.02232019711992657
0000c0 c4 b4 80 a8 28 2f 91 bf 99 a7 4c f4 39 3f 8c bf
       -0.016781459126083545 -0.013792469757010472
0000d0 63 89 52 8f 4a bc 8c bf de 68 ac 6d e8 52 42 b3
       -0.01403101205716401 -8.908566795313552e-62
0000e0 58 91 08 07 37 19 b1 bf 37 f8 71 55 42 a9 9a bf
       -0.06679099961963197 -0.02603629728809428
0000f0 46 d2 53 65 07 5f 81 bf 5c ea 71 31 87 72 9f bf
       -0.00848203447319763 -0.030710327523119182
000100 65 fa 8a 17 20 39 70 3f ed 64 b6 f7 97 21 9c bf
       0.003960728987918748 -0.02747189950386979
000110 f2 03 12 a6 42 ab 99 bf 21 ed 25 ad 64 9b 98 bf
       -0.02506736887562861 -0.024030278270840037
000120 2d ad 1f 09 8e 09 48 b4 11 3b d3 1c fe 69 38 3f
       -7.658733139963419e-57 0.00037252859040119805
000130 31 74 55 38 d1 7a 9b bf c5 85 85 ed 08 62 85 bf
       -0.026835698188154736 -0.010440892933447974
000140 01 26 1c b2 79 9b 98 bf 4c 81 6e 87 14 82 9c bf
       -0.02403059148404019 -0.027839966550915293
000150 00 81 7f 2b 94 33 3f b1 e2 73 45 a2 20 48 02 b5
       -1.7659411652236802e-71 -2.3858794320593756e-53
000160 e2 f3 3f d9 49 7f ad bf be 5b 24 38 c4 d6 6d bf
       -0.057611758966210194 -0.0036424477012917114
000170 35 38 86 c8 8f 18 6b bf 21 f3 7f 27 2a 04 8b bf
       -0.003307610346559487 -0.013191537218511908
000180 2a 52 79 4d 3a 7d 72 bf 10 87 8e 9d 49 4c 92 bf
       -0.004513957733781862 -0.017869138947964436
000190 07 59 58 ba 16 19 9c bf e5 df 08 3b c0 62 de bb
       -0.027439456103899775 -2.5737727740076438e-20
0001a0 e9 8b 1d 01 8f cd 9d bf b4 84 1a 75 da e6 80 3f
       -0.029104456370429608 0.008252817820279958
0001b0 0f b1 8a f4 65 19 7e 3f 2a a4 0d 6a 9c f7 88 bf
       0.007348440420781323 -0.012191030489434668
0001c0 51 4e 4f 15 22 48 aa bf eb a5 30 6f ee d9 9c bf
       -0.0513315821659971 -0.028175092255116423
0001d0 bb f9 c6 46 80 c9 8a bf cb d9 36 92 ea 34 79 bf
       -0.013079645309400747 -0.006153980535080493
0001e0 1e c1 19 d8 f3 95 54 b5 aa 05 61 32 94 f4 7b bf
       -8.597011174998093e-52 -0.006825045484278128
0001f0 16 10 8a c2 de d1 b0 bf e2 4d b0 fd 7e ae 76 bf
       -0.06570236443991492 -0.005537506159288582

conv2.lin.weight f8 [64, 32]
000000 1c 5f 5b fc 4a ad 8f bf 43 d9 5b ef df 55 f3 ad
       -0.01546724875099375 -2.4299397769999977e-87
000010 6b f3 75 18 b1 cc 52 ac 4a 2b 64 29 0a 01 4d 2c
       -3.520541454135344e-95 2.7157525600335563e-95
000020 56 cd 93 b6 53 b3 8e bf 7e ae bb ca 73 4e c6 2c
       -0.014990476617163278 5.346897912936143e-93
000030 0d d1 ec 5c 22 cc 8f bf d7 ac da 06 af db c3 ac
       -0.015526073895309378 -4.760032353047507e-93
000040 35 dd 5b 49 dc 05 8d 2c 78 eb 46 3a 62 c4 7a ae
       4.348025274392534e-94 -8.61158196528879e-85
000050 1e cd 3d 1f 52 8c 8f bf 92 7a d3 ef dd 10 90 bf
       -0.01540435941544743 -0.01568934227258951
000060 48 93 12 ac 07 13 90 bf 21 61 85 a2 56 41 90 bf
       -0.015697593572116447 -0.01587424628209633
000070 26 a1 4d f6 13 73 8f bf 36 15 f6 ed 35 94 62 ac
       -0.015356212572172522 -6.958449686060616e-95
000080 58 27 3d 31 91 df 8f bf ae e6 ba 87 bd cc 49 ad
       -0.015563139262343803 -1.583168344902109e-90
000090 7b 98 48 ee c7 00 90 bf 8c a6 55 23 42 39 a2 ad
       -0.015627979201007208 -7.15693415252295e-89
0000a0 c3 bc 1d dd 0b f9 6c 2d 5c 91 8f 27 2a 12 90 bf
       7.111518307193741e-90 -0.015694292702293708
0000b0 ce ba dc 8b e4 82 90 bf b6 3f 13 c9 d6 1b de 2e
       -0.01612431625033644 6.199460183125474e-83
0000c0 a6 e4 05 1c 6b ed 8f bf d9 ce ca 1f 4b f4 41 2d
       -0.01558955840367766 1.1017399491669225e-90
0000d0 7d 47 0b 7b 17 36 90 bf 57 8e ff 20 9c 7a 65 2e
       -0.015831343541158106 3.4551282973225625e-85
0000e0 f3 eb ac 17 5c 7b e2 2c b1 68 41 01 86 a0 e5 be
       1.7720556002229494e-92 -1.031257856014644e-05
0000f0 0b 81 4b 32 96 df 25 2c 2c 53 ad e5 cf 06 90 bf
       5.120205600110484e-96 -0.015650986092924743
000100 87 9b 97 59 d5 07 ad 3f 6f dc 3c 0a a7 a8 78 ac
       0.056700389086294094 -1.847112246529815e-94
000110 bd 5e 50 92 8f 4c 66 2f 7d d8 3e 4d e8 2c 9b 3f
       2.350811648518568e-80 0.02653849574536381
000120 b7 37 81 26 15 0f c7 bf b0 82 6b 6c 6f b1 5d 3f
       -0.18014778499713 0.0018123233909862861
000130 30 a0 64 fa ad a7 66 3f 4d 32 40 3c 0c d9 99 bf
       0.0027655027398800977 -0.025242034127631197
000140 85 29 1f ce 1b 13 c8 ac c9 56 54 ed 27 c4 5b ae
       -5.7707359738359024e-93 -2.233254527912869e-85
000150 88 48 a0 13 01 cc bd 3f ed ad 73 ac 7a a3 ab bf
       0.11639410714295384 -0.0539816222679653
000160 9e 6d 03 91 9e 5e a1 3f e8 e0 c4 20 6e f7 c2 bf
       0.03392501373465538 -0.14817597007800676
000170 33 28 a1 c3 33 e4 c3 bf cc d0 ae 79 2f e1 db 2d
       -0.15540167858336104 8.759277613896394e-88
000180 75 aa 50 3a a0 10 b0 3f 79 07 18 ca 37 a4 71 bf
       0.06275369094570656 -0.004307001044709818
000190 bf 17 28 10 11 50 c7 3f 92 3f 32 89 47 c5 71 2e
       0.18213094033143126 5.717206516983704e-85
0001a0 dd ce ff 05 72 1b 1a 2f 23 fe f8 67 64 10 bc bf
       8.600855028341995e-82 -0.1096251252974914
0001b0 a3 f6 8a c7 1b 06 b2 bf e2 ec 35 e9 85 28 7d 2c
       -0.07040570851946852 2.184155078024559e-94
0001c0 39 08 fd f7 3a 8d 83 bf 6c 73 eb 04 d4 eb 52 2c
       -0.009546719258313728 3.5433181172585746e-95
0001d0 e2 a0 7e 9a 45 20 b9 bf 15 11 a3 55 05 bf 96 bf
       -0.09814867994157653 -0.022213061668268603
0001e0 59 08 24 24 62 e7 50 3f 9c fb 85 b5 48 60 c9 bf
       0.0010317285928640645 -0.19825085509725404
0001f0 ce b8 08 c5 6d 06 92 b1 72 d4 6d 46 89 bf c9 bf
       -6.529185349058633e-70 -0.20115772189061293
000200 7a 5e 87 e7 b6 78 97 bf d9 41 53 92 78 56 bd ac
       -0.02292142665996131 -3.5161594412522515e-93
000210 c4 bc 05 d5 a6 4a 2b 31 da 5e 1a 1e 6e 25 20 ac
       7.723251406463053e-72 -3.779566832463194e-96
000220 0d 69 50 d7 35 05 88 bf 60 f9 34 5f e6 15 43 ac
       -0.011728687890400847 -1.7870470302766683e-95
000230 e3 f3 bb b5 53 3a 98 bf e2 20 69 9b f3 31 9f af
       -0.023659999816107457 -2.630921325880958e-79
000240 cc 9b 44 f4 28 8a e6 af 41 58 b2 df 8c 26 b0 b0
       -6.083016864410653e-78 -3.570667318961975e-74
000250 1c 4d bf 2e c3 8d 98 bf 3c 3d 23 79 a1 e8 96 bf
       -0.023978280761935186 -0.022371790903716646
000260 7a 3c 1e dc a5 bd 97 bf cc 9c ce fe 6e 4b 86 bf
       -0.023184386787360435 -0.010886065627188656
000270 af fb 52 61 78 92 93 bf 80 5e 53 5e 81 e4 1a 30
       -0.0191134271051358 5.806225447517427e-77
000280 56 3f a3 ad cc 91 95 bf 4c cc e2 f8 90 25 33 2e
       -0.02106399354744267 3.849959533080376e-86
000290 93 c0 95 00 b6 70 98 bf 63 29 34 b9 c3 40 38 ac
       -0.023867458139136998 -1.1354463344116162e-95
0002a0 49 40 1c d5 cf ef 7c 2f 2c 7f 82 f6 92 b7 98 bf
       6.101142093910846e-80 -0.02413777951789979
0002b0 b5 3e 71 6b ae bf 92 bf 4d 75 93 58 28 92 b3 2c
       -0.018309331233750743 2.345593637651715e-93
0002c0 e2 3c 36 7b c2 2f 97 bf 52 3b 2e 63 93 5f 13 2e
       -0.022643126268630527 9.738808326891068e-87
0002d0 ee ff f7 4f 7e f8 96 bf ad fd c6 02 ed 59 59 ae
       -0.022432302122979246 -2.039017756866621e-85
0002e0 79 b9 5d 26 bb 05 92 31 18 34 22 80 b5 5b 29 34
       6.528198091028751e-70 2.019900210094042e-57
0002f0 21 f0 b4 79 54 d8 d7 ac 21 fa c9 a4 da d3 96 bf
       -1.1431398935371158e-92 -0.02229253416816779
000300 19 52 2c 6b 7c e0 c5 3f b8 35 dc 60 c0 8d 8d ae
       0.1709132693582809 -1.901618234396959e-84
000310 a8 18 95 6e 85 ee 55 2c ca 56 c0 f3 a9 2a 52 bf
       4.107089255008475e-95 -0.0011088046730995276
000320 a3 51 51 2d 30 82 c1 3f 55 24 b2 e4 64 71 94 2c
       0.13678552830482457 6.125264370302773e-94
000330 d7 a4 b6 0e f6 4e c9 3f 8f b2 e8 b1 c4 17 be bf
       0.19772220343046484 -0.11755017608147454
000340 33 11 ee df 32 7d d2 ad da 0a 31 50 f1 79 39 b1
       -5.808928738113102e-88 -1.4419096539716477e-71
000350 3d 19 22 c2 43 d6 95 3f f8 ee 08 92 6d 18 be bf
       0.021325167392683076 -0.11756024184517944
000360 d6 eb 51 c1 66 4e cd bf f7 2b 69 75 53 a1 c1 bf
       -0.2289551204629265 -0.1377357791228346
000370 73 a2 a6 99 1e 29 aa 3f ac 29 a8 47 7f d3 dd ae
       0.05109496713277375 -6.141275233603422e-83
000380 25 9e b9 6a f9 15 97 bf b6 39 cf 44 d3 ab 93 bf
       -0.02254476274393204 -0.019210148882672327
000390 1d aa 8d bb 2a 1d c5 bf f5 67 d7 d0 cc 9a 54 31
       -0.1649526038921331 4.6647359925229174e-71
0003a0 fd 70 7e fc 2a 26 13 b0 3c ee da d1 63 0b cc 3f
       -4.134369961082664e-77 0.21909759280048202
0003b0 87 b8 f5 1e 57 0d 55 3f 2e 26 1a 19 b0 41 ab ac
       0.0012849188604735788 -1.6333638186198013e-93
0003c0 16 cf 9f 9b a8 2b cc bf 19 66 9e 1c 9b b7 68 30
       -0.2200823554882098 1.7076959734240118e-75
0003d0 53 3d 67 99 cc 92 cf bf 7e 97 7e 26 12 5b a4 3f
       -0.24666745653528696 0.03975731582549623
0003e0 2c e1 d7 a6 28 60 73 3f 2c a3 f0 74 78 04 90 bf
       0.0047303760488762 -0.015642053735209036
0003f0 6f ff 50 0e c4 d1 c3 2d 11 08 fb 0d 21 2f c3 3f
       3.113448843316947e-88 0.14987576658865057
000400 0d e0 32 8c 5d e5 c9 3f 86 f4 b9 4d 9a 53 15 ae
       0.2023121771396749 -1.0720680070333859e-86
000410 44 85 7a 53 f3 44 7c 3f 6d 10 ee 88 9a 0e 91 bf
       0.006901693813831603 -0.01665727101091401
000420 7c 06 bd 16 9b 9d b6 3f 72 ec e8 d3 a3 0f 93 bf
       0.08834237389694438 -0.018614349183036123
000430 b2 e1 5f 5c c7 c5 7d bf cd 83 28 66 05 b0 8e 3f
       -0.007268694642327865 0.014984171085474696
000440 98 1b 49 13 28 df 36 30 fd 03 72 aa a7 df 31 3e
       1.9752390169070068e-76 4.161533929200231e-09
000450 93 76 e7 58 f9 72 a5 3f 25 5d 04 57 d5 b0 b4 bf
       0.041892807104642625 -0.08082326292457205
000460 2a f7 4f 07 f2 18 c4 bf 03 58 95 ab 01 90 af bf
       -0.15701127392815667 -0.061645557589756116
000470 56 f4 6f cf 6e 3b b1 3f 9f c5 d7 e5 44 46 4c 3f
       0.067313123363378 0.000862868920817817
000480 51 d8 82 d8 a1 92 b1 bf 71 9b 14 27 59 d3 79 bf
       -0.06864367996135569 -0.006305073025294359
000490 ab 8a 3d 60 02 cd c3 3f 7e e1 9b 7b 47 83 4a bf
       0.15469388674963133 -0.0008091067349758477
0004a0 ee 76 0d 5d 11 44 60 32 97 e9 a3 ad bf 96 b2 bf
       4.826683122663643e-66 -0.07261274327530597
0004b0 81 38 f1 4f 4b 91 cb bf bf 57 91 50 df 9f 49 bf
       -0.21537152675086094 -0.0007819977191825185
0004c0 91 22 03 76 87 d5 c4 3f 96 40 5e b4 9a e8 99 bf
       0.16276639234844884 -0.025301377543258306
0004d0 e9 3c 8e 04 24 d9 c2 bf f4 05 6b d5 ce 23 c1 bf
       -0.14725160810892327 -0.13390527172855082
0004e0 ae 7f 69 79 7a 45 c1 bf de 2c 15 98 dc 5f 78 bf
       -0.13493281296086707 -0.005950795837019044
0004f0 ba 2d 31 9b 4d f4 71 bf e5 d9 ab a4 ce 13 a6 bf
       -0.004383376263898448 -0.04311986694476725
000500 85 25 80 22 47 67 93 3f 05 f8 06 8a 1e b1 33 ae
       0.018948661309001764 -3.959572125141889e-86
000510 99 a9 f7 cf 9e fa 78 bf 99 fa be 04 8f 82 82 3f
       -0.0060983852012931545 0.009038083393418094
000520 f2 ad 9f 44 c0 5b c6 bf e5 f1 aa a3 b8 d8 90 3f
       -0.17467501974839156 0.016451725949751767
000530 37 8a c3 98 89 c7 9b 3f 96 01 0d dc 7c 01 c4 bf
       0.027128362606968017 -0.15629540199917064
000540 e4 48 9a 79 9f be 26 30 c2 c9 6f b9 15 b5 36 2e
       9.821318988782561e-77 4.565916304531321e-86
000550 d5 3d 05 b0 b4 3a c9 3f 0a 20 93 fa b3 59 c2 3f
       0.19710405916929 0.1433625195988955
000560 3e 51 f0 89 4c 13 c0 bf 44 ae 87 e5 79 70 a9 bf
       -0.12558895812311194 -0.04968624998931806
000570 9f 58 51 db 84 49 c8 3f cb 56 da 1d 4d ab bb 36
       0.18974362095713546 4.846591379606612e-45
000580 17 52 d4 13 cb 0d b8 3f 02 4c 4f e0 46 0c 6a bf
       0.09396046861758865 -0.003179682188127143
000590 17 d0 19 1c ed 38 c5 bf 02 4e de ca 51 83 32 ac
       -0.16579975006209288 -8.667171894060664e-96
0005a0 44 bc 03 2b c9 6d 42 b2 47 3c 13 9b 3b a4 c8 3f
       -1.367128137009681e-66 0.19251198837307212
0005b0 18 b9 b4 eb 89 b5 cf bf e6 5a cd 5b 84 84 82 2c
       -0.24772762307242924 2.7741958085820573e-94
0005c0 25 11 a0 6b 49 d1 4d bf ec 16 0b 6d b2 f7 74 3f
       -0.0009099586961842972 0.005119034744614597
0005d0 0c 43 12 50 64 2f d0 bf aa e7 75 91 4e 35 91 3f
       -0.25289256877390254 0.016804912212570557
0005e0 c0 5a cd 80 a0 78 48 3f e5 70 50 62 be 64 9b bf
       0.0007468017298418381 -0.026751494169830265
0005f0 4e 5b 4d e2 a6 0f 6b 38 a6 f3 fe 7f bb 5f cf bf
       6.362043485828346e-37 -0.24510902166175902
000600 ff cd 4b 9d 40 8a c0 bf 61 14 13 e6 04 f3 36 2f
       -0.12921912842249125 3.024199934002993e-81
000610 c8 9c da b7 43 f6 74 bf 04 99 ba 15 3d a6 b9 3f
       -0.005117668651713099 0.10019284992685945
000620 b8 ba 5b ca c4 c9 ab 3f 8c d6 ba bf cf 92 90 3f
       0.054273748113577935 0.01618504150129367
000630 d7 10 6c ba 57 fa c3 3f e3 0c bb 77 a2 81 9b bf
       0.15607735254901087 -0.026861704404621
000640 61 ec d8 b6 7f 08 2c 31 29 0c 32 10 fb e6 d4 33
       7.933114111457886e-72 5.203005429128486e-59
000650 2e 8b 3c a6 f2 6a c4 3f 37 85 d4 99 06 cc a3 3f
       0.15951378933922328 0.03866596820649664
000660 68 3a 92 e5 0d 99 a2 3f 92 2e ee e7 d0 68 b4 bf
       0.03632396151907785 -0.07972436582911716
000670 a4 de 32 46 4a 8c cb bf 05 00 de ca 08 48 c6 36
       -0.2152188151137483 7.805717352359228e-45
000680 3f 35 07 81 37 9b bf bf 0d d2 3a ce c9 09 92 bf
       -0.12346217060185881 -0.017615464412942972
000690 db 9c 53 c6 55 4d b2 3f b6 63 6d d3 61 ca ff ae
       0.07149253932913117 -2.6182994194684966e-82
0006a0 d9 bb 21 ac 09 93 aa 32 76 fd 0d 0e 91 de 98 bf
       1.2616934793609168e-64 -0.024286524279430087
0006b0 08 e7 f8 2b cd e6 d0 bf 0c c6 59 4e fd d5 72 be
       -0.2640870026985884 -7.016918209827376e-08
0006c0 46 6b 55 b8 ad 8c b1 3f e3 af 29 35 87 48 93 3f
       0.06855283499082274 0.018831360454370737
0006d0 5b bb 59 90 3b 85 c4 bf f5 7b 37 3e b7 a4 b0 bf
       -0.16031593845715517 -0.0650133635422064
0006e0 ea ce f5 a9 f7 49 92 3f 89 73 60 a7 04 92 79 bf
       0.017860288380190527 -0.006242769412008972
0006f0 a9 b6 ea 5b 1c 5d 01 3f 55 6b b1 06 91 84 ca bf
       3.311865611031518e-05 -0.20717060877617635
000700 3d 8b f3 5c 8a c6 7d bf 98 20 fd b5 06 6b 70 2c
       -0.007269421082329694 1.2298255278900517e-94
000710 14 73 27 15 c8 31 4f 31 4a 82 98 36 16 52 0c 2d
       3.531087652185428e-71 1.0861619137030458e-91
000720 f3 61 d9 f1 b1 43 7e bf 7f 05 98 71 4d af 70 2e
       -0.0073887778249503875 5.367865155202177e-85
000730 e8 ea 1f fa d2 38 7e bf 3d a5 2c 5e 75 2e c3 2d
       -0.00737841046247454 3.01323744725492e-88
000740 28 70 eb f5 0e a8 a1 ad 2c d1 49 f6 72 4c b5 ac
       -6.934184171955073e-89 -2.5526601888813335e-93
000750 5f 8c ea 35 95 51 7e bf 41 54 fa ef 4f a5 7d bf
       -0.007402022222467413 -0.007237732177277912
000760 e4 95 a5 59 02 49 7e bf 61 52 33 e3 f6 f8 7e bf
       -0.007393845730211155 -0.007561649708084235
000770 01 50 cb 38 cf cf 7d bf a1 c8 b0 38 a9 a5 93 b1
       -0.007278260670052107 -7.11671813812333e-70
000780 db 8d 6c 83 06 44 7e bf 43 6f ce 84 b9 ec 61 ae
       -0.007389092867728898 -2.8833892293074836e-85
000790 c4 8b 2b ae bf 07 7e bf bf 73 a3 86 22 fb f2 af
       -0.007331608535170401 -1.0245192319985257e-77
0007a0 74 66 e5 1a 9f a2 96 ad 59 5d d1 30 1d 2c 7e bf
       -4.4447403999852264e-89 -0.007366289163733463
0007b0 7e b9 9b db c2 bb 7e bf 98 4d 8e c5 e3 a1 b7 b1
       -0.007503281749207223 -3.424116242891803e-69
0007c0 48 b1 cd 4d c3 f5 7d bf 48 70 d9 d5 c9 16 cb 31
       -0.007314455896317469 7.849902300629796e-69
0007d0 17 89 e5 ce a6 4b 7e bf 08 18 57 8d a7 6a be ad
       -0.0073963657326621335 -2.3890884202871432e-88
0007e0 e4 7c b2 7b 88 14 07 b1 29 33 d9 8a a0 d3 96 3b
       -1.6328668188335956e-72 1.208433764885961e-21
0007f0 2c 88 9a aa f9 a5 71 2c c0 18 0a b5 5b 44 7e bf
       1.321981121454665e-94 -0.007389410239403371

lin1.weight f8 [32, 64]
000000 99 e3 14 2a f8 fc a4 bf 57 ff c4 1e 87 da 8d bf
       -0.04099250329676991 -0.014576964975844637
000010 8f ec 66 66 eb 47 a8 ad 22 71 a5 cd a9 7d 6f bf
       -9.535790609946633e-89 -0.003844100615579064
000020 d8 fa 29 db d7 6f bb bf 4c c6 f9 89 c2 97 87 bf
       -0.10717534161265563 -0.011519927821811347
000030 a7 5f 18 eb 4a eb 94 bf e0 4f fd db 49 c6 d6 2c
       -0.02042882022769246 1.0918209548982033e-92
000040 1c 14 fe 93 ba 3c 26 2d 91 0d 88 9a 58 8d 38 2d
       3.41139378092565e-91 7.533044801204883e-91
000050 b9 31 0e 96 d7 26 5e ad 72 70 bb 3d 48 04 6b 2c
       -3.700441159844668e-90 1.0118685875146964e-94
000060 67 6b df 9d 22 59 38 bf 84 6e 5b 36 cd a1 3f ac
       -0.00037152381071130783 -1.4809096220969752e-95
000070 a1 f2 25 18 30 9f 23 ac be 8c 7d fc 13 25 51 2c
       -4.593152318165198e-96 3.210662972812038e-95
000080 62 47 46 e5 35 f3 c0 bf 12 32 fb 3f 22 fe 54 3e
       -0.13242219634099245 1.955098483004307e-08
000090 a9 c6 46 43 04 f5 fb ac f6 6c fb a9 ef a4 13 2d
       -5.361093700437573e-92 1.5068065048410363e-91
0000a0 dd ad 5b 22 90 2d 99 3f 1e af a4 c1 b3 36 26 bd
       0.024587871644070936 -3.945942304511995e-14
0000b0 d0 34 2e af c4 63 ac 2c bd 8e ed 0c 82 0a b4 ac
       1.7012669496162855e-93 -2.4019378036875747e-93
0000c0 bd 0f 20 b1 b3 b3 90 2d 7a ce 1b b7 1f e5 74 3f
       3.279659431598906e-89 0.00510132206703739
0000d0 dc ed 73 37 5a f7 7c be 43 db 30 85 61 bc 6d 2c
       -1.0790757963904345e-07 1.1137094950957613e-94
0000e0 4d f1 ef e6 53 24 9c 3f 0f 55 af 07 29 cb 94 2d
       0.027482329340260226 4.083108017723579e-89
0000f0 00 ed a9 70 1e bd 91 bf 53 3f 84 98 e4 b8 97 bf
       -0.017322993875933612 -0.023166248139261224
000100 55 e8 41 89 c7 43 97 bf 16 82 09 e1 6c 84 39 2c
       -0.022719495537309637 1.1946367619912114e-95
000110 14 ab 3f 50 16 46 5b bf 9a ed 2e 7e aa 3d 85 ac
       -0.001664659300326836 -3.1821740350358444e-94
000120 3c bb 14 d1 ea e6 77 2c 55 fd a1 f6 57 0f 56 ad
       1.7904243886786072e-94 -2.70735718727985e-90
000130 60 a0 6c 82 f4 24 22 ad 8a e2 a2 ba 42 9b a2 2c
       -2.783510595974511e-91 1.115002240238277e-93
000140 2a 51 7f 97 51 3a b0 bf 5b 48 42 62 d0 6e 79 ac
       -0.06338987301507318 -1.9050952468986449e-94
000150 f5 bb dd 4f e6 61 97 2f b4 51 64 ce 7e a0 9e 2c
       1.972016845111309e-79 9.176665406831087e-94
000160 95 92 86 1b ed b5 94 bf 20 a7 54 d8 79 43 a2 bf
       -0.020225243382486175 -0.03567105069880783
000170 ea f2 7e 14 fb cf 78 be 29 0b 07 ea f3 bb 7e b0
       -9.243348586449464e-08 -4.2468104047252104e-75
000180 9d 4d 8b 5f 83 ff 38 3b f4 34 13 d8 6e 8b 78 bf
       2.067794230270569e-23 -0.005992348656218772
000190 f8 ac 4d 00 9a a9 74 bf 84 c4 9e 12 e7 a9 94 b0
       -0.005044557158593969 -1.1421122683583812e-74
0001a0 ba 1a 0a fa 58 f5 f0 ac db cd 7a fa b2 98 72 bf
       -3.25196547903414e-92 -0.0045401564927262895
0001b0 90 b5 a4 97 50 8e 8b bf 1c 30 c5 49 4c e7 07 ac
       -0.0134550377157108 -1.3988560916471952e-96
0001c0 a4 31 68 a4 d1 e1 a2 bf eb 55 7f 7e c9 6f 6c bf
       -0.03687911159440496 -0.0034712729866252976
0001d0 9d 83 d8 92 56 a6 a4 ac 7b 96 b3 c7 5f 27 96 2b
       -1.237446222586575e-93 1.0128608022428056e-98
0001e0 98 27 4e 88 37 9a 66 ad 1b 0d 80 dd 29 f7 b6 ac
       -5.547867126651954e-90 -2.75243409122101e-93
0001f0 90 e5 85 65 a0 e4 b3 bf 44 86 a4 c1 ad 53 6a 3f
       -0.07770731428708744 0.0032137292556775627
000200 d8 5d 18 8d 04 9e 49 ad 25 44 87 79 eb f6 7d bf
       -1.5719688583495859e-90 -0.007315559218526811
000210 90 16 1e d8 3f 7c 16 ac 45 89 0c c9 00 0b 79 bf
       -2.631728190197712e-96 -0.006114008968128031
000220 10 50 5c d7 62 59 8a bf 51 35 f5 b8 1a d4 8a bf
       -0.012865802953037103 -0.013099869508233527
000230 d7 52 9c f5 56 f1 8a bf 9e 41 9d c9 4e 24 58 ac
       -0.013155631418649545 -4.5209688629568016e-95
000240 80 e7 a7 f5 73 5e 82 ac a4 31 00 31 93 62 67 2d
       -2.7519203581763427e-94 5.739971884233685e-90
000250 75 6a fa c2 62 12 a5 2c b2 f9 2f e0 57 57 a1 ac
       1.2627384195019912e-93 -1.0391784196069161e-93
000260 8e fe be 44 2d 1c 50 2c 98 49 05 72 e7 7e cd ac
       3.016884554479011e-95 -7.0701778209169816e-93
000270 87 5c 39 49 e2 41 ea ac 92 33 c1 93 48 95 2a 2c
       -2.5175748042543842e-92 6.222682591848559e-96
000280 65 ba 73 1c 4e 42 8d bf f7 cf 10 f5 bb 99 66 ac
       -0.0142866232331162 -8.464667199017187e-95
000290 06 d4 ae 79 a4 22 98 ac 24 ce 36 37 80 fb 61 ac
       -7.231601102707757e-94 -6.735031575980648e-95
0002a0 4a f2 17 7a 05 02 8a bf ce 75 e4 53 99 8e 17 2c
       -0.01269916800355832 2.7571594184498672e-96
0002b0 68 1f 4e 79 bf ca 9f ac 69 eb 14 25 3a 2c 52 ac
       -9.525745952398781e-94 -3.4031596473942434e-95
0002c0 63 dc 04 4a eb 4c 50 ac f7 ab f9 9a 48 ef 8c bf
       -3.052540105006279e-95 -0.014128272275419447
0002d0 bf 02 1a 62 0b 2f 2f bf 0b 4b a8 6e a9 d2 39 ac
       -0.0002379132648009565 -1.2089445018524186e-95
0002e0 e4 88 0e 21 45 a3 8e bf 40 a4 27 2a 6d 91 8b 2c
       -0.014959850379288438 4.1300733020596397e-94
0002f0 40 c3 37 2d 24 f1 8a bf 0c 15 e0 ad c8 44 88 bf
       -0.013155253057421157 -0.011849944883588502
000300 18 63 4c 43 e4 e0 83 bf 4e 48 88 26 27 03 94 2d
       -0.009706290534766945 3.929693215431871e-89
000310 15 73 d8 a2 cc b3 77 bf c2 a9 f2 40 a0 c3 9d ac
       -0.005786704406571604 -8.918155708446541e-94
000320 54 98 cd 4c 76 bf d3 ac 3d 47 53 4e 40 03 68 ad
       -9.467214967890054e-93 -5.894029428056867e-90
000330 0e 17 b0 9e 59 3f a2 ad 5e 2c 6d 92 31 29 76 2c
       -7.166279418822919e-89 1.6600035326567704e-94
000340 bf b5 41 c7 05 18 89 bf 29 b8 d1 e1 94 c3 21 2c
       -0.012252850669223101 4.158262716935604e-96
000350 48 00 50 bb 7e 31 ca ac 62 19 44 87 ac 1e b3 2c
       -6.278591520356286e-93 2.2915279244123586e-93
000360 52 53 f2 34 77 48 8d bf 2f 70 1e 41 cf 3c 8a bf
       -0.014298373511601934 -0.012811297583361718
000370 30 4d 38 cf fb 2b 55 2c 34 7a d7 9a 74 0e a3 2c
       3.964782688523548e-95 1.1419674852084643e-93
000380 13 e4 46 1c 1d 95 62 2c da 99 d3 00 9d 9c 88 bf
       6.959770870446988e-95 -0.012017466151928714
000390 94 05 82 89 6e 6e 8a bf 31 b5 b4 17 30 bb 6f ad
       -0.012905944415481575 -7.78857196276778e-90
0003a0 5d f7 89 9b 23 d4 15 ac 03 d8 5d eb 93 44 70 bf
       -2.55486900919423e-96 -0.00397165089622398
0003b0 7e 97 f6 b9 a3 5a 81 bf 31 86 15 da bd 53 76 2c
       -0.008473662483833296 1.672453271259167e-94
0003c0 48 b8 8f f0 e9 19 8a bf 99 52 29 e5 aa 9f 84 bf
       -0.01274473920235776 -0.01007016670079368
0003d0 b0 53 46 04 e4 f8 27 2c 51 0c f7 69 10 b5 86 2d
       5.6115109444856e-96 2.2294433648141404e-89
0003e0 93 1f 55 7d 6e b4 2f ad 8c b1 39 7b 53 de 76 ad
       -4.863808755946646e-91 -1.1226341404851686e-89
0003f0 72 5d 4c bb 84 71 8d bf b8 68 62 b9 09 2d 55 bf
       -0.0143766755732446 -0.001292476173637298
000400 d2 d8 e3 e0 2c 0e 44 3f bb de 98 a3 63 44 b1 3f
       0.0006120413907229289 0.06744978660651217
000410 28 88 62 ed 79 9a 9c bf 06 ff d2 6f fc f9 c0 3f
       -0.027933030237029893 0.1326289697662945
000420 db 31 76 9c 44 c3 ba bf 2a 66 bc 07 0e 72 ac 3f
       -0.10454205341211013 0.05555766910965716
000430 99 64 3e 9a 7d cd 99 3f c7 e7 8a b3 6f 52 8a 3f
       0.025197947062768653 0.012852547327714249
000440 ef da 6d 8c 09 a0 96 bf ae ac 3f 3b 6d 55 d2 ba
       -0.022094868847001455 -2.3695749270816887e-25
000450 8c ae 29 56 cd c6 99 3f 03 a8 05 d8 4c ec 7c 32
       0.025172432311974677 1.7165047335426836e-65
000460 ca 12 63 e1 c8 19 a7 3f 2d 5e c9 97 38 38 76 bf
       0.045118596566259564 -0.005424710336761102
000470 cd a5 c9 b5 48 54 8e 3f 90 ac 47 2d 3c 57 73 3f
       0.014809196517677226 0.004721865716855636
000480 36 b4 24 38 b0 bd b7 3f 42 a0 cd 60 f0 91 90 3f
       0.09273816462219106 0.016181713016891537
000490 36 5d da 37 b4 57 af bf de b3 64 3d 89 7e 8f 33
       -0.061216003244391734 2.449867445570572e-60
0004a0 9a 4f 96 2f 36 69 bc 3f 28 52 82 10 18 4d 97 3f
       0.11098040258212763 0.0227550277782759
0004b0 ac 76 97 cd 3a c0 f8 b3 2d 97 1c 0a c9 bf ad 3f
       -2.46440338903262e-58 0.05810383079942336
0004c0 00 da cf de b0 be 80 bf 13 17 94 6c 51 9e 96 bf
       -0.008176214027099782 -0.02208831048212463
0004d0 8a 49 05 a8 36 19 b6 bf 5e 88 e3 a5 00 e6 47 ad
       -0.08632222749773724 -1.4664963987741317e-90
0004e0 87 d3 8b 2c 4d 88 b2 3f d0 6c 97 e2 b1 2e 9c 3f
       0.07239229524186729 0.027521876769111497
0004f0 65 c4 af 64 f4 f2 87 3f ff 3b e7 30 57 75 81 3f
       0.011693867991171733 0.00852459066382316
000500 2e ca fa 4b 9c c6 aa 3f 9f 58 59 b2 5b 53 98 3f
       0.0522965281246751 0.023755486259994126
000510 f6 63 6c 0e 3d d4 b4 3f 3d 55 a4 34 15 a0 95 bf
       0.08136350252279087 -0.021118480051048428
000520 28 07 00 3b 53 16 85 b3 90 22 4d 30 c5 ff 96 3f
       -1.6403251802013868e-60 0.022460061142995758
000530 4a c1 2d 29 91 3b 94 bf de 8d c1 2b 7c b9 29 3f
       -0.01975848020396257 0.00019626274832083753
000540 0d b2 46 d4 54 80 65 3f a2 40 33 c7 77 1f a0 3f
       0.002624669725454837 0.031490080896788855
000550 a9 16 ca 5b 00 b3 1a 3e 75 dd 7a 6a 80 9e 37 34
       1.5540993901129739e-09 3.762747198846239e-57
000560 33 c1 04 00 4f f1 a0 bf 57 82 64 84 d6 b7 c2 bf
       -0.03309103846766206 -0.14623528923495385
000570 bb a9 50 15 fc 54 65 bf 20 cb 88 f4 95 cf 97 3f
       -0.0026040004254543592 0.023252814340774752
000580 ea cc 41 e0 ea 3a b3 3f 6e e0 98 f8 c5 14 bb bf
       0.07511775946641178 -0.10578572577731091
000590 65 b6 2f 6b a0 fd a8 3f 9b 4e 0f a6 66 3b e9 3e
       0.04881001766612484 1.2031571886262588e-05
0005a0 02 a5 bf 3a d2 67 09 bf 1e 96 51 44 f9 18 be bf
       -4.845724410513544e-05 -0.11756856840073523
0005b0 df 1f 9f bb 0d 74 af 3f c8 cc 26 1a e4 60 91 bf
       0.061432294037842665 -0.016971172424473463
0005c0 80 fe 04 73 31 98 97 bf ee 89 58 96 e9 b9 95 3f
       -0.02304150833629004 0.021217012215979318
0005d0 0a 83 9d 03 36 2a 83 bf 1b 9e 4a 00 6a ec 8a bf
       -0.009357854829148877 -0.013146236547370063
0005e0 a3 a6 84 c7 16 5a 9c 3f d3 1e ed 8f 3d 28 97 bf
       0.027687412192938365 -0.022614442739068274
0005f0 9f f4 6d 41 1b 08 c0 bf 3b b7 56 ed 3d 97 75 bf
       -0.12524738974380953 -0.005271188643218678
000600 5a 98 bc 68 c3 95 2f ad 50 3d 12 34 51 f8 9d 3f
       -4.845430647090262e-91 0.029267567446877252
000610 19 71 88 ed c0 19 32 ad 0e 05 c2 ed 79 72 bd 3f
       -5.553596102945214e-91 0.1150280194724653
000620 1a 05 ab 76 da 0b 79 3f f4 16 54 d1 bc be b9 3f
       0.006114819882612888 0.1005666743331764
000630 b0 d5 51 87 dc 36 bc 3f 61 2f 91 66 81 96 c2 ac
       0.11021211913779072 -4.45555650973191e-93
000640 8c e7 1f c1 f0 ed df 2c 0f 86 66 72 c9 f1 3d bf
       1.5307097485868081e-92 -0.0004569165052093768
000650 88 07 d3 d3 95 67 77 ac dc b9 e9 eb a0 ac 73 2d
       -1.7531664409334804e-94 9.658312713338907e-90
000660 d3 1d d0 42 2a 52 a5 3f 34 56 22 65 73 21 8e 2c
       0.04164249482715445 4.5139850056538057e-94
000670 95 f4 82 db fb 99 c2 2c 7f ec 2a 06 52 8b 94 3f
       4.458813408647185e-93 0.02006271517414548
000680 cb 2f ce 4b e6 98 82 bf f2 0d 03 9f a0 1d b1 bf
       -0.00908069533195279 -0.06685832864882693
000690 29 25 d6 24 62 1f a1 3f 88 c6 22 76 15 84 80 ad
       0.03344256114639627 -1.6215670874634806e-89
0006a0 48 29 d9 c1 0e 27 ad 3f 3c ef d8 75 6a bc 33 ad
       0.056938611186142796 -6.055366622502758e-91
0006b0 d1 45 78 f1 b9 65 74 ac 54 8b ac 43 64 65 b0 ac
       -1.5279020462709878e-94 -1.9650829274877323e-93
0006c0 fb db aa 9c a0 24 82 2d 7a a5 93 d4 a9 37 ab bf
       1.7813210915403813e-89 -0.053159053038892304
0006d0 ef 11 54 c5 d3 85 b3 bf 4a 4f 9e bd 51 fd 83 2e
       -0.07626079146945818 1.286215615154903e-84
0006e0 3e f4 f8 a0 3d 13 a7 bf 34 a0 f2 be 41 8e e6 2c
       -0.045068670177422096 2.1626561295647682e-92
0006f0 73 14 74 49 c0 6a 94 3f cb da a9 e9 75 78 b4 bf
       0.019938473208658224 -0.0799630828349606
000700 fa e9 80 6d c9 4d 87 bf 13 e1 a5 28 12 a4 aa ac
       -0.011378835348399886 -1.5964682411563246e-93
000710 5f e9 e0 19 27 2a b3 3f f7 a7 dc 12 78 22 57 ad
       0.07486194974709325 -2.8392533253850407e-90
000720 9f 9a 8f f9 8e ff 26 2d aa 16 c9 e4 49 c3 a1 3f
       3.5281463545907053e-91 0.034693059137265905
000730 6b 6e 1b 47 c3 8c b1 ac ff 7e 5e 1b 73 ac 55 3f
       -2.1033661385599405e-93 0.0013228534785198474
000740 d4 e3 6f 41 b0 f6 bc bf 01 2f 39 27 ae d8 15 2c
       -0.11313916776261063 2.5569452201489195e-96
000750 4c 41 cf 3f 64 97 e2 ac 5d 74 91 8f 02 a8 60 2c
       -1.7825544888122825e-92 6.238348377513408e-95
000760 24 2c 0a 53 b9 ac b4 3f 6d 87 db 6f a0 d9 ab 3f
       0.08076055791222864 0.05439473500679424
000770 9c 34 70 de 51 8f 4f 2c a5 a7 ff 7d 14 45 3d 2c
       2.9550594118342448e-95 1.3703193626016894e-95
000780 78 8d 42 ed e6 f5 bd 3f 3b f9 97 1c 41 33 bc bf
       0.11703341763000263 -0.11015707920157507
000790 0e 65 65 11 7d 97 bf bf 54 fb d2 5b 60 37 de 2c
       -0.12340528177937335 1.4485811516716935e-92
0007a0 56 b2 cd 74 aa 3a 05 2c 95 32 28 49 72 5e be bf
       1.242350907283196e-96 -0.11862863813457587
0007b0 d1 c2 ba f2 66 8f b7 3f ad 42 20 56 f4 b1 91 bf
       0.0920318930245785 -0.01728040481254094
0007c0 2a c5 b1 08 f2 10 b4 3f 49 55 97 9d 0f 5b a3 bf
       0.07838356697336182 -0.03780411528320344
0007d0 c6 d6 e8 73 23 c6 d3 2c d7 6d ec 09 89 18 76 bf
       9.479717624234613e-93 -0.0053944924427713125
0007e0 48 7d 69 47 70 4f 41 ac d6 6e 15 dc ea 2d b0 3f
       -1.6208250986320025e-95 0.0632006442369247
0007f0 61 a2 7a 2e a5 9b 7b 3f c1 bf 30 ff 6f 98 b4 bf
       0.006740231743301268 -0.08045101146922119

lin1.bias f8 [32]
000000 7f ca 84 90 46 ac ab bf 68 e4 1c c1 21 9c 84 bf
       -0.05404873384613484 -0.01006342287620239
000010 01 92 96 f0 34 03 b0 3f 3c 0f bf 0f 59 83 ac bf
       0.06254893182501321 -0.05568960492339989
000020 30 1b 65 da 3c 21 85 bf 8e 5d 1a 93 cb f7 bd 3f
       -0.010317302145848112 0.11706230489141076
000030 87 12 3f 01 11 34 7d 3f fe 5a fa bf 9c 35 b7 3f
       0.007129732537525363 0.09066180884324734
000040 d0 b1 aa f3 d6 1d 83 bf 69 16 bb 33 4b e2 b2 bf
       -0.009334258376235832 -0.0737654687210011
000050 50 84 2b 32 6b 90 a8 3f 03 12 d6 67 fe 3e c3 bf
       0.047976827501550745 -0.1503599173558002
000060 0b 66 31 b1 d1 6f c2 bf 80 3a 72 53 54 89 a9 bf
       -0.1440374484252945 -0.04987586516027864
000070 4a 7c e0 8d fc 78 9a 3f f7 e8 aa b7 34 1d 72 bf
       0.025852152022818133 -0.004422384192986898
000080 a6 89 15 29 01 e7 9a 3e 93 b6 54 fb a2 4b b7 bf
       4.0087642457476455e-07 -0.09099787364967886
000090 70 d3 2f ea 34 d8 ab 3f a3 1c 6d d8 86 bd bb bf
       0.05438390120244818 -0.10836069854586809
0000a0 e1 51 f9 db 07 2c 86 bf 19 b2 1c e8 6a aa 9d bf
       -0.010826169395991183 -0.028970404068944775
0000b0 7b bc 65 ac 7a d0 83 bf 91 fe d9 49 71 d9 c1 bf
       -0.009674986253882736 -0.13944831949264772
0000c0 f8 33 ae 61 70 3a 7e bf 0e 75 44 c8 4f ed a7 3f
       -0.007379950514303062 0.046732419201569994
0000d0 3a 50 e4 51 52 92 a7 bf 93 40 eb fc 41 d1 90 bf
       -0.046038219925464266 -0.016423255025813942
0000e0 1e ad 7e e4 63 e4 9d bf 0c 11 4c 2d 04 a4 b0 3f
       -0.02919155199167022 0.06500269037139023
0000f0 4a 6d cd b3 9b 86 9a bf 93 ac b3 43 3f 7e 9e bf
       -0.02590411457945877 -0.029778469569390408

lin2.weight f8 [1, 32]
000000 d7 b8 7c 29 2b 83 80 bf 68 e9 e5 3b 95 1f 60 b2
       -0.008062684253300407 -4.784392514966028e-66
000010 0f 4b 07 49 4d c6 a2 3f 0d 73 21 cb a7 27 c2 3f
       0.03666917339764641 0.14183518808831544
000020 7f d2 71 bc 9a fe 49 3f ac 52 f0 a6 4e cc 87 3f
       0.0007932906672879074 0.01162015387493772
000030 b3 b9 3c d7 f5 3e b5 3f 4d 14 15 76 5c 31 98 bf
       0.08299194817366277 -0.023625797946142325
000040 e2 be 85 e1 72 c9 6d bf 3b 4f ce 9c ab 32 a7 3f
       -0.0036360973137375832 0.0453084591782997
000050 58 d2 d0 54 7e 03 a9 bf 53 0f 89 eb 01 3a c0 bf
       -0.04885477815006273 -0.1267702484202525
000060 6f 75 37 c4 ef 52 62 3f c0 ad b2 6b 9b 7e a1 3f
       0.0022368128718272466 0.0341690606086007
000070 27 7b 02 fa 9e e9 b8 bf 80 8f a4 5e 69 90 7f bf
       -0.09731477359535444 -0.007706081009278054
000080 78 11 f4 a4 63 5e 41 2d 26 19 4b c9 c5 eb 7e bf
       1.0658076338543218e-90 -0.007549069025748067
000090 35 99 17 06 c6 b3 a0 3f db b2 fd ac 57 ee 95 bf
       0.032621563190149784 -0.021417016919644687
0000a0 ab 5d 99 3c ec 3e 8b bf 79 2f b3 f1 da 82 62 3f
       -0.01330360946592076 0.00225966227080748
0000b0 b9 5a 43 e4 fd 57 95 3f 09 ae 63 71 81 b5 a0 bf
       0.02084347444255272 -0.032634778110004765
0000c0 c5 48 d9 00 ee 0b 6f 3f f9 cb b8 27 e9 4f 97 3f
       0.0037898682119613413 0.022765772866659238
0000d0 3e dd cb a4 9f e3 93 3f f3 f0 0d 1e 7a 2a 04 bf
       0.019423002656336445 -3.8463451125432794e-05
0000e0 9e fd c3 d3 05 63 be bf 88 a2 81 40 ba 9a a5 bf
       -0.11869846744592968 -0.04219610249930833
0000f0 62 fd ea c6 39 14 97 3f 63 50 d2 0d 07 2b 6e 3f
       0.0225380923900479 0.0036826265118837117

lin2.bias f8 [1]
000000 50 77 36 4f 97 b3 86 3f
       0.011084730248338254
