Q2/models/A3TGCN/2/d1/lastmodel.pth (torch, 59448 bytes, 15 tensors)

tgnn._attention f8 [12]
0.38835076341402935 0.9377281693301098 1.0064050799057058 0.9396013447230189 1.1297906439937573 0.8069182510148123 0.3160289816559397 0.22633112361755797
-0.1896816330146557 -0.2163602746781199 -0.5147010880049002 0.8122749579770677
00000000: 595a 0f29 bdda d83f d8f1 7981 de01 ee3f
00000010: 8792 8b36 3c1a f03f 9a9d dbd6 3611 ee3f
00000020: be7a b45a 9f13 f23f b2ee 5439 46d2 e93f
00000030: 7d3a 339f d139 d43f 5e8e 0013 6bf8 cc3f
00000040: b593 39dd 7c47 c8bf 78b3 f287 b1b1 cbbf
00000050: 134b 866a 6e78 e0bf 87e1 7b0d 28fe e93f

tgnn._base_tgcn.conv_z.bias f8 [32]
-0.10061985251302664 -0.11635639312440817 0.06930923128935013 -0.123780525843634 0.024644305401021048 -0.18751366933582447 -0.08140615470805901 0.12023598156805776
-0.13893627637122705 -0.18860234583831018 0.18655122262466475 -0.17505228387588856 0.13267704045760562 0.06236532167381413 -0.11580458107777733 -0.176823186000563
-0.15342793784468295 0.13955649655548655 0.13376598425153394 0.15007875694869177 0.13891252751601163 -0.11560859206132292 0.16274256824330582 -0.14312584251833319
0.1743660403280741 0.12371918287402461 0.10512664657735257 0.13531500676309144 -0.12647207178428865 -0.13662846437536036 0.17777091226397101 -0.07954819872408762
00000000: d12d dfff 38c2 b9bf b95c 2657 88c9 bdbf
00000010: 4cdb b2f1 3fbe b13f a24d 619e 14b0 bfbf
00000020: c68a eb56 5b3c 993f 6cd7 acaa 7200 c8bf
00000030: f80a 2aa4 08d7 b4bf ec23 a308 c9c7 be3f
00000040: 3308 9ff5 a9c8 c1bf b986 a925 1f24 c8bf
00000050: f5d2 1914 e9e0 c73f 7024 2bfd 1c68 c6bf
00000060: a705 d9ae 8ffb c03f ceb2 fcf1 58ee af3f
00000070: a6be 7478 5ea5 bdbf 3b02 8664 24a2 c6bf
00000080: 0ef6 aad3 86a3 c3bf 2938 53be fcdc c13f
00000090: 3fbb d667 3e1f c13f 9ca0 75dc c735 c33f
000000a0: decd 57bd e2c7 c13f 993c 0a52 8698 bdbf
000000b0: 6dd2 229c bfd4 c43f 6d12 6a96 f251 c2bf
000000c0: fbfc 5e5c a051 c63f 78ef 5474 0fac bf3f
000000d0: aee5 fc74 94e9 ba3f b64d 5a8c 0052 c13f
000000e0: 88df 15a2 3c30 c0bf a0f1 18a1 0a7d c1bf
000000f0: a84a 2d7f 32c1 c63f 33c5 f94f 455d b4bf

tgnn._base_tgcn.conv_z.lin.weight f8 [32, 1]
0.039826868581928326 0.19378383595301707 -0.030445485833967105 0.40472797592629717 0.029435821322252233 0.19345124424122495 0.01055460055404952 -0.0806350917149147
0.03923613691277195 0.19224413034035834 -0.1521196169681753 0.1902185895821087 -0.14187445188074752 -0.16066278498650716 0.35457663642684467 0.11947852824336426
0.07209873475827493 -0.3068824533495697 -0.23624674583995078 -0.2763343414118741 -0.0830140656867123 0.0637403613607616 -0.1500749596297063 0.23353691708222551
-0.17475821870336558 -0.031153231271504593 -0.09481788695269297 -0.3714941508159513 0.17761115029987184 0.2422648134818876 -0.14989593652371208 0.14659341377075902
00000000: 4479 1ff4 2f64 a43f 88b0 f4a2 e8cd c83f
00000010: fef1 def7 192d 9fbf 5c4d 182b 10e7 d93f
00000020: eacf a387 6c24 9e3f 1c7b b1a7 02c3 c83f
00000030: edaa 9d81 a69d 853f 3a55 d359 80a4 b4bf
00000040: 3135 b949 c216 a43f 5774 54a6 749b c83f
00000050: 87ab fad5 a778 c3bf f056 ac2e 1559 c83f
00000060: 3f9d 7b29 f128 c2bf 1ec5 991f 9990 c4bf
00000070: 3641 5834 62b1 d63f 6924 6113 2596 be3f
00000080: 33a9 de0b 1075 b23f c791 364d f6a3 d3bf
00000090: 35a2 9557 553d cebf 6e0b c83b 76af d1bf
000000a0: 3680 3be9 6840 b5bf 2bcd 7acf 4951 b03f
000000b0: 1c70 c701 a835 c3bf ea6e a3a6 89e4 cd3f
000000c0: c7e2 0431 7a5e c6bf be41 e7f5 a1e6 9fbf
000000d0: dea2 892b fc45 b8bf 343a 1a67 8fc6 d7bf
000000e0: a0b0 f850 f6bb c63f de28 708d 8802 cf3f
000000f0: ea18 9640 ca2f c3bf fa29 faae 92c3 c23f

tgnn._base_tgcn.linear_z.weight f8 [32, 64]
-0.036876906969016035 0.13855645530531052 -0.11637127725783118 0.0648363206558609 -0.03885511451681044 -0.08064418064119919 0.06571150703323633 -0.072707254476632
0.14510116760978367 0.12858243383392448 -0.04542430351533431 -0.07753667801319683 -0.046043367914756037 -0.11248938411445315 0.06136793731051616 -0.06376604399678187
-0.05042655558071324 -0.14413634066678865 -0.0023966100610961012 -0.01676171714464363 0.020354691318266976 0.1257885268257018 -0.004673916057765326 0.06083878769900507
-0.0454683865947031 0.008807617747523892 -0.050915840611388444 -0.15231322736979866 -0.0011477322031129885 -0.016718752485659922 0.08030664817457862 0.014121607557925115
-3.172036147803731e-05 -2.5126095682069174e-05 -1.3503116631343166e-06 -1.9842897708396754e-06 6.685077862553642e-06 4.105727488596136e-06 -3.224440450614475e-05 -3.276763251679126e-05
6.18473742525599e-06 -2.7872565827885625e-07 -3.2662203474997905e-05 1.1587559523684274e-05 -1.586935852718007e-06 2.6486012875957183e-06 -9.88386032597948e-07 -2.221016775365439e-05
-1.719613479245747e-06 1.71735941782287e-05 5.998114060526404e-07 2.0746614619217443e-05 1.6076628563446755e-05 -1.6288330349775357e-05 1.993358992178792e-05 -2.3907486938580718e-05
-2.758258135818305e-06 -2.5458580358537533e-05 -2.4700564200275592e-06 -5.336820710183683e-07 1.2774668637726417e-06 1.632315421566613e-05 -7.452030388218166e-06 6.892709453433229e-06
0.011686943014572291 -0.1132163405772465 0.15262847700829282 -0.05134881491476776 0.05181042334604791 0.05749335358863039 -0.09075087584637863 0.09055848729738324
-0.07705569614562523 -0.013436608767416477 -0.06400077894910984 0.057346726178331885 0.12636245421371584 -0.09137057938782907 0.05075365782032098 -0.11849491798049715
0.05083950910646569 -0.02893663382943307 0.10476651118192815 0.055543345713027104 0.12175262791852326 -0.02945474553224632 0.1300185883109742 -0.13219465735557231
0.071499377016839 -0.035261297906345454 0.08760415800679384 -0.09410639495322606 -0.08856862404014047 0.02170081428063765 -0.04442103472536166 0.09721196524211506
2.1122006872748075e-06 9.309497783391406e-06 -3.012744490789713e-06 9.021103116335061e-06 -2.728954370948397e-05 2.929102263763725e-06 -3.528406571336163e-06 9.873422551855025e-07
2.6098011645617294e-05 -3.44263294597199e-06 -9.807591703489165e-06 1.8987770891635124e-06 4.537930548582915e-06 1.3040480396270146e-05 9.458582865491566e-06 2.3925297388192582e-05
-1.2910516593494793e-05 2.745898973088003e-06 4.0353427432443147e-08 -1.2925195718134187e-06 1.3371214079120695e-05 2.0501283197247858e-05 -2.034149223700017e-05 -1.8765583919314886e-05
-2.3810031396027838e-05 -2.2728319497525197e-05 2.0346057007353765e-07 -1.3524182598388403e-05 2.385513451083375e-05 -2.788987284647718e-05 1.8470565052580653e-06 2.264550409612187e-05
0.16813232705608458 0.05718711241181326 -0.052339283577802743 -0.1361012074805429 0.060001055448153186 0.04433284942458167 -0.09647572946019202 -0.07154061676418301
-0.1129116666228917 -0.10412343773220824 0.15068114289371318 0.026673446910571517 0.12855612520163523 0.04019137818067746 -0.07266523048627968 0.02919442238903935
-0.09786241867174089 0.11534419504894351 0.04852128329772584 0.06606928743554213 0.09820421435144668 -0.011226306243391843 0.14180517071684542 -0.121045734019209
0.16023382447348306 0.08521715980126854 -0.10948641269742898 0.06088428552632817 -0.12317600257894022 0.07043446204966794 -0.06832922207848872 -0.015727966209489585
1.0737012617745472e-05 2.5505605796112005e-05 -1.1722401121351548e-05 2.224205084530231e-05 7.895516813298362e-06 -5.403957328265451e-06 1.0287617615769916e-05 3.5571011646200304e-06
-3.314365449805183e-05 1.2606993300581876e-05 9.098441302860946e-07 -1.0707253679282774e-05 -1.8111777557870145e-05 2.1909701961280095e-05 5.099187395599476e-06 -2.8705267066824604e-06
-7.856724337651691e-06 9.703501211243551e-06 2.2317635731856718e-05 3.2917774184566725e-05 -3.7070456735851043e-06 5.255446098485584e-06 -1.2674264704982196e-05 2.3860436219225227e-05
2.0613415365249083e-05 -2.8832628377481692e-05 5.001279852848876e-06 7.519489043270546e-07 2.010023152049889e-05 -7.186478795099606e-06 -3.841638400379263e-06 1.749195358769145e-05
-0.318259980368707 0.27326167502683824 0.19621742003213474 0.17226610224625238 -0.13853259392066522 0.055820016272518154 -0.07342799344126526 -0.0828152907806313
0.1311489323183463 0.17373199911753878 -0.17856001612445035 0.05129797012108901 -0.17028127357531245 -0.28771521425225377 0.18438864821122125 0.022196385514698175
-0.19038480069925168 -0.10978559466113628 -0.07081012549860927 -0.13126870524662318 -0.09043440008061104 0.1897147007041392 -0.16850577370767056 0.18252004505100436
-0.13092919179894383 -0.05512702689398692 -0.27059526551399815 -0.22228756185562817 0.13766985009845464 0.1484321613294028 -0.06996263303996002 0.27093934968815786
3.1347204407796526e-05 2.8936526380850907e-07 1.9879191814498916e-05 -1.059500081381845e-05 2.3135325967349777e-06 2.045490170935436e-06 5.990155602390628e-06 1.0525927870613959e-05
1.284824434835297e-05 6.891019357029556e-06 1.3755756789880391e-05 -6.010062655095664e-06 2.331479026952888e-05 -2.0564491708332523e-05 -4.057542333494058e-06 -3.27169067768853e-05
-1.7969973517831317e-05 -3.2175996239756397e-05 9.447945290013982e-07 1.1340260072611335e-05 6.13813994308869e-07 -7.1111377630473435e-06 1.6609342072757174e-05 2.3584916563768904e-06
1.4821166946899155e-08 -1.2641185491066981e-05 4.129291961151676e-06 3.313781214884108e-05 8.46472001545791e-06 -2.773587617497633e-06 3.898025437124926e-06 8.158740997438231e-07
00000000: a2b1 d1aa 87e1 a2bf aace 17ca 37bc c13f
00000010: 5321 040e 82ca bdbf 1255 cff4 1c99 b03f
00000020: 2e9a 434c d1e4 a3bf 7a77 77d6 18a5 b4bf
00000030: 4eba ad25 78d2 b03f bbb9 2850 f19c b2bf
00000040: 6d6a bfd0 ac92 c23f ae11 14a2 6375 c03f
00000050: fd78 15b4 da41 a7bf 36a2 4e98 71d9 b3bf
00000060: 3e7c c80e ff92 a7bf bd33 ebb1 1acc bcbf
00000070: 1115 8b47 9e6b af3f d8bc 8fb1 f852 b0bf
00000080: b85f 236e 82d1 a9bf c21b aa42 0f73 c2bf
00000090: 9171 ad3a 0ea2 63bf ad1c d8cb fb29 91bf
000000a0: 28e7 2036 dcd7 943f 12d6 76a4 d619 c03f
000000b0: e630 ccc9 f424 73bf feb3 fdf6 4226 af3f
000000c0: 512e dae2 a147 a7bf 2f45 7371 ba09 823f
000000d0: 126c 8c1c a411 aabf 7797 26f5 ff7e c3bf
000000e0: 1853 b911 f0cd 52bf 6591 9f7c b81e 91bf
000000f0: 5daa 8ffb f98e b43f f79f 0615 caeb 8c3f
00000100: ec45 4252 6fa1 00bf cb0a cf25 bc58 fabe
00000110: d8cf ee5f 8ba7 b6be a263 84d6 3aa5 c0be
00000120: 14f5 ea35 0c0a dc3e cbe7 4ec7 7d38 d13e
00000130: 1a54 7b4d c5e7 00bf 9d37 bc47 ff2d 01bf
00000140: a711 afad cff0 d93e 24d9 b068 78b4 92be
00000150: c98c 13c4 d81f 01bf f2fe e10d 064d e83e
00000160: 1c63 2f6c d69f babe e7f3 def4 d337 c63e
00000170: 7eb3 81ef 1595 b0be b231 331b ff49 f7be
00000180: 8ca3 0504 afd9 bcbe d2ae d567 0002 f23e
00000190: e051 193b 5720 a43e 954e 2c80 20c1 f53e
000001a0: 72b6 a780 89db f03e 60bc dd89 5d14 f1be
000001b0: 9ceb 6fde e1e6 f43e 06f5 13fe 9d11 f9be
000001c0: bd4d 4572 5023 c7be 6a17 1852 fcb1 fabe
000001d0: ce8f a6e0 67b8 c4be 4086 0549 4be8 a1be
000001e0: 4ea2 baab ad6e b53e 642f cb9d b61d f13e
000001f0: bc21 fe83 8e41 dfbe 4e38 388c fde8 dc3e
00000200: ff6b 4df0 52ef 873f 28ee 2600 bffb bcbf
00000210: 0f2e 9876 5489 c33f 159c 7e51 644a aabf
00000220: 20f4 b953 e586 aa3f 8012 cdd2 c46f ad3f
00000230: 0ff3 d70b 733b b7bf 2f47 514d d72e b73f
00000240: 3f7d ea0e ecb9 b3bf fe35 cd19 a784 8bbf
00000250: 8944 81e4 5a62 b0bf abec efd2 8c5c ad3f
00000260: 8025 2518 a52c c03f 558c 49f2 0f64 b7bf
00000270: e736 fb28 62fc a93f 87eb 77d5 ae55 bebf
00000280: 3af7 e9d9 a207 aa3f d1a1 d09f 90a1 9dbf
00000290: e80d 3e63 fad1 ba3f 701c b26a 2d70 ac3f
000002a0: 80b3 1c23 2e2b bf3f 548d 1783 6229 9ebf
000002b0: eb77 55f8 72a4 c03f 6f28 0629 c1eb c0bf
000002c0: 2cc1 f87d c84d b23f 2e00 a5d2 c40d a2bf
000002d0: edfe a1e1 396d b63f 1a27 ab50 5b17 b8bf
000002e0: 6341 b4ef 6eac b6bf 0413 87fe bc38 963f
000002f0: d4c0 cc96 5abe a6bf 70a9 7e23 e2e2 b83f
00000300: e623 a19b eab7 c13e 7493 f8a1 ff85 e33e
00000310: 1faa b0cc d145 c9be 1265 b2f8 2aeb e23e
00000320: 9324 012a 7b9d fcbe 5dee bcff 3292 c83e
00000330: 9a0c bf06 3299 cdbe 31a6 484a 9a90 b03e
00000340: 1b50 42b4 a15d fb3e 0839 257a ffe0 ccbe
00000350: b778 ca23 6991 e4be 7f76 f37c 2fdb bf3e
00000360: 5b86 ded9 9008 d33e bdbf 7afa 0d59 eb3e
00000370: 28f6 f8ba 09d6 e33e 4231 d2ea 6516 f93e
00000380: 5d3f afe3 4713 ebbe 22f8 bfec c508 c73e
00000390: 40e9 7e01 22aa 653e cace 5f4c 54af b5be
000003a0: 2d70 70ab 9d0a ec3e 12be 2774 457f f53e
000003b0: bcb6 dab3 6054 f5be 926a 8a1b 59ad f3be
000003c0: aed4 0ae6 74f7 f8be e3cf 1339 16d5 f7be
000003d0: c8ac c819 da4e 8b3e 642f bd80 bd5c ecbe
000003e0: 2bdd 6d5c 9003 f93e 1ece de77 a13e fdbe
000003f0: e4ff cc1a 0cfd be3e 58e9 2031 dbbe f73e
00000400: e799 0d2f 5c85 c53f 9c71 1f13 a147 ad3f
00000410: e584 86ee 36cc aabf fd9a 89ad c36b c1bf
00000420: 6527 c055 75b8 ae3f 4a8a d594 cbb2 a63f
00000430: 19a7 e326 a2b2 b8bf 617c 5661 7c50 b2bf
00000440: cc6f 7b6b c7e7 bcbf c192 ce67 d5a7 babf
00000450: 791b 6d0a 8549 c33f 2628 9cb8 4850 9b3f
00000460: 3a83 b8f0 8674 c03f b6fe bbdd f693 a43f
00000470: 06b0 7e44 309a b2bf 9fcf 8b85 24e5 9d3f
00000480: bcdc b3ef 820d b9bf bdc6 8479 3287 bd3f
00000490: 0ced d819 c8d7 a83f dc40 ceb4 eae9 b03f
000004a0: b905 f850 e923 b93f 4aab 5c51 d1fd 86bf
000004b0: 55f7 50fd ab26 c23f 1dcd ee6c dafc bebf
000004c0: 7ece e9bd 8a82 c43f 508a 67b2 cad0 b53f
000004d0: 184e e431 4d07 bcbf 4e10 5a9e 392c af3f
000004e0: e782 ba66 7688 bfbf dec1 032f fe07 b23f
000004f0: db2f 301e 067e b1bf 4368 02f2 fd1a 90bf
00000500: 9fb3 10c7 6384 e63e 923a 57e2 9bbe fa3e
00000510: 3c03 d48a 6a95 e8be efdb 7a18 8e52 f73e
00000520: 3689 6491 df8e e03e 019c c77a 74aa d6be
00000530: b6d2 1966 1f93 e53e f203 bc0b d1d6 cd3e
00000540: b48f 0f4c 7760 01bf 9886 35f7 5370 ea3e
00000550: e0e4 c366 8087 ae3e ca5b 80bd 6974 e6be
00000560: 2ca4 64e0 d7fd f2be a29e 1441 57f9 f63e
00000570: 45db 5af5 3563 d53e d693 f4be 6814 c8be
00000580: 3ecd 7ef8 0b7a e0be 8e4a 2e0d 8759 e43e
00000590: c7c7 dd3f d866 f73e 8cbd cf1b 2642 013f
000005a0: 54a0 51e9 d118 cfbe bc38 0b06 fe0a d63e
000005b0: 0f1b 55ad 7194 eabe dbcc 11b1 fc04 f93e
000005c0: dfc4 1d1e 5f9d f53e 44f0 9022 b33b febe
000005d0: bfa9 8656 15fa d43e f886 aa20 313b a93e
000005e0: 8dc7 7164 9d13 f53e c1dd de3f 6c24 debe
000005f0: cec2 d185 ed1c d0be 5d82 cbe5 7557 f23e
00000600: e9c9 d31b 5f5e d4bf 8963 5f89 1e7d d13f
00000610: 11c5 f804 a71d c93f b0b3 adcd d00c c63f
00000620: 01df 28a0 6fbb c1bf f98e b4f0 7094 ac3f
00000630: 57ee 704e 2dcc b2bf 66f4 8205 6233 b5bf
00000640: f636 9bfb 7cc9 c03f 7840 3da3 d93c c63f
00000650: 035a d0fa 0ddb c6bf eae2 0a40 ba43 aa3f
00000660: f547 90da c6cb c5bf a29a f112 ed69 d2bf
00000670: 6c11 e916 0c9a c73f a509 8037 a6ba 963f
00000680: 6052 5476 875e c8bf db38 a4a2 e81a bcbf
00000690: acff 3dc5 9c20 b2bf 9de1 02b6 69cd c0bf
000006a0: 2494 c776 b526 b7bf 541f 8c41 9248 c83f
000006b0: d27c a1e1 9891 c5bf abe3 2d1c d15c c73f
000006c0: 5d20 6faa 49c2 c0bf 5a51 4513 9c39 acbf
000006d0: 9a71 f5cd 6e51 d1bf b91e 3d38 eb73 ccbf
000006e0: 03b7 e867 2a9f c13f fecc 4a37 d3ff c23f
000006f0: eb42 d934 12e9 b1bf a10c 87ff 1157 d13f
00000700: 9407 f5bd 596f 003f 10c4 90e3 416b 933e
00000710: 3534 d0a8 47d8 f43e ac34 ead2 2538 e6be
00000720: 6985 e4fe 4568 c33e 32eb 1c1d a828 c13e
00000730: 5945 2b6f e11f d93e c8a6 c782 1013 e63e
00000740: 0c37 d741 d9f1 ea3e b115 42fa 2ce7 dc3e
00000750: 8135 42d1 10d9 ec3e 42d9 7771 4135 d9be
00000760: 5012 0230 8472 f83e c3b5 0a1c 3d90 f5be
00000770: c9a7 74be c004 d1be 468c 685b 3027 01bf
00000780: 47c3 562d c7d7 f2be 19d2 01d0 96de 00bf
00000790: 8013 1824 b9b3 af3e 0698 fa79 41c8 e73e
000007a0: 3c6a 813f 9f98 a43e 725c 0faa 86d3 ddbe
000007b0: 02bd d14b 896a f13e ea85 0680 d2c8 c33e
000007c0: 0096 83cf 05d4 4f3e 602e f64d af82 eabe
000007d0: cb2f a621 cb51 d13e 75b2 368e ae5f 013f
000007e0: dad2 a642 76c0 e13e 5422 05eb 3b44 c7be
000007f0: 5477 c812 7959 d03e f8cc 721e 4e60 ab3e

tgnn._base_tgcn.linear_z.bias f8 [32]
0.08942813044093378 0.10865950911262122 0.042826012864836074 0.22877863125907846 -0.002641375332184729 0.06574669794581006 0.0780671711302511 0.00035400824441894906
0.08456002386704146 0.19805335120158468 0.16277485486203805 -0.1911032065008018 0.08037059001644235 0.20469134126474675 -0.0934648405807059 -0.020820526572798422
0.15148297209907277 0.16525362033596366 0.026875612870052773 -0.17697787573398996 0.09809493329216824 -0.14186564698509288 0.006695219496363565 0.1148435024321817
-0.015417137860636355 0.14276573228682016 -0.080525044609695 -0.15182207612114476 0.19196041384967208 0.09820436460388127 0.049085520048790715 0.033440668598608246
00000000: 5813 960f c3e4 b63f 5fc2 090e 1cd1 bb3f
00000010: fa57 5889 4aed a53f 6f04 a441 9e48 cd3f
00000020: 88d9 6195 5da3 65bf 6c4b 7f8d c6d4 b03f
00000030: 3a4a e5ca 35fc b33f 3334 11d5 4533 373f
00000040: 03d4 0ec9 b9a5 b53f b612 23ed cf59 c93f
00000050: 492e 1f73 ced5 c43f 6f74 0ae3 1176 c8bf
00000060: cb4b aebf 2a93 b43f c4d3 406c 5333 ca3f
00000070: 5eb7 9ed1 4fed b7bf 1fd8 dce2 f951 95bf
00000080: bb7f 8845 cb63 c33f 7bbc 71d7 0727 c53f
00000090: d8ea 58d9 4785 9b3f 194f 3206 36a7 c6bf
000000a0: 69a6 64e2 bf1c b93f 9509 1d4d a728 c2bf
000000b0: a23a 6c4c 726c 7b3f 82b4 1a3f 6266 bd3f
000000c0: ba5c 4637 0593 8fbf 3aa8 94c3 2546 c23f
000000d0: 708a 1b11 4a9d b4bf 5525 e0e1 e76e c3bf
000000e0: 2b34 cea9 2892 c83f 4052 4cd6 eb23 b93f
000000f0: 9c27 a2be bc21 a93f 0b8c f9a3 221f a13f

tgnn._base_tgcn.conv_r.bias f8 [32]
0.0 0.0 0.0 0.0 0.0 0.0 0.0 0.0
0.0 0.0 0.0 0.0 0.0 0.0 0.0 0.0
0.0 0.0 0.0 0.0 0.0 0.0 0.0 0.0
0.0 0.0 0.0 0.0 0.0 0.0 0.0 0.0
00000000: 0000 0000 0000 0000 0000 0000 0000 0000
00000010: 0000 0000 0000 0000 0000 0000 0000 0000
00000020: 0000 0000 0000 0000 0000 0000 0000 0000
00000030: 0000 0000 0000 0000 0000 0000 0000 0000
00000040: 0000 0000 0000 0000 0000 0000 0000 0000
00000050: 0000 0000 0000 0000 0000 0000 0000 0000
00000060: 0000 0000 0000 0000 0000 0000 0000 0000
00000070: 0000 0000 0000 0000 0000 0000 0000 0000
00000080: 0000 0000 0000 0000 0000 0000 0000 0000
00000090: 0000 0000 0000 0000 0000 0000 0000 0000
000000a0: 0000 0000 0000 0000 0000 0000 0000 0000
000000b0: 0000 0000 0000 0000 0000 0000 0000 0000
000000c0: 0000 0000 0000 0000 0000 0000 0000 0000
000000d0: 0000 0000 0000 0000 0000 0000 0000 0000
000000e0: 0000 0000 0000 0000 0000 0000 0000 0000
000000f0: 0000 0000 0000 0000 0000 0000 0000 0000

tgnn._base_tgcn.conv_r.lin.weight f8 [32, 1]
5.427752833259945e-06 4.810789145136531e-05 5.6864291988723284e-06 -7.438482385065776e-05 -4.67093176488653e-05 2.68964030121046e-06 1.2212635952461352e-05 -0.00014512657697640454
-7.308972959137938e-06 3.2940099037445704e-05 4.557674912161984e-05 2.384735204360399e-05 1.643012592241585e-05 -3.1922522349317524e-05 -3.806578367029365e-05 4.705255786436815e-05
2.295707531786887e-05 4.76029489274486e-06 -1.659975183445564e-06 2.9200797152006112e-05 -2.1830835250216538e-05 1.1896950779482706e-05 -2.441115261125387e-05 -0.00014933702497048806
-6.019176499601859e-05 2.3816626190729944e-06 7.832737981533622e-05 7.462479018434032e-05 -2.600735240133917e-06 -0.00010776216125356974 1.3598575525756756e-06 0.00016310642881665793
00000000: 8850 9556 01c4 d63e 7bf9 4e90 ee38 093f
00000010: c570 94c1 c1d9 d73e e8f5 038b e17f 13bf
00000020: 7814 0bef 377d 08bf 3756 9264 f58f c63e
00000030: d56e 89e7 9b9c e93e b70f c5cd a305 23bf
00000040: 48f0 5c30 f3a7 debe 3a4b 4b2f 2545 013f
00000050: 5e71 ec2c 35e5 073f 1459 d18d 7901 f93e
00000060: a4d7 f5a7 6d3a f13e 6e8e 1684 91bc 00bf
00000070: da8c 205e 1af5 03bf 0766 e893 49ab 083f
00000080: 1612 0734 7e12 f83e c68e 84e5 53f7 d33e
00000090: 62c1 1904 8ad9 bbbe 38b2 2480 879e fe3e
000000a0: d80f 3a93 2be4 f6be 9ba5 f276 20f3 e83e
000000b0: 2cba 4ba2 d198 f9be ac36 d346 eb92 23bf
000000c0: c06b 134c cd8e 0fbf 2a3c 1edf 94fa c33e
000000d0: 5a50 8523 7688 143f fab2 1c22 fc8f 133f
000000e0: f6d9 9251 09d1 c5be d38d 54d5 cb3f 1cbf
000000f0: 85e8 f030 8bd0 b63e db0d 198e f160 253f

tgnn._base_tgcn.linear_r.weight f8 [32, 64]
-3.3554179355858817e-06 3.2515564393474415e-06 -2.0773154348677674e-05 -2.411594818994379e-06 7.114436507473099e-06 2.3114396248421115e-05 -8.477054535673492e-07 -2.993360218329338e-05
-6.44033784683158e-06 7.213987195132468e-06 9.741608125019136e-06 2.5026580393262927e-05 1.3501057104514029e-06 -2.7995619130370685e-05 -5.1533585950359e-06 3.305051814927491e-05
1.4564281696241787e-05 1.1893290695969103e-05 2.6243772410502193e-05 -1.047354268709069e-05 -1.2456103444866677e-05 2.113968839730688e-05 4.484024030456735e-06 1.0049474245565234e-05
-8.873181513268898e-06 -2.4354882637370216e-05 1.3496144907200125e-05 1.7663060012329582e-05 3.780753235061448e-06 -1.9314385171258642e-05 -1.931339866382801e-06 1.0599613797859569e-05
-7.4231678145136745e-06 -2.0660943003341733e-05 -2.0662244000849885e-06 -2.394396455834421e-05 1.1405520850122408e-05 5.2855734976448705e-06 -1.4383475635046602e-06 -2.896986698255456e-06
1.6794845146026536e-05 -2.265873423363231e-05 -1.968402449344045e-05 6.189731604091235e-06 -2.641064245368829e-05 -2.1385148292776704e-06 6.593382308370701e-06 2.662743936110569e-05
-1.6042753547867225e-05 -1.5642008401755258e-05 5.467881265339476e-06 4.496194173166555e-06 1.712374549180487e-05 1.5093711358030399e-06 6.1512954218223615e-06 2.7997837902791943e-05
1.4768580855898816e-05 -1.7466250569891115e-05 1.7126073727057345e-05 1.4416245093419076e-05 -7.5536639308497405e-06 3.110248547986967e-05 -1.7119569124401066e-05 1.6277255225441262e-05
4.23142698187641e-06 -1.941365523596332e-05 5.475091595417588e-06 3.7413686661949835e-07 1.7912726972743424e-05 -2.7618634317571253e-05 8.413802419564287e-06 1.9882071263924595e-05
1.0768525197959498e-05 2.2512306233680745e-05 -2.797283328360123e-05 -2.053484701885666e-05 1.6068890042812817e-05 -1.254484155129961e-06 -2.0330456676636355e-06 2.480982164103967e-06
7.318016359976399e-06 -1.5426647577028077e-05 5.815780453055863e-06 9.070121944931867e-06 1.7890433694924228e-06 1.2405266362594501e-05 1.3214363574972575e-05 -2.700034696096325e-05
1.8548636998246244e-05 -2.275668252614801e-06 -2.9408757319665123e-06 -3.0055285320992794e-05 -3.150319149219308e-06 -1.3278747610588195e-06 -1.366342531399756e-05 2.283393167955124e-05
3.2357070441769587e-05 5.088958846236047e-06 -2.02804779226023e-05 -1.7958439683125076e-05 2.1810109097395414e-05 9.025702297814429e-08 8.482651940339375e-06 -1.5040966725272008e-05
-3.315587553505671e-05 -7.56379319881672e-06 -4.673323713303407e-07 2.3890695064002454e-05 -1.0497655657977595e-05 1.6768035885547825e-05 9.075619367834366e-06 -1.6049413057093883e-06
6.1140566171972715e-06 2.787387153178476e-05 1.0235348810651908e-05 -1.2031197400595108e-05 2.054738428012533e-05 -2.07032994174714e-05 -1.4646226799869075e-05 3.4083956799990376e-06
8.225103380258217e-06 2.384246319279048e-06 1.3874086809213133e-06 3.5391297471336213e-06 -1.0027141262025658e-05 1.6613736960711943e-05 -6.532730868913494e-07 8.129579356056105e-06
1.7592989254573563e-05 1.4363947587019543e-05 2.7941693029458974e-05 1.652248659864506e-05 6.7283632208012625e-06 3.236002549469676e-05 1.2456419013403934e-05 -1.48083066720791e-06
4.913835213316792e-06 1.1354873295257432e-05 3.528407949619614e-06 8.853642463443693e-06 2.0020997323735222e-05 1.4914563429949103e-06 3.511505695946159e-06 1.0460267056036447e-05
-2.7780126536258425e-05 1.3908755610592878e-05 -1.7390001820721975e-06 -1.4022609313706346e-05 -1.7199332382630257e-06 1.728677427882131e-06 1.4734862100138056e-05 2.7842700487180358e-05
4.6983007272129815e-06 -2.9446544464345722e-05 -7.495758028804852e-06 -3.801514914552706e-06 1.9113714637485674e-06 4.094489313105892e-06 -5.137382068912088e-07 -6.929819618899798e-06
-4.26457009563776e-06 3.8254485505613355e-06 -1.227126786451985e-05 -2.1148296690596873e-05 -2.7459355655826593e-05 -2.7673991648392915e-05 8.742724030080233e-07 -9.027050955190662e-07
3.8674553192636755e-06 -1.6310393424014956e-05 -1.966889844340133e-05 2.27036168742639e-05 -2.727437716111504e-07 -2.0333589896381413e-05 2.707367320396646e-06 1.0288072805610943e-05
1.0769518418421094e-05 7.351891182529002e-07 -1.3431969273344657e-05 1.74411981850954e-05 4.103196190316369e-06 9.673367364551711e-06 1.412956241404362e-05 -1.352157081811751e-05
2.3928372280812082e-05 -1.4234660145840949e-05 -9.976530702778072e-06 1.6603907305861518e-05 2.2893037354497846e-06 1.1538334860557645e-05 1.8762259953976816e-05 -4.841808174233976e-08
3.2366993961818196e-06 8.616965695237508e-06 2.576785867242808e-06 4.106354675797935e-06 -2.7365191592490638e-05 7.144490493935078e-06 1.3596031718814456e-06 -5.101395609156684e-06
2.940104334337015e-05 -1.929570448619926e-05 9.182397360572375e-06 -3.2569703685317008e-06 1.3792797465649715e-06 3.904062181864876e-06 2.8813947794965704e-06 -3.957984254382002e-06
-1.1692238082429455e-05 2.0532247022016812e-06 -3.104876949339274e-06 -1.6525779836945262e-05 -1.7408511366216986e-05 1.0584240711484393e-05 -2.6347635617876907e-06 -1.337407306487644e-05
-1.9196537802959264e-05 -1.3234005016777305e-05 -4.145524919471086e-06 6.36379932542611e-06 2.915795893557005e-06 6.063614078800056e-06 1.8902599475699193e-05 3.053476108965178e-05
-2.3179793087833907e-05 -2.0902718879036076e-05 -1.0301117097954308e-06 2.0578900083322055e-05 -2.674443807438817e-06 -4.107590581044791e-06 2.82932521743866e-06 -1.3888800591933752e-06
-5.684327555629958e-06 1.1358661499393586e-06 1.2157428428821478e-05 6.718716413524633e-06 1.3794123320316045e-05 1.054061932200932e-05 -2.067536538780436e-05 -2.2095011811934417e-06
-2.6443290309845054e-06 -7.270610144279662e-06 4.633159439089959e-06 -4.558463049392165e-06 4.11872519480921e-06 -1.2678435796747786e-05 -1.2797555263180275e-05 6.8204110962749795e-06
-2.345220312550775e-05 2.606812901740657e-07 1.0736852929870427e-05 -2.425321747983105e-06 -1.3623337806385776e-05 2.5706343371256613e-05 -2.289465916014456e-05 6.75907390502314e-06
00000000: cd03 a384 b425 ccbe 46f4 840e aa46 cb3e
00000010: bb03 084c 40c8 f5be 9c88 c145 dc3a c4be
00000020: 1107 906a 11d7 dd3e 8848 1b37 b93c f83e
00000030: 88c9 9901 bc71 acbe 6789 967a 3d63 ffbe
00000040: f285 5c96 4203 dbbe 9c6a 6fb3 f541 de3e
00000050: b2a6 036d fc6d e43e e974 5582 053e fa3e
00000060: d7fe 67ed a8a6 b63e 338b 2b4c 045b fdbe
00000070: ab3d a16c 609d d5be f7bc 1228 f753 013f
00000080: 163a 68a2 238b ee3e a026 356d 29f1 e83e
00000090: d9bb c04e c284 fb3e 46a9 fdbe f0f6 e5be
000000a0: 7094 61d2 511f eabe f4d6 3453 a42a f63e
000000b0: c0bd e223 afce d23e a831 2739 4513 e53e
000000c0: 467f f9c7 c09b e2be 0b50 72ca b689 f9be
000000d0: 6802 2e08 b04d ec3e 0ec0 d93d 6485 f23e
000000e0: fed1 6412 1bb7 cf3e b02b 4471 aa40 f4be
000000f0: f789 f451 8533 c0be 809f dcd3 9f3a e63e
00000100: e768 edd4 9022 dfbe 0ff9 2a31 21aa f5be
00000110: eb4a 72e0 2e55 c1be 3abb 26b7 681b f9be
00000120: c827 75d9 4aeb e73e 32bb 4961 572b d63e
00000130: 2a76 f0de a721 b8be 9e15 b647 3b4d c8be
00000140: ea63 65f8 549c f13e 0946 2b5c 68c2 f7be
00000150: 64cf fddc e3a3 f4be add5 c677 2cf6 d93e
00000160: c60b 9987 8db1 fbbe ee16 e2f5 6cf0 c1be
00000170: a85b ec20 97a7 db3e 8d81 20b3 bfeb fb3e
00000180: ea2b 14a1 71d2 f0be 9d78 e9a1 de66 f0be
00000190: 1e5b f4c1 17ef d63e e46e 8b71 c0db d23e
000001a0: 6214 78d4 9ef4 f13e fb42 4c1d b352 b93e
000001b0: 9642 e635 e7cc d93e 7f31 3ac5 9c5b fd3e
000001c0: 7ad5 0e4c d2f8 ee3e 101f 8699 8f50 f2be
000001d0: bf7e 37d3 3ef5 f13e 989b 7da3 a93b ee3e
000001e0: 0307 c154 afae dfbe fab7 8043 814e 003f
000001f0: 6665 09d5 7ff3 f1be 67e9 3776 6411 f13e
00000200: d74b cbca 75bf d13e 6c95 b63a 505b f4be
00000210: 97c4 d3b7 d5f6 d63e f8f5 4557 9f1b 993e
00000220: 00a3 7739 69c8 f23e 8c18 3519 d2f5 fcbe
00000230: 9309 0333 20a5 e13e 8090 9f88 0dd9 f43e
00000240: 6bb8 69d5 4e95 e63e 4e41 8de7 199b f73e
00000250: 0586 5077 e654 fdbe a63b 26f1 4788 f5be
00000260: bc11 29b7 75d9 f03e 245e 59ea f70b b5be
00000270: 8689 faac ee0d c1be fa2b 6e5e decf c43e
00000280: 0c86 1f05 a9b1 de3e c87a 3726 0f2d f0be
00000290: 0601 e58e a564 d83e dccc 6611 7c05 e33e
000002a0: b821 c3fc e103 be3e 5206 90d3 0604 ea3e
000002b0: 975e f04c 68b6 eb3e a944 00b7 d94f fcbe
000002c0: 4a88 f1a0 1c73 f33e 87f5 33da f516 c3be
000002d0: c004 1588 7bab c8be 1823 fc7a e783 ffbe
000002e0: 7e2d 9444 426d cabe 4496 71bd 2d47 b6be
000002f0: b272 41e0 7ea7 ecbe 2a6e 3bd6 6ff1 f73e
00000300: 5d2d 8879 e4f6 003f 2673 2e5b 3a58 d53e
00000310: 9620 afd4 ff43 f5be df13 f993 aed4 f2be
00000320: 9af0 e348 9bde f63e 004c 0d57 6a3a 783e
00000330: 8640 2bce 16ca e13e 3f74 d6b9 0e8b efbe
00000340: 7769 7035 1b62 01bf 3ccb 9ea4 8fb9 dfbe
00000350: 606a 5881 b55c 9fbe 15dd 4b10 1c0d f93e
00000360: 3810 bbce e203 e6be 67e3 e5a6 2295 f13e
00000370: 4745 c6a0 6f08 e33e 5482 a5a0 2bed babe
00000380: 1cba fb15 eba4 d93e 3eeb c3dd 553a fd3e
00000390: 6651 03a1 0f77 e53e 3248 042e 333b e9be
000003a0: 2c69 fb7e a58b f53e 2fdd 15e7 7fb5 f5be
000003b0: 5c8c 6c15 22b7 eebe beff 5257 7997 cc3e
000003c0: 55d4 cc99 d13f e13e 4c84 9846 2100 c43e
000003d0: 6c86 26fa df46 b73e 2841 9327 39b0 cd3e
000003e0: 0a80 26cd 4707 e5be 667e 814f b76b f13e
000003f0: e43d d6b5 92eb a5be ef39 fde0 880c e13e
00000400: 0b3b 0b04 9572 f23e ecf0 90ec 951f ee3e
00000410: 7d92 2b86 8a4c fd3e 54e4 28a2 3853 f13e
00000420: 400e 3866 8638 dc3e dcce 7302 4af7 003f
00000430: 0046 7631 7d1f ea3e e094 9089 1ed8 b8be
00000440: 369d 0ebd 309c d43e 9cb8 0ae7 19d0 e73e
00000450: a4f1 b8c8 3299 cd3e 2679 c65a 4391 e23e
00000460: 78c2 b675 58fe f43e e2d1 6897 c105 b93e
00000470: 122e feab e674 cd3e f385 3f28 d0ef e53e
00000480: a9ff 5cc2 2b21 fdbe 551b b2d0 342b ed3e
00000490: 24a4 bfeb f22c bdbe 9df0 bfbf 5468 edbe
000004a0: 8c18 2f98 0edb bcbe 2cdc c0ee 9c00 bd3e
000004b0: 2513 cf06 b8e6 ee3e c50d f3ce f731 fd3e
000004c0: 5667 f111 c3b4 d33e e4f9 9420 7fe0 febe
000004d0: 2c8a 2547 8270 dfbe cdfb 04ed b0e3 cfbe
000004e0: b83c 1f93 a308 c03e cd1a 03a7 6c2c d13e
000004f0: 28e1 a343 fa3c a1be 02b0 f54f d610 ddbe
00000500: 3570 161a 0ce3 d1be 0755 6b4a 8b0b d03e
00000510: c007 8c36 16bc e9be f34a e7e1 f32c f6be
00000520: 216a 5b8d 10cb fcbe 7a8e ab39 ae04 fdbe
00000530: 2008 8d58 f155 ad3e 80c3 797f 2d4a aebe
00000540: ecd4 fa05 a638 d03e f2a8 92b3 491a f1be
00000550: 887d b468 d49f f4be bce5 eeab 74ce f73e
00000560: b884 0ccb b34d 92be a472 68a8 4152 f5be
00000570: df58 baec 06b6 c63e 826b abf5 5d93 e53e
00000580: 6652 4057 d795 e63e e056 e0f7 39ab a83e
00000590: eb92 cccc 3b2b ecbe 664a 4f03 d649 f23e
000005a0: 86f2 06fb c535 d13e 75d3 b47c 5949 e43e
000005b0: 0c97 6d45 c0a1 ed3e 26e0 e38a 565b ecbe
000005c0: a372 e738 3917 f93e 221c 21cb 2cda edbe
000005d0: 99f6 66f0 1bec e4be 7b92 63d2 1369 f13e
000005e0: ba46 cf09 3e34 c33e 82f7 04ab 9832 e83e
000005f0: be5b b9af 74ac f33e 801c c9cd 87fe 69be
00000600: 2270 944f c226 cb3e a045 4cbf 3212 e23e
00000610: e639 fc02 9b9d c53e 4419 af2d 2a39 d13e
00000620: f2dc a2a5 c9b1 fcbe c8f3 d897 56f7 dd3e
00000630: c41c 247f 73cf b63e bfde 91f2 9465 d5be
00000640: 7081 6550 48d4 fe3e f0e5 2db7 a63b f4be
00000650: 16e2 6615 c341 e33e e29b 5065 4a52 cbbe
00000660: 00b7 8a1e f623 b73e 5fe9 ed70 f45f d03e
00000670: 00fc 3988 bf2b c83e 3ab1 746d da99 d0be
00000680: 1650 3ef7 3885 e8be 76f2 9d37 4439 c13e
00000690: d29a 8027 ac0b cabe 6dac 6bf1 1a54 f1be
000006a0: 49f8 b5ca 0f41 f2be 437b 78f7 5e32 e63e
000006b0: 7a9c 1896 1c1a c6be 80ce 0e9b 260c ecbe
000006c0: 0336 7008 0821 f4be e75a bccc f3c0 ebbe
000006d0: 2157 8a36 3963 d1be 3c99 bad6 13b1 da3e
000006e0: aab1 9dbe 9f75 c83e af35 e78b c16e d93e
000006f0: b617 b3be 20d2 f33e f899 f466 4e02 003f
00000700: dce4 7840 474e f8be 38a8 5ae7 07eb f5be
00000710: ad27 86cd 4b48 b1be a2f1 da3e 1b94 f53e
00000720: 9ad6 3408 536f c6be 4bbc c8e6 7d3a d1be
00000730: ccbb d7fc edbb c73e c4ba 50c6 314d b7be
00000740: 358c 950f 80d7 d7be 26c1 190a 820e b33e
00000750: d4a5 7b3d f87e e93e 276e 81b4 2a2e dc3e
00000760: 578e 8adf a9ed ec3e fab5 45b0 f31a e63e
00000770: bb43 704a 00ae f5be 3061 c21e de88 c2be
00000780: c6b1 3442 a72e c6be da22 4219 c27e debe
00000790: 0bbc 4d2b d16e d33e b97f 2ac8 9c1e d3be
000007a0: 4156 928f 7246 d13e 88bf 93f2 ae96 eabe
000007b0: 2706 359a a2d6 eabe 56ca 9e53 5c9b dc3e
000007c0: cb0d 8920 6797 f8be a095 5270 787e 913e
000007d0: 4b31 8cd4 4d84 e63e 1ec3 43bb 5658 c4be
000007e0: 43c3 784a f991 ecbe 6cd9 1b77 7ef4 fa3e
000007f0: cc66 5eff bc01 f8be 9f20 8016 8059 dc3e

tgnn._base_tgcn.linear_r.bias f8 [32]
1.2442237646473732e-05 -2.7189142509161613e-05 -1.287121216975088e-06 1.1896038780359086e-06 2.6315109897992224e-05 2.3100043267517318e-05 -9.855234500381478e-06 -2.392597420606412e-05
2.136241443960837e-06 -9.535556926993488e-06 -4.325832081619642e-06 6.278064722539262e-06 -1.3316997168017753e-05 8.750607156259301e-06 -1.042075066637121e-06 1.7173953374171417e-05
1.796746382463895e-05 1.3345137567917854e-05 -6.88816097238394e-06 1.6457952460708822e-05 1.6666538174938664e-05 1.948076647414058e-06 2.405950867577348e-05 -1.533092897916819e-07
2.0312199564225742e-05 -2.581761883257481e-05 -2.656783093021374e-05 -9.808892337926876e-06 -4.918547992487949e-06 6.8183711643156255e-06 -1.4357423673256424e-06 -4.362438339891145e-07
00000000: e6a0 f81e e017 ea3e 97c8 68a5 8782 fcbe
00000010: 0865 92be 2498 b5be cc74 dd4b 4ff5 b33e
00000020: bacf 1a95 e897 fb3e 55d5 cbe2 de38 f83e
00000030: 3e22 af1d fdaa e4be 0ee8 866d 9416 f9be
00000040: a7f6 5727 8beb c13e 265b fef6 5cff e3be
00000050: f265 1bab d324 d2be 8824 644a 0555 da3e
00000060: 4c28 7727 82ed ebbe d563 304a f259 e23e
00000070: ccc8 1ca7 ad7b b1be 8c65 e016 1902 f23e
00000080: d56f 59b6 1ad7 f23e 6c2a c4bd 9dfc eb3e
00000090: 38fc 5145 1be4 dcbe 6054 99e1 e541 f13e
000000a0: bd35 4ac8 e379 f13e a010 7b76 7657 c03e
000000b0: 40ee c2d8 6c3a f93e a06a 30c6 aa93 84be
000000c0: af85 b4b9 834c f53e 38fa b941 5d12 fbbe
000000d0: 5a5a 8570 bfdb fbbe 7402 cce5 1b92 e4be
000000e0: c5b0 682d 40a1 d4be d78a 2b98 2b99 dc3e
000000f0: 04ce 676d 7716 b8be 208c 0cac 9c46 9dbe

tgnn._base_tgcn.conv_h.bias f8 [32]
-0.25153132337813494 -0.18260184117362402 0.22618669019944834 0.2548754763809499 0.15934441508178473 -0.07336581776950821 -0.07676693793172376 0.21107638752031396
-0.18741104946611617 0.16557659192920535 -0.14012756390242834 0.1803878350974038 0.12547315221680877 0.09300682071390236 -0.11340619005924418 -0.1367600463401056
-0.11153271046840936 0.060709610843620115 -0.12493799860519039 -0.07285570224783051 -0.09318081291964464 -0.004559274175873476 -0.23762502755394732 -0.09725905677414738
-0.0917671323753848 0.18705848310275566 -0.17314967941297563 0.13069190377311263 0.09207815408000818 -0.18049838775668464 -0.07460985241377249 0.17556070574456015
00000000: 4109 f5d5 1619 d0bf 5dda 0344 7f5f c7bf
00000010: 0b3b 997a aff3 cc3f 4ef3 e63a e14f d03f
00000020: 3bcb c9d5 6565 c43f 8ede f62b 1ac8 b2bf
00000030: 52b0 d47f ffa6 b3bf e3c4 ad12 8d04 cb3f
00000040: 53d9 2ed4 15fd c7bf 6fd7 a81f 9d31 c53f
00000050: 7d52 1d34 b3ef c1bf b277 2bd6 f216 c73f
00000060: 6c0b a616 810f c03f d369 4585 4bcf b73f
00000070: fce9 7725 3008 bdbf bb10 376b 5a81 c1bf
00000080: dd63 e55f 688d bcbf eca1 4082 5415 af3f
00000090: f077 09ca effb bfbf 9546 7bda aba6 b2bf
000000a0: f8c4 1aa0 b2da b7bf b677 a9d7 beac 72bf
000000b0: 2814 0735 7f6a cebf 81b3 1534 f8e5 b8bf
000000c0: 1f65 6600 0d7e b7bf 65cf ae49 88f1 c73f
000000d0: 6f20 32c9 c429 c6bf 165c 4726 83ba c03f
000000e0: 7f1e 7314 6f92 b73f e2a5 3238 921a c7bf
000000f0: 1898 139c a119 b3bf 335a d1f0 c578 c63f

tgnn._base_tgcn.conv_h.lin.weight f8 [32, 1]
-0.02301729192221573 0.3189722489824762 -0.275038104950389 0.004018982001356343 -0.0724305440224558 -0.11584753707795324 0.3951292826516079 -0.18111170360181814
0.025060947449594334 -0.39433691998045983 0.17498704725515596 -0.27368279076580715 -0.05320910809980739 -0.049823748838042324 0.24062446593641948 0.2943781128722059
0.25286597376982933 -0.07649363873848927 0.28596650900738024 -0.03828743155894058 0.09493585037962743 -0.23574190286750396 -0.07714810470470268 0.10721147568924366
-0.15716762919223343 -0.023168988458703875 0.26318399949042376 -0.16290203325107186 -0.2770682755046455 0.14649428817836674 0.1667507403477795 -0.17598557671019527
00000000: 2c90 3150 d891 97bf 0486 6d94 0a6a d43f
00000010: 6d9b 7a6c 399a d1bf 2805 2544 3576 703f
00000020: e4d4 cee1 ce8a b2bf bf6b 1227 2fa8 bdbf
00000030: e38e ab54 cc49 d93f 7f42 f215 ab2e c7bf
00000040: 28a6 cfb6 93a9 993f f0f8 baeb d03c d9bf
00000050: be9d 97be f965 c63f 3a4c f4d2 0484 d1bf
00000060: 20a8 4666 393e abbf 13a3 a597 7f82 a9bf
00000070: db3d e851 c8cc ce3f c16f dc4b 17d7 d23f
00000080: 0435 e7c3 f42e d03f 9add bb4c 1695 b3bf
00000090: fd07 fc78 464d d23f 4577 c904 699a a3bf
000000a0: f433 9944 b74d b83f 346e 8e69 ca2c cebf
000000b0: 70b3 a76a fabf b3bf ec58 d715 3672 bb3f
000000c0: 766c afa1 111e c4bf 869c d87e 9cb9 97bf
000000d0: 1514 a9b3 01d8 d03f fbf3 a14c f9d9 c4bf
000000e0: ee4c 8393 7cbb d1bf f470 6328 53c0 c23f
000000f0: f151 3098 1658 c53f cadc 4404 b286 c6bf

tgnn._base_tgcn.linear_h.weight f8 [32, 64]
-0.07767487598971384 -0.13963346126015672 -0.04595749873562614 0.15820278619293435 0.15267721947608834 -0.030001139112695 0.007596534087366657 -0.047198615983948575
0.03927583659811684 0.08665846048227746 -0.047174261990457225 0.1528508559324513 0.07464228856720265 -0.010068149892134679 -0.013010132790231376 -0.1077700744742953
-0.10223758076972966 -0.048939378779233655 0.04990418936998346 -0.19736420978196834 -0.04806140621789661 -0.02000627060170169 -0.029573066376029827 -0.019657173290825992
0.01470968368532962 0.11974257131545814 -0.03888889372019798 0.15322283154859365 0.1583628992440066 0.016489860603252086 -0.12549672391454858 0.12212529652552336
-6.640785336688076e-07 -2.3206281758942063e-05 6.498310471601212e-07 -5.719265776696657e-07 5.480766880591285e-06 -9.57342898887298e-07 -1.079135213323948e-05 -1.1113756185141735e-06
-5.098149768254148e-07 -4.3541524429961826e-06 -1.8845535509918476e-06 2.0319941039324684e-05 1.6011283063311424e-05 -2.661709637345689e-05 7.993753971811554e-06 -2.6828936577256042e-05
1.2528301744812448e-07 7.815901662781821e-06 -8.130026497591114e-06 -3.7540590124004536e-06 -2.2568285655443637e-05 6.366159087257763e-06 1.6238061509425462e-05 7.500351801426161e-06
-3.3150397948399e-05 -1.2638229379878894e-05 2.0297088023401975e-05 -4.9955472641393905e-06 8.08432806228209e-06 3.273454290875891e-05 -7.333301596401032e-06 -1.3759297781041685e-05
0.08821722295998241 -0.13461412270409984 -0.035696830934812525 -0.05897618288114668 0.1046197917339563 -0.05654196958648339 -0.0826597830919609 0.07373921096576216
-0.056303746701083644 0.06031525805404407 0.04539245366472366 0.13325683592956666 0.005006583690329531 -0.0686149603144442 -0.005501470200983698 0.0006764650346717761
0.07102493378309972 -0.047110021270188804 0.006033234929936169 0.08581094490536549 -0.07724948859808328 0.09749209541676912 0.18174649301404724 0.06368796141340397
-0.08681548925318264 -0.07926217202102415 0.08730488271175695 0.07632911594570474 0.0795767854823792 -0.019344120614920073 -0.10831192677949808 0.044651140049627745
-3.886606338087896e-06 -2.2195864398360956e-06 1.0506382361758111e-05 -1.5392001615298315e-06 3.901382025463992e-06 1.5984130226838366e-06 3.598891535825573e-06 -6.246834322895745e-06
-2.6532706922563865e-05 1.9936003856335034e-05 2.867624536019194e-06 8.415902987423424e-06 1.5715742039226662e-05 3.310269266356796e-05 -6.6001205242757965e-06 -1.8473811771252998e-05
2.120515588245617e-05 1.795993926211287e-05 -2.4339420138316304e-06 2.7968850575344655e-05 2.7944516938426244e-05 -7.89164085835461e-06 1.0839867969832934e-05 -8.495826977984858e-07
-4.29742932133586e-06 -9.865343428603008e-06 3.6907615644136848e-06 -4.713332055652564e-06 -1.625204866376029e-05 2.255340362799468e-05 2.749494832261148e-05 -2.332146612215612e-06
0.06796851307556591 0.14156653631056204 -0.08916655721869708 -0.1837267255453154 -0.024363179374269035 0.034124866454024544 0.032603452301103064 -0.10251740466474638
0.0011020750641509678 -0.08445094880665997 -0.02602184485421298 -0.1348201218500639 -0.08375480790889317 -0.053574883583958524 0.16048289128399834 0.12957032972706412
0.08308454684279501 0.013822370172537563 0.14268913272086703 0.05842763562520566 0.08011050067389239 0.03931840879295162 0.1428146052509101 -0.010815237646024533
0.0714659026034417 -0.1736131849211559 0.18395749968593073 0.04227595062507462 0.08156515016928399 -0.0038100786315832685 0.04369018882463338 -0.14027740338878533
7.209867934365242e-07 1.6832680631614225e-05 -9.989299558556783e-06 1.584605446179421e-06 -1.1534535481715718e-05 -1.2993420985251382e-05 -5.0362640572108095e-06 5.653376957140844e-06
2.274007654137554e-05 -6.522716003367464e-06 2.0501752929303153e-05 -6.152289374035713e-06 1.4464080220621498e-05 -1.930486968204698e-06 1.1113509512430524e-05 5.264047634295811e-06
2.347611643477023e-05 -1.0764038872615822e-06 -2.3787342229117472e-05 -2.2418608628338423e-07 -3.94133670060417e-06 -1.0352498211935735e-05 -4.180350292375023e-06 -1.4157991875840794e-06
-6.899335120721303e-07 1.2158196861860776e-05 1.1387238980141763e-05 -1.9920695095898512e-05 -3.3511648044179485e-06 2.235889188034303e-05 2.157845521067478e-06 -1.067605307664786e-05
-0.16989095760160122 0.04666224853873884 -0.016703816064276813 0.18939916514708938 -0.022251957727505794 0.015989682422657935 0.11866900706009394 -0.06409326455868866
-0.06637027370963405 -0.09260837376980526 0.06683397360341595 -0.20256468999358557 -0.13016752136715917 0.14844415423837806 0.1279880454082325 0.23076640349145056
0.10094082200097931 -0.1034918536220041 0.019966076384414763 -0.10088364849725279 0.016130555381989396 -0.194052912691485 -0.05333904211304845 0.11271461525871232
0.029391907234876603 0.2704422728043396 0.11041318236338529 -0.07709473588062102 -0.059499312704933305 0.10895466427791783 -0.031251425752390996 0.014393166953346486
-3.5214150087726983e-06 1.4148418098764947e-05 1.691796953159029e-06 -2.0694252449919356e-05 -2.746349176177329e-06 -2.603785253373673e-05 -4.922854615371888e-06 -2.7302133074809873e-05
1.968258080726227e-05 4.681727718635179e-06 -8.817638349666684e-06 -9.038293983309825e-06 -5.810401346175978e-06 3.1718024812116503e-05 -1.0067640852704429e-05 -8.692587258639789e-06
1.282156566482891e-05 -2.3650941671253197e-05 1.0514585748331625e-05 2.3908903969641755e-05 -4.491508479457547e-06 5.045153653979477e-06 -3.293707271092359e-05 2.55638767288447e-05
1.8187298369351585e-05 -5.85106598249817e-06 -1.2181037086089854e-05 -3.6390445780445916e-06 -2.3814701393933506e-05 -2.0660336764785206e-05 -1.9363681015484085e-06 8.360408019850726e-07
00000000: ccbf 182c 80e2 b3bf 7313 c55e 82df c1bf
00000010: bea4 26c4 bd87 a7bf 8bd8 6a28 fd3f c43f
00000020: d73b 3f58 ed8a c33f e7bb 535d 9eb8 9ebf
00000030: bfb3 7d17 8b1d 7f3f 3e92 22c0 6a2a a8bf
00000040: f084 6c63 f61b a43f 5a6e b1b5 3f2f b63f
00000050: aa84 ec90 3927 a8bf 489f b2e9 9d90 c33f
00000060: 6e73 4bcc c11b b33f 05c0 2434 9c9e 84bf
00000070: 5927 ce76 0ea5 8abf efc5 5ad1 d196 bbbf
00000080: 7801 d4f9 3d2c babf 88cd af0e 950e a9bf
00000090: 8610 8eba 0a8d a93f 480c 35fd 3a43 c9bf
000000a0: a7af cf2f 819b a8bf 4304 cc17 867c 94bf
000000b0: b8be b5e3 6648 9ebf 4de2 a991 0221 94bf
000000c0: 2c6a e752 1c20 8e3f a524 bdfb 72a7 be3f
000000d0: ce67 69bd 3ee9 a3bf 9538 4045 ce9c c33f
000000e0: 5c8d 9348 3c45 c43f 61b9 06d0 b7e2 903f
000000f0: 98eb 7bd2 4610 c0bf a567 977a 9a43 bf3f
00000100: 9cd1 9823 6448 a6be e939 1a8a 6355 f8be
00000110: e002 bb95 01ce a53e c871 42d8 cf30 a3be
00000120: b88a 84ba edfc d63e 301d 2ba6 c10f b0be
00000130: 8a29 cc24 90a1 e6be 9e8b 566a 52a5 b2be
00000140: 3015 75fd 461b a1be f32a 5f4f 3c43 d2be
00000150: 281b e08a 189e bfbe a2e4 2cb7 974e f53e
00000160: 22a7 75fe fec9 f03e 5e2f 5def f8e8 fbbe
00000170: df7b 212e 9dc3 e03e b513 a47b d621 fcbe
00000180: 20fd 5813 b1d0 803e 2623 5058 2164 e03e
00000190: 9020 6255 c60c e1be 00fd 8ac4 c77d cfbe
000001a0: 333f f4c7 20aa f7be 169f 347c 9cb3 da3e
000001b0: 5511 1317 df06 f13e b333 2801 7175 df3e
000001c0: f4cb 1300 5f61 01bf deb0 0b05 1981 eabe
000001d0: 38e6 aa44 7548 f53e d128 7593 edf3 d4be
000001e0: 3fab a196 3df4 e03e dc03 7754 8e29 013f
000001f0: e2c9 0398 12c2 debe 7628 cf7c f7da ecbe
00000200: cc9b 8e67 6795 b63f f202 4c1b 093b c1bf
00000210: 2929 dfe2 da46 a2bf 4d54 6f51 2032 aebf
00000220: 08fd 02d8 5cc8 ba3f 1064 73ac 11f3 acbf
00000230: 920d 1309 3129 b5bf 0ee2 87ab 92e0 b23f
00000240: 6364 723d d8d3 acbf 8676 9539 a4e1 ae3f
00000250: 3f4b f3ff ad3d a73f 3e99 245c 8f0e c13f
00000260: 4737 6f93 c881 743f c41e 9102 c090 b1bf
00000270: 1284 7da9 b588 76bf d8e7 b399 992a 463f
00000280: e189 cca7 b02e b23f ceb1 5601 ce1e a8bf
00000290: 311b 692b 4eb6 783f 23e5 01c2 b4f7 b53f
000002a0: 9457 295b 9fc6 b3bf 24fc 6ef1 3df5 b83f
000002b0: 2d3a d415 7843 c73f 0a63 6baf da4d b03f
000002c0: caef 2037 8a39 b6bf c8e5 a394 864a b4bf
000002d0: 5732 07e0 9c59 b63f 342a b810 4e8a b33f
000002e0: 8ee9 2aeb 245f b43f fed2 a4f5 f1ce 93bf
000002f0: 80e1 4897 54ba bbbf 6b0a 7ca4 83dc a63f
00000300: 38cb 1f37 364d d0be 4ae6 ba8c 869e c2be
00000310: 00da 5232 9208 e63e 34a1 9e79 d0d2 b9be
00000320: 3770 b0b9 135d d03e 3c7d 55b4 21d1 ba3e
00000330: ed86 9d8b 8f30 ce3e a05a 63be 7c33 dabe
00000340: d696 71bc 51d2 fbbe b1a5 d2c0 87e7 f43e
00000350: 16d6 be42 2d0e c83e f24a 2ce6 40a6 e13e
00000360: 48b6 c791 a97a f03e 674d f4db f75a 013f
00000370: 55ea b650 d3ae dbbe b020 a1ad 065f f3be
00000380: 1990 6237 373c f63e c172 d8a0 15d5 f23e
00000390: a944 d4c5 d96a c4be 701a c5c6 d453 fd3e
000003a0: e8f1 e694 4c4d fd3e 220e 5adc ca8c e0be
000003b0: b55e 0b1c 9cbb e63e c838 271c dc81 acbe
000003c0: 7ce0 8860 5406 d2be 80e0 f979 6ab0 e4be
000003d0: 91a7 b1a0 d9f5 ce3e 8c0a a6d9 e6c4 d3be
000003e0: 361e b247 a00a f1be 26f9 8e18 22a6 f73e
000003f0: bb48 2c76 9ed4 fc3e 13fb ad28 3f90 c3be
00000400: d53a d16c 6266 b13f d8b7 d42d da1e c23f
00000410: 23b6 2697 9ed3 b6bf 5f24 cf7a 5b84 c7bf
00000420: a567 8e4a a9f2 98bf 9c01 cd82 d078 a13f
00000430: f067 bd52 66b1 a03f 624e 4ea4 943e babf
00000440: 75d2 ed16 700e 523f 6ba3 3dcf 939e b5bf
00000450: 9c8f 8572 78a5 9abf 4529 1827 c941 c1bf
00000460: 2cf9 d980 f470 b5bf aa9d c2c9 2a6e abbf
00000470: 16ef d010 b48a c43f b2d6 5ab4 c295 c03f
00000480: 2227 7e63 0745 b53f 9d08 c11e e74e 8c3f
00000490: e0ee 4333 a343 c23f eabe 6220 3aea ad3f
000004a0: dae6 752c 1f82 b43f 3800 cbdf 8a21 a43f
000004b0: bace 78bd bf47 c23f b9b7 e79f 4c26 86bf
000004c0: c3fd 75e2 964b b23f 9604 b2f3 f438 c6bf
000004d0: eea3 805a eb8b c73f 711b af82 31a5 a53f
000004e0: 5f6c 7824 74e1 b43f 6555 c563 5036 6fbf
000004f0: b0d3 5078 8f5e a63f d318 f625 9cf4 c1bf
00000500: 1c50 c8b9 3a31 a83e 342f 4c01 7da6 f13e
00000510: 9937 93e0 f6f2 e4be 1d16 0f1d d495 ba3e
00000520: 7fb1 427c 8e30 e8be 68e4 a62e ca3f ebbe
00000530: 7b93 0db9 a51f d5be 0042 d66c 44b6 d73e
00000540: 8d1d 2e29 3ed8 f73e 4ed6 c885 b65b dbbe
00000550: 06da c4bb 657f f53e e287 116d f8cd d9be
00000560: 25b2 670c 5855 ee3e c433 356f b031 c0be
00000570: d0eb e51d 854e e73e c219 5165 3a14 d63e
00000580: d2bc eb6f d29d f83e 8424 1997 1e0f b2be
00000590: 1b30 ffb5 5df1 f8be 40e1 52ab f916 8ebe
000005a0: fcba 0062 fa87 d0be 4841 2385 f4b5 e5be
000005b0: bd12 4cf0 9d88 d1be 6a29 5aab cfc0 b7be
000005c0: 601c 7cd6 7b26 a7be 8b25 51da 617f e93e
000005d0: 8f7d 5735 7ae1 e73e 8dd9 42be 6be3 f4be
000005e0: 6978 a355 921c ccbe e6ba b459 eb71 f73e
000005f0: 19d2 e41e f019 c23e d18e e38f a963 e6be
00000600: e07a 64a5 fcbe c5bf b708 dd3e 1de4 a73f
00000610: 979d db1e ce1a 91bf 5625 195a 3b3e c83f
00000620: c8b0 d89a 37c9 96bf b6a1 506c 995f 903f
00000630: 9d34 5f90 1761 be3f ce66 2c8b 6a68 b0bf
00000640: 1c6b 026b a4fd b0bf a953 adb0 2eb5 b7bf
00000650: 1a6e e302 081c b13f e064 6cc7 a3ed c9bf
00000660: 79fc a24f 54a9 c0bf 3f3c ded1 3700 c33f
00000670: 5056 a78a e961 c03f f272 01e6 c089 cd3f
00000680: 2058 53f9 41d7 b93f 397c b52e 717e babf
00000690: 4ce9 66b4 fc71 943f 3c32 ffc2 82d3 b9bf
000006a0: a6ed 533f 8784 903f 5a0b dad0 b9d6 c8bf
000006b0: 0676 f342 414f abbf 9a40 5172 ddda bc3f
000006c0: 9d0a 5d81 e918 9e3f 97a2 491b ed4e d13f
000006d0: 4a4b 4ccf 0944 bc3f fa0f 4d09 7bbc b3bf
000006e0: 4882 67a4 b176 aebf 4400 d2ef 73e4 bb3f
000006f0: 1aaa 1ed7 2f00 a0bf 49ce cd2a 2a7a 8d3f
00000700: d29a ca5f 2e8a cdbe a8f5 dac6 dfab ed3e
00000710: 3256 fd6b 3662 bc3e f42a 2633 12b3 f5be
00000720: 20b1 336d bd09 c7be f476 f899 7b4d fbbe
00000730: 468d 0df9 dfa5 d4be 2922 764c dca0 fcbe
00000740: aa46 65a7 80a3 f43e cf61 2484 f7a2 d33e
00000750: 7fb1 a3fc ee7d e2be 2799 8eaa 65f4 e2be
00000760: 6e0b e6f5 de5e d8be 5563 ba08 1fa1 003f
00000770: b37a d105 061d e5be 96ca 8518 cc3a e2be
00000780: 12dc 1c91 86e3 ea3e 039e 0156 c0cc f8be
00000790: 6a48 54a9 f90c e63e fd83 c05e ff11 f93e
000007a0: 6daa 2973 b8d6 d2be 005b d046 3129 d53e
000007b0: 93cb 7133 bd44 01bf 982b 6e3b 40ce fa3e
000007c0: 7c16 8fa0 1d12 f33e ebfe 49c5 888a d8be
000007d0: 09cd 43fd a48b e9be 7954 ede9 c986 cebe
000007e0: 98a8 83d1 b5f8 f8be 513c 1b88 f7a9 f5be
000007f0: 29af 249f 513e c0be 0a2b 892a 890d ac3e

tgnn._base_tgcn.linear_h.bias f8 [32]
-0.16094658718231383 -0.028410957290788144 -0.10765727067818345 0.07663788864436183 -0.20565208228703485 0.0038813544913952674 -0.025036208315363 -0.04814517826449557
0.2390461107180638 -0.06908819717953238 -0.062126174637458106 0.31112091847193335 -0.08979495298035751 -0.2472888634022425 0.2565655687938196 0.24035094602694768
-0.04439409294288463 -0.17402423160418265 -0.045521806329308905 0.3382152613956767 -0.17159357661332772 0.004515509743911304 -0.03602384467493442 -0.08442438442199698
0.01741538687451189 -0.20374720484700648 0.2432524542317745 0.30654455795236685 -0.032045897791469546 -0.006219887761718224 -0.043638219244941615 -0.01877161130025491
00000000: ade8 2cd4 e599 c4bf 24e0 a511 c317 9dbf
00000010: 7a4a bd48 6d8f bbbf 98ad 5c69 8a9e b33f
00000020: 8678 e3b3 ce52 cabf 0ee9 5953 cacb 6f3f
00000030: bba7 b87f 17a3 99bf 8b52 361c 7ca6 a8bf
00000040: f491 e21d 1099 ce3f 16fa 6c9b c3af b1bf
00000050: 5641 9680 00cf afbf 560f 7cb6 67e9 d33f
00000060: 9580 6552 cdfc b6bf 6623 7d56 29a7 cfbf
00000070: 25f1 cffd 916b d03f 9ecb 5fde d1c3 ce3f
00000080: 4c8a a692 d2ba a6bf 8fca b90f 6d46 c6bf
00000090: 6fe2 e05a a24e a7bf 22f6 ac9f 51a5 d53f
000000a0: 4b03 e13f c7f6 c5bf cb42 ccea da7e 723f
000000b0: e992 82a5 b771 a2bf 12d1 1322 d69c b5bf
000000c0: 32f9 4ad4 56d5 913f 3412 bc6e 6314 cabf
000000d0: 5271 cc7b e522 cf3f 3305 cb10 6d9e d33f
000000e0: e87b f8e5 5168 a0bf 8188 5768 067a 79bf
000000f0: e280 06a9 bf57 a6bf f3e2 8282 dd38 93bf
