Q1/models/gcn/20/d1/bestval.pth (torch, 36751 bytes, 8 tensors)

conv1.bias f8 [32]
0	0xbfd1871a2cf003ee	-0.2738709868281707
1	0xbf8d943be771b820	-0.014442890167824685
2	0xbfa17eb43980f19f	-0.034169799823277495
3	0xbf673aed08e321a3	-0.0028357152542392724
4	0xbf95e30a8c12ebe1	-0.02137390594428357
5	0x3fde73ded220203f	0.4758221675879248
6	0xbfddbb44de8ee2c0	-0.4645549939555558
7	0x3fcd08ccad0601d3	0.22683103989039796
8	0x3fe3ae135a432096	0.6149994624074846
9	0xbf058b16bbd9e2e4	-4.1090613632504565e-05
10	0xbfc2aba0ccbbe83d	-0.1458626746824069
11	0xbfe60c06c69367d9	-0.6889680746492061
12	0xbfe04d3dee0b86a2	-0.5094289445225579
13	0x3fe46076de9845d9	0.6367754313998218
14	0xbfc0d944ebe94c94	-0.13163053053958562
15	0xbf93a76cfac02331	-0.01919336586437054
16	0xbfd4a55ca169bc63	-0.32259288561812677
17	0x3fe0a78a67e9cad2	0.520451739268845
18	0xbf41a2e68300b258	-0.0005382180734208692
19	0xbf98872ffe0377e2	-0.023953199270969956
20	0xb9f1596567e810fc	-1.368610844177592e-29
21	0xbfa26c2f389f374e	-0.035981631910188314
22	0xbff16dada35ff2ec	-1.0892769224002974
23	0xbf7e63e4f49b95ae	-0.007419485433023549
24	0xbfe7800b8b50491d	-0.7343805047005706
25	0xbf0e452a67ba00b7	-5.7735783198788045e-05
26	0xbfa1feb0a0d64f40	-0.035146255143585936
27	0xbff1ce7d7ce49892	-1.112912643302057
28	0xbf71c525bedbf4ef	-0.004338405078440063
29	0xbff58c575fef71aa	-1.3467630145524745
30	0xbee0cd2ee0c04010	-8.011577868699576e-06
31	0xbfdf19685aa73a37	-0.485925758865878

conv1.lin.weight f8 [32, 1]
0	0x3fba576d6cdb9b81	0.10289653690015933
1	0xbf91a1a2e4191192	-0.017218156024925664
2	0x3f3d2118bd3999ee	0.0004444775961246751
3	0xbf83fa38dfde2a01	-0.009754604656127876
4	0xbf3e0e5c86b05b6e	-0.0004586196798199081
5	0xbf9553213ba8aecd	-0.020824927583972298
6	0x3fc656227e755443	0.1745036237213374
7	0x3f75baa634b1eaac	0.005304955712854092
8	0xbf9d4a57fe91e43f	-0.028603911316597893
9	0xbf745c01445318ee	-0.004970555256653448
10	0x3fd5540585f79da5	0.33325326998461896
11	0x3fb089ae4f285853	0.06460084374006785
12	0x3fb9045ff4648184	0.09772300449959032
13	0xbf9e67898a2f3ec4	-0.029691838320842448
14	0x3fae4ba40d4161f6	0.05917084371384711
15	0xbf96bbf4f8223393	-0.022201373715279592
16	0x3fb18355dede666d	0.06841026965266801
17	0xbf98c641b4de6547	-0.024193789162017223
18	0x3fd0f7dad05fdc32	0.2651278529078268
19	0xbf9e448b40dfdbc8	-0.029558349451658278
20	0xbf84296903a28506	-0.009844608710695823
21	0x3fcc3710bed42759	0.22043046300705774
22	0x3fb4d2f5af94d887	0.08134398972183209
23	0xbfa2c7a1b205fdc2	-0.036679318410274955
24	0x3fbf5b31d16811a8	0.1224852691885362
25	0xbf901e15640c6f19	-0.01573975966594707
26	0x3fc50f72de35ee9b	0.1645339570057914
27	0x3fbfada3dbcad582	0.12374328723929831
28	0xbf7376950f06edfb	-0.0047517607312630395
29	0x3fb2e802c214795a	0.07385270345955544
30	0xbf829fcccd8ecae0	-0.00909385683357783
31	0x3fb27c7b8437d8e9	0.07221195199949516

conv2.bias f8 [64]
0	0xbe11540e8396cf6d	-1.008642515305464e-09
1	0x3fd6268ef2ba3c9f	0.346103417433321
2	0xbfa0decbcaec553c	-0.03294979908074899
3	0x3fe011bc6e3d5b75	0.5021650460356414
4	0x3fd756f8396494ad	0.36468320469641463
5	0x3fe66942d715676c	0.700349254689383
6	0x3fe04b11ef081e2e	0.5091638249004455
7	0x3fc0172d7b4c57ac	0.12570732613010926
8	0x3fe2c0f82167185a	0.58605581783264
9	0x3fe3d461da0878e8	0.6196755655726323
10	0xbf9d8e5bd6a66661	-0.028863368011661786
11	0x3fb7d16302e73acb	0.0930387384498587
12	0x3fdc6cc23d49b5fa	0.44413810715818125
13	0x3fcc2f5ba1af93cf	0.22019524950806477
14	0x3fd6cc1ec92906a7	0.3562085117774622
15	0x3fe42504ae880d93	0.6295188340013048
16	0x3fdf02e1ffeb18d1	0.48455095283533206
17	0xbf8c041d371345ad	-0.013679722064270228
18	0xbfa416efb5f5e836	-0.039237490617737
19	0x3fe8bb2102a7e401	0.7728428890105762
20	0x3fe535a40f2fa75e	0.6627979561428494
21	0xbf8963b7773c0dc5	-0.012397225691080824
22	0x3fc9155704528da3	0.1959637423616246
23	0xbf411ca5b3a9d5f6	-0.0005222138491506867
24	0xbf71c7e09432026a	-0.00434100843551786
25	0x3fdaf01b5ec59762	0.42090496306479086
26	0xbfa78041fbf15739	-0.04590040398095003
27	0xbf92bd718cd26674	-0.018300794811330026
28	0x3fe6326823a62bf0	0.6936531730910911
29	0xbe7d434967069649	-1.0901256942158059e-07
30	0x3fe3aa339dd88529	0.6145265658307483
31	0xbfb0e4882097da32	-0.06598711772662894
32	0x3fe5868818082c3b	0.672672316491464
33	0x3fe735cd95b07042	0.725317756997818
34	0x3fdb520641e02e38	0.426881374675506
35	0x3fe17b00475ccabc	0.5462647813604558
36	0x3fc884007d4ad0a8	0.19152837865624872
37	0xbf75bd0e256c8416	-0.005307250269454241
38	0x3fcb3596963c0f04	0.21257288299249677
39	0x3fdb1fc48fd3d1b0	0.42381395383497544
40	0x3fe02b4368238a95	0.5052811655007924
41	0x3fd3377089d1f3cd	0.3002587648296043
42	0xbfa03b9ab7f3c597	-0.031704745249849946
43	0xbf50a8d935e18906	-0.0010168191143056795
44	0x3fe590da2160f911	0.673932137673349
45	0x3fe6f6cbcbdc5b22	0.7176264745383814
46	0xbf9732ca163a683a	-0.022654683691691192
47	0x3fc534bbbef112c4	0.16567179511380037
48	0xbf8b34c82072a36b	-0.013284266939381081
49	0x3fec64ec909b5a76	0.8873198341705819
50	0x3fe86360331b2cd9	0.7621308324973156
51	0x3fe554aa873fba69	0.6665852204876731
52	0x3fa52505f676c83f	0.041298090301453254
53	0xbfcfb5441465da1d	-0.24771929737080792
54	0x3fda35284ad10b11	0.4094944697027794
55	0x3fa3635af7819658	0.037867396081122606
56	0x3fe3b27309314ddb	0.6155333690207344
57	0x3fe890f083ecc7ae	0.7676928116472845
58	0xbf738e0cc2de8b54	-0.004774141167134999
59	0xbf91abb62380a09a	-0.01725658981027376
60	0xbf9209ce45f63384	-0.01761553098690484
61	0xbfb085a85fdf4235	-0.06453945484759845
62	0x3fced380ea4c2fea	0.24082957687676237
63	0x3fe2f61b8c807c89	0.5925424331834545

conv2.lin.weight f8 [64, 32]
0	0xbf3e83783f4681d0	-0.0004655998775664723
1	0x80000000051d778f	-4.23993457e-316
2	0x3f00c1d13e2b15c2	3.1961629948489275e-05
3	0x3d48539fbf980bf4	1.7285128931625038e-13
4	0xbe6b4567a518cee5	-5.079640587012457e-08
5	0x9648b626932dc77b	-2.5221590860071045e-201
6	0xbf51d9882f73a7cd	-0.0010894613204137538
7	0xb7e14f94d416c095	-1.5897518479378583e-39
8	0x807d8322b35f2cf7	-2.626677282603489e-306
9	0x000000000279c821	2.0521274e-316
10	0xbf5f9004697a75ba	-0.0019264262281589576
11	0xbcd379d570887fe9	-1.0811303563269441e-15
12	0xbf3485fe79e2db1d	-0.00031316244884342805
13	0x81def8fdfa274b04	-1.1562249776145178e-299
14	0xbf1121b0709b7411	-6.535186198726473e-05
15	0x3c39fb91bbe00a89	1.408524581293293e-18
16	0xbf01500d25640f23	-3.302135580621052e-05
17	0x1ec91b183d3e0d33	2.2321688974542792e-160
18	0xbf503c4b170fac6f	-0.0009909375478354373
19	0x8000000001c78c6e	-1.4750246e-316
20	0x8000000007db8d56	-6.51322186e-316
21	0xbf56d75683080be5	-0.0013941140024378237
22	0xba74e70a3825213f	-4.221226194538063e-27
23	0x000000000055e458	2.7811034e-317
24	0xbf30de4b82f14a92	-0.00025739043752996086
25	0x000000001af5ec3d	2.23477953e-315
26	0xbf4387c988f69183	-0.0005960210855176371
27	0xbcd0bbaf16fdb6ec	-9.2887588778793e-16
28	0x8000000005885b11	-4.5860304e-316
29	0xbbecb80a032f6f4d	-4.8651713723492603e-20
30	0xbe63b5deca25a4ec	-3.671353822587961e-08
31	0xbef69c67a6d6cdba	-2.1563488578469596e-05
32	0x3fb1acb0aca98573	0.06904129233727989
33	0xbf4d89b27de16f55	-0.0009014245549780845
34	0xbf6b797909d5fee5	-0.0033538211852713767
35	0x0000000002713e5e	2.0244817e-316
36	0xbfbc010508c1b13d	-0.10939055885109368
37	0xbfefbfd59cb75b8c	-0.9921672879089427
38	0x3f94bc28c7903cc5	0.02024902074850556
39	0xbfbf244b31ca4752	-0.121647548347281
40	0xbfd6e768016f59b8	-0.35787391796238976
41	0x2abdaa4faad58969	8.278085658658186e-103
42	0x3fc0d9f139cc49ca	0.13165107080619826
43	0x3fd174f130ad1ac8	0.272762582335798
44	0x3fb6a41335de074c	0.0884410864364586
45	0xbfe14b657bf45f34	-0.5404536648738714
46	0xbfc4692c06d5d8dd	-0.1594595940948186
47	0xbf84eb808ada6331	-0.010214809644183727
48	0x3fbb2f5dea026ad0	0.10619151080247069
49	0xbfdf29e3cd5337a2	-0.4869317536475767
50	0x3fc8b53dbcf36d91	0.19303104139440255
51	0xbf08d19497d06260	-4.733786315841838e-05
52	0x981ac78722e80178	-1.4673837980304505e-192
53	0xbfb8cc3a4e44036c	-0.09686626826079497
54	0xbfcd816ff45f3e07	-0.23051261360386396
55	0x3f476ee4738608e9	0.0007151236996352481
56	0x3fc4d6b1353a03df	0.1628018865485776
57	0xbefa43fbd3bca978	-2.5048791243134524e-05
58	0xbfb7418d0dfe7295	-0.09084397880219293
59	0x3fc5f6a36150d56b	0.17158930064912722
60	0x3ca57635ced0dde3	1.4892086552120511e-16
61	0xbff36e53649036f8	-1.214434998345892
62	0x3e0f65b7e4e8f39c	9.137827801895246e-10
63	0xbfb0e05a1dc1c79f	-0.06592334009636013
64	0xbf9193b0e31a2bc8	-0.01716495882150662
65	0x9bb3403a63577209	-3.0404184949070733e-175
66	0x80000000025eec15	-1.9651586e-316
67	0x3d8cebcdfae1632b	3.2879497388644374e-12
68	0x86216e3fc3075a38	-3.8410315152378315e-279
69	0xbf9d0dbcd90ec7e4	-0.028372717617180757
70	0xbf91958ef649511d	-0.017172082693222557
71	0xbf9f9d6e26ef2b3a	-0.030873986364706264
72	0xbf9d33dcc1582765	-0.02851815157013195
73	0x00000000038e01af	2.94651814e-316
74	0xbf920309306f77cc	-0.017589706021560222
75	0xbf9f207099c513a8	-0.030397185693135903
76	0xbf92c85f34d42537	-0.018342483138473056
77	0xbf9d176d182f6a73	-0.028409676171444475
78	0xbf917a01a1e09ca1	-0.01706697989007167
79	0x000000000296bf22	2.14591297e-316
80	0xbf92e9bb1afb472a	-0.018469737550567057
81	0xbf9d1491d08ff341	-0.028398779253609566
82	0xbf924b73e336fad0	-0.01786595415409914
83	0xbcd035a204964f72	-8.998081972435321e-16
84	0x000000000b5800b6	9.4028956e-316
85	0xbf921ed84366199e	-0.01769578849191477
86	0xbfa0ca073f9c6aef	-0.03279135371686503
87	0xa2c21ab1e16376de	-2.9692941444223225e-141
88	0xbf93805521b2caa0	-0.01904423731020677
89	0x8000000000ab0899	-5.537911e-317
90	0xbf920f94915a5b90	-0.01763755929149685
91	0xbf967737339cdbaa	-0.021939146542731137
92	0x0000000000f8a05f	8.050297e-317
93	0xbf9ef48c3dc159a0	-0.030229750890009677
94	0x86688d82efadffa4	-8.656745875988396e-278
95	0xbf94643e02f32e0b	-0.019913643770264538
96	0x3fc7ca8f9839e799	0.18586916859549943
97	0xbf58a5153fa8a5b9	-0.0015042026049151126
98	0xbf7e9ebe50882a5d	-0.007475608269042225
99	0x8000000001157cc2	-8.9847863e-317
100	0x3fc6de294b3cc1b1	0.17865482495973375
101	0xbfeb1af9fb8e4b29	-0.8470430291366472
102	0x3fcc227e40ff7aec	0.2198026482937715
103	0xbfcd0a2b07fb458a	-0.22687280549739014
104	0xbfd17928db2fa0cd	-0.273019994782328
105	0xae6fd45eddd9bbb6	-5.1201424295833654e-85
106	0x3fa63f1faa080393	0.04345034552171181
107	0x3fc52734300ac615	0.16525890680127078
108	0xbfc73f7ba11374dd	-0.18162484517134816
109	0xbfdc01a9d09ede0e	-0.4376015221891699
110	0x3fa957dd449099b2	0.04949847661946495
111	0xbf8b533029655f41	-0.01334226251917381
112	0x3f970d9ffaef13dc	0.022512912455358122
113	0xbfd90f0f9cc98cde	-0.39154424964199375
114	0xbfc30ed702e31729	-0.14889037743540115
115	0xbf1403882cf340f6	-7.634657525846023e-05
116	0x19ccde81e2a10a9c	2.1231806886792692e-184
117	0x3fcebe61ba2116c8	0.24018498981802439
118	0x3fcf4b0e572ce9de	0.24447802788365797
119	0xbf5d9a7c48a93676	-0.0018068517407700247
120	0xbfbad7177a2e2779	-0.10484453900258285
121	0xbefccfcc67cae570	-2.747699044178736e-05
122	0xbfcdfc167f4848c7	-0.23425561156233796
123	0x3fdced5c00dd82de	0.4519872673463804
124	0x2c7cb381f9b24d51	2.1499158213372238e-94
125	0xbfa972672da007cc	-0.04970095092723134
126	0x3e717146a2961708	6.497831663538654e-08
127	0x3fd1036d8a0e802a	0.2658342216691404
128	0x3fcbe723c743e6f3	0.21799132566211873
129	0xbf6453bbccb5777d	-0.002481333538226714
130	0xbf7e78f15e6c859f	-0.00743955883697947
131	0x80000000010fd19b	-8.8012434e-317
132	0x3fc29fd3a8946dc9	0.14550252658305698
133	0xbfe6657fdad258ef	-0.6998900674687131
134	0x3f85929fd599940c	0.010533570009281255
135	0xbfc493bc5e0f8db9	-0.1607585391312634
136	0xbfca66214140aca0	-0.20624175726093075
137	0xb049377893f6f983	-4.35551060355978e-76
138	0x3fabb234f5a07ec9	0.0540939855420653
139	0x3fb5021c388e92a6	0.082063449676364
140	0xbfbc32d98b235402	-0.1101509060566315
141	0xbfd768736ec95c51	-0.3657501775646255
142	0x3fb2695466328b08	0.07191970343641796
143	0xbf8e02997be1fc15	-0.014653395741559586
144	0xbf84fe269dfc4f1d	-0.010250379272782656
145	0xbfdb3da4d48c250a	-0.42563744312845186
146	0x3fc53ce7f1ffa0ba	0.1659212047227408
147	0xbf22a63bb3cdf84e	-0.00014228323734849713
148	0x9c391af94021c7fc	-1.0150537746880728e-172
149	0xbfacdc050c31e28a	-0.056366117228155835
150	0x3f9e687e9df28327	0.029695490255679104
151	0xbf6440bb973a5804	-0.0024722732430957368
152	0x3fd037413e563cc1	0.25337248885712077
153	0xbf1c9e12b013f7a6	-0.00010916699467952584
154	0xbfc1dc2cae8fcd79	-0.13953169368287968
155	0xbfa46981b87ce26d	-0.03986745240257936
156	0xbf3081ce62263026	-0.0002518776765547702
157	0x3fc246bbf503d712	0.14278363669989652
158	0x3e9befd687782dfe	4.162917614797939e-07
159	0x3facf21542243789	0.05653444702521344
160	0x3fb14450a64b5899	0.06744865474624574
161	0xbf5335ef19601451	-0.001172526831852556
162	0xbf74a6e0ad63af7c	-0.005041959424698091
163	0x8000000001569604	-1.10926216e-316
164	0xbfc4b423863ae75f	-0.16174739889339215
165	0xbfe165ce419ff5f5	-0.5436774522528923
166	0x3fb4672aa8c5b5fe	0.07969919796388322
167	0xbfd0bceaec820f2e	-0.26153061958779034
168	0xbfd0016a287c9bd0	-0.25008634523186135
169	0x2edde11a160efa11	6.1522175833210464e-83
170	0x3fd02063831a643c	0.2519768505386002
171	0x3fd443c8c1e223a7	0.3166372197525171
172	0xbfb71f776566b695	-0.0903238890229779
173	0xbfc8ae9c1180fef8	-0.1928286633938041
174	0x3fcb90f0bd30525d	0.2153607295773722
175	0xbf88893e5e8714cd	-0.011980521449809345
176	0x3fc111a9c1b7f7c5	0.1333515354053231
177	0xbfd3280b690b5a3d	-0.2993191266845406
178	0xbfbe00d7547af4b4	-0.11720033466822849
179	0xbec322813fe1b4e9	-2.2810440887729067e-06
180	0x1a5525a8a16db04c	7.962941696676763e-182
181	0x3fcfe746973d5bef	0.24924547562360952
182	0x3fca869cb3bed993	0.2072330358184443
183	0xbf7672685f748e91	-0.005480201441318792
184	0x3fa45bf1f6bd41bc	0.03976398598627237
185	0xbed646123fd73ac6	-5.310467711307475e-06
186	0xbfcad7a86075d88f	-0.20970635137536361
187	0x3fcde4e0418124a1	0.23354724119625295
188	0x3c74acd7dde6e4a3	1.7932850400846916e-17
189	0x3fdc08de8b444188	0.43804133987671223
190	0x3e57c07ad7801881	2.2120656834066715e-08
191	0xbfc75750ac2d1f3a	-0.18235214621585688
192	0xbfc37bdd73ffa893	-0.15221756137845385
193	0xbf38fbdb4133a587	-0.0003812227525502244
194	0xbf7c190933dcc2d6	-0.0068598136402193335
195	0x8000000001103959	-8.814365e-317
196	0x3fb6a5dfb2082ca7	0.08846853348238658
197	0xbfe4fb639a43722b	-0.6556871426542491
198	0x3fc13153f6e3b84a	0.13431787066605444
199	0xbfc578c7da185890	-0.16774843358206626
200	0xbfb216ab1e069114	-0.07065839274452329
201	0x2adb7af28e62f2b6	3.067343244115682e-102
202	0x3fc1a4b65329a31f	0.1378391176288227
203	0x3fc8e0b1f0563d61	0.19435714945982865
204	0x3f914b7993a9020e	0.01688947643038046
205	0xbfcf6177508166fd	-0.24516192847186594
206	0xbfd0036b76b3d90c	-0.2502087268070603
207	0xbf8296ada7e963d8	-0.009076458632238202
208	0xbfc45ace1727fcd7	-0.1590211499278442
209	0xbfd5f21e50efebd3	-0.3429027357485072
210	0x3fa8a8a50442d6bc	0.04816165616050003
211	0xbedfe9bd6c716ba3	-7.608663231096794e-06
212	0x95e3e6c31cac26a4	-3.1737804775555386e-203
213	0xbfa432ab7c72103f	-0.03944908041106076
214	0xbfb454f077917a30	-0.07942107123515352
215	0xbf6831dfeff09a23	-0.0029534696364124243
216	0x3fb09d1b51b6aca8	0.064897258233645
217	0xbeb6cea72b00c9e1	-1.359417336044119e-06
218	0xbfc7eebe1d6e7810	-0.1869733470638839
219	0xbfc6d167dff87996	-0.1782655566793891
220	0xb0630883fe02d568	-1.3149958113354696e-75
221	0x3fc22b66f26f7011	0.1419495280996448
222	0x3dd7205c98f5333e	8.41334001073478e-11
223	0xbfca16a8d72a389f	-0.20381651407337117
224	0xbfd6a339aab9e809	-0.35371247932891997
225	0xbb11dd15cb1cea73	-3.694108749521972e-24
226	0x000000000119c5e4	9.1235526e-317
227	0x8000000004d4f078	-4.0050965e-316
228	0x9414b8f14549cd26	-6.155506211579033e-212
229	0x3fb7059a073d99a9	0.0899292247464475
230	0xbfd48b7dff4ef2c6	-0.3210139268156066
231	0x3fa9d5582614a692	0.05045581307269943
232	0x3fb6cfa64ccc8adc	0.08910598158812938
233	0x9b535c70441bdd10	-4.777847878368186e-177
234	0xbfd1c54b2c148ebd	-0.2776668482276639
235	0xbf4a35fd9139656c	-0.0007998932000631682
236	0xbf95800b249e21be	-0.020996259794203935
237	0x3fb6c2f0b82e1d49	0.08891205307565032
238	0xbfdb06a0d085ba03	-0.42227955211174634
239	0x8000000001b99d0a	-1.42990394e-316
240	0xbf9a2f445b71175a	-0.025570934373056665
241	0x3fb6d36503e80662	0.08916312547082719
242	0xbfbda2368015570f	-0.11575642230067394
243	0x8000000000e1d65a	-7.3124057e-317
244	0x80000000047a877e	-3.712357e-316
245	0xbfc7ca626fbdb222	-0.18586378532508357
246	0x3f65c99fbd9c5e7f	0.0026596183714778228
247	0x0000000000217ce6	1.084307e-317
248	0xbf8f4b19880d3e38	-0.015279960121602362
249	0x000000000364267a	2.81099133e-316
250	0xbfca762757e053e5	-0.2067307643016242
251	0xbf7248b8e86f748a	-0.004463884636575996
252	0x000000000358637e	2.77290816e-316
253	0x3f92abd23a913f25	0.018233570885342183
254	0x36904c0ef9614df0	7.136595653012028e-46
255	0xbf88179ff4f8b827	-0.011763810790480346

lin1.weight f8 [32, 64]
0	0x2636ed5766d91cc7	1.3547875941880053e-124
1	0xbfc17dd3b01f3636	-0.13665243243888064
2	0xbf8c6cf2132b0b1b	-0.01387967225071445
3	0xbfa98ebf782163db	-0.04991720525203621
4	0xbfa5191ffcc80ee2	-0.041207313162912276
5	0x3f92496fa8d31670	0.01785826175616595
6	0x3fb284067c7b9cfd	0.07232704676754405
7	0xbfc80e47aed7344b	-0.18793579136982638
8	0x3fd303915c9c4283	0.2970927624128665
9	0xbfbfddf2ec967bd1	-0.12448042179174414
10	0xbf9d1c350f7946b4	-0.0284279146856707
11	0xbfe3e77e0a69e06b	-0.622008343066239
12	0xbfb93e6ee8cb6eb1	-0.0986089056345303
13	0x3fc4c2aca70649d8	0.16219099193092634
14	0x3fd02820ed4a9e51	0.2524492566394417
15	0x3fab9383d457332e	0.0538598248200287
16	0xbfb9879d72da9b12	-0.09972557119418138
17	0x3f7cb3917502b5d0	0.007007187072458135
18	0x3fa0c8c2b41c6150	0.03278168152445693
19	0xbfe71321df9634db	-0.7210854880264849
20	0x3fc4fb356c7043e7	0.1639162806973495
21	0x3f5dbfe7fa32e025	0.0018157735255908216
22	0x3fd56e1535cc40b1	0.3348439240808246
23	0xb8617b0210647f51	-4.1096458574270434e-37
24	0xbf7b1d20f13aeffb	-0.006619576149827107
25	0x3fbc0faf67741214	0.1096143367358951
26	0xbefe38ca6be76994	-2.8821791369407194e-05
27	0x3f86b5d4fe16d2eb	0.011089004520593323
28	0x3fc7560b8cdc7325	0.1823133886145111
29	0xb5d9a34d250cb588	-2.740962534507324e-49
30	0x3fb6204fbbb4ca0f	0.08643053372069452
31	0x3f8c819f18fa3226	0.013919108342883634
32	0xbf9e56f3433e1152	-0.029628563861039688
33	0x3fc26570d91c4950	0.14372072793100665
34	0xbfa13dda11672cbe	-0.033675016998665694
35	0xbf743d479f6c505a	-0.004941253448823424
36	0xbfe66473c8ea93eb	-0.6997622417590014
37	0x3f8b6228f4d9e5b2	0.013370819065346182
38	0xbfd9e5af34e18efa	-0.4046438232819437
39	0x3fc8acaf5fffa517	0.192769929766009
40	0xbfe674a9d0f0e25b	-0.7017411309125906
41	0x3fd090ca8c9ea6d0	0.25883735401531016
42	0x3c87727d3b7a5026	4.0674448867671574e-17
43	0x3f45c11968568641	0.0006638883648301745
44	0x3fa506278ad03922	0.04106257981776397
45	0x3f9218c674670ac7	0.01767263493980911
46	0xbf4f2615f18dffa6	-0.0009505850931503703
47	0x3fcfd93aba2f1827	0.2488168152905825
48	0x3f95b91ec35e7c48	0.021213989900953828
49	0x3fc711e40a316bb8	0.18023348329265132
50	0x3fbd61fd27c8c832	0.11477644177719595
51	0xbfe46a353c0063f7	-0.6379648372559349
52	0xbfdeb69a303f10a7	-0.47989515983159453
53	0xbff7ab0bfb3cad50	-1.479259473223312
54	0xbfa7d06e055283b6	-0.046512067937562504
55	0xbfe10668705c334b	-0.5320322222265558
56	0xbfae359e234ad3e5	-0.059002820785657474
57	0xbfe21334ca9628f7	-0.5648445088166046
58	0xbf6525e8d083a575	-0.0025815531881689343
59	0xbf98b4cc7b1e26f5	-0.02412719251109415
60	0xbf7d388820d60eaf	-0.00713399100402838
61	0x3f7914ee8b67bdc1	0.006123477759032382
62	0xbfc0aeaed09b3ca7	-0.13033089815005391
63	0xbfa102072fadf67a	-0.03321859795594846
64	0x000000000c9571fb	1.04307453e-315
65	0xbfb514b26df0a323	-0.08234706100541848
66	0xbdf31ed4257e3c80	-2.7823879788112815e-10
67	0xbfac6fb86f0d7d77	-0.055539859348523395
68	0xbfad43a5b42fa96e	-0.05715673279321974
69	0xbf9d62557c6809b7	-0.02869542667213817
70	0xbf9e1e14b4d2efdf	-0.02941162446653311
71	0xbfd113e4040e90bf	-0.2668390311830641
72	0xbf931a10607b8f99	-0.0186541136635153
73	0xbfa3753cec836dbb	-0.038003829833282286
74	0xa063aaa438623f02	-1.1734397392863168e-152
75	0x3fab504109189cd7	0.05334666477238564
76	0xbfb527259c7fa3c2	-0.08262858458296221
77	0x3f805524f05d2c96	0.007974899850202537
78	0x3f88b1d4e9317790	0.012057937017910608
79	0xbf6e424f06c8f2fd	-0.00369372782577526
80	0xbfb70fb9af5bf9b3	-0.09008369952423471
81	0x357cc6781d64fa34	4.806845437449957e-51
82	0x80000000016e9f4a	-1.18708925e-316
83	0xbfae33752237088d	-0.058986339975960346
84	0x3f7772912675506f	0.005724493973804908
85	0x0000000000ac812c	5.5855406e-317
86	0xbf9ccfcbf2f0b2cd	-0.028136431410689156
87	0xb524a26f9f66572a	-1.0771719813236686e-52
88	0x3d1a291a1a0be0c0	2.323523998182425e-14
89	0xbfb0ce2cc2d727a2	-0.06564597851607215
90	0x80000000048845a8	-3.756855e-316
91	0xbdb9781e73d6ef4a	-2.316411579909019e-11
92	0x3f862674c9b0150a	0.010815536885284267
93	0x22428b4e66b8df47	1.1880627000779712e-143
94	0xbf904fb668b8d26a	-0.015929079190942032
95	0x80000000021ab42e	-1.74427376e-316
96	0xbf80b0ec0ad42418	-0.008149952011551817
97	0x3fa41044da53b58f	0.039186622287029065
98	0xbfbe6e09633b3d8e	-0.11886652634279057
99	0xbf855b4ff92cfbc0	-0.010428070823420899
100	0x3fa1698e765b6c4f	0.03400845713414268
101	0x8000000008198015	-6.71380455e-316
102	0xbf9ad21b91ff5fc3	-0.026192122255309657
103	0x3f4fde1c9f6bb4ce	0.0009725227126559323
104	0xbfb888feb92cc0d1	-0.09584037800664481
105	0x3f88601a18f4dbc6	0.011902049910174638
106	0x800000000333536c	-2.6529023e-316
107	0x9fc6ded09f95d626	-1.3326173310526924e-155
108	0xbf86bd7cf9774cd8	-0.011103607524012224
109	0xbf6caf86998388c7	-0.003501665964095488
110	0xbb787a34c103e880	-3.2395526096964755e-22
111	0x3f82343410cf752c	0.008888632548343788
112	0xb8f49d4624a8b323	-2.4813623084256127e-34
113	0x3fa0ddbae0617dea	0.03294166554473661
114	0x3f9fa01a1adb7ce5	0.030884178055995987
115	0xbf93ab21eac54ad2	-0.019207506136192994
116	0x3fac133a1180b3c0	0.05483418906837967
117	0x3f90f0c3f5e7d7a8	0.016543447383774584
118	0xbfa104a85c82b607	-0.03323866013793624
119	0x3f8ad19764d37dc5	0.01309507633635477
120	0xbf9b7cff862fade7	-0.026844017567709513
121	0xbfb51c4468dca90d	-0.08246257362467109
122	0xbef345fc7f736e93	-1.8380531369695403e-05
123	0x8000000000b5091e	-5.8617677e-317
124	0x0000000002a2cc14	2.1849316e-316
125	0x000000000773fec9	6.17791428e-316
126	0xbfb083622bcca74a	-0.06450475282022441
127	0xbfc137c235db8a42	-0.13451411847843714
128	0xb5a48e63dcfe615b	-2.747095805771802e-50
129	0x3fa4457876118ff5	0.03959251824633717
130	0x3fa0b424cc998d7a	0.03262438771778427
131	0x3fc6cc3ef7c74620	0.17810809229426727
132	0xbf909ef57872ff24	-0.01623137996352776
133	0x3fc2174d32041280	0.14133610670264218
134	0x3fab369bd913f7f9	0.05315100693586312
135	0x3fc46f0a50936fd0	0.1596386807858594
136	0xbfdbd1f432565ae3	-0.43468956866983727
137	0x3fc58eccc21970f5	0.16842040517338544
138	0x3f9b6e32670d7f4f	0.026787555255736447
139	0x3fbb375e5b12b61d	0.10631360743965286
140	0x3fb9ee011f20c17c	0.10128790864906095
141	0x3fc4288ebcc5d52d	0.15748771874829384
142	0xbfcacc4956fc1b21	-0.209359328721086
143	0x3fb6f4d55d740cd1	0.08967336207938394
144	0x3fc01c9f7c4a24cf	0.12587350434140496
145	0x3f870e32464de309	0.011257546206012064
146	0xbef0ffbaa0af12f6	-1.6211453878661534e-05
147	0x3fd427a5a5453907	0.3149198640793575
148	0x3fc695b42933498e	0.17644359599814802
149	0x3f7867ab838b6714	0.005958242393455899
150	0x3fd4018a2a70190b	0.31259397644352366
151	0xb1bcbed2fa0bebcc	-4.164946856241253e-69
152	0x3f53ff547c9701b4	0.0012205433907724718
153	0x3f98bc95957624ae	0.02415689205875953
154	0x3f88b07cbc68a1c2	0.01205537271478441
155	0xbf71abf12a6d182a	-0.004314367345449136
156	0x3fc3b3ce74f6f012	0.15392475806390898
157	0xac67eb8c4886f228	-8.958896810198961e-95
158	0x3fbb451346c55705	0.1065227554111879
159	0x3fa24a175904a494	0.0357215210118024
160	0x3fc7c977bbe6cc94	0.18583580660706345
161	0x3fb6d31b9c417df5	0.08915875019874149
162	0x3fbe727895be29ba	0.11893418937521619
163	0xbfa1e160d60e0f73	-0.034922624711753246
164	0x3fbeda8032064228	0.12052155705738044
165	0xbf544a39f2449fa4	-0.00123840006660634
166	0x3fd8b0d5c9d306f4	0.38579315862089847
167	0x3fce8c7a07cc60b8	0.23866200810221527
168	0xbfa5245e2b750f32	-0.041293089680520714
169	0x3fb84de056a2d171	0.09493829836975977
170	0x3f0ed0f758c0ea93	5.877737848477174e-05
171	0xbf7bab2d5caec91f	-0.006755044169880513
172	0x3fad6f9823ff5adf	0.05749202193662994
173	0xbf43b280b4100ed4	-0.0006011131700920055
174	0x3f35aea8e5518f9d	0.00033084510261560137
175	0x3fc1d49ea508882a	0.13930113847988085
176	0x3fa7fe9e31624551	0.046864455726913896
177	0x3fbf691e421b5a77	0.122697726382606
178	0x3fca5a0805544593	0.2058725381871623
179	0x3fc4871446bb977f	0.1603722901701836
180	0x3fcb2165dc3c2d39	0.21195672277131353
181	0xbfe84a3ac82585da	-0.7590612324822203
182	0x3fb4563bd82c26fd	0.07944082286499206
183	0x3fddea6de63edeef	0.467433428620537
184	0x3fad595bb0872c8a	0.05732237367518518
185	0x3fcd67c1bde3d275	0.22972890636414758
186	0x3f516176158575d6	0.001060834232780796
187	0x3f787acbe3bb2c23	0.005976482814456427
188	0xbf837af7d692f5d1	-0.009511886821537726
189	0xbf998a0940ca13b0	-0.02494062860434426
190	0xbfb8e0045663b8bb	-0.09716822728271073
191	0x3fbf0141d74e0742	0.12111293322052766
192	0x3ce8816c6b45f4f0	2.7206637601921796e-15
193	0x3f98ea4cd68183f3	0.024331284134294816
194	0x3f9e752ac7a55ff1	0.029743832049774658
195	0x3fc747bf48278a79	0.18187705062071638
196	0x3faa530262e4840a	0.05141456086335701
197	0x3fcbfb701bb0edbb	0.21861077644449076
198	0x3fc3c92a06bc2038	0.1545765431294528
199	0x3f9c56aab9f309f3	0.027674357985924613
200	0xbffbdb062a690252	-1.740972676911174
201	0x3fb2e29ad6494293	0.07377021533580778
202	0x3f9c2efca6412ed9	0.02752299084413221
203	0x3fb6be215695c377	0.08883865703479708
204	0x3fbd6b462e2dcd1e	0.11491812350668737
205	0x3fc68488915ba87d	0.17591960046349078
206	0xbfe17addeda8a98c	-0.546248401811043
207	0x3fbfa46dabe4cd0b	0.12360272833466383
208	0x3fa4c0999b17ad98	0.040531921560467754
209	0xbfaffa0545c64e70	-0.06245438076726095
210	0x3fa421366030cd7f	0.03931589054300399
211	0x3fc97ee91c014891	0.19918550364906598
212	0x3fc6484d9bda85c4	0.1740815173152851
213	0x3f75e2029c431d95	0.005342493245002263
214	0x3fcc5c6808a59ebc	0.2215700189801647
215	0xbb32213695601554	-1.4996568717385676e-23
216	0x3f6915d3ca4b6c3c	0.003062165882835836
217	0xbf64bd989fade137	-0.002531812756782294
218	0xbfaea1630454b316	-0.05982503345362582
219	0xbf783af559e3c2bb	-0.005915602114541836
220	0x3fa9758dc202d421	0.04972498887347166
221	0x33d2a5dd9632ef30	4.641849749356763e-59
222	0x3fc0b66590c6bdb3	0.1305663067737278
223	0xbfacf5a9111065ec	-0.05656174023915725
224	0x3fbdb90d60d2dde2	0.11610492338046854
225	0x3fba2cf506031391	0.10224849125650183
226	0x3fc1464dcfcf3741	0.1349580063528553
227	0x3fc5fd1c9f7e3b88	0.17178685939549276
228	0x3fa7e6b1fbeac798	0.04668194008026133
229	0xbf8002e1f0783c83	-0.007817998076488536
230	0xbfd403ecee197a9d	-0.31273959400088264
231	0x3fcaf47b48789549	0.2105859855520669
232	0xbfc4ec9008c2c788	-0.1634693186547873
233	0x3fc625de32481172	0.17303063826706083
234	0x3f6011381cc44f7d	0.0019613357491241033
235	0xbf925547cf294779	-0.0179034443083945
236	0x3fc8823448ab1a5c	0.1914735178781538
237	0x3fc7e2fc3d647436	0.18661454198528
238	0x3f48dd0bbd3dc4ad	0.0007587725944927702
239	0x3fc6a52aef79f919	0.17691551869570146
240	0x3fbe7e40aa07189f	0.11911396170680398
241	0x3faab2bd05bcddd0	0.052144915533456904
242	0x3f7ba2e76d8c7b5e	0.006747154250460989
243	0x3fac1af39e09afef	0.054893124620178806
244	0x3fd091a4da6f548a	0.25888940173656094
245	0xbfe7e3202a11f417	-0.7464752980882875
246	0x3fbbdc6dd1ce1d51	0.1088322293490951
247	0x3fe1ebd4762f5384	0.5600378330515103
248	0x3fc7b25c79f64fc9	0.18513065295394274
249	0x3fc4a1edea243726	0.16119169171036524
250	0x3f6a8a33b8bed849	0.0032397279919349803
251	0x3f7cc74e4e5211a1	0.007026010401322586
252	0xbf8db822b36af14b	-0.014511366939921408
253	0x3fa92195f8f6552b	0.04908436454858597
254	0x3fa4e72cacd6406f	0.04082622155976955
255	0x3fa9b8bf4ecb7a6d	0.050237635010252336

lin1.bias f8 [32]
0	0x3fd081a4484167bf	0.25791270309639097
1	0x3f9913f5f3638162	0.02449020669962588
2	0x3fe28be747d74ceb	0.5795780566353675
3	0x3fdc7fe7f68cc2ee	0.44530676915296297
4	0x3fe13d780b24ac18	0.5387535302774067
5	0x3fe4640ea526e973	0.6372140145897859
6	0x3fe043dbb9096e3e	0.508283482933116
7	0x3fc4b27085b778c3	0.16169554261336402
8	0x3fe0cbcae56551cf	0.5248770218263931
9	0x3fda072035218ce9	0.40668492497043346
10	0x3fc2c03445e9e2c5	0.1464906064391213
11	0xbfb610ef06604a0d	-0.08619588761965975
12	0x3fd9dbf2fd33bcce	0.40404963232772395
13	0xbfa5b38a7a6946c2	-0.04238541359212668
14	0x3fc90d155982f183	0.1957117735927448
15	0x3fa7d966544928c2	0.046580503262320785
16	0x3fe4c1bf3b638bc5	0.6486507568300729
17	0x3fda8fe54751809f	0.41503269161877115
18	0x3fc694451b338645	0.17639983967005626
19	0xbfb7a70d4e0c8362	-0.09239276080599049
20	0x3fe06db11832ba92	0.5133901093120861
21	0xbf9f742e54258968	-0.0307166327342058
22	0x3fe4bd568be67bfa	0.6481125576427751
23	0xbfbee2401cb159cc	-0.12063980770594823
24	0x3fe0e21499913def	0.527597713409646
25	0x3fe215ae00cf1fa1	0.5651464477350495
26	0x3fdc499a58234719	0.4419923649521578
27	0x3fe3a56da68e6503	0.6139438870478958
28	0xbf95525025c652ad	-0.02082181196745363
29	0x3fc11ec8b8f857ec	0.13375195533507112
30	0xbf2203c3d538ee67	-0.0001374413064797353
31	0x3fe2d218ffd0b757	0.5881466862099199

lin2.weight f8 [1, 32]
0	0xbfed149ffcd1b54f	-0.9087676942705601
1	0xbf8fcc313c7c0316	-0.015526184709871365
2	0x3fc3701e6b136c30	0.15185909488977378
3	0x3fd5840fa310c34d	0.33618536877024924
4	0x3fd07327c9100cb0	0.2570285285475604
5	0x3fcc52149ae0cc4b	0.22125489771278448
6	0x3fcf9729b3cd15f3	0.2468006256041658
7	0xbff0c66a7b102923	-1.0484413916734148
8	0x3fc4187b0a6fd000	0.15699708947761337
9	0x3fc69d6f03cf1827	0.17667949377045142
10	0xbfe31b496c374186	-0.5970809091177649
11	0xbfb0d4372a7752ea	-0.06573815142412412
12	0x3fc97c30a4f09e5c	0.19910247853953222
13	0xbf9eec8f4bbb31ae	-0.03019927882887579
14	0xbff5707c53ff0f7e	-1.3399623185259482
15	0x3fd6612cdf4b629f	0.3496811085329145
16	0x3fd0af0ae45b77ed	0.26068374920384835
17	0x3fc82b3066c774cd	0.18881802576553355
18	0xbfeca609c021ed41	-0.8952683212841422
19	0xbfb96958afb09f8f	-0.09926370896630331
20	0x3fc3c4cb73e31084	0.1544431987623548
21	0xbf9e2cee9d1dfb9a	-0.029468277301471703
22	0x3fc8ed057e836c23	0.19473332097445092
23	0xbfa7a95c931e3725	-0.0462140016162336
24	0xbfd4ff96524d6a07	-0.32809980428069746
25	0x3fc63206f6bd280c	0.17340170905873753
26	0x3fcebe50204d892a	0.24018289162911205
27	0x3fd4ef3d7ca7f852	0.32710206197214575
28	0xbfc3a4f5a65840ef	-0.15347166654874608
29	0xbfe4e632b2b43414	-0.6531003465948992
30	0xbf6f310cc9be0d0f	-0.003807568527862799
31	0x3fc5a75f7b52b719	0.16917031785617878

lin2.bias f8 [1]
0	0x3fdee820a08e66d5	0.4829179351741975
