Q1/models/gat/10/d1/bestval.pth (torch, 172451 bytes, 22 tensors)

batch_norm0.weight f8 [1]
1.1744502174053009
00000000: df92 a84f 8cca f23f

batch_norm0.bias f8 [1]
0.24974375498649046
00000000: 170b 0676 9af7 cf3f

batch_norm0.running_mean f8 [1]
3.936204558178102
00000000: baed bdd0 587d 0f40

batch_norm0.running_var f8 [1]
44.83311525927075
00000000: e72e 5485 a36a 4640

conv1.att_src f8 [1, 8, 32]
-0.06169643124597514 -0.23329861252405135 -0.21808372359650613 -0.27377181615112145 -0.06612726230536273 0.33851859733680123 0.33279160828733934 -0.23467915045752696
0.1918093822551011 0.33034381361677256 -0.143424428443823 0.026409768424100224 0.1807920268156173 0.05891896485795489 0.08640824374850144 -0.3176325876767247
0.012927506067009275 0.2076895984706188 0.23469486718535387 0.0669123786835336 0.3304215393305365 0.35846406894464516 -0.27855097212464536 -0.22724971142118333
-0.14202349509868656 0.39699714383107326 -0.2652262676432993 -0.207760559075559 -0.424313650410026 -0.3968245727779642 -0.17789232185945997 0.3470750185959427
0.15702056045787197 -0.2730167652455561 -0.2967748121137682 0.10020158881597586 -0.22274034205927748 0.13649923644481782 -0.028695295260442077 0.26772613435351467
-0.4467862249687664 -0.268492914097561 0.1904966959482667 0.2139468860360654 -0.30919875371397537 0.1341169369767777 0.30054774342237767 -0.3694608009042817
0.2934438414267946 0.2589030025642601 0.1260513348561021 -0.2541696447302998 0.16996503213640074 -0.4719002941319302 -0.253635081349725 -0.46324195415381114
-0.37352453536605723 0.28845158770237395 -0.05345767211921841 0.11702909262925484 -0.28377571822086267 -0.1190962124442217 0.40652946036694965 0.2094480226304501
0.3172294459403536 0.15578467282158212 0.1544410875406973 -0.20724127327560743 -0.1550912196074839 0.009892152313747916 0.44040577438061335 -0.435842347864409
0.08862920085807086 0.08036228406598196 0.4438239480096345 0.16665159543694047 -0.08141529640419654 0.029248654755164454 0.43068396217242827 -0.07975697538746415
-0.269155454865275 0.023834139292200112 -0.48166019300061685 -0.07497618292995153 0.30669555589135933 -0.35071787183887976 -0.0462808613387876 -0.1778216220268874
0.11443016415844015 -0.10957296651980329 0.26215982418382844 0.28143638158365086 0.45248056317443053 -0.17073259821716943 -0.25598325326708793 0.12349161265890528
0.059174786486889314 -0.06750221257377843 -0.2608612960605759 -0.07997967964275345 0.05635666453010504 0.12595868696767173 0.29789946834908815 0.4825257823171983
0.02420091904665768 0.36649091407756995 -0.06313359195570536 0.060357441513756514 0.21853749929191066 -0.37809499413076153 0.0856036223664364 0.26383560406264744
-0.19825424538503503 0.2780908359899575 -0.5049356349478319 0.22987757271089898 -0.078417938391798 0.16956798534723186 0.3855627446274912 0.37192813451139817
-0.21450387720478245 -0.47594877836123983 -0.014117590658790681 0.2657247032965009 -0.244913435265758 -0.3511937210376091 -0.18095816244300705 -0.28351220890442885
0.16735695843506743 0.10773037403609048 -0.41608038608609255 -0.4626301003549829 -0.024086779710051114 0.1776590785759954 -0.27281916756890234 0.3266974445498632
0.3080339806401357 -0.27784915091862866 -0.1726887894537777 0.4991106891813431 0.26936496329540727 -0.3025615412477613 -0.17873235833376977 0.2440369359157638
0.045110690576053145 0.27624891604056134 0.2090462290985847 0.3010674688648353 -0.25126586494171055 -0.4142085409232872 -0.24491922728694265 0.24661393774154858
-0.12218411164375223 -0.20418330928214104 -0.22799883848266814 0.5028125378375441 -0.193780225670986 -0.5228408721832731 0.5076498237171319 0.355488638010087
0.3069098578661053 0.14697386135270984 0.21291511264135174 0.18101689950190356 0.3502450542335651 -0.2634172970815579 -0.4497673506357001 -0.1163300190268768
0.1962369994409794 -0.11305737116534484 0.002931747000693354 -0.25176494809074845 -0.04879784024468694 0.18146300203642762 0.37083264758831513 2.8866809692440948e-05
-0.18969615319435204 -0.5284210312798618 -0.13238453810758152 0.10275367189468086 -0.09318627027003963 0.21266910129520564 0.22417951957559523 0.043158541406307545
-0.43568266149262286 -0.11155864584818868 0.3999807957531688 0.526919412582658 -0.16056186634420525 -0.022202716195146324 -0.04750788879051278 0.15154353933563616
0.24561572149945393 -0.09884070326322536 -0.43983044905662383 -0.32451514297940165 0.29501971650278275 0.425970446537719 -0.02303909394840445 0.03209599246024064
-0.2801617407893452 -0.498939011654404 -0.19829314654164154 -0.18650283283746252 0.14842361738878648 -0.00498142190103158 -0.17800295346375333 0.2692689487629176
0.28472623466291064 -0.12483367370037496 0.16093284195619176 0.5045909812125444 0.4311405019059454 0.43316410919125575 -0.3581503040159952 0.12265266884122521
0.21781220691087796 0.2974799202584789 0.3304676670780265 -0.1269810934616898 0.41061767690325185 0.29776684124837005 -0.18814429352955397 -0.29463011805294115
-0.05361336680867355 0.27877858591220295 -0.30177288089103177 -0.19134109529420262 0.07531604880704137 0.27354116864558425 0.03306591920078204 -0.2214618993200551
-0.4834035699237194 0.11705149315185867 -0.3042252381175101 -0.3035128205247881 -0.3792648044014108 -0.3357845356407552 -0.18438296403324617 -0.25551135241974404
-0.2063061643897832 0.03883207559474957 -0.329908546664999 0.0011122157683662527 -0.1073999980695322 0.4349521292895542 -0.4448763898100661 -0.26599818946304393
-0.09218235541969279 -0.2337042971129705 -0.20360508905975244 -0.01623548351190441 -0.16912549295649354 0.17987013002116384 -0.12927596289007268 0.2216625274844628
00000000: e276 f6b4 ac96 afbf db19 7f9b badc cdbf
00000010: da85 51de 2aea cbbf bae0 3b39 7a85 d1bf
00000020: 6abd f95c b7ed b0bf 048f 29e8 49aa d53f
00000030: 268d 7e2c 754c d53f 7852 2266 f709 cebf
00000040: f301 edb7 358d c83f 96e0 fa60 5a24 d53f
00000050: 1d8e ce4e bb5b c2bf b7ad b48e 290b 9b3f
00000060: 167b 4671 3124 c73f a0b1 5b66 a02a ae3f
00000070: 212e 01c5 d91e b63f dfc8 0da2 1754 d4bf
00000080: 6692 367e bc79 8a3f 7649 93a0 9295 ca3f
00000090: fed1 8c3d 7b0a ce3f 37b2 246e 2b21 b13f
000000a0: 7764 5462 a025 d53f 3f22 3a47 13f1 d63f
000000b0: c9d6 e274 c7d3 d1bf 702a 4abf 8416 cdbf
000000c0: 6232 5b6d d32d c2bf 1308 57b5 6668 d93f
000000d0: f95b 6498 77f9 d0bf eb68 50e3 e597 cabf
000000e0: e079 f070 f427 dbbf 5f27 95e4 9265 d9bf
000000f0: 0246 4cf4 2cc5 c6bf de33 8823 7a36 d63f
00000100: d5aa fbed 3f19 c43f e351 7f4f 1b79 d1bf
00000110: 0e88 13c8 5bfe d2bf 89cb f8b2 cfa6 b93f
00000120: 577d 526a c182 ccbf b6cf 3a96 ce78 c13f
00000130: 5349 c5aa 4c62 9dbf 604d d5cb 6c22 d13f
00000140: 5cd3 2240 2598 dcbf c96e 50e7 fc2e d1bf
00000150: a503 8c1b 3262 c83f 718f 4d8f 9c62 cb3f
00000160: 4597 ca91 e9c9 d3bf 83d5 1369 be2a c13f
00000170: 7eaf 389a 2c3c d33f 406c 42ea 3ea5 d7bf
00000180: 1c01 89ad c8c7 d23f 8161 36e6 dd91 d03f
00000190: 387c 693c 7322 c03f 362a f0c1 5044 d0bf
000001a0: a6a5 3e07 6ac1 c53f 313e 914a 9d33 debf
000001b0: ccfb e0a2 8e3b d0bf b172 ce94 c1a5 ddbf
000001c0: e4a6 e973 d3e7 d7bf 5d4d eaa5 fd75 d23f
000001d0: c6d5 f1d2 cd5e abbf b6f0 855d 9ef5 bd3f
000001e0: c014 4aa1 6129 d2bf a480 86e1 167d bebf
000001f0: adbd 4824 9404 da3f 726f b45b 31cf ca3f
00000200: d616 e9bb 7c4d d43f ff4d 7e8d c0f0 c33f
00000210: 14af 12be b9c4 c33f 26d1 8ccd e186 cabf
00000220: e231 0e72 07da c3bf a793 6535 5642 843f
00000230: 64cb 7bb3 9b2f dc3f 0a87 924d d7e4 dbbf
00000240: 8cf1 273f 67b0 b63f 652f e565 9f92 b43f
00000250: d182 788f 9c67 dc3f 3e2b 1de8 d654 c53f
00000260: 603e 7303 a2d7 b4bf bb6f 80fe 5bf3 9d3f
00000270: 534e 1c77 5390 db3f d6c2 ea00 f46a b4bf
00000280: 53ed 0bcd d739 d1bf 3b3a 2703 fa67 983f
00000290: ad40 2e46 85d3 debf febd a99d a331 b3bf
000002a0: 8471 9865 e6a0 d33f e1ec 6a5f 2972 d6bf
000002b0: aef8 c203 20b2 a7bf 9a46 90e1 dbc2 c6bf
000002c0: 7c85 bc94 4b4b bd3f 1f6f ba53 f90c bcbf
000002d0: 3275 ccff 39c7 d03f 5b9b b3bd 0d03 d23f
000002e0: d63a 3a09 71f5 dc3f c717 dad6 90da c5bf
000002f0: e2c5 4695 0762 d0bf b746 b375 259d bf3f
00000300: 6cfe 6a59 284c ae3f 097a 6933 d347 b1bf
00000310: 89d4 d793 f3b1 d0bf c101 695c 8c79 b4bf
00000320: 230b 23de c7da ac3f 1b2d 960c 6a1f c03f
00000330: 1987 83ee c810 d33f 1dde a1d1 b3e1 de3f
00000340: c4a9 5a2f 20c8 983f c2a2 8f4e 9674 d73f
00000350: 3a90 bae8 8529 b0bf cb5e beaa 2be7 ae3f
00000360: c745 346a 09f9 cb3f eeaa a458 b532 d8bf
00000370: 7aa4 7b76 1eea b53f e30b beba aee2 d03f
00000380: b566 1c26 6560 c9bf 093a 7981 3dcc d13f
00000390: 29f3 d5c6 6e28 e0bf 3647 70d8 a06c cd3f
000003a0: 0001 d0b0 3213 b4bf 79ea c15b 67b4 c53f
000003b0: ecc9 ae5c 0fad d83f 6214 8ca9 abcd d73f
000003c0: c7d8 baf0 dc74 cbbf ca7d 68dd f175 debf
000003d0: 742d 6cf1 aee9 8cbf 2475 992f a201 d13f
000003e0: ffa1 68cd 5259 cfbf 69b1 9a3a f579 d6bf
000003f0: 4288 d116 a329 c7bf 30b8 5064 1025 d2bf
00000400: 6a4a 9eeb f36b c53f d456 45c1 3794 bb3f
00000410: eacb afa0 0fa1 dabf d1de ca47 bb9b ddbf
00000420: 5b85 7b6c 34aa 98bf 7423 295e 88bd c63f
00000430: 568b 9b86 de75 d1bf e5d1 0166 9ce8 d43f
00000440: 37fd 3928 d4b6 d33f 23ae 1ace 47c8 d1bf
00000450: ba7e 8b8f aa1a c6bf 818b c7f5 6df1 df3f
00000460: 5eb0 028b 463d d13f 73ef 2b15 2b5d d3bf
00000470: 3ce7 e3b0 b3e0 c6bf bc1a 6331 9a3c cf3f
00000480: 56c0 7299 bf18 a73f 3ec7 fcee 0fae d13f
00000490: 4b4f aade 06c2 ca3f 6b7e 2a7d b044 d33f
000004a0: b4a6 216c bd14 d0bf 4452 3f8a 6482 dabf
000004b0: 06f4 ad63 8359 cfbf c73a aba6 0b91 cf3f
000004c0: 5ac9 993b 7547 bfbf a9bf e0bd ad22 cabf
000004d0: d18e 67e1 102f cdbf 12fe c051 0a17 e03f
000004e0: 3927 ef59 cacd c8bf bc41 e1c7 1cbb e0bf
000004f0: 8aed d5d7 aa3e e03f 0496 966a 53c0 d63f
00000500: 2fb7 963e 69a4 d33f 9838 f01b 0ad0 c23f
00000510: 9733 cf6a cd40 cb3f bb26 b1cf 8f2b c73f
00000520: cc35 613b 6a6a d63f de9f 0a39 d4db d0bf
00000530: 497d 72ff fcc8 dcbf 5174 43db cdc7 bdbf
00000540: 589d 6e43 4b1e c93f 6e15 baef 53f1 bcbf
00000550: 51b6 9eaf 5104 683f bc0c 95ba ea1c d0bf
00000560: 23c7 eecf 07fc a8bf 9818 97fd 2d3a c73f
00000570: fa93 6bdb b8bb d73f 8840 9e0e e044 fe3e
00000580: a3c8 12ab f647 c8bf feb2 fb38 d3e8 e0bf
00000590: 3b85 d5fe f9f1 c0bf afe1 548c 104e ba3f
000005a0: 4dfc 3e2f 0edb b7bf 1360 77b9 bd38 cb3f
000005b0: 5c4d 811c eab1 cc3f 992c c457 e018 a63f
000005c0: 29e2 a287 39e2 dbbf 3b07 817f 1b8f bcbf
000005d0: 366d 320d 4999 d93f 0671 9519 86dc e03f
000005e0: 516f 778e 4a8d c4bf 7718 c30f 4fbc 96bf
000005f0: 0a84 5039 f452 a8bf 49ee ae58 c765 c33f
00000600: e29e 9c01 5670 cf3f 3879 07d4 9f4d b9bf
00000610: a4ec 9e9c 2e26 dcbf 92cf 8929 dbc4 d4bf
00000620: 477f 8360 9ae1 d23f 0c4a 3c8c 1943 db3f
00000630: 08c7 266c 8f97 97bf 4017 e6cb e26e a03f
00000640: 72f6 9182 2bee d1bf 4645 70e4 9dee dfbf
00000650: a069 b579 ab61 c9bf 11fa d227 53df c7bf
00000660: ffc5 518b 8bff c23f 0dad 7042 6667 74bf
00000670: faee dbff ccc8 c6bf 44f6 30d4 b33b d13f
00000680: e32f 8c62 f438 d23f ac8e fb81 19f5 bfbf
00000690: 61ef 8686 7299 c43f 0043 45fc 9b25 e03f
000006a0: 21b1 ea54 ce97 db3f 31c1 b1f4 f5b8 db3f
000006b0: 2746 b340 efeb d6bf abaf 7051 2a66 bf3f
000006c0: fb07 ad38 45e1 cb3f ca84 2e38 e909 d33f
000006d0: 1513 9fdb 6126 d53f 626b d09d ea40 c0bf
000006e0: 9f5f 5d5d 8f47 da3f a4ad 3fa7 9c0e d33f
000006f0: 04b9 d1b9 1c15 c8bf 5c0e 5d48 38db d2bf
00000700: 7db6 2412 3673 abbf bc5a 5423 82d7 d13f
00000710: afc9 8f33 3f50 d3bf 8caf 5571 dd7d c8bf
00000720: 9a7c 7d9e e947 b33f 5d50 5cd1 b281 d13f
00000730: 1eb9 2823 04ee a03f 14e1 710f dd58 ccbf
00000740: b9e3 e586 15f0 debf ee02 092f 16f7 bd3f
00000750: fc47 1522 6d78 d3bf 1086 8409 c16c d3bf
00000760: a762 dbe2 df45 d8bf 0118 c56b 7e7d d5bf
00000770: d82d 3b68 dc99 c7bf eb91 9949 4c5a d0bf
00000780: 7f37 828a 3d68 cabf 2335 6e3d cce1 a33f
00000790: 3e36 a6bc 381d d5bf 6287 7a96 f838 523f
000007a0: 1392 4cf7 907e bbbf e0f2 a774 41d6 db3f
000007b0: 45cb 3fd2 da78 dcbf bd7e 2245 1d06 d1bf
000007c0: 71bb cb49 4399 b7bf cd76 84bc 05ea cdbf
000007d0: 6ec8 6747 bb0f cabf 229e dfda 08a0 90bf
000007e0: 9e81 9576 e7a5 c5bf e1ec fb02 fc05 c73f
000007f0: 6bc9 6260 1d8c c0bf 28b1 250d 705f cc3f

conv1.att_dst f8 [1, 8, 32]
-0.3117263881063847 0.3242901284452066 0.30847869503658504 -0.215356689584135 -0.03496479026419273 -0.23361049484016927 0.3354158842954948 -0.203002913792793
0.28808116345940227 0.21140193425514067 -0.26387890058830094 -0.025331804412750646 -0.25152150624421554 -0.11441511811917207 0.01496292458932587 -0.3157401125893231
0.06000721225693449 0.339839427726581 0.23402221157629802 0.14536681449572905 -0.19965374617852036 0.09363010134250034 -0.09383761500711006 0.1641122105481881
0.06959027868715335 0.25074123868128023 -0.053470844897347165 -0.10505680702586147 0.13876264329498336 -0.22572297883631878 0.02024334980704947 -0.03835873708061706
0.057931035796564 0.0521910507035637 -0.09939792096420713 -0.08276218775113543 0.46773764912586085 -0.47670503913267903 -0.04626094430727041 0.22336690601066292
0.14484362818832863 -0.010234963040279516 0.4709051291672714 0.021045612641401083 -0.10423142251220421 0.036675799865680855 -0.22070086340766806 0.0720562030568663
0.2797618667046733 -0.029972032424321463 -0.3595196742991683 0.07071198045102013 0.13480168438766615 -0.20045205006495365 -0.07029588739163635 0.07553153676244441
-0.18511275104141686 -0.08014380725437152 -0.33263945767062286 -0.17970144465502805 0.23040505753701668 -0.39357312641054293 0.2646465558147053 -0.17920796666279645
-0.044709772189638924 0.06333729383621971 -0.08700046126487991 0.16171381133591414 0.07388531081371784 0.2069314562801273 -0.05320578315753983 0.2129935169339194
0.42132211582990264 -0.17958773029220607 0.29259631285411225 -0.20229446514670577 0.20962281457828702 -0.16791986899769196 0.3441621030839846 -0.18080349301637297
0.3306818256796466 0.13365558183696813 -0.21648265093282282 0.2560029988376467 0.4932202626073869 0.10153100243848694 -0.3961775193642708 -0.13352916854049032
-0.4464084951542092 0.3593440112040892 0.2275880187792166 -0.2400552382089069 0.057792915124530234 -0.21623880466402984 0.14508897642468022 -0.14886280992401218
0.137124592336938 0.05106226415326418 -0.1907443852660367 -0.14070172105809028 0.035393853232398395 0.302113268606136 -0.2803172169866397 -0.3534198206270451
-0.20933352389322898 -0.4269532562178606 0.06787387357677051 0.40533247773834163 -0.01925387580297591 0.047972476690869764 0.2610810145201681 0.33928182719339556
0.20387983031849813 -0.0048121615087143655 0.3540065559350388 0.12446856351366166 0.2445480147618464 -0.32247426734260626 -0.18027290288737852 -0.3277189241855509
0.28604553558062473 -0.11822165760243032 -0.34535166447085036 -0.13961829704637216 0.2769610926899465 -0.17980060538757361 -0.2573663527926436 -0.25144179716277676
0.15084279455880492 0.2985812716614645 -0.3116572665287605 0.05834534636314829 0.0693220766932188 -0.2537794958912874 0.006591153739572553 0.35620256727314614
-0.34198205937575527 0.2178227051701534 0.0683866437822407 0.1852406893793337 0.35846250605653773 -0.1933575031624923 -0.42456325393734456 0.48597398415703197
-0.1537048680646526 -0.017850518802384214 0.05297490501733634 -0.15193558913587846 0.22985482554117653 0.09309351035497031 -0.43855964142518244 -0.37363890945595646
-0.0037635477590792304 -0.10001709868842987 -0.17332359020882265 -0.2012659678911606 0.15788564697596746 -0.32165695154239876 -0.17149517445586535 -0.27867083333433795
-0.06127638431063851 0.24862220190040743 0.07259588420916115 0.28410231268908454 -0.018420362876886393 -0.02449602406189307 0.08575576297092861 -0.28287457325131166
-0.17242226449093895 -0.10134648547259378 -0.14037648053532198 0.16598543657172007 0.31095285829071473 -0.18737440466555672 0.2782689836011378 0.2162880816582192
0.22924611274368642 -0.29783263551905065 -0.03927427994210145 -0.10044271014229599 -0.307322396592638 -0.10031080356557873 -0.32887089153518917 0.11860403813899487
-0.3224399491287026 0.39659084530123356 0.06495927270688145 -0.13113264099145297 0.3918384413800633 0.32441290675763684 -0.42798675481603776 -0.15988499263378927
0.3492450529384422 -0.1586307435885923 -0.35626396577129554 -0.30036630576730783 -0.12375650403452089 -0.17044596300469586 0.3788627951988834 0.004586326667262938
0.043440420198067375 -0.07538983476708086 -0.32814160366955025 0.373841386342007 -0.059498971936078116 -0.29574543599424286 0.2989116509457383 0.2793538749542722
0.33675329727104153 -0.23999631971370514 0.35791382500728824 -0.28887299193416044 0.3677916719001927 0.39429959303481726 -0.37478397086431803 -0.23070188476473988
0.2848378892700288 0.32779251150043714 -0.09479636078765966 -0.09805052217344278 -0.23876974073183715 0.06574418233460012 -0.017733926018922267 -0.25464744921039206
0.2267689103708823 -0.43815008257293386 0.26702158835934586 -0.13641136574769128 -0.2631238340519243 -0.26084630307735274 -0.45634942029735776 0.4766529651208198
0.46314834603807314 -0.2215209823156485 0.11872375197926777 0.10026638126331788 0.4775797244253064 0.4491197573002934 0.1776884215148301 0.17491001650808097
0.26407154128840404 0.05792644366084108 0.10220161130502034 -0.23797844604617108 -0.19002158104489322 0.2610498251875758 -0.1716554574345471 0.15969610935684525
-0.4260787249840474 0.2776416878740094 -0.42082634335083235 0.14195069750359374 -0.023023696580860654 -0.277376299520835 0.46505854807906827 -0.45681429967980103
00000000: 63e5 8d3c 53f3 d3bf 8b9e 0562 2bc1 d43f
00000010: 1579 ac6c 1dbe d33f 308d 5ed9 ce90 cbbf
00000020: 3e75 64ad e7e6 a1bf bca2 abdd f2e6 cdbf
00000030: 9fea 662f 7477 d53f dcca dddd fffb c9bf
00000040: 7cb6 e9f9 eb6f d23f adee f7f4 370f cb3f
00000050: 6165 0854 64e3 d0bf 8677 019e 94f0 99bf
00000060: eccf e3a8 ed18 d0bf ea64 7d26 4f4a bdbf
00000070: 69fe 1bbe e1a4 8e3f e8d0 6604 1635 d4bf
00000080: 0ed8 55ec 43b9 ae3f 8387 fede edbf d53f
00000090: 59ff a098 70f4 cd3f cb67 1739 619b c23f
000000a0: 1f29 2e03 418e c9bf a5ec 2f6f 24f8 b73f
000000b0: cf15 97ef bd05 b8bf c2e0 9600 a101 c53f
000000c0: 8db2 1423 abd0 b13f 9941 f9fa 240c d03f
000000d0: c947 3fd4 8760 abbf 3df4 65be 00e5 babf
000000e0: 41e2 6d6b f9c2 c13f 5d62 0796 7de4 ccbf
000000f0: a6f3 8735 acba 943f bae1 8da2 c1a3 a3bf
00000100: 10dc 5600 23a9 ad3f 85d4 d40f c9b8 aa3f
00000110: d4e7 d463 2472 b9bf c98d bc19 e72f b5bf
00000120: ab9f 86e4 69ef dd3f cc72 3ada 5582 debf
00000130: c97b c3b5 83af a7bf 5189 296a 4997 cc3f
00000140: 5c2a 0d6b 3c8a c23f d028 457c 11f6 84bf
00000150: 8bb1 5244 4f23 de3f 6e8f 1328 fb8c 953f
00000160: 3acd e716 e9ae babf 669a f4a1 2bc7 a23f
00000170: 8577 4407 ed3f ccbf be69 9a7b 4672 b23f
00000180: e486 0a51 9ee7 d13f a47b 3a0c fdb0 9ebf
00000190: 428b d8ce 5e02 d7bf 41f7 782b 2e1a b23f
000001a0: c403 f27c 2e41 c13f 0afa b8ab 69a8 c9bf
000001b0: bdef 6349 e9fe b1bf 1919 36e8 0856 b33f
000001c0: 23d2 e54d c6b1 c7bf 876b 22f7 4d84 b4bf
000001d0: f47c 0302 f749 d5bf a12c ebf9 7400 c7bf
000001e0: 902c 7ab5 e97d cd3f e922 a156 4d30 d9bf
000001f0: e048 8e1b f8ef d03f 53eb ff61 49f0 c6bf
00000200: b472 bb02 33e4 a6bf ebc9 a475 df36 b03f
00000210: 679c de87 a945 b6bf ede7 7fc5 09b3 c43f
00000220: cf86 99d1 25ea b23f 7b4f 9ede ba7c ca3f
00000230: 7949 3dd5 c93d abbf d7df be1e 5f43 cb3f
00000240: 8a8a 2409 f1f6 da3f 2317 2f12 bbfc c6bf
00000250: c4de a8e2 e5b9 d23f cfc3 fbf7 c8e4 c9bf
00000260: c0fa 8d9e ebd4 ca3f e0ca d8f4 657e c5bf
00000270: bd2b 517c c006 d63f 6b02 c1a0 9124 c7bf
00000280: ef3d ab1a e429 d53f e474 7548 a01b c13f
00000290: b034 f418 b4b5 cbbf 2de1 eb66 5a62 d03f
000002a0: 77e3 67b8 eb90 df3f abde 008f effd b93f
000002b0: e61d 45f4 f85a d9bf e3c3 f8d9 7b17 c1bf
000002c0: 8202 d6ef f491 dcbf 2ea4 0806 7eff d63f
000002d0: 2b20 cfac 9a21 cd3f 869d ab4a 21ba cebf
000002e0: 22fc cc70 0897 ad3f f23d 1491 b6ad cbbf
000002f0: e486 608c 4692 c23f 126e 1bc2 ef0d c3bf
00000300: e940 c873 4c8d c13f cd2a 3245 d524 aa3f
00000310: 0a7f 4ee0 4f6a c8bf 97bb 3795 8302 c2bf
00000320: 6ea3 39a4 241f a23f 1377 16e4 d255 d33f
00000330: 94a7 dd9f b7f0 d1bf 6f7c d62a 6e9e d6bf
00000340: 17f7 89df 70cb cabf 4417 18c0 3353 dbbf
00000350: 7ddb 43a3 2e60 b13f 0d24 f9a1 f7f0 d93f
00000360: 0882 94bb 49b7 93bf 1ca6 fd34 d98f a83f
00000370: b01e be24 8db5 d03f 750e fb1f cbb6 d53f
00000380: e117 c4f9 bb18 ca3f a914 d9c4 eab5 73bf
00000390: a6e0 131d 0ba8 d63f b9d8 abf9 2bdd bf3f
000003a0: f017 da6e 594d cf3f 7d6f 021c 6ba3 d4bf
000003b0: 9ccd 20b7 2e13 c7bf 4b10 6acb 58f9 d4bf
000003c0: de13 1fef 914e d23f 39d3 1449 c643 bebf
000003d0: b95f 21de 3d1a d6bf 8762 de29 03df c1bf
000003e0: 2289 d704 bbb9 d13f 9166 f8cb b403 c7bf
000003f0: f573 15b9 b078 d0bf 8557 ea55 9f17 d0bf
00000400: f1d0 bb12 d14e c33f 31fb 3e9f f41b d33f
00000410: 6550 d351 31f2 d3bf a5cc 01f5 70df ad3f
00000420: 12c6 4974 17bf b13f 89e6 cf5a ec3d d0bf
00000430: 9ae8 115c 53ff 7a3f 2c1f 4cda 05cc d63f
00000440: 399b 35b8 08e3 d5bf 821a 8449 9de1 cb3f
00000450: 2126 877e c981 b13f e8e8 6287 f7b5 c73f
00000460: d6b8 16b9 0cf1 d63f 8f72 424c f0bf c8bf
00000470: 99a1 af5a 0b2c dbbf 5252 2aa0 321a df3f
00000480: 466e c9e2 99ac c3bf e538 e409 6847 92bf
00000490: ecc7 1dd9 861f ab3f 98f2 3719 a072 c3bf
000004a0: 4879 4307 e26b cd3f 7bc6 71ee f9d4 b73f
000004b0: b810 5175 5c11 dcbf 9017 282c b3e9 d7bf
000004c0: 9388 5951 bbd4 6ebf 2e59 e877 b89a b9bf
000004d0: d23d c9a7 772f c6bf 09f6 f14e 15c3 c9bf
000004e0: a681 22cd 9835 c43f 53f6 d909 0796 d4bf
000004f0: 4bd9 daca 8df3 c5bf 7848 e130 bed5 d1bf
00000500: 5d3c 4345 9e5f afbf 9962 1c31 dad2 cf3f
00000510: 1da7 80d4 a495 b23f e5ec 6d77 bb2e d23f
00000520: b8f5 8ba0 c9dc 92bf 1554 e958 7c15 99bf
00000530: ab56 67f5 16f4 b53f 6dff 3ef4 9d1a d2bf
00000540: cea0 8bc9 ee11 c6bf 2c59 abe0 d7f1 b9bf
00000550: ce6d 8344 dbf7 c1bf 7d0a d8c2 023f c53f
00000560: b634 3dd1 a6e6 d33f 4eb1 126e e2fb c7bf
00000570: 0bb7 03b6 28cf d13f db49 9eee 53af cb3f
00000580: c710 7cc6 ef57 cd3f 8517 4f9d b00f d3bf
00000590: 94bd d927 c21b a4bf efc9 2e0b 9db6 b9bf
000005a0: f165 ac8e 2bab d3bf 76e8 bf04 f8ad b9bf
000005b0: 0300 f07e 380c d5bf 5603 fb90 d55c be3f
000005c0: aba0 1b2b dba2 d4bf 068e 9d91 be61 d93f
000005d0: 9c16 d9bf 2ba1 b03f 058a 3f52 f4c8 c0bf
000005e0: 44c0 c28a e113 d93f 8328 3b5a 2ec3 d43f
000005f0: 5e96 c38e 2264 dbbf 9fdd 3d87 1c77 c4bf
00000600: f643 2aec 075a d63f 8834 ed1f 034e c4bf
00000610: 57c8 6e60 07cd d6bf b0d1 0599 3339 d3bf
00000620: f9dc 7e99 81ae bfbf 0d92 6b5e 2cd1 c5bf
00000630: ef38 c3bc 493f d83f bdf4 b6b0 1cc9 723f
00000640: 4080 26a0 d23d a63f 4a84 c68a bf4c b3bf
00000650: feee 0da4 4500 d5bf f1bb 0e6c 04ed d73f
00000660: 20df 3835 a676 aebf 9456 e243 7eed d2bf
00000670: db23 4d55 5e21 d33f 5220 3c13 efe0 d13f
00000680: c25a a6b3 5d8d d53f 2755 2a0c 33b8 cebf
00000690: 1153 4c63 0fe8 d63f 5583 4325 e57c d2bf
000006a0: fe5b a314 e689 d73f 1548 3a5c 343c d93f
000006b0: 4658 7be8 75fc d7bf cd55 18ad a387 cdbf
000006c0: 71e4 c4b2 c83a d23f 3f28 3171 8dfa d43f
000006d0: 72e1 5c05 9344 b8bf 7735 17ca d619 b9bf
000006e0: 9edb dbc1 0190 cebf b184 0759 9cd4 b03f
000006f0: 91b2 1fa1 d728 92bf c494 97d0 244c d0bf
00000700: 7770 e57e c306 cd3f 24fd d8a4 a60a dcbf
00000710: 5014 55b7 e116 d13f 1732 5879 ed75 c1bf
00000720: fa45 8359 05d7 d0bf a5fb 3fb1 b4b1 d0bf
00000730: 0972 ee32 d434 ddbf f80f 2f70 7b81 de3f
00000740: 5f85 dbf5 38a4 dd3f 6735 36af cc5a ccbf
00000750: 1866 0208 ae64 be3f 280a 6abc 0eab b93f
00000760: a8eb 688c aa90 de3f e4e6 65cb 60be dc3f
00000770: 045c a483 7ebe c63f 4690 5290 7363 c63f
00000780: 24d5 6852 8ce6 d03f bd9c 31ea 88a8 ad3f
00000790: 1e50 2782 e229 ba3f 0eea 75e5 1376 cebf
000007a0: ad9e 0f8e a052 c8bf 6ea8 7353 0ab5 d03f
000007b0: 133f ee57 cef8 c5bf 3238 7e0f ec70 c43f
000007c0: b0fb 54b3 df44 dbbf 0135 5ba4 e1c4 d13f
000007d0: 842c 7f9d d1ee dabf b60e b6c1 702b c23f
000007e0: da2b 641f 8693 97bf be28 c885 88c0 d1bf
000007f0: cf63 aeed 84c3 dd3f a812 5e0b 723c ddbf

conv1.bias f8 [256]
3.820740173117635e-08 1.7562086690170614e-08 4.107842329081928e-09 3.7391623023178816e-08 1.2833980364129936e-08 6.858563188686535e-09 1.6391719543148123e-08 3.5869507213788776e-10
-1.6547696440151783e-08 1.4994102969993403e-09 1.134765516565422e-09 4.5035147513031944e-08 5.070129326428998e-09 8.298136753613778e-08 -6.219037467122247e-11 2.8033866107352804e-10
6.630600655354285e-09 1.4007710796600657e-09 -3.112704874487705e-08 -7.755700224829001e-09 -6.469085438963506e-09 -5.607074108002971e-08 7.246700285476984e-10 -8.973723202476653e-10
-2.622937670488352e-09 2.442350469309889e-08 6.82254219137586e-11 -2.251335153197667e-09 -1.9251232169822052e-10 4.005844904164869e-09 -1.4891100418744508e-09 8.031223152695969e-09
2.1517920783556214e-09 1.0332547279636914e-07 -2.000125845640104e-09 -1.1185082697234519e-07 -5.3386349842977795e-09 1.8562649853056111e-09 4.501477863056584e-08 -1.1061447452107413e-08
1.927016448519928e-09 8.236417924523107e-10 3.288482338104288e-08 -3.0465654240696244e-09 6.713835384781058e-10 -1.0159624480373957e-07 -5.377931169212279e-10 -2.56599555096381e-09
-5.029660725409947e-10 1.4699446938565638e-07 1.9010121874885467e-08 -1.3390474578665555e-07 -1.1035117110514793e-08 -1.4375087316586727e-10 -2.1135809192208447e-09 -1.0324936794448089e-09
4.6455303526620925e-10 -7.773255349109379e-08 1.5875272260722785e-09 2.8451894059656175e-08 4.6501447275167606e-10 -6.943905809342031e-09 -3.6684681676393963e-09 1.4833454644428162e-08
2.6585250478538997e-09 2.0380382195944394e-08 3.333844692878855e-08 1.0143869573796537e-09 7.016941077939773e-11 2.3555997764834566e-08 -6.793706082694546e-08 1.331983421953054e-09
3.367790786258712e-08 3.120688761705052e-08 -1.153016214707787e-08 1.8347279939012723e-09 1.187750049305204e-07 -1.4890856615779841e-08 -2.8824205208504747e-08 -5.320694466952981e-08
7.337493712635519e-08 -2.5368754650995475e-08 4.917623049415468e-10 -8.01938874012871e-08 -1.0076711889003051e-08 -8.758068955309637e-10 1.2886242778370828e-10 -1.2993441647325275e-09
-2.6621243193160603e-10 1.557470816879661e-08 -1.5576320193829834e-08 2.0832639143058054e-08 -4.532904402309486e-09 -2.8080676650411283e-09 1.012941953383485e-10 -5.14321088008111e-09
-1.6257877126855512e-08 1.0641545413658364e-07 1.9796150819142143e-08 2.2925173609683556e-09 3.530506952187725e-08 8.18011562099047e-08 -5.625654843463346e-09 1.077201309007029e-08
6.117022527159192e-08 -8.447249239784095e-10 -3.4124741633562634e-07 -8.585656668605855e-09 5.20835434272535e-07 2.784146946830414e-08 -7.072781887483404e-08 -7.289359103378884e-09
7.0070966985952295e-09 3.726635456381099e-08 -3.3566585204727138e-09 3.617053058084601e-08 1.2764150301434441e-08 -1.061166769375794e-08 -1.006093257314012e-09 -5.4547010572550205e-09
-1.1318441727398605e-08 -3.343282288877937e-08 -6.234827787679456e-09 -1.1280008667004462e-09 7.551548694120153e-08 2.6686833136882317e-08 -2.276461622282795e-08 2.2679879533921236e-08
-1.8244706659478493e-08 2.7175683094829805e-08 -1.3134724800366072e-10 -3.0110445572068216e-11 7.4159810609752174e-09 -6.035372954977476e-09 2.444296575392229e-09 5.828964547786567e-09
3.061532130788573e-08 -5.892832434384549e-10 -7.118802927615772e-08 1.1105267653640138e-08 -1.1612228095060163e-08 -1.056932309898319e-08 -2.1337950151359348e-10 9.09417775833583e-09
-4.558645903347531e-09 8.417835320026994e-09 -1.8161863019226152e-08 5.708184690140899e-09 -1.27054068657174e-09 1.938167674577937e-11 -1.3350943943074666e-09 -1.3733594507406294e-08
1.602084320862085e-09 3.2741900920312796e-08 -1.6452772405540226e-07 -2.602167818827703e-08 8.040312577483333e-11 -9.027835812430078e-10 -1.8913201324140292e-08 -2.229746802333691e-08
-7.28692540220765e-08 -5.938664406851028e-10 1.091839959675081e-09 3.2115944307611867e-09 1.143938829873737e-08 -7.190854016738127e-10 1.3063554702343373e-09 -1.4411208673158399e-09
2.0700083382784807e-08 -6.526523773456998e-09 -2.94109913610056e-08 7.032174842548003e-09 -3.912475378137643e-09 2.5972610205198766e-08 -9.967232565931995e-09 -2.242332304122927e-08
-1.6466200139444818e-08 -1.035122574363703e-09 8.554721720364185e-08 -3.6000169649155975e-08 -6.705669398308972e-08 -6.838685518066934e-08 4.030061289214971e-09 -3.353323484390427e-09
1.9580467964735936e-10 1.3730517458267139e-08 7.392536767581103e-09 -5.785267174365668e-10 -1.3278130949056473e-07 6.453791037691581e-10 4.275931108999376e-09 1.3473326987486648e-08
-1.6341422496316747e-07 -4.838188975110818e-10 -1.7851996726255765e-09 3.5715965614408307e-10 3.483602953738496e-08 4.102455341559872e-08 -1.4267183738200655e-08 5.957465707034954e-08
-4.5822372794848264e-08 3.0302594419213956e-09 -6.148630702659156e-10 3.9414853736561926e-08 7.060690639986934e-09 1.972258583513406e-08 -1.6569560044906806e-08 8.564802138629317e-09
-3.2305424833305528e-09 -1.1944600052249823e-09 5.434736965512014e-09 -4.985035029728639e-09 -2.286208847338322e-08 5.525052873955223e-10 -7.082891963697285e-10 2.2557251152908775e-09
-5.612912341913374e-09 -1.4606442280705455e-08 -1.0647338150115053e-08 7.286482283652977e-10 2.6555473368440337e-08 3.4767042768641547e-08 -6.009418645206177e-08 2.3395068908605324e-07
1.2454405098226412e-07 -2.4565895335297254e-08 -3.093333473726804e-10 -1.5229114387169782e-09 1.2200116062800195e-08 -6.517365325599748e-09 5.095599019356987e-08 5.765598959932296e-10
-4.3292022136161946e-10 -2.3947534954163194e-09 2.624994703506453e-07 -3.049502531261374e-07 1.5074357420715295e-09 6.400191230636531e-10 1.6358986030958919e-09 2.1304116194905646e-07
9.086954389287114e-11 1.3738853116982435e-09 2.570806522274175e-10 8.654449389699951e-08 -4.341087597220569e-09 6.220898663411122e-08 -1.9182216488903435e-09 -1.212495522139087e-09
-7.364010582578245e-08 -4.2402401958612687e-10 9.771858537593644e-09 -1.4266071841416314e-09 -1.5342659772250216e-08 -2.9146053937707628e-08 -1.6419715773228128e-10 -8.863276030465859e-08
00000000: 5b0d 6670 2f83 643e 3478 4bfc 6ddb 523e
00000010: adb9 ebd2 9ea4 313e 9326 07c7 1013 643e
00000020: 300f 7c29 8e8f 4b3e da10 efe9 1175 3d3e
00000030: 821e 1bb8 b899 513e 88a7 43fe 3aa6 f83d
00000040: 883a 169e 98c4 51be 38ed e8e9 79c2 193e
00000050: 3b03 af63 c07e 133e 0ad5 1d63 952d 683e
00000060: c03e b988 aac6 353e 0519 eaa7 6f46 763e
00000070: 201f 5a31 4218 d1bd eaa2 ec16 c543 f33d
00000080: 944a 402a 6c7a 3c3e 485f 3107 a810 183e
00000090: 21d4 41aa 11b6 60be 86ea 23c5 bda7 40be
000000a0: 5485 5bac d5c8 3bbe 4ed1 44d1 4d1a 6ebe
000000b0: b80e d4d5 43e6 083e 5284 d3d2 5ed5 0ebe
000000c0: c294 b1a3 e687 26be eb28 8a5a 7b39 5a3e
000000d0: 204b 57f0 efc0 d23d b95d 0605 bd56 23be
000000e0: 0de3 2cd7 6c75 eabd 581a e219 7934 313e
000000f0: 1532 80db 2c95 19be 1051 c82c 363f 413e
00000100: 0086 1240 d77b 223e 8f9a c8f0 78bc 7b3e
00000110: 4478 6bc0 522e 21be f079 ac8e 5406 7ebe
00000120: 264b 6a28 e4ed 36be eeae f392 f0e3 1f3e
00000130: 9c97 88b8 c82a 683e f1e7 fc54 18c1 47be
00000140: 045a e7d1 8d8d 203e c03b 4e6f d44c 0c3e
00000150: 9e67 a6dc a7a7 613e e23f 13dd 772b 2abe
00000160: 70db ac53 8d11 073e 7288 3d0a a445 7bbe
00000170: 6c96 c370 7a7a 02be 40d0 6d13 af0a 26be
00000180: 6861 8fe8 2248 01be 7f7f c606 b1ba 833e
00000190: 8c02 2b67 7669 543e 942c 9d99 eef8 81be
000001a0: 318a 74aa 9eb2 47be 9637 f5c1 c8c1 e3bd
000001b0: aae2 af47 d027 22be afc3 9989 f4bc 11be
000001c0: 1c88 63e0 80ec ff3d 52e2 ef8a bddd 74be
000001d0: 009b 85c1 0446 1b3e 92b1 f00d cc8c 5e3e
000001e0: 0abd 9601 9ff4 ff3d a0e0 d8b9 e7d2 3dbe
000001f0: 04fd edfb 0b83 2fbe 505f 7926 c7da 4f3e
00000200: 5a9d 468d 28d6 263e 443e a7e6 1de2 553e
00000210: f0c9 5452 00e6 613e 2ff7 492e 526d 113e
00000220: c0d5 9cba bb49 d33d c231 06fb 054b 593e
00000230: 392b d369 993c 72be 79c4 bc02 20e2 163e
00000240: b0e3 990a a814 623e e517 e3be 0ac1 603e
00000250: 6bc2 970f c6c2 48be 2078 d113 3885 1f3e
00000260: 662e f2fb 27e2 7f3e 38cc 72c2 55fa 4fbe
00000270: de57 581f 23f3 5ebe eada 5ff0 b490 6cbe
00000280: 7526 808b 49b2 733e 1de9 f867 4f3d 5bbe
00000290: 75d5 4244 96e5 003e c8f6 6ac9 e186 75be
000002a0: 0a79 441f bba3 45be 52cc decd ad17 0ebe
000002b0: d05f 4190 f1b5 e13d 92f4 5979 9352 16be
000002c0: 8850 9135 424b f2bd 4c20 9fa7 24b9 503e
000002d0: e86e 4817 96b9 50be e4fb 86a7 6e5e 563e
000002e0: 94fe 3b29 fb77 33be 8058 ad8f 011f 28be
000002f0: 54c4 6300 f2d7 db3d 86f9 a529 0517 36be
00000300: e13a 7b65 ee74 51be 2892 9877 d090 7c3e
00000310: 5551 cf45 8641 553e 78a3 a48a 4cb1 233e
00000320: f9d2 e2b3 4af4 623e 621a a028 55f5 753e
00000330: 9664 e810 7929 38be 8296 1b11 fa21 473e
00000340: 7743 bdfb 956b 703e 0082 2a6d 4706 0dbe
00000350: a537 4302 96e6 96be 4641 63c1 0370 42be
00000360: a7c1 763b f179 a13e 8273 173e 01e5 5d3e
00000370: f5bb baf2 60fc 72be 2c65 112f bc4e 3fbe
00000380: a8b8 4a61 6218 3e3e a8d7 0d49 d901 643e
00000390: 50fe fbc1 5ed5 2cbe d764 1768 3d6b 633e
000003a0: 3e76 5474 2a69 4b3e 9000 5f75 d3c9 46be
000003b0: 58d3 ff4d d848 11be bac6 61da 816d 37be
000003c0: 3142 910f 614e 48be 1a5f 68e1 f8f2 61be
000003d0: c4f9 9e01 44c7 3abe 64c8 1b12 0061 13be
000003e0: 685e d97e 6245 743e 0377 15ef 9ea7 5c3e
000003f0: 53ae 8d74 7d71 58be b833 12a4 325a 583e
00000400: 76d3 7318 1197 53be e0a3 09b1 fe2d 5d3e
00000410: f0b4 96d5 5e0d e2bd 20e7 b421 ab8d c0bd
00000420: 7049 af18 f5d9 3f3e 90db 4176 f6eb 39be
00000430: a302 ada4 10ff 243e b4be 0ba9 0309 393e
00000440: 8e9e 44db bc6f 603e c913 d5e5 633f 04be
00000450: 6410 1f0e 011c 73be 4f5f 227a 2fd9 473e
00000460: ac8e f9d0 e3ef 48be 13a5 8ffc 8bb2 46be
00000470: 40e7 dfaf 9f53 edbd dd6b 82bc 9387 433e
00000480: 66b7 ddbf 4894 33be e095 1500 c113 423e
00000490: d25b 1a7e 4b80 53be 087f 1827 3784 383e
000004a0: 4ab2 01a4 e5d3 15be 2015 a6fe 744f b53d
000004b0: ec22 78a7 ceef 16be 121d d998 1f7e 4dbe
000004c0: 5bc8 6d96 0a86 1b3e 7e78 9139 0394 613e
000004d0: 4cbf 5f2a 2115 86be e4e4 c4d0 c8f0 5bbe
000004e0: a041 f9f2 dd19 d63d 0b18 69e6 f704 0fbe
000004f0: 7a3d be39 d24e 54be fa8d b9d2 14f1 57be
00000500: 02b6 4279 898f 73be 6443 2a57 b467 04be
00000510: 644d 4682 f6c1 123e e49a 69ef 5e96 2b3e
00000520: 494c 09c7 de90 483e 278a 9e5f 24b5 08be
00000530: 32d0 9280 6971 163e 6ca1 aad9 1dc2 18be
00000540: 78ab 3cdf fe39 563e 40f1 8b20 fd07 3cbe
00000550: 62a3 ef86 6e94 5fbe d00f 0240 f533 3e3e
00000560: f231 7bea cfcd 30be 3061 91f6 4be3 5b3e
00000570: 0872 f546 8b67 45be f0ea 2b15 ad13 58be
00000580: 6cb4 3fd3 31ae 51be 92d3 f868 84c8 11be
00000590: fc59 858f c2f6 763e 6803 3c5d d353 63be
000005a0: d8f1 08d6 1900 72be 543a 8247 825b 72be
000005b0: 3683 5368 194f 313e 02d2 a14c 09ce 2cbe
000005c0: fa76 bcc3 43e9 ea3d a020 788a 6e7c 4d3e
000005d0: 820e 4f1d 2ec0 3f3e 54d8 c25a c6e0 03be
000005e0: c0c3 f8bf 54d2 81be 62ff ad8b d02c 063e
000005f0: 4986 fc9b 6f5d 323e ffc8 3333 0aef 4c3e
00000600: 3159 53b9 deee 85be 374a a34d b79f 00be
00000610: 8b93 2525 64ab 1ebe 0c81 2518 388b f83d
00000620: 768a 49d3 d3b3 623e da78 f326 5f06 663e
00000630: d096 ef9a 77a3 4ebe faf7 c3e6 e0fb 6f3e
00000640: aa95 166a c799 68be c021 6469 9c07 2a3e
00000650: ab90 0c8c 6420 05be aea1 33e1 2229 653e
00000660: b979 c3bb 4f53 3e3e 2e1f df98 4d2d 553e
00000670: fd96 c621 9bca 51be aca0 c2bd 8c64 423e
00000680: 587d 92bd 09c0 2bbe 08ab 9a68 4a85 14be
00000690: 9eba f675 8e57 373e 9ce1 6f9e 1a69 35be
000006a0: 58c0 8474 488c 58be 00a7 9f4d e3fb 023e
000006b0: a8d8 fc7a 2d56 08be d0d1 3c59 6460 233e
000006c0: 1571 e75e 761b 38be c0ca 1900 fa5d 4fbe
000006d0: 4fb5 00a1 6fdd 46be 0855 e3f1 4109 093e
000006e0: 08f5 dd4f 8383 5c3e 0a1b b791 58aa 623e
000006f0: 7a6f b61b a421 70be 5973 1806 7c66 8f3e
00000700: e326 cc0e 4db7 803e e1f0 4f34 9f60 5abe
00000710: e729 478c d941 f5bd 64bf d3d8 d529 1abe
00000720: 9c03 3cb1 1533 4a3e 1035 d440 ebfd 3bbe
00000730: 9667 e584 565b 6b3e e469 6477 79cf 033e
00000740: e8a9 fc58 03c0 fdbd e821 635e 1e92 24be
00000750: a6ca 36e1 b49d 913e 361b 9665 0177 94be
00000760: 4a39 f6c2 c5e5 193e 587b 2bf1 aafd 053e
00000770: 4065 b715 c21a 1c3e a2bf c8e0 0998 8c3e
00000780: 3156 122d 60fa d83d cd1a 2e58 699a 173e
00000790: 6210 5f54 9caa f13d b12a 77d6 4a3b 773e
000007a0: 8a7b c387 13a5 32be 4944 0611 f8b2 703e
000007b0: 6875 b3c9 367a 20be 9eac 6d98 9cd4 14be
000007c0: 8c11 2871 82c4 73be 0093 a66a 8223 fdbd
000007d0: e8bd bfd3 22fc 443e f04d 4ee5 4882 18be
000007e0: b62c 55b3 5b79 50be 56db 9c36 9b4b 5fbe
000007f0: 562c 4a84 2c91 e6bd aee7 4702 ccca 77be

conv1.lin_src.weight f8 [256, 1]
0.03551417973127376 0.04007355632386976 -0.05967913986201751 0.06962854239032558 -0.009930287105003726 0.18047031485722792 0.165307653812686 -0.16847898671866318
0.2182169899938336 0.18443165651606958 -0.17657776194680042 0.014553578016674512 -0.014994989212369629 0.03350563781680534 -0.08794449259467431 -0.203939868926406
-0.016265226017624403 0.17337182775160986 0.2182738501872109 -0.048605426586941745 -0.02354359863087107 0.02849217220300049 -0.18227778624584298 -0.09293775973768213
-0.12076776796513472 0.13855899690075119 -0.20049717711457743 -0.13958490986353234 -0.17873252618881957 -0.17870401678080164 -0.14834226947126553 0.11249861602714548
-0.015856895416635392 0.010608258535064656 0.012969449137108038 0.007937762353438647 0.09060916381283886 -0.06906566865496613 0.04010298804877013 -0.01049206050395496
-0.19613968425634531 -0.02152695063134693 0.24592759696867458 -0.020608019768925318 -0.11596991014381768 0.0061306390382988366 -0.05120653165323261 -0.09903748890913044
0.20776433530968427 0.01616067801303778 -0.0082267017581649 0.027437206042221805 0.2051584536595174 -0.20511194923390816 -0.13111326127342335 -0.19259738600280335
-0.13183075107861067 0.1153421789243221 -0.03598065007931716 0.06374412749566846 -0.20143425441669818 -0.02885084385367551 0.21958889478933508 0.011154279907852829
0.2336843743318685 -0.028814261883702917 -0.006207197052485409 -0.12897784735522136 -0.17765540097570404 -0.012326737034991956 0.05848482988588581 -0.1620287251927486
0.018900113206707116 0.0763600234102168 0.21499264513973462 0.08570985068990872 0.04798849143195424 0.04226135725044885 0.19953213209864243 0.02605621654732567
0.025835485298006146 -0.017013062372142177 -0.21847992058934368 0.027686856922812104 0.23464162477961928 -0.08853219529931686 -0.1924535141976085 -0.26001688514361915
-0.05724394268330326 -0.009232113341890771 0.07030399272981114 0.10724684016890422 0.22783654343314858 -0.030279062731994308 -0.09965061609874581 -0.012428165803535021
-0.003882163833739626 -0.014601575329580911 -0.053065248198452826 -0.10129380064021803 -0.034075562779491676 -0.01985078209141085 -0.26323561621417735 -0.23318256836671838
0.025995301470355208 -0.039238717723696755 0.03222471468641721 -0.04695713544773725 0.026325208700157872 0.22660931571906637 -0.02083948540488231 0.05202004587298417
-0.019924885754008016 0.04176623547930103 0.10075785533682544 -0.027010401433497425 0.18723526842651214 0.025072347273802226 -0.21765363925581477 -0.12384704932577004
0.275842503351814 0.02001026984087054 -0.16407908699760873 -0.2562928702594995 0.30587988619470796 0.15841008562633765 -0.04618771174155265 -0.005718494235469579
-0.006687969756349811 0.06722073289642186 -0.2292265382699591 -0.21388709951596893 -0.02084763280715921 -0.04637086027161193 -0.16469334621375023 0.2783756106379883
-0.011211910965635659 -0.2041159499321473 0.02361408126587366 0.1903673256720482 0.2775719554151475 -0.0050482285015308395 -0.25580529414324316 0.28121273024339605
-0.018276789099945526 0.16602311024262972 0.0449904173815144 0.2042493590696523 -0.1453865930347155 -0.26600740294257624 -0.21792710792827877 -0.025241075675769203
-0.10602617780981513 0.018547162428347166 0.02633997421575866 0.16912686725308426 -0.1633141572368059 -0.16899417227426786 0.25823314563414823 0.21171217894004574
0.010632938089589728 0.19985279255990998 0.24742894996263948 0.15722297946974684 0.08496139295720197 -0.10106981359485666 -0.2191633251446945 -0.15856308362698449
-0.01541714804062993 0.020853552119814885 0.038681609344462 0.04489226613875949 0.09374358881404442 0.1305222439935252 0.021392035994856097 -0.012330146432611214
0.02704702501299199 -0.09244660973272835 0.04607019451244867 0.01386887333277856 0.027955327068790545 0.04789868197276575 -0.01889608364598459 0.1451305763606095
-0.14750999674979867 0.11347890677720972 0.19763380884419965 0.18679571051388097 0.026939765877885307 -0.05887722331480284 -0.06878800005366921 -0.018999300253128244
0.02050812133938663 -0.23956248842351027 -0.03803400457809575 -0.21883369072069978 0.25847269016811536 0.16286662886051853 0.034782022246661326 0.06830501524843795
0.03209895742770181 -0.16441386936534988 -0.14604052608990736 0.04288214371007737 0.26758319158139765 0.037437706951503114 -0.030891401721150225 0.10108499772022513
-0.023471329536789612 -0.21472342246739584 -0.02598248843620338 0.23738385394821257 0.10425005737975873 0.2677895033653914 -0.2034631946755796 -0.01778397166289499
-0.011774971353823944 0.1719575045245033 0.16271385981008224 -0.28845576147108964 0.06867392034153068 0.029149143512633376 0.03462361989471241 0.030463342382509598
0.014876452865848938 0.3306701001542174 -0.2576920676252978 -0.18058772443066423 0.12279053251398325 -0.006875542247385335 0.1939257771455098 -0.28278061172523644
-0.19118004050759127 0.41019729407817357 0.023837980815991904 0.024470721387195995 -0.1724944099295921 -0.29665280352308304 -0.2705650925662263 0.020278981730422085
-0.22909034696177286 -0.04355420418654486 -0.2220097571243191 0.029927293748977478 -0.09288044726551262 0.11891408427487254 -0.16632435796574152 -0.18583578801884884
0.022085938823844638 -0.26689303970280026 0.10218137710795218 -0.008706905421998357 -0.00559293640877963 0.2902112422188842 -0.2615178839938794 0.010377636742918852
00000000: aaec fa20 ea2e a23f cedc b06b 8584 a43f
00000010: b9ea eba3 438e aebf d141 6f18 2dd3 b13f
00000020: 69d8 d892 5456 84bf 7ef5 1aba a619 c73f
00000030: 7db5 731b cd28 c53f 528b 022d b890 c5bf
00000040: e23f bac9 88ee cb3f 32b4 8ade 749b c73f
00000050: b495 61a0 199a c6bf 63a1 f82c 44ce 8d3f
00000060: 3c02 2b62 b1b5 8ebf eb41 4fa5 a627 a13f
00000070: 69b4 8ebf 8783 b6bf 2fd9 b19d b31a cabf
00000080: 8a21 3bd7 d4a7 90bf 20d6 1e4d 0c31 c63f
00000090: 3423 10c4 65f0 cb3f dbb5 327b cfe2 a8bf
000000a0: de55 9928 d01b 98bf 412e 374f 0d2d 9d3f
000000b0: 4b49 5be5 e054 c7bf 9f08 a3de c4ca b7bf
000000c0: 3438 d2ed a2ea bebf 66ad 201c 4dbc c13f
000000d0: fade 5239 e4a9 c9bf 6482 7017 ebdd c1bf
000000e0: 5a31 5b19 b5e0 c6bf 6962 def1 c5df c6bf
000000f0: 292b ff25 e1fc c2bf ce8d ae94 b5cc bc3f
00000100: 0513 ec3c ca3c 90bf 890f ce5b c8b9 853f
00000110: 2ecc 20ff b98f 8a3f ec06 b16d ac41 803f
00000120: d546 4b83 2932 b73f 7a42 26a4 49ae b1bf
00000130: 945e 48fc 6088 a43f 216c db85 dc7c 85bf
00000140: 1c15 aaec 1a1b c9bf 46e7 c633 290b 96bf
00000150: a308 1535 8e7a cf3f f87b c5cb 441a 95bf
00000160: f343 633b 34b0 bdbf a8e9 c4e2 701c 793f
00000170: 3d9e 9515 be37 aabf 5853 f157 855a b9bf
00000180: 2713 b790 0598 ca3f e150 30be 6c8c 903f
00000190: d3c7 0a38 29d9 80bf 696f 94ba 7f18 9c3f
000001a0: 6e97 7bd8 a142 ca3f c73d fdbc 1b41 cabf
000001b0: 7fe1 9ec0 51c8 c0bf 26ac 16f9 07a7 c8bf
000001c0: 1db0 3e7e d4df c0bf e14f 54a6 1087 bd3f
000001d0: 1f4c c246 0e6c a2bf 5eec e7fe 8851 b03f
000001e0: 3dc6 81ff 98c8 c9bf 5910 415b 138b 9dbf
000001f0: 64ad d728 7d1b cc3f 1b38 511b 0ed8 863f
00000200: 74b9 ab9c 5ee9 cd3f 16a8 cb61 7c81 9dbf
00000210: 87ac 71c5 b76c 79bf bd4a 269a 5882 c0bf
00000220: 46ff 9284 69bd c6bf ef15 74a3 c23e 89bf
00000230: c610 583f b9f1 ad3f 1993 db75 5bbd c4bf
00000240: 973a 7420 8d5a 933f ecc7 449b 548c b33f
00000250: 91ba e005 e184 cb3f dc7f a8ad 14f1 b53f
00000260: abb9 9192 f291 a83f 9bed 8cd6 47a3 a53f
00000270: 75b2 eed6 448a c93f 3689 b617 7bae 9a3f
00000280: 1a93 b911 9e74 9a3f a1fe f849 df6b 91bf
00000290: bec7 e168 26f7 cbbf 35cf 0c84 f159 9c3f
000002a0: e9b8 5a9c bc08 ce3f 7622 74c3 0baa b6bf
000002b0: e14f bd16 51a2 c8bf 6160 86dc 1da4 d0bf
000002c0: d311 70fb 134f adbf bbd6 0247 49e8 82bf
000002d0: b881 8d45 71ff b13f c3f1 1f67 8774 bb3f
000002e0: ee84 7073 bf29 cd3f 5cf2 bf80 7901 9fbf
000002f0: 009d 2be9 b382 b9bf 8851 672d f073 89bf
00000300: fe19 84d6 7ccd 6fbf 69c5 1544 6ee7 8dbf
00000310: 6109 2243 5e2b abbf 348b 09f9 63ee b9bf
00000320: d51f 7627 5a72 a1bf b4d0 876f c353 94bf
00000330: 3011 b232 dad8 d0bf 81f0 9028 edd8 cdbf
00000340: dbca a826 839e 9a3f 1973 b8e2 1817 a4bf
00000350: a3f5 66ff c17f a03f ecad 1f02 c40a a8bf
00000360: 62d0 b5d9 fef4 9a3f f3bc fdb7 8801 cd3f
00000370: 3725 1e31 f256 95bf f492 8517 5fa2 aa3f
00000380: 8d8f c272 3067 94bf 10d8 eb4e 6262 a53f
00000390: 969c 7c4d 44cb b93f a11c 3c5b 9da8 9bbf
000003a0: f75a 4645 53f7 c73f d8bb 4cbe 90ac 993f
000003b0: fec3 3a0f 13dc cbbf 966e 8fb2 70b4 bfbf
000003c0: 398a af50 67a7 d13f e9e3 337a 927d 943f
000003d0: cf5e 4e24 8b00 c5bf f399 fd35 1a67 d0bf
000003e0: 6278 ed3a 8993 d33f 3593 8f1c c846 c43f
000003f0: 0d68 d06e eaa5 a7bf 204d 949b 466c 77bf
00000400: 2822 1536 d864 7bbf 923d 67c1 6035 b13f
00000410: 8454 9f92 4b57 cdbf 8f8b ba08 a760 cbbf
00000420: c94d 6cf4 1459 95bf 1a3a b5e0 ebbd a7bf
00000430: adad edeb ab14 c5bf 9a6d ecef e7d0 d13f
00000440: f771 6237 45f6 86bf 4b78 c6b0 7820 cabf
00000450: 4e4d 0c2b 4a2e 983f d184 fede f45d c83f
00000460: 79de b229 bdc3 d13f 68a7 1185 73ad 74bf
00000470: f849 1f2b 1d5f d0bf f94f e7ad 63ff d13f
00000480: f432 d78d 26b7 92bf 70a7 6fca 3e40 c53f
00000490: ebf0 92e6 fb08 a73f 6670 b7ce d724 ca3f
000004a0: 1534 2e23 079c c2bf ef76 08ea 4306 d1bf
000004b0: 715e bb14 09e5 cbbf 2b54 2cea cbd8 99bf
000004c0: 9689 3616 8824 bbbf 17df 4000 07fe 923f
000004d0: cb2f 56bf ddf8 9a3f 0d0c ddfd f2a5 c53f
000004e0: 2d27 2772 7ae7 c4bf 11f8 90dd 99a1 c5bf
000004f0: d47a cf50 e486 d03f ce2f 5b7a 6219 cb3f
00000500: ed68 d7ca b8c6 853f 1d90 07bc c694 c93f
00000510: 022a 1678 c0ab cf3f 7849 80f1 e11f c43f
00000520: 517d 2ca4 07c0 b53f 9fb2 0018 b6df b9bf
00000530: 6852 fd38 8b0d ccbf a1f1 438d cb4b c4bf
00000540: 5d88 0e95 0693 8fbf 62ad 7031 a25a 953f
00000550: 45a6 2e6e 13ce a33f cc8f d17d 1efc a63f
00000560: 777e 2a70 94ff b73f 0826 adf0 f3b4 c03f
00000570: 8a96 f83b cbe7 953f c2b1 763d 8c40 89bf
00000580: cd21 8a1f 37b2 9b3f d19a 6dbd 94aa b7bf
00000590: c3ad 8035 8396 a73f 1157 2cab 4867 8c3f
000005a0: 5caa 093e 52a0 9c3f b766 3011 2d86 a83f
000005b0: 7bc0 20b5 7e59 93bf 5229 8f83 a393 c23f
000005c0: 43cd ef89 9be1 c2bf cfd9 6421 f40c bd3f
000005d0: abed c88c 104c c93f 8b58 d8fd ebe8 c73f
000005e0: 2b31 a115 1996 9b3f 7294 3bc9 2725 aebf
000005f0: 2577 9622 179c b1bf 22b0 ef74 8d74 93bf
00000600: a3fc d1b9 1400 953f 2d4d 90ce fba9 cebf
00000610: f800 996b 3179 a3bf ef45 740c be02 ccbf
00000620: b898 cb09 d18a d03f c168 484e d0d8 c43f
00000630: 0889 1300 f3ce a13f 1313 a5fe 6f7c b13f
00000640: 697d c648 466f a03f 596c f77f 830b c5bf
00000650: 5030 b9b9 74b1 c2bf 1062 a2f9 a5f4 a53f
00000660: 3a4a 3340 1520 d13f 68e5 fcfd 082b a33f
00000670: 1dd1 7ae0 fea1 9fbf 1519 53d7 b4e0 b93f
00000680: f43f 0443 de08 98bf 4c61 979e 0e7c cbbf
00000690: f1a4 6848 279b 9abf 732b a718 9862 ce3f
000006a0: 245c 0dbb 21b0 ba3f eca6 ca95 7623 d13f
000006b0: 3820 89fb 140b cabf 5691 bd22 f635 92bf
000006c0: e411 02e7 791d 88bf 8c04 1e19 b402 c63f
000006d0: ecbf 3ec9 ced3 c43f 601c 7727 0f76 d2bf
000006e0: cb79 f431 9d94 b13f 3268 5fe8 45d9 9d3f
000006f0: 90dd 3be6 2fba a13f 84f6 094d c831 9f3f
00000700: 0380 50b4 8b77 8e3f a85a 7bec b229 d53f
00000710: dfe9 b8de 067e d0bf ca8f 3ea1 7f1d c7bf
00000720: 7cee 6749 336f bf3f b33e 8451 8729 7cbf
00000730: 1e7e 5853 8fd2 c83f 7f60 d3d9 1319 d2bf
00000740: 4364 d06a 9678 c8bf 014d be26 ac40 da3f
00000750: 8b89 07d0 fb68 983f c727 4550 da0e 993f
00000760: 25f9 b1fc 4b14 c6bf a77e 590a 5cfc d2bf
00000770: c2b6 0040 f050 d1bf 8039 506d 03c4 943f
00000780: 8fda 031e d552 cdbf be45 2b95 bc4c a6bf
00000790: 0ff5 1ed3 d06a ccbf 9679 a3af 42a5 9e3f
000007a0: 7a77 7153 03c7 b7bf bc8e fe46 2771 be3f
000007b0: f4da fed6 1d4a c5bf f1d1 fb93 77c9 c7bf
000007c0: 92aa cc43 b29d 963f 796d 438b c614 d1bf
000007d0: 995b f008 8f28 ba3f fa76 4b10 edd4 81bf
000007e0: d2d6 6d6f 9ee8 76bf bfbe 902c d292 d23f
000007f0: 4fa9 c481 b5bc d0bf db65 5dd3 de40 853f
