Q1/models/bestval.pth (torch, 14767 bytes, 16 tensors)

batch_norm0.weight f8 [1]
00000000: 5a3e 5d9b 0309 e93f
0.7823503527124089

batch_norm0.bias f8 [1]
00000000: c251 a7bc 99bc eb3f
0.8667725262299018

batch_norm0.running_mean f8 [1]
00000000: 1299 185d 2821 1040
4.032380537630404

batch_norm0.running_var f8 [1]
00000000: bdea bc2e 532d 4540
42.354101030583

conv1.bias f8 [16]
00000000: a954 35dc d56e a03e 344e e456 13a1 c83e
00000010: f43f b207 de2f 693e 8c82 f696 55af 6fbe
00000020: 2a9a bafc fcad b5be 50b0 ea95 79d4 c13e
00000030: c295 302e 83ce f1be 6d4d c993 463c 43bf
00000040: 6295 3a74 c234 97be 5fac 229c f68c a63e
00000050: 4007 63cf b5ab 523e 2eed 7da5 a168 71be
00000060: b0ac f9ee b08e 623e 23f3 c72c bd1f b5be
00000070: be5b 3863 f888 c43e cf06 e3e5 6287 dcbe
4.897400959583874e-07 2.936029594677466e-06 4.691440921259375e-08 -5.901772481419537e-08 -1.2922073321736422e-06 2.125499278212948e-06 -1.6981782106869623e-05 -0.0005870194068599406
-3.457977195509815e-07 6.720613827856473e-07 1.7388484396076397e-08 -6.485252279462291e-08 3.456582741981809e-08 -1.2590873438293703e-06 2.4479675404631243e-06 -6.801808551228172e-06

conv1.lin.weight f8 [16, 1]
00000000: b1a0 9f26 dec6 b8bf 18d2 16b4 dae8 cbbf
00000010: 7492 bd2a 9d37 cabf a705 8215 6952 dd3f
00000020: 2beb 5edb ac30 d33f 5e03 dab6 9f4f e2bf
00000030: 2fd4 d56f 11f2 e23f 943a aa54 f96f ddbf
00000040: 4496 8bbb 7bab e43f d07d 0ffb d8e1 c73f
00000050: 7461 a686 a505 e3bf e719 12f0 a59f e2bf
00000060: f32a f8e5 9eed b6bf e236 bc64 e4cf e73f
00000070: 4e3f 25bc c9da c83f 82be b22b f7fc b4bf
-0.09678448145826014 -0.21804364961066436 -0.20482220255793815 0.4581549367940973 0.29984589980056126 -0.5722197123833259 0.5920493301661106 -0.4599593474203314
0.6459330237382308 0.18657982119382988 -0.5944392804986323 -0.5819883049851428 -0.08956330408561168 0.7441274611935251 0.19417688071052414 -0.08198494736529408

batch_norm1.weight f8 [16]
00000000: 14c3 6000 baac f03f 9119 5343 d220 f13f
00000010: 39ec cbe7 fea0 f13f 74ac 4d11 ad9d ea3f
00000020: e34f f2d6 e456 ef3f ccf1 27cd d108 f13f
00000030: 18ba b055 4aaa eb3f f966 08cc 0a09 f43f
00000040: ae7b 1e4e fd75 ed3f 43b4 c982 2dde ee3f
00000050: a1e3 f604 3421 ef3f a1ab 63b7 21fb ef3f
00000060: 89a9 67b7 224d f13f a02f 1064 c925 ef3f
00000070: 3543 e411 dc6e ef3f 0ef7 2007 39ea f03f
1.0421695723309243 1.0705130224101576 1.1018055967858926 0.8317475641209868 0.9793571661161845 1.0646532071979093 0.8645373986854024 1.2522075624496536
0.920653011871641 0.9646213106585794 0.9728031250916623 0.9994057256529808 1.0813319362883667 0.9733626322135827 0.9822826718756007 1.057183292242772

batch_norm1.bias f8 [16]
00000000: 2744 2102 d10d d0bf 9535 f2c7 45f6 c5bf
00000010: 5c49 d7f8 bd92 c5bf b5d4 3ee7 b741 ca3f
00000020: 3fb3 858d 8c13 d73f 00dc 3ad2 45ef d0bf
00000030: 42bc 85ae 2ec3 d43f b0b0 f9b2 947e c5bf
00000040: 7ca1 bd0e 70e5 d43f 4159 302a 55be d63f
00000050: 788a f190 d230 d33f 4f4f b76f 89bd d63f
00000060: 3185 97f8 1259 babf 9be5 9c09 36d4 d93f
00000070: 1303 a90a d922 d93f 2383 3f69 e417 b1bf
-0.2508432884979492 -0.17157814276690134 -0.16854071283757832 0.20513056556015888 0.36056817837270566 -0.26460404901757784 0.32441298526004314 -0.16792544116049646
0.32650376739049825 0.3553669845581631 0.2998548903907827 0.35531841192026986 -0.10292166298997497 0.40357733668096224 0.3927519420722529 -0.06677081651242793

batch_norm1.running_mean f8 [16]
00000000: ae9e 7ce8 099a b5bf c2ed bf35 4453 c8bf
00000010: 9844 d026 eed1 c6bf b69e 528c 5cb0 d93f
00000020: 0832 ccc8 f3c9 d03f d6ec fdaf aeee dfbf
00000030: 1e48 c994 b998 e03f c30f 04e8 c6a9 d9bf
00000040: 4f21 62b2 0716 e23f 841c c3da 03e5 c43f
00000050: 0230 0434 ffad e0bf 96d4 dc2d 5843 e0bf
00000060: 79e8 f5be 0fe6 b3bf 2df6 dec7 95d4 e43f
00000070: 7e24 46b9 a3bf c53f 7737 ba95 774d b2bf
-0.08438169408747839 -0.19004109024522903 -0.1782815637130042 0.40138925269500747 0.26232618912834527 -0.4989430159254885 0.5186431795102668 -0.4009873643665253
0.5651892169999345 0.16323898488755983 -0.5212398544258579 -0.5082207580332063 -0.07772921001552104 0.6509503272752163 0.16991087481099848 -0.07149455457166974

batch_norm1.running_var f8 [16]
00000000: 9e73 7d87 2513 713f af72 f22f 0ea6 953f
00000010: dd70 7639 060e 933f fc12 8dbc c828 b83f
00000020: be0e 4a37 3fa3 a43f 00ac 3faa afa7 c23f
00000030: 36a7 3095 ab2a c43f 75fe 1c5a 071a b83f
00000040: 80dd 00d6 f1f2 c73f d669 612c 40f7 8f3f
00000050: a08d 5358 fd5b c43f 475b 1469 945c c33f
00000060: 8ea1 8d53 03fb 6c3f 1306 7c66 69c4 cf3f
00000070: cc74 9b51 f150 913f 2b8f 30c0 1385 683f
0.004168650244392417 0.021141263653236816 0.01860818601345292 0.09437231639192228 0.04030797529142437 0.1457423764507837 0.1575521925417946 0.09414716672926622
0.18710158299812107 0.015608311991106055 0.15905730068980706 0.15126280909381704 0.0035376610725743112 0.24818151001095198 0.016910334211264907 0.00299314363066285

conv2.bias f8 [32]
00000000: cc63 fc21 a370 babf 765f bc2f 8189 d03f
00000010: 40ef 3ce5 1fbf df3f 007c 17ce 7e4a da3f
00000020: ca45 e22c 07fc bbbf 063e c5d6 ce42 d83f
00000030: 65e1 a9c4 d713 c0bf b40c 6ee6 cd74 dd3f
00000040: ded4 0b4d 490e e03f da99 092d fd50 bfbf
00000050: 28a4 f104 f0cc df3f ba84 8c7b 108c df3f
00000060: e6bb 1f04 cf71 d93f 7497 88ad 63b2 cb3f
00000070: dd0d 8085 7ce8 d83f 3a15 bfe3 2128 d63f
00000080: 4b29 d2e1 5d8b d63f 55bd 71c9 e217 db3f
00000090: 60bd 427d 32bd db3f 1c78 fd03 b2bd aebf
000000a0: bbac 6db7 4c69 b4bf 6907 c8ec 397c afbf
000000b0: 19ba e4aa 051c c8bf 02b4 498a da94 b6bf
000000c0: 3e55 7c4d b121 db3f 0888 c100 c376 dc3f
000000d0: 6c8a 1092 51b9 aebf 9562 83c5 19d3 da3f
000000e0: 02f2 5ad4 e154 d5bf 6628 7b0b 1393 b1bf
000000f0: 43ad 0dc3 9e0c e23f 6db7 5762 4e93 b5bf
-0.10328120784505684 0.2583926168604117 0.4960403193142504 0.4107968342413528 -0.10931439252660549 0.3790776345603891 -0.12560555556025146 0.4602541685382662
0.5017439369973109 -0.12232954358623918 0.49688339693836037 0.4929238516361455 0.39757132914286186 0.21638151143377693 0.3891898444855693 0.3461994861684904
0.3522562699587481 0.4233328788022466 0.4334226821183247 -0.06004101084430166 -0.0797317455123218 -0.06149464621922968 -0.18835516781241848 -0.08820882679147249
0.42393143240890996 0.44474864076448783 -0.060007618980553484 0.4191345623817509 -0.3333057950765409 -0.06865042715358669 0.564040547336312 -0.08427896405166076

conv2.lin.weight f8 [32, 16]
00000000: 3c73 d5ab 809a 463c 58e9 f2b6 896c 30bc
00000010: b12e bee5 ec27 fd3b 8d5b 5c13 47cc b2bf
00000020: a89d 5809 fb1d 8cbf d5f8 b669 3209 103c
00000030: 5992 2e17 8201 b7bf 1f42 0f2d 645c 403c
00000040: 4c6e e557 cf26 b3bf c9f1 2969 0295 b0bf
00000050: a1ac d1cf b89e 163f 87ad ecec cf6d 13bf
00000060: ff6e 0c7e 7d1a df3b c5fe d7d3 ed61 a6bf
00000070: 224f 9060 4233 b4bf 0764 1c51 4e98 903d
00000080: 2289 80b8 7249 d8bf a05b eaad 7493 e1bf
00000090: 0482 3674 8b04 e3bf 3cf2 de3c 57e4 973f
000000a0: be8c 1c0e 3d67 c93f 50d6 564d acec eabf
000000b0: 8ec5 60c5 e34d bbbf 64cb 5182 c429 eabf
000000c0: ca93 4d51 8b38 bcbf 555b 4e46 bc5a ab3f
000000d0: 0839 4236 4fc9 dfbf d641 4f57 c1e8 d9bf
000000e0: 0c54 703d 8585 e9bf db49 c23b 6eca 9bbf
000000f0: 1b90 8ff2 0960 d13f 4209 6fad 5915 e3bf
00000100: 3a69 16ee fd6c bc3f 6303 28df 0fef ddbf
00000110: 6b57 21ec 1447 dbbf 0f36 f73f 28bb 953f
00000120: b5ed fae1 d805 b0bf 08f0 0c59 7e86 ddbf
00000130: 43e8 e7d8 72ab ca3f 82c0 f006 7f71 d7bf
00000140: a49a 2198 2cc4 ca3f 4e21 e662 c636 e03f
00000150: 41ae eb16 3af7 b93f c9f5 9b0f ea58 893f
00000160: 42b6 0e60 f4ee ad3f 9296 b9a9 92f9 dd3f
00000170: d7fc 8370 8cb1 d53f 4591 31c1 ed04 c33f
00000180: cd22 04f0 f33b d3bf 5422 1b05 3e12 e4bf
00000190: d336 691c dbd1 e3bf 3383 d4b9 885d c43f
000001a0: 380b 0c49 5762 d23f 9d13 8920 9685 dbbf
000001b0: 6e32 e7c6 e9c6 c1bf c7cd 3da7 4bb5 e7bf
000001c0: feb0 a9eb 95e2 b3bf 0381 bab9 d574 d03f
000001d0: fde6 d3d5 9269 d7bf a22a f0e4 cb4a d6bf
000001e0: 11b1 775d 97c1 c3bf ff2b db27 f1c3 b53f
000001f0: 7e68 4ed5 fe3c ab3f 1df4 70e5 6066 e1bf
00000200: a03f 796c 4cb3 0cbe 65ee 95a5 d497 e5be
00000210: 7fd5 5542 352f 61bd 9a6c 13c4 df83 b5bf
00000220: c5bb e3ba 28af b0bf 86b1 6ae0 2634 c9bb
00000230: 5814 f772 37a9 afbf dd99 552e 17c6 f4bb
00000240: 1577 0a1c 8ce9 b0bf a3fb f41d d789 b1bf
00000250: c9e6 5bbe 0f45 41bf b822 cfd4 4e06 61bf
00000260: b3da 7ce0 1db1 863e b3e7 aefe c113 a5bf
00000270: 4ac0 2bb3 38ed b3bf 7b09 a00f 1e03 283f
00000280: ef00 372c fd66 ecbf 7143 feff c128 d5bf
00000290: 774c 9929 6446 e5bf b623 87a1 9ee6 b43f
000002a0: 2453 c103 3645 d73f 091e 5510 fdec dbbf
000002b0: 7a3c 8fc6 a439 c3bf d0a5 b731 8f0a e8bf
000002c0: 6a09 64ac 4d7a d53f 14f4 ad76 5687 ba3f
000002d0: c63a 9392 cac4 edbf 3ee7 26a5 2e9e f0bf
000002e0: fb5d 5268 fd71 d8bf 9891 6b8b 51dc d83f
000002f0: 273b ef2a 7c4b b0bf 0e23 b13b 0335 e0bf
00000300: a8a0 6763 08ab c7bf ce53 eabd 366e b5bf
00000310: f127 2ff1 17de d5bf aac5 d3f7 8405 d6bf
00000320: 7ff6 f1b1 6d91 d2bf f7e9 2aa5 57a2 dbbf
00000330: 5da2 6290 6391 ccbf cc21 893e 29f5 c83f
00000340: c212 55a9 19bd d5bf 5f6e 01d0 53a1 d7bf
00000350: 5a7f 5bb8 f58b b6bf 2626 a952 383c 813f
00000360: e4d0 2c17 acda ba3f 1720 6995 d938 933f
00000370: f885 97c4 597b d5bf c1e0 d43c 58e6 c33f
00000380: 597a 397f 6ebf d8bf 80e0 beb8 1148 b9bf
00000390: a2ca 98e6 87f7 c9bf 2c60 a8aa 062d d73f
000003a0: b028 3da7 299e 903f 536f 3d7e f499 e3bf
000003b0: 35f9 525b fe88 6f3f 6c60 ee74 c3fb ddbf
000003c0: c73b 8481 a3eb af3f 7455 4e57 1c9f cf3f
000003d0: 3e09 a96a d83c acbf 7974 2da8 4149 9abf
000003e0: ca59 899d 0bf4 d6bf 5dbf d927 dc09 b13f
000003f0: e82c 64e8 7a71 df3f 0fe9 9ae1 6c8a b53f
00000400: 8d17 0863 1ede d7bf fb78 0517 10b2 ad3f
00000410: 0553 e68e 1c79 a3bf 231d fe42 5df9 d83f
00000420: 5737 d450 a98f d03f b6df 15e4 a580 d5bf
00000430: dd77 6c14 b84b 99bf acf1 b1b5 c0c1 e1bf
00000440: 8668 adca 2a86 b73f b769 8c32 7267 d13f
00000450: c87f 35f0 d533 9c3f 1ef3 c841 a367 c23f
00000460: 6e26 c5da 8c2a ad3f 3c98 8f81 a22e db3f
00000470: 5bb4 1235 2d83 ce3f 8eb1 5b41 294e d4bf
00000480: 6689 1458 6f65 afbf 2a2b aba2 1625 cabf
00000490: cca9 d800 acf7 af3f 586d 7115 6b7c 97bf
000004a0: 6e83 7d7d dc36 b43f 4ac1 ed97 94bb bbbf
000004b0: fa9c 1496 b962 bebf 0a67 d32e 42c0 c43f
000004c0: 45ea 794e a4a7 c6bf e7a6 139f fa1f d03f
000004d0: d226 197c 0fc9 9abf f3d6 7df1 fa11 603f
000004e0: d190 58cd 3a41 c0bf 0f17 e48b b223 d3bf
000004f0: 0c35 cd2f 2c9f c5bf dd71 1bdb 0256 d4bf
00000500: 8064 1fdf 42cc debf bbf3 35c8 e86f debf
00000510: ad66 ba9d fc80 cdbf 05bf e4c0 bba4 acbf
00000520: 319d 7b3b 38ef e03f 4aa7 65aa b44f c0bf
00000530: 29f0 6f6b 83e6 d53f 9cf0 4c6f ccca 94bf
00000540: d4c9 3da0 903e dd3f 4177 72fe 8d20 b03f
00000550: c131 9626 6015 c6bf 5ac6 aba4 9dc4 c13f
00000560: e201 5dc4 e9aa c73f 45ff 0676 028c e03f
00000570: 132f 4fd9 bea8 c53f 861b 6624 7deb b8bf
00000580: 1209 5ae8 d053 e0bf 034c c948 4899 d7bf
00000590: 3325 cd1d 5d0c dfbf 40e5 a2b2 aadb dc3f
000005a0: 2d53 e074 b9a8 c83f 6cd3 722f 438e bb3f
000005b0: d0f2 bbe3 b842 a2bf 4449 08bc 7536 d6bf
000005c0: 09f4 00f4 245d 9f3f 7fe2 cf36 44ab d03f
000005d0: 2c8f fa92 aa6f 9cbf 45f0 ae81 1e2e e0bf
000005e0: 4e8c bf28 53ed c6bf 36f8 2c6e bcc0 c73f
000005f0: 7bfe b876 b0ee d83f 3fd9 dc30 343e a13f
00000600: 6424 6ba2 63ed d1bf 81e5 3da8 2083 a13f
00000610: 90b4 1cb0 e9cf e2bf 6bce ce2c f616 cebf
00000620: c0da 0326 9ce9 cb3f cb40 22e6 dc30 e4bf
00000630: efb5 63a3 bbe3 db3f bfff ba1e e173 dfbf
00000640: dfd1 8742 e0fb 433f 064e fa09 1cbb db3f
00000650: d482 b7f0 6645 bbbf 3b31 112e 3082 8dbf
00000660: 244b 3280 0a5c d5bf 5459 f87a c3c2 c4bf
00000670: 360f 839f 8165 c6bf ff23 462e d76e 973f
00000680: 6d41 72d5 0bec d7bf 9a33 69ce cf65 ddbf
00000690: da7d b1f5 ffb2 e1bf d301 d9c7 39e7 87bf
000006a0: 599a ff51 604c cebf 55a9 8855 14aa c5bf
000006b0: 114f b539 da53 cebf 2056 c355 f231 ddbf
000006c0: bec9 f12b 4709 833f 7259 c4e2 f93a ccbf
000006d0: 2c59 fa9e f3a2 c93f bad0 f538 3854 c2bf
000006e0: f77c 1ee8 663b d0bf f85f cb5b 91c7 c83f
000006f0: e575 2fb4 83b4 c1bf 7359 2b9d 057b c6bf
00000700: a0ab edf2 4a31 e6bf 0c83 9160 a30c e8bf
00000710: 3aac 312e ab81 e6bf e223 a54e 1920 cdbf
00000720: cd0f ad50 1a3e bb3f 398c 4e5d 621d d5bf
00000730: 973f c311 6c0b d43f 8af4 7ded d048 e7bf
00000740: b8d9 0df5 baf9 c73f cb60 7280 73dd d33f
00000750: cd80 ad16 bb29 e2bf 0743 9802 2741 e3bf
00000760: 03bc aaa0 c89d debf 2961 4e75 3711 b43f
00000770: f3f1 4db5 42b4 cc3f 07aa b149 8eb5 e5bf
00000780: a7ef eea5 a5c2 e2bf bdff 9973 f86a ddbf
00000790: 4765 ec50 d6c5 e0bf af1c 03d4 d1ba ca3f
000007a0: a732 085d 43f4 db3f 993f e089 5801 d9bf
000007b0: 24b2 e491 b844 b4bf 7cb7 8a65 a7ee e9bf
000007c0: 23fc c775 6d6f ac3f 4846 cd90 4d35 d83f
000007d0: 5915 53ad a734 e9bf f94c 46a9 aa8a e8bf
000007e0: e6e5 297a d544 efbf 520c f9d6 84a5 c7bf
000007f0: 9478 d1fb 83b3 963f 0495 2972 09e8 d3bf
2.450679185093343e-18 -8.903455424478803e-19 9.878422989397624e-20 -0.07342952940631005 -0.01372905847809032 2.173273156832707e-19 -0.08986676279034479 1.773852718863873e-18
-0.07481094261077564 -0.06477370326496791 8.628848077456504e-05 -7.411557747321304e-05 2.634567009954915e-20 -0.04371588908179328 -0.07890715463173284 3.773253643006077e-12
-0.37948291795523137 -0.5492499729906406 -0.5943047780784245 0.023331988420738123 0.19846308888472736 -0.8413907537967109 -0.10665725296782666 -0.8175985856345105
-0.11023779616296206 0.053426631529126446 -0.4966619520063351 -0.4048312523491665 -0.7975488853431911 -0.027139398953815657 0.2714867466695538 -0.5963562381150853
0.11103808462795409 -0.46771618645293794 -0.4262134843787552 0.021221760658411578 -0.06258922116369699 -0.46133383461324273 0.20835719672305872 -0.36630225827958196
0.20911176136288134 0.5066863948459657 0.10142863330445896 0.012376621819835247 0.05846370384766121 0.46835772108747975 0.33896170604562087 0.14858791287691467
-0.30053423346593605 -0.6272268390394609 -0.6193671755697444 0.15910443376290004 0.28725225575924496 -0.43002846886911944 -0.1388828488546951 -0.7408808008607871
-0.0776761722897312 0.25713103425552236 -0.3658186996614033 -0.3483152137493254 -0.15434543670506476 0.08502108786630912 0.05319973329388093 -0.543747375609772
-8.35291135692409e-10 -1.0296386949041473e-05 -4.884102059950137e-13 -0.0840434888554448 -0.06517271578535062 -1.0674189858704376e-20 -0.061837895187217995 -7.038434239019589e-20
-0.06606364903060709 -0.06850952607508858 -0.0005270316002842997 -0.0020782031701610214 1.690675477340307e-07 -0.04116636499334394 -0.07783846258439656 0.00018319837528231104
-0.8875718940326162 -0.33061265944802815 -0.6648426830746662 0.0816439766268918 0.3635993038818006 -0.4363396319863289 -0.1501966447380914 -0.7512889834444483
0.3355898078445053 0.10362759015511386 -0.930272375373385 -1.0386187030075713 -0.38195738971396026 0.38844717612507784 -0.06365181015210607 -0.5064712682588792
-0.1849070058226563 -0.08371297966580402 -0.3416805129351124 -0.34408687784078984 -0.2901262510057236 -0.4317835915532266 -0.22318691778243052 0.19498172334193808
-0.3396667626987374 -0.3692216426186174 -0.08807311774171236 0.008415641806226292 0.10489917341039107 0.01877155279569828 -0.3356537265627533 0.15546706171313043
-0.3866840593745216 -0.09875593910590119 -0.20286654243098662 0.3621231714801094 0.016228342850163002 -0.6125433412193878 0.0038495033173539203 -0.46849142474230265
0.062344655571102296 0.24704317343700277 -0.055151713390403576 -0.025670076265090522 -0.3586453474466934 0.0665567014018484 0.49130127615417374 0.08414345272004574
-0.37293204947524644 0.057999136743761746 -0.03803338283902317 0.39021998922585704 0.25876839536146207 -0.33597705148667545 -0.024702907797397578 -0.5549014614803602
0.09189097831895951 0.27193884788871564 0.02754148748988408 0.14378777229458078 0.05696525736364043 0.42472136166032093 0.23837819186647632 -0.3172705782187898
-0.06132076215932862 -0.20425684874347755 0.06243646154719648 -0.022935555633336463 0.07896211684920981 -0.1083310004157784 -0.11869392313075258 0.16211726461806847
-0.17699102241370404 0.2519518426403082 -0.026157609891277307 0.0019616986500591237 -0.1269906523385829 -0.2990537992594548 -0.1689200623899655 -0.31774970433414557
-0.4812171153003604 -0.475580401914893 -0.2304988641888505 -0.055944316193175005 0.5292016183638336 -0.12743242569131957 0.3421944188301063 -0.02030486516308426
0.4569436611992874 0.06299674474800289 -0.17252733120075273 0.13881273785186715 0.18490335548450704 0.517091017267355 0.16921220408254864 -0.09734327448505384
-0.5102314508551749 -0.3687306128314846 -0.4851296225575254 0.45090739674522595 0.19264906126832085 0.10763950260554872 -0.03566530017812897 -0.3470739685300439
0.030628754990392113 0.26045327522982825 -0.027769723149176403 -0.5056297810438158 -0.1791175793615331 0.18556933765097633 0.38956843942649017 0.03367770287006743
-0.280114086734619 0.03420354894383149 -0.5878799857797663 -0.23507573306925464 0.21806671005443512 -0.6309647078324131 0.435774716911367 -0.4914477157690235
0.0006098599451989614 0.4332952592314715 -0.10652774216533639 -0.014408470540865017 -0.3337427379530473 -0.16219371323013354 -0.17497272766751742 0.022883760642375958
-0.37378211826673785 -0.45933909566229547 -0.5531005667398248 -0.011671496783606827 -0.23670581821280015 -0.16925291229683617 -0.23693397348198933 -0.4561734998254412
0.009295040157870523 -0.22054980824095655 0.2002853895434752 -0.14319517880688243 -0.2536256090915709 0.19359032613897376 -0.13832136438479306 -0.17562933134349698
-0.693517183751613 -0.7515427480794599 -0.7033286955096465 -0.2275420793542074 0.10641636342648937 -0.3299184714507564 0.31319715246808627 -0.7276386869922515
0.18730866399319068 0.3103913072932413 -0.5675940936016787 -0.6017031717948108 -0.47838035287981046 0.07838770498199622 0.2242511163020847 -0.6784125747047377
-0.5862606278310424 -0.4596539620324583 -0.5241500454459719 0.2088262829986198 0.4367836388126229 -0.3907071443982147 -0.07917359887932968 -0.8103825553168771
0.05553762495764427 0.378253356369076 -0.787677610897542 -0.7669270807404295 -0.9771525751122538 -0.1847387361213771 0.02216917252041435 -0.3110374083392602

lin1.weight f8 [16, 32]
00000000: 7c55 8812 a1e1 58bc 3735 679a 980d b5bf
00000010: 75bf 19b9 f14d c7bf 9dc6 2048 f99b c0bf
00000020: 2ab3 654d a51f f8bb 9a3c cc79 443b d1bf
00000030: 0f08 21a6 5a04 c3bf b2c3 61c3 8d4a a13f
00000040: 5f07 6ec2 9daa a23f 3ec1 2faf 0a5d 71bf
00000050: 428f 2be7 c076 a83f b487 d1b3 b4b7 afbf
00000060: 095d a947 4673 afbf 4d40 9578 a37c aabf
00000070: 36e4 e6cb 8e5d c4bf 10b5 1819 935b a23f
00000080: 4f46 8053 2072 a2bf e29d 58a9 41d6 bfbf
00000090: ba3d 81c8 bda9 cabf 1e8a 89dd 9e3b b5bf
000000a0: d190 2254 c4c4 b4bf 26fa f915 7369 bd3b
000000b0: 5eae 98ee 710a a1bf 2058 50df cf50 963f
000000c0: bdc9 185a 21af babf f51e a1f0 1905 cbbf
000000d0: b916 97e1 87d3 c1bf bc15 6a78 26c1 cebf
000000e0: 404b 2e2f a733 f63b d090 436a 8491 c6bb
000000f0: ec93 083e 79c6 a0bf 883a f59f d741 c1bf
00000100: 667f 0f62 542d 2fbd d228 729b 9941 be3f
00000110: aa7d b374 634b c23f 59cb d5f4 da38 cc3f
00000120: 9666 59cc 1cee 86bf 6029 dcb8 9119 d13f
00000130: d6c5 6591 0c6f b1bf 6dd0 a193 a980 d33f
00000140: d7a0 66e7 f821 d23f 9fb3 5f09 d13c bbbf
00000150: fdd6 46b3 e356 d03f 642f 1989 72ab 903f
00000160: 3b10 6601 f3b4 a93f 4b3c ace4 d390 b3bf
00000170: 83a5 38d4 b6e8 cd3f 4c6b 3224 e2f0 803f
00000180: df1f ff0a 9293 b83f d180 4ffc 764b be3f
00000190: 7485 7598 a7fe b83f 174c 5f89 b37b b93f
000001a0: 0dff 80d1 a569 cd3f 0dc2 8da2 338e b13f
000001b0: 5140 a150 cd8c c0bf 9036 a58d 6233 b8bf
000001c0: 1334 7b37 bd41 31bf 562c a2c3 e937 ca3f
000001d0: 6cda 9412 81dd a73b 15a3 21c5 597c a1bf
000001e0: 35ab 2719 82fc c5bf 3280 23d0 fdf4 ad3f
000001f0: d919 65e2 6da5 d43f 4e6e 9c24 fb2a 9d3f
00000200: f35d e915 1651 f93b aa1b 1ba6 64e4 aabf
00000210: d916 91fc 0c1f c9bf 9a59 88e3 c067 c1bf
00000220: fc7e 172e 3bff 89bb c6f6 1de3 e662 b03f
00000230: 56f2 ada4 547e c8bf 9f46 62c4 a7f5 cebf
00000240: 05a5 781f 6353 c6bf d311 edd1 f74f cbbf
00000250: fd57 cf70 9a90 c6bf c6af fe0b 1a12 b93f
00000260: 2899 543c f8d4 d3bf d1f3 4117 81ed c43f
00000270: 206a 38d0 f396 a23f fdb7 51b0 b2f2 b23f
00000280: 008f c85b 39ed c5bf 0e3e 4554 2be6 d8bf
00000290: 0850 2d47 c881 b03f 36fc 6713 e1f7 973f
000002a0: d744 7a97 5cf5 a63f 5875 0b58 09ae b33b
000002b0: 6c8a 2050 eba1 c0bf 9da6 651e 1675 c9bf
000002c0: 06cf 0112 4e0e 973f 45ab 3d4f b31b e0bf
000002d0: 91d0 82fa ba77 cbbf d57d 4677 d3e3 bdbf
000002e0: 34ed c6e9 0fa4 c93f 9012 69c6 968a e73b
000002f0: 2756 9122 9800 cebf d512 0a97 d3ab bfbf
00000300: bf6c 27fa f3bc 25bc 04fc 4617 224e 82bf
00000310: bf51 8721 525f 97bf 8bd7 83a6 3f2d 47bf
00000320: 7cf5 ecf9 d11c 48bf 71b0 9f97 ce15 92bf
00000330: 529c d9ac 630e b6bf ec7a 1870 c688 a23f
00000340: 56a7 d1e4 0ff6 b5bf b98c 764d 7ddf a0bf
00000350: 8767 1e17 76cf 78bf 0eea e42d 1f9c 8bbf
00000360: eca5 cd18 6e28 863f 881f 9e1c d275 74bf
00000370: f0a9 0372 870c b0bf 1303 635a 104a b43f
00000380: c07a 0a77 bd17 6d3f 585c 75ca bc98 79bf
00000390: aea1 88de ee7f 6c3f d477 7747 2aff cc3b
000003a0: 7e89 b812 6371 f23b 1c94 f2a2 d99c b23f
000003b0: eac6 45ea e7c0 cdbf 7456 5ea9 ce28 c5bf
000003c0: 4057 27fe 5ea3 82bf 8aa5 fec7 4e89 7ebf
000003d0: 1cf6 2d40 547c e2bb f1e0 b26c df70 b3bf
000003e0: 492f 3e31 db7f d6bf e23c 7b6f 37df b23f
000003f0: 7bd8 d50c bb40 a3bf 5132 33c2 7a44 f53b
00000400: c3f0 66dc 8aeb 4abc a21b 8fa5 3b07 993f
00000410: eef5 c707 95ca b1bf e139 7b32 d7be 973f
00000420: 10dd 04f8 34d7 9bbb daba 3252 a507 80bf
00000430: bb16 baf9 92d4 93bf a376 65c0 5b86 c6bf
00000440: 58c3 25ff a00c c3bf 560e 85a4 4f11 bebf
00000450: 9f39 f808 c18f c1bf de62 8709 dd38 853f
00000460: 7166 246d 9a35 a13f c649 b760 f028 87bf
00000470: bd29 4966 2111 a23f 6b5b 7059 ebb0 a33f
00000480: 8b23 0bc7 b00d 563f 23d1 9b57 24c4 c2bf
00000490: 8e2d 4e14 f5e4 b7bf 807b ac3e 8584 bdbf
000004a0: 840a 4501 b8bb c9bf e61b 75f9 de17 e5bb
000004b0: 07c7 40f0 37b0 c9bf f55b 81e5 bbc6 9cbf
000004c0: 48b4 6c8c d205 c3bf 2011 3229 8476 b13f
000004d0: e9a7 23e2 b3be a6bf e29d 132a e4e0 c4bf
000004e0: 0fb0 8f89 4b10 f43b c351 1474 3375 ea3b
000004f0: 17c6 966e c653 cbbf a820 3f4d 172a c1bf
00000500: 1ac7 c8dd e807 f03b 9083 ad5e 5ddb b6bf
00000510: 483d 6b4a b904 c7bf 11c1 ed85 3913 c5bf
00000520: ba48 9935 8e28 dfbb b8ed f151 4c3a c0bf
00000530: 9076 54c7 57c8 b33f 684e 5416 4e5a acbf
00000540: 6b9d f04b d87b b2bf 962e 5d8f 514d a7bf
00000550: e2fe 4875 2a7c c5bf 9804 4792 4b51 b23f
00000560: 4546 5336 e474 b0bf 46f8 e6c7 1180 9ebf
00000570: 7e63 a445 fbb2 ae3f 05bb 31ee 4e68 8c3f
00000580: b0ce 785a bf43 ac3f 5233 4633 b7bf c0bf
00000590: 1172 2d63 2d96 b33f 7a56 b81a 46c2 e8bb
000005a0: 0cfd bb0c 4ff9 b13f 2cf2 3a3c 789b f63b
000005b0: dc00 a8f0 b2e1 c6bf 227c 3a53 a98c bcbf
000005c0: a9f4 7e22 e5b2 a73f 6f20 2cfb b090 a23f
000005d0: 9cb8 f19e 70d7 c8bb fb0e 7953 8f8c b0bf
000005e0: c675 8ef4 6312 c93b ba98 c307 5a3b be3b
000005f0: 421b 48ad 92e9 acbf da50 bab5 fe3d c3bf
00000600: a764 4243 edd7 d23e 6a23 a46a 2972 a4bf
00000610: 6d9c 43f5 a005 d43f 7059 bf0a 08a3 9e3f
00000620: 8f59 48f5 7d84 92bf bbff 627f 3b87 ae3f
00000630: a541 4885 8265 b5bf 4b96 f4a9 2503 d83f
00000640: eeb7 bc54 f46a d83f a39a bf5c 829e a13f
00000650: 5407 2c16 7e6a d53f 2473 5908 42a6 d33f
00000660: a47b 8460 26b2 d03f 6312 1641 aeaf c73f
00000670: 9053 f0b0 a24f ce3f 1a5c aa9f ad15 d23f
00000680: e79a bc6c d6d0 c43f 9dce d00b ab3e c13f
00000690: 43ac 0f63 04b6 c83f 9e96 780e 7daa 9abf
000006a0: 2679 ca53 6409 aebf 0f9f 2626 8adc a83f
000006b0: 1db6 c1d4 c1ee bbbf 037a 712b ac3d 913f
000006c0: 2269 55e9 3cf2 b03f 4d73 f2b4 f62f cb3f
000006d0: 989f e047 5cf7 b7bf 8b1c e7d7 cbe8 cd3f
000006e0: 5a29 f989 11c4 c0bf 7178 ea65 afcc af3f
000006f0: 293d 14ba e4be da3f cfb0 4c34 e62a b4bf
00000700: adf5 1255 2f38 2cbd 7d43 b8b3 f005 b63f
00000710: 871f 2b5e a5f5 d03f b578 d095 3db8 d03f
00000720: 9119 475e f3e4 99bf 7305 fb21 1707 ca3f
00000730: 449e 4a2c a9aa bc3f 493a 5aa4 23ac b13f
00000740: 0e65 cee5 575f d43f f0f9 0198 8fb4 a73f
00000750: 8ba8 6156 680a d13f aba1 ee32 9417 c13f
00000760: ab3c 7c00 2914 a83f d8d4 1c0f 2ea2 503f
00000770: 563e f256 da4b d23f a0d2 ee27 ee2b d13f
00000780: d76a c5f6 385e bdbf 5687 3fe9 4739 cc3f
00000790: f51a 8ca6 8566 be3f dc27 cb59 f1ca bc3f
000007a0: 38af d7e0 91c2 9f3f c0f0 8e1b 1639 b33f
000007b0: 6409 88e5 c461 be3f c6e0 4388 98a3 bf3f
000007c0: 1bf2 c025 595a d53f 66f7 7f70 9350 97bf
000007d0: 2409 26f2 0cf8 c03f 53ea b349 66f8 ce3f
000007e0: 2913 18b2 52c3 cbbf ba6a 9be0 7353 a43f
000007f0: af22 70be 48af a03f 66a5 c1a8 5687 b7bf
-5.3952857849047744e-18 -0.0822387101136045 -0.18206616914858 -0.12975994130970472 -8.17339904505593e-20 -0.2692424001151693 -0.14857037650841717 0.03377192506821504
0.036457948669535105 -0.00423912213862848 0.04778101751233389 -0.061948439550874396 -0.061426349876166304 -0.05173216673813439 -0.15910515743397163 0.035854908765353355
-0.03602696437168317 -0.12436304459026062 -0.20830509462619579 -0.08294098766922572 -0.08112742475583735 6.2282146943346295e-21 -0.03328281438402024 0.021792648320193675
-0.10423477601651761 -0.21109318017464998 -0.13926790728708285 -0.24026947860344972 7.522252196395912e-20 -9.558100509923057e-21 -0.032764233419847105 -0.1348218470615914
-5.538159945420909e-14 0.11818847699229032 0.14292567442224186 0.2204850860103658 -0.011196351038211188 0.26718562176451677 -0.06810072469467995 0.30472793023296313
0.28332350347274143 -0.10639673689702399 0.2553033114194106 0.016279019944973952 0.05020865814279359 -0.07642864544708165 0.2336643730389306 0.008271948556559792
0.09600174683066552 0.11833900127340093 0.09763572189469533 0.0995437822705728 0.22978661279375281 0.06857607573125098 -0.12929693638807518 -0.09453407247675671
-0.000263317771424466 0.20483133366028267 2.5268317090489805e-21 -0.03415184527768226 -0.17176843860883087 0.058509761483719905 0.3225969992530771 0.028484272107659962
8.577646259765134e-20 -0.05252375152263451 -0.19626009304390982 -0.13597880468360019 -6.881347746977836e-22 0.06400912327623151 -0.19135530510893045 -0.24187180604035505
-0.1744197753589917 -0.21337793112083023 -0.176287942011811 0.09793246071666237 -0.30987363711973837 0.1634980548441534 0.03630792538406902 0.07401577763241103
-0.1713020036851205 -0.3890484164194 0.06448032129020487 0.023406521615467045 0.044840711108130975 4.1673661178916595e-21 -0.12994138157326363 -0.19888569339973552
0.022515506600441014 -0.5033813998864863 -0.21459138137800385 -0.11675759946819338 0.20031927981276854 3.988062041341228e-20 -0.2343931359088611 -0.12371561467632415
-5.8921232140538e-19 -0.008938089690557767 -0.022824557587073132 -0.00070729835445492 -0.0007358575129285251 -0.01766131210744998 -0.08615706415149418 0.0361997615657311
-0.08578585945511227 -0.032955089288657154 -0.006057225504173653 -0.013481372440414165 0.010819301731049578 -0.004995175122424096 -0.06269117864182028 0.07925512510975023
0.0035513592232086777 -0.006249177421827921 0.0034789719977832067 1.2280596596673182e-20 6.248703671049081e-20 0.07270584324085444 -0.2324495214375511 -0.1653078391070043
-0.009100668078570018 -0.007455165614297052 -3.1315927098392465e-20 -0.07594105151918364 -0.35155372437360605 0.07371851417268574 -0.03760323077851609 7.205708654636459e-20
-2.9186817459290172e-18 0.02444165418617284 -0.0694974082943742 0.023188936668526842 -1.4738718442918038e-21 -0.007827083178509598 -0.01936559342586606 -0.17597529310562718
-0.148822903236147 -0.11745164648623904 -0.1371995252415674 0.010362364629075523 0.03361208517362691 -0.011308553649460939 0.03528694509130357 0.038459162395318845
0.0013460375159175277 -0.1466107776428852 -0.09333736177193527 -0.11530335216637688 -0.20104122220989862 -3.5733348771656076e-20 -0.20069026213746374 -0.028101859934704227
-0.14861518723174272 0.06821466451407732 -0.044423695902722056 -0.16311313681147427 6.797829920655824e-20 4.482128435069581e-20 -0.21349411392070358 -0.13409701606565716
5.431479176074346e-20 -0.0892847400805421 -0.17983165868506945 -0.16464919127930291 -2.6392208275922044e-20 -0.12677911759588567 0.07727573982671232 -0.055376472688433875
-0.07220222333909525 -0.04551176905678493 -0.16785174109281004 0.07155296632028507 -0.06428362203885125 -0.029785421205581274 0.05995927071689432 0.013870827335464417
0.0552043722094856 -0.13085069659828236 0.07651027365995612 -4.194317793451621e-20 0.07021040020844199 7.659652329550777e-20 -0.17876278639597032 -0.11152132303185217
0.046286735974242994 0.03626015726155251 -1.052081082580167e-20 -0.06464477336799838 1.0618336288709278e-20 6.4018416642280596e-21 -0.05646952023749076 -0.15032943604877042
4.492631934160561e-06 -0.03993348528644598 0.31284355117390455 0.029918790489170843 -0.018083541961539103 0.059625491428505005 -0.08358016733132574 0.3751920852394945
0.38152797961345086 0.03441245443518894 0.33462478795273864 0.30702257933971766 0.26087340760744326 0.18504884889638892 0.23680528297032 0.2825731333954892
0.16262321767245355 0.13472498013435522 0.19305472218488448 -0.02604098702263135 -0.0586654045375659 0.048557583958709676 -0.10911189502959258 0.01683682456165948
0.06619625755903205 0.2124012359171509 -0.09361817126102634 0.23366687814834494 -0.1309835361192409 0.06210849875536518 0.41790121242316275 -0.07877959038586656
-5.012785250694509e-14 0.0860281409043306 0.2649930400480049 0.26124515180880375 -0.02528743994641897 0.2033413806839622 0.11197907763800524 0.06903288614760429
0.31831929628386113 0.046299445443754084 0.26626022754374706 0.13353207098886108 0.047028809842339335 0.0010152292056322867 0.2858796929440123 0.2683062925309887
-0.11471897148787079 0.220498074427321 0.118751862679442 0.11247166101671219 0.031015662525461368 0.0750898186951785 0.11867933849138051 0.1235900242498956
0.33363941847690776 -0.02276831030029971 0.13256990264569268 0.24195555304307223 -0.2168982858276192 0.03969919316087585 0.032587311980085125 -0.09190885181455641

lin1.bias f8 [16]
00000000: 5376 dcdd 7638 a0bf 69f6 f737 5064 dd3f
00000010: df09 fb25 505c 88bf 3f79 13b6 c88f be3f
00000020: c0be 7aa1 a479 a3bf 4871 64d8 284b b0bf
00000030: 0e1c 7db4 4952 e23f 0d20 9bf7 8e92 d63f
00000040: c537 47b8 9fbe a9bf 2cfd c285 3982 9f3f
00000050: cce1 73ee a2ac bcbf f3ab c280 d097 e03f
00000060: d2d3 47cb d053 acbf 4ba8 7259 a7f7 9e3f
00000070: 045a 56d7 2c5b dc3f 97ee 763b 5c2c a4bf
-0.031680788595832475 0.4592476412361522 -0.01189482322604801 0.11938147015778088 -0.03803743811783766 -0.06364684374824947 0.5725449109239678 0.35269521885175054
-0.05028246998300249 0.030770205296673556 -0.11200922319029089 0.5185320391514082 -0.05532696229412405 0.030241598925080642 0.4430648901847294 -0.039400942095622664

lin2.weight f8 [1, 16]
00000000: 9934 0c6b 141c 9dbf f530 864e 38ec c83f
00000010: cc00 94b2 1dea aebf ec2e 5731 fbf9 973f
00000020: 72ce 56b4 7e2b 9cbf 198e e594 9d0c 9dbf
00000030: 5eab e132 ca06 d83f 0e56 edd1 d326 ce3f
00000040: 0165 9472 1727 42be 1ce3 1a8b 2aad c9bf
00000050: 88f4 c05b c0a5 8e3f d322 cdd6 5f38 c83f
00000060: a144 4328 ce20 9ebf a99c 5cd2 3187 d0bf
00000070: fff6 e87e e0ac d53f 7ca5 01f4 5bce 873f
-0.028427428277656295 0.1947088607233877 -0.06037991337689305 0.02341454018259885 -0.02750967002584876 -0.02836843701642353 0.37541441887758775 0.2355599188837662
-8.453010363331409e-09 -0.2005971125816125 0.01496458320627371 0.18922040928216308 -0.02942201729530736 -0.25825162451878697 0.33867657083088426 0.011624067672715503

lin2.bias f8 [1]
00000000: e8ee b8ac 0a57 db3f
0.427187603639807
