Q1/models/bestval.pth (torch, 14767 bytes, 16 tensors)

batch_norm0.weight f8 [1]
00000000: bdbd a36e a35c d13f
0.27127919964456365

batch_norm0.bias f8 [1]
00000000: d511 0340 44d3 bdbf
-0.11650492251198526

batch_norm0.running_mean f8 [1]
00000000: afd3 82b8 b5e5 1c40
7.224326022133865

batch_norm0.running_var f8 [1]
00000000: a1e1 9f88 e131 5540
84.77939048398413

conv1.bias f8 [16]
00000000: 951c 20f9 7a05 4e3f 1035 5b7a 4b17 183f
00000010: 48ea 056f 548e c93e af49 8198 6b41 46be
00000020: f2d9 d195 c327 8fbe 9057 44a6 482c 30bf
00000030: 18dd aacb 032e 853e 0abd d2b2 d7eb a5bd
00000040: a5ba 9933 2f23 01bf acba fc20 3180 c13d
00000050: 27c5 8afe acbc ce3d 51cd 8d44 6c4c 073e
00000060: 1e16 5a7b 8e67 0fbf 00d7 ee03 66ad dcbe
00000070: 2296 9f1d b65e 093e ebd7 bb5c 25de ecbe
0.0009161806540313339 9.189985447762374e-05 3.0465097255437435e-06 -1.0363547145592915e-08 -2.3212528335913333e-07 -0.00024678014439538046 1.5780140024343409e-07 -9.968634935076613e-12
-3.268707082503445e-05 3.183367816173958e-11 5.5910304006117186e-11 6.78076380728466e-10 -5.9899364186082946e-05 -6.83721014998139e-06 7.383631997887479e-10 -1.3765219498900575e-05

conv1.lin.weight f8 [16, 1]
00000000: c937 199b ec70 b6b6 35d7 5d64 5972 d03b
00000010: 9d53 c677 0731 b23f 2d25 cfcf 684d 4ab4
00000020: 7412 6c4f 736f ed34 6db6 4d79 be4b b63a
00000030: 9e87 a415 22e3 26ba ca18 5b1f c8d1 3736
00000040: 1a5f 2aec 0892 153c ec7d 46e3 6973 c5b2
00000050: 8352 f15e f1c2 b038 70c0 ccea 80d4 2338
00000060: cd8a 432f f29b 023a 80c8 3c94 0a49 6037
00000070: 2ebc 8cd4 b06d bcbf 1a9a e392 6187 0ab8
-3.930836678436566e-45 1.3930876880648917e-20 0.07106062578379953 -8.380421939691073e-57 9.603732102228529e-54 7.204185806300732e-26 -1.4443878358729187e-28 1.629793581365218e-47
2.9233409105534816e-19 -4.073757038167866e-64 1.2609947714267147e-35 2.913770157941609e-38 2.9360084223124107e-29 5.842071205621692e-42 -0.11104874791338723 -9.745154020122076e-39

batch_norm1.weight f8 [16]
00000000: 6877 8b48 5c03 2339 28f0 98f4 04dd a03b
00000010: 3a87 54e5 022b dc3f 7fca 0a48 3af2 2e36
00000020: 2b18 f002 8137 e2b6 6b43 d654 73cb 82bb
00000030: f6bd 191b 936d c6ba 993c 3323 3119 ba39
00000040: 609b ddc6 058f c73b 9b10 f2cd fdff eeb6
00000050: d39f 930c db5f 7d3e 9eff e893 8360 643e
00000060: 7858 e408 1444 07bb 5ca4 3fca c12b 4d39
00000070: 0fef b68c 3110 f83f 19ee 741e 8de2 153a
1.8308975199816863e-33 1.7854773581709483e-21 0.4401252021362897 1.058712525985556e-47 -2.5527191113354557e-44 -4.974923228533084e-22 -1.4493772037784997e-25 1.2867507627918783e-30
9.977489880432124e-21 -4.344020544909256e-44 1.0942830210339982e-07 3.795513458084159e-08 -2.4056408516033646e-24 1.123623188196394e-32 1.5039535042441832 6.905677574146019e-29

batch_norm1.bias f8 [16]
00000000: 1ccd 075c 6b6b 07bc aad8 6817 ffa3 1c3f
00000010: 54f1 b3bd 3d08 b73f 28a1 e6ff a7fc 3c3a
00000020: 2e33 2b8c 4989 8bba 380c b676 beba 713e
00000030: b0be 2504 be8c bf3e 9874 e8d7 0a89 11bc
00000040: 4f5d 8adb 5824 8e3f 9c04 acb9 2762 bfba
00000050: d9b3 6c97 4c47 e3be edb4 521c 1f01 d5be
00000060: 2acf 3b36 afb9 59be 46e4 96df 02f7 13bd
00000070: 6bd4 1577 68e2 e13f 6c56 7652 a553 2cbd
-1.5869742942367794e-19 0.0001092552609883469 0.08996950036447987 3.658666003447528e-28 -1.1121814313480737e-26 6.604741791507694e-08 1.880513096876658e-06 -2.3764792362468296e-19
0.01471776409134287 -1.0140529480830215e-25 -9.19271108797998e-06 -5.007834663545526e-06 -2.3958580354845317e-08 -1.7732382313214607e-14 0.5588877035030583 -5.0318400762223803e-14

batch_norm1.running_mean f8 [16]
00000000: 1776 6598 3f9a 06bf 6e65 2c5d ec53 d0be
00000010: d58e 6b6e 42b7 80bf fb7f e984 1b76 ff3d
00000020: 1085 dcdf 580c 463e 8285 aebf af77 ed3e
00000030: b983 f2d9 553d 3ebe a697 a66a 8bdd 603d
00000040: 067f 33b4 7aa1 b73e 0a8d f7bf faa2 94bd
00000050: 8e4b ee48 cedb 87bd 3543 bfe1 ff6c c1bd
00000060: 2658 21a7 437e d43e 60e6 87f5 ac66 933e
00000070: 4215 c281 5b53 8d3f 09e9 53ac f0cd a73e
-4.311091020057724e-05 -3.892856926390532e-06 -0.008162039751773357 4.5782300599215866e-10 1.0267007684622447e-08 1.4051211101153873e-05 -7.0407034917136295e-09 4.79343742044871e-13
1.408504162018989e-06 -4.692228376231974e-12 -2.712410651788981e-12 -3.1697308162234166e-11 4.885964346076595e-06 2.890985704436657e-07 0.014319147965816573 7.094280013713476e-07

batch_norm1.running_var f8 [16]
00000000: 3ad4 2c9a 3fc0 d338 0124 a70d f00d 8538
00000010: 40bb d593 c4a2 4f3f 1560 309e 13ab 9436
00000020: 562e aff7 6869 1f37 4576 ac0c a406 a538
00000030: 00c5 8555 823a 0a37 5a8d fa4f 6d2f 5e35
00000040: c98c 68d3 3ad2 2238 7a7e ab4d 3d9e 4136
00000050: 3c1b 1a89 fd38 ac35 04d2 c98d 2130 1e36
00000060: de5c 626f 8ff8 8338 2540 d8a0 a97c b037
00000070: 09eb d128 d858 673f 24c8 ffe8 f8b3 2d38
5.943591484950857e-35 1.9799504148193637e-36 0.0009654483653046345 9.050753857150995e-46 3.521379851609954e-43 7.909079843146284e-36 1.4701611429697175e-43 1.2605953484964573e-51
2.765528270094148e-38 2.4109617759710465e-47 3.7716209571104697e-50 5.1638689995612e-48 1.8780580447055315e-36 1.8926105710691156e-40 0.002849981485778645 4.3644660589216127e-38

conv2.bias f8 [32]
00000000: a8ee 042a cf51 e63f dcb6 fd46 9204 da3f
00000010: eb4e b158 79b7 e73f d7de 6469 6d6a 933f
00000020: 80ae 9622 8a73 b83f 301b af98 0b8e 1cbf
00000030: ecd7 c8f3 b051 e73f bf6e 42f3 cb27 9d3f
00000040: 6007 e8f8 f2b7 c0bc 6ed6 ab39 018d e73f
00000050: 3337 6d7b b8b9 d93f d891 8b24 7f20 2dbf
00000060: 4d54 a617 0ce7 cc3b 9aea 26cb de10 c83f
00000070: 55b6 546b b08b 95bc d36b c5cc 590d 203e
00000080: 2ec6 e125 78e3 063f 4365 d42d d219 793e
00000090: 48cb 9e19 6c0f 463c 4fd3 4786 1f7a e63f
000000a0: efbd 6c48 9599 72bd 1119 428d 47d5 aabc
000000b0: f495 b02a 2018 51bc 3f97 5a0c 999c da3f
000000c0: 9e4a 31b9 bf6f 463d ea50 f19b b92d b43f
000000d0: 90b8 4202 4841 14bf c279 ecd3 07f8 b3bc
000000e0: 06a4 830b 06dd ac3f bc3d 73b5 2f1e cd3f
000000f0: 8950 ece8 0218 9e3f 5245 bf9f 8e64 9e3f
0.6974864788712312 0.4065290158531363 0.7411467296865032 0.018960675771466064 0.09551299423645254 -0.00010892816332762063 0.7287220727364434 0.028472124788648353
-4.640330123742e-16 0.7359624983207149 0.4019604878748055 -0.0002222209170873585 1.2240696849745092e-20 0.18801484031231014 -7.475152682365064e-17 1.868716381436656e-09
4.365644848370837e-05 9.350800263644879e-08 2.3917763631520677e-18 0.702407610193953 -1.0572838463317106e-12 -1.8619219391050026e-16 -3.706722608055804e-18 0.41580797392304086
1.5942105745414485e-13 0.0788227086753214 -7.726671225569332e-05 -2.771237328941558e-16 0.05637377634577238 0.22748371467467432 0.029388471094606437 0.029680469989960052

conv2.lin.weight f8 [32, 16]
00000000: bc36 c4b2 f2ad 09bc 54cf 2530 df11 eebe
00000010: 00df 29f5 dc2a d33f 8484 d4d4 e9b6 22ba
00000020: 4933 1cc5 1046 cbba 39f0 21a8 94de 65be
00000030: 1022 bc24 ef5a 793e 83fb aaf7 6a99 d035
00000040: 33ad fa42 b822 7b3f 37c5 e7e9 1400 603a
00000050: 877c 77dd 2c86 7036 ba2d 883e 42e4 90b6
00000060: 3b2f 748a c6e9 40be 635a 9ace 6924 33bd
00000070: e572 a400 d6ea e7bf b039 1a2f fd21 4abd
00000080: 82c7 5ffc e029 143c 4a70 e315 e8b3 1ebf
00000090: f6df 043d 6d55 b93f 5f76 55ea 44d7 3f3a
000000a0: a2c2 3d00 b76e dd3a 2491 fd31 8665 893e
000000b0: 7b91 a506 285e d13e 6265 b263 f889 6ab5
000000c0: 5ab5 951d ff52 803f 6842 f185 db48 9bba
000000d0: 0945 66eb e37e af36 5e75 9afe da99 9a36
000000e0: 8d82 036f dbe0 543e 88ae f973 4390 483d
000000f0: 0997 a824 58a3 dbbf 36a9 496c ccc7 61bd
00000100: 44a5 e230 f445 1e3c 8531 2896 72e1 393f
00000110: dd1a 2ef9 6664 cf3f f8a7 bbd2 5cd3 4c3a
00000120: 04fe 79b5 aa87 a5ba 3489 48a2 1839 803e
00000130: efc1 d6b7 4175 d93e d5c2 4c33 3453 c1b5
00000140: b026 2395 7c49 9b3f ac03 369e 50b1 99ba
00000150: 2afc 8ed2 9702 f0b9 cef6 06eb dcda 8139
00000160: 62c3 7c33 c7f8 6b3e 485b b214 52ce 4d3d
00000170: 0890 63aa eac8 ecbf c8d0 887e 6282 623d
00000180: b3dc 018a 8d98 a6bb 3554 5586 8d77 b33e
00000190: a135 b753 b34f 833f ff4a f8fb 034e b539
000001a0: a807 d921 f545 63ba 1315 72f5 490e 01be
000001b0: 33b9 68f0 0438 5c3e fc24 914a ddf2 86b5
000001c0: 5844 0feb 6372 353f f5c2 bd2e 65a3 103a
000001d0: debb 78d1 ff91 c235 4d6e a61f 74e8 c9b5
000001e0: 99da 49c9 866b dfbd f367 6725 c91d d0bc
000001f0: 2f80 3b27 9a35 90bf af55 ecae bc34 e6bc
00000200: 7eab a8ed b225 dbbb e0b7 83ab 052c 163f
00000210: cbeb cb93 9f6c 843f 9724 2daa 0edd f4b9
00000220: 0240 8822 4e79 9aba a21d e226 5ae7 6abe
00000230: c1a8 8977 564f ac3e e896 5286 df8c 1cb6
00000240: c45a 750c 7967 6c3f 1e62 80a5 976f 59ba
00000250: 9ef3 ed00 3764 cfb8 3bd8 b27e 8881 bb38
00000260: 6688 a420 6dfa 243e 6d2c 77c7 a379 003d
00000270: f5de 9a21 bbc9 babf 05e5 56ec d29b 11bd
00000280: 11dc e629 fca4 713a d841 b12e 4dc6 3bbd
00000290: 6547 9ea0 e4d7 99be b978 bc77 0f9f c6b9
000002a0: ea15 136b 806a f039 ec5d ea41 db37 49bd
000002b0: 405c 420f d77a 073d 40d6 2626 828d b4b5
000002c0: 12e4 a27b f444 a6bd 8800 9b7b 18c9 0c3a
000002d0: f9f5 066f b9bf 52b8 fe1c 9c1c 76ed 49b8
000002e0: 062a 5079 2e7a 8ebc 5687 2541 fa46 413c
000002f0: 4f8c 0e9a d538 b13e 4a81 594a 89b5 973b
00000300: d831 5db7 bfb8 12bc 6ef8 0381 bfe5 1ebf
00000310: 08fd 173b e184 d33f 5c77 d9f4 90cd 30ba
00000320: 13a9 c902 f98c cfba 29af dcee 1d71 76be
00000330: 17be 6784 78fe b4be 1527 0da5 eb5c dab5
00000340: 104f 01f7 9d98 5c3f bb42 bae2 f6cd 523a
00000350: e266 b767 a311 adb7 781d 7b6a 8140 95b7
00000360: 3e50 517f 061e 50be 0659 dc85 a0ba 40bd
00000370: 211f 088d 3c93 ebbf f8ff 3bfe 0b93 53bd
00000380: b83c 3625 4f06 e7bb 2afe 04e0 7fc6 dcbe
00000390: 1332 0072 8b4b 7e3f f47e f5d8 9a3e d239
000003a0: f659 b9aa c7ba a23a dce4 8961 51b7 18be
000003b0: 8684 dce0 c040 823e 382f c636 8780 eb35
000003c0: a62c 113c c2d1 31bf 1305 480c 0f72 5dba
000003d0: 91d3 bcc1 7eb9 8eb8 c923 10fa 6a79 8738
000003e0: 4ce0 8edb 107a 113e 60f0 1b4b 698e 01bd
000003f0: 6084 c7d4 46dd a1bf b1d8 0054 9df1 2d3d
00000400: b86b 2f2e 5087 7b32 ea42 481e 9145 38b5
00000410: 3305 4b57 05bb 19b7 74c0 f369 5085 66b3
00000420: 1c0e 65c9 3be9 f834 0066 58af cd08 5cb4
00000430: 7ef7 fcb3 5733 c0b4 4213 e880 2a36 2036
00000440: b4a3 b01f 5f9c 3eb4 eb24 ff51 9e56 78b1
00000450: 4ed2 4f76 beda 4cb8 f622 2092 38af 33b8
00000460: 1ce8 7f84 9e13 5133 f86d 199a be41 aab1
00000470: 19ec adc8 6808 9338 3449 20f0 1bd6 81b1
00000480: 5c65 3950 46e3 11bc 7c92 4652 8e2f 2d3f
00000490: ae7f e7d6 f8c1 ce3f 12f2 3890 bb1a 433a
000004a0: 5c3b 8e06 9970 d4ba be01 9af5 271e 91be
000004b0: e16d c4a4 2be0 ca3e 2a6f a6a1 f6e8 96b4
000004c0: a498 bbd3 945c 973f a23c 541f fd2c a53a
000004d0: 1686 3196 02e1 4138 ec28 b4ef 7e43 b636
000004e0: 6767 8c76 068d 31be 2ae4 3706 fb40 32bd
000004f0: 6bc4 836d fc90 ecbf 20d6 d451 6843 50bd
00000500: aedf ebf2 003c f8bb d09d 53ff b125 b53e
00000510: f3c7 281f 9062 b73f fabb 9568 72ae f9b9
00000520: 0915 f648 90b0 b3ba 7658 82c0 aa20 633e
00000530: 4398 f43b 5766 913e 1a2d 060a 7020 deb3
00000540: 0fc1 55b8 f33c 773f 5775 8511 c530 823a
00000550: ee74 e213 a700 30b7 36e9 0985 94b9 fc35
00000560: 6e13 074b b6ca 33be 590c 4be3 b64a 24bd
00000570: e115 fe52 572a dbbf 0a68 d404 7352 39bd
00000580: df85 7804 db67 e33a 1ce1 80fb e001 02be
00000590: f28e 87aa db69 d73e ce9c d561 5096 b8b9
000005a0: a038 45dc d505 bd39 1ec7 3fd5 70bc 653d
000005b0: fcc2 035c c683 8d3d 47a1 9e2b 7b21 80b5
000005c0: 02da 3b67 6166 3e3e def0 0187 e901 3aba
000005d0: 793e c6f6 2f26 2538 c5fd 4b5d 406a 8337
000005e0: 064c c841 1b97 29bd 13bc b4ca 91bf 503c
000005f0: 7a49 8f5a 72d4 ad3e 0ae9 338c cc53 14bc
00000600: 9fcb aeb3 0b35 e4b7 90de b363 f56f 11bb
00000610: 6213 e01c 5a3a debb 5e9d 64c3 8964 2ab6
00000620: dbfb 5f1a 5967 b3b6 eeb8 1b6f c540 41ba
00000630: 1119 0041 92b7 b3ba 4483 479e 3b66 0ab6
00000640: b9b9 da85 2223 82bb f86b 4559 381b 3db6
00000650: 66a2 ebc0 fac4 1e38 9576 7e09 6b32 26b8
00000660: 59a4 c9d4 3e98 12ba 00fb 8a53 a3bf 10b9
00000670: 2ea9 d513 c398 ca3b 1faa af55 5042 27b9
00000680: 8296 bfe6 e13a e3bb da08 9008 73ce f33e
00000690: 7e47 3bd7 b58b a43f bcb5 0188 3757 fdb9
000006a0: bea6 eedf c541 a1ba 1258 68fd d356 6b3e
000006b0: fdac faa8 f550 9c3e 6bee 9cea df92 0eb6
000006c0: dd95 fa48 f867 803f 1c83 d386 2750 6fba
000006d0: d526 36bf edac fd38 912b e86e 3c4e d0b8
000006e0: 2769 e347 8365 22be 5025 3d10 c4e1 12bd
000006f0: 69a8 ce1a 4876 c9bf ca62 789a 1433 25bd
00000700: 6e97 6a83 8371 deb1 d085 ac1a ecef ec34
00000710: 4180 224e 7f6f 4037 810b 034c ba21 ae32
00000720: b052 885e c967 3834 ca2f 0cd3 c9a3 5934
00000730: 74bc 421c ef64 9034 70d8 5ca5 2e5c 7536
00000740: 2c6b 4646 8cb7 3e34 8ac9 f626 ac79 c7b1
00000750: 0b69 6bd1 b473 4138 0983 66b9 e5ea 4238
00000760: 4fa9 3e03 864d 8932 455e ec7d 9811 eeb1
00000770: 0b3c 0f98 b429 6639 846a 0d3f 608f a331
00000780: df2d 3c81 1036 2eba fafd 7b84 64ae 63bd
00000790: d2a7 e671 20b0 2bbe e0da f7fc b543 7fb8
000007a0: 5400 df52 1764 03b9 3fea c9e0 422d 99bc
000007b0: 6108 e9b5 06ed 06bd ee0c b7f7 da7d 61b5
000007c0: ed48 4dec 5a4e d6bd 68f7 b92a 1fb9 90b8
000007d0: 9e3d 65d9 b113 7736 6468 ebea a939 cfb5
000007e0: 3bf5 8c83 c918 52bc 8e3d 9d55 afe9 56bb
000007f0: d618 7c61 0e62 0f3e d921 fe87 ee8f 71bb
-1.7401095573868162e-19 -1.4338403620618431e-05 0.2994911569762593 -1.1810513389192568e-28 -1.7625211253398074e-25 -4.0735035803659753e-08 9.44555235659938e-08 1.774639694608963e-49
0.006624908229848447 1.6156193565383784e-27 1.809002101957859e-46 -7.396944786457895e-46 -7.875815845433e-09 -6.800689606957104e-14 -0.747416497473378 -1.8568449555656613e-13
2.7326759102922336e-19 -0.00011712173497663392 0.09895975818369593 4.018886000203364e-28 3.8040588640811355e-25 1.8921925803572034e-07 4.1408057803487154e-06 -2.2166362283229313e-51
0.007970803346973799 -2.2040324080757154e-26 2.7584267115109752e-45 1.1648730445275964e-45 1.9444477084779632e-08 1.7453437274308855e-13 -0.4318447454446504 -5.053511528507476e-13
4.102791417737226e-19 0.00039490745089734047 0.2452515331935591 7.276613316400326e-28 -3.4783507888497335e-26 1.208710084392022e-07 6.069668299899386e-06 -9.26113788028138e-50
0.026647516825312578 -2.0754346388268154e-26 -1.262976495615799e-29 1.1003952310905467e-31 5.2101518153974825e-08 2.1178394117045865e-13 -0.8995259597691083 5.260663841502327e-13
-2.3924350002375787e-21 1.1603238133279921e-06 0.009429360382365472 1.0504051890909205e-30 -1.9461031087105996e-27 -4.963895777851981e-10 2.6280829091233966e-08 -7.66705580850469e-51
0.00032725276383611035 5.250109981629229e-29 9.926813698596972e-50 -1.384920933174407e-49 -1.1430538661611872e-10 -8.946371696821618e-16 -0.01582947601752965 -2.465361701295732e-15
-2.2994624901309102e-20 8.457932097247168e-05 0.00997280759610488 -1.645840345327873e-29 -2.1385404505625661e-26 -5.011208235963956e-08 8.437011578936393e-07 -4.8837245520219256e-48
0.003467308448004887 -1.2841851626800948e-27 -4.7232625837472e-35 2.0693206195146252e-35 2.4421871236600825e-09 7.316438708965811e-15 -0.10464067049440103 -1.563965595486307e-14
3.563272887306182e-27 -9.867525537942747e-14 -3.850956607982753e-07 -2.2306353348270662e-30 1.2949957980681067e-29 -1.7918601254276034e-13 1.0427145391198082e-14 -5.493271077762216e-50
-1.0126930425862406e-11 4.541555823539303e-29 -2.2039253356985107e-37 -1.523886396288728e-37 -5.2869638589170897e-17 1.873203857685546e-18 1.0265117469175367e-06 1.2551506867208156e-21
-2.5372601369720574e-19 -0.00011786443088010617 0.30498533984059906 -2.120835896801961e-28 -2.0389145582754842e-25 -8.360245448414355e-08 -1.2513414887580307e-06 -2.818480704609012e-49
0.0017453711152670172 9.493870779972054e-28 -1.6684730117958571e-40 -6.099017636615057e-41 -1.5010392890736948e-08 -1.1886677871310854e-13 -0.8617232088590506 -2.78168979409504e-13
-3.9005266102675645e-20 -6.860587291434729e-06 0.00739626379801141 3.598103113348642e-30 3.0259315605916567e-26 -1.4386655253864912e-09 1.359950236252226e-07 5.880523518336565e-49
-0.00027190200859612335 -1.4866199684264385e-27 -2.8893265962002882e-36 2.207511489845838e-36 1.017284796532951e-09 -7.796560796837756e-15 -0.034891332124751484 5.319088616117194e-14
1.6337460928005093e-65 -2.5340884780038265e-52 -2.884494443790134e-43 -4.3795944616580204e-61 1.625523067332502e-53 -1.7864543023166754e-56 -1.3214195866130096e-54 5.546208652279076e-48
-4.8765860048540896e-57 -2.204003165750512e-70 -1.6959132489259384e-37 -5.784741986504849e-38 1.6604402544168398e-61 -1.9021862935579952e-69 3.579681013310078e-36 -3.2304077301085583e-70
-2.4242478205765475e-19 0.0002226697189488153 0.24029455655454285 4.822634750980784e-28 -2.641786753713154e-25 -2.5507505583418773e-07 3.203829043963691e-06 -2.335856439534033e-55
0.02281410734476509 3.421124879879277e-26 1.0508299846144837e-37 3.899753308178135e-45 -4.086382656538112e-09 -6.485063269215543e-14 -0.8926984919509214 -2.311155432947994e-13
-8.210930538204612e-20 1.2604741617630096e-06 0.09134770165181276 -2.025907866968642e-29 -6.362085719699663e-26 3.5627941542455666e-08 2.5927675646948274e-07 -7.4991589599838805e-59
0.0056733627619538615 7.34708727746548e-27 -7.175791329180406e-43 1.2283993456965116e-48 -4.608147794288867e-09 -3.6045572122378053e-14 -0.4244592962716905 -8.99620557554765e-14
5.0162521803526255e-25 -5.240825473308475e-10 5.582215330399619e-06 -1.2122407798176199e-30 1.4309342463916949e-30 6.177770244168461e-13 3.355438079181286e-12 -5.389224339275766e-51
7.078033815080477e-09 -3.282604161146371e-28 3.1075911401691374e-38 2.785922274877782e-41 -4.545743276594626e-14 3.6317126295480434e-18 8.889993995348443e-07 -2.754868260013974e-19
-1.8557391385585472e-39 -3.605957001898134e-24 -2.56040590003076e-20 -9.029318348432964e-48 -3.398797464073538e-45 -4.3552726849898225e-28 -6.370930669278559e-26 -2.2578957943344548e-48
-4.8008889168610215e-22 -1.9915358162937416e-47 2.2605822536911917e-38 -3.261548042757276e-38 -5.867455503813807e-29 -8.064150783593566e-34 1.1264151879182479e-20 -2.2397639179843786e-33
-3.257690321320319e-20 1.8888895770182618e-05 0.040128405116447205 -2.3145724133089756e-29 -2.7880066935726975e-26 5.092317649863996e-08 4.2194498293497604e-07 -2.6149243022592614e-48
0.00801080677713178 -3.161815408595871e-27 3.572058707665675e-34 -4.906790916115926e-35 -2.141638476895769e-09 -1.6770494273792e-14 -0.19892216977069957 -3.7657935672765445e-14
-1.7643889795254594e-68 9.441200852616519e-54 1.4739898713778445e-42 1.4305903156233348e-64 3.88800714565365e-57 1.6338622139244066e-56 1.6715254116856126e-55 2.338426310592694e-46
4.8934979014319385e-57 -6.802708156630913e-69 1.0257350665757672e-37 1.111874704798784e-37 3.003308744905557e-65 -3.485347803955081e-68 3.4147372539463466e-32 1.4170371793699775e-69
-1.9065940938739097e-28 -5.593739523302622e-13 -3.2233068568490608e-09 -1.4700495216039474e-36 -4.668208843783882e-34 -8.734957801699084e-17 -1.0181137553214477e-14 -1.4609684736183592e-51
-8.114902766721962e-11 -3.1452715170356474e-36 2.526380475970031e-46 -1.6691548711605839e-49 -3.924123365146285e-18 -7.581220044880865e-23 9.133664406134923e-10 -2.324342243356771e-22

lin1.weight f8 [16, 32]
00000000: 2531 c307 b15f 273a 837b 7882 b204 21ba
00000010: 6527 e1cf 2fae 1c3a f101 a2e1 43dc d139
00000020: e547 2714 deef fc39 8f83 f9fb 16f1 15b9
00000030: 3493 2206 5dac 283a 0730 b0a2 5be0 c839
00000040: 2240 aed4 b811 3636 5cb0 0277 a395 323a
00000050: 89c0 5ec6 5a19 1c3a 828b 7214 316f 1039
00000060: 998c ec2c 4ccf 20b6 7c51 3398 cd59 043a
00000070: e74d 7ec8 86d1 32b6 9eee 146a d17b 5fb8
00000080: cdd9 e590 8121 4139 f871 7ad3 2dc0 bb38
00000090: ce3a ef0c 1f2f 7036 a422 cb91 a7bc 313a
000000a0: e2e0 0765 5849 20b8 3ada 5b71 87b0 08b6
000000b0: ec0b 9dce 656b 0e36 d2ac 14af 8136 1c3a
000000c0: 313d b442 0f39 8237 1af0 325a f319 f739
000000d0: e6b4 fe21 13d9 e5b8 32f6 7fc9 b280 34b6
000000e0: 9976 add1 03c8 e839 69ac 9e30 b002 083a
000000f0: feee 7160 2acc d939 f81d 2742 1837 de39
00000100: 8a30 17ff 5457 d43f b279 1944 f9ed c93f
00000110: bcdb 6af2 93cc db3f 0029 518b 4c86 803f
00000120: c1fb 7510 5caf a73f ba77 e63d 5ea8 9dbe
00000130: 4673 9533 503a d73f 390e 5faf 69c9 8c3f
00000140: e04a 8137 adb1 2a38 63aa b60c f089 db3f
00000150: cf64 9156 713c c93f ab7a e961 6a0e c23e
00000160: 02bd 46a0 e75a c6bb 6de0 0f4f a291 b73f
00000170: c3e8 7599 cf09 29b8 e95f 1181 5cb2 16be
00000180: fdd1 5b02 c9bb f93e a997 f213 e48d 773e
00000190: 0ef7 6f98 66aa 383c 78e5 3532 6430 da3f
000001a0: e04f f997 b2c3 5b3d cefe cf1e 5229 1738
000001b0: d182 d9ac bf1d 23b8 65a9 090d 6f85 cb3f
000001c0: 5f9a dbbf ba2b 393d 220c a849 7b96 a33f
000001d0: 851b 0174 b662 a1be 5ed0 9563 dae5 1738
000001e0: 8d2d 4791 552e 9c3f b2e0 2053 a49d bc3f
000001f0: afb4 127e 23c4 8d3f 5b96 187e 4b7f 8d3f
00000200: 4471 752c b5b5 493d a2c6 17bc f339 50bd
00000210: e6de 92df 148b 623d a059 c56a 1593 f5bc
00000220: 15f0 a7f7 17dd 2f3d 42e1 ccd3 f68a a93c
00000230: 68a4 6671 2648 5e3d 08ae 099b 245f 1a3d
00000240: d0a5 c485 115e f8b7 89ce 83e9 b89b 613d
00000250: 34cd fab9 494a 4d3d d68c 9fba bece 6abc
00000260: 9821 f7db a070 4cb9 5976 b292 7238 3f3d
00000270: 44f3 93ba e5cf e637 c535 4c4f f183 a2bb
00000280: 2cc3 b2e3 cc42 823c 0c41 5a56 2403 133c
00000290: 1ced dad6 0b5a c239 e15f 32f9 4d9a 613d
000002a0: 1603 c91a 6391 e33a cfed 81df 09fc f137
000002b0: d156 f606 b577 ef37 f3dd a3ff aed9 533d
000002c0: f2ec 56e6 7e9b ad3a ef6b de8c 16fd 2a3d
000002d0: e28e a8db f495 933c ea67 2688 d26a eb37
000002e0: 7658 022f 6245 263d 42f0 c241 7713 443d
000002f0: e402 851e f940 163d 5434 7f3e 17b3 0d3d
00000300: 6a56 4fdb c849 633c 748a 96a6 14a2 473c
00000310: ae87 59f0 b223 573c c26c 40fb 6ee1 0e3c
00000320: c8cf df6e aa9b 313c 3eef 63fd 20cc 5c3b
00000330: 017c fba2 0960 643c ec80 206f b928 033c
00000340: 8820 5c81 d3bf f3b6 5dce 1c22 f4b4 723c
00000350: b192 2ded 4055 553c a49d c1f8 de17 843b
00000360: 0f24 3b75 04e8 51b8 31d5 5e58 c5b3 413c
00000370: e07a db9e 307d ecb6 7b2e dbfb 04b2 a0ba
00000380: 6556 a059 d5ba 803b 4db3 7142 3a2f f33a
00000390: dc64 c5b9 028b 8c38 22c7 6562 4917 723c
000003a0: 7e75 867e 1ef4 dfb9 0023 472a 5d93 5ab6
000003b0: 13ce 638c 8448 c436 3237 3a90 5f1b 543c
000003c0: c797 60f7 0471 ba39 c57e 1dde 574c 2d3c
000003d0: b493 2589 9047 49bb 2723 2281 fee2 f8b6
000003e0: 5b19 dbd7 ec06 263c e33d 223c fbcc 463c
000003f0: 94a3 dd71 e3a9 133c cfb2 c6f0 2d72 153c
00000400: c287 bdea 8595 903e 4ed3 411f d09c 6d3e
00000410: 6ddb acb5 a20b 843e 9683 416c a358 3c3e
00000420: 7610 788c 7765 543e ee6f 7e05 5ee3 abbd
00000430: 97af 5f95 cee6 913e 9160 d1bc d68c 3b3e
00000440: 78c3 f4f7 bd32 30b6 0f1c 8593 3d0c 843e
00000450: dfb6 4bd3 a32d 6f3e 2a85 d698 23ae d23d
00000460: e51e bbd1 4e06 62ba cf92 bfd7 968a 653e
00000470: 9165 78bd 286c 2b36 9e12 c3e6 85d7 acbc
00000480: 2454 3884 a124 b63d e023 d8aa fc45 a6bc
00000490: a23c 63e3 1b95 e33a 1ef2 9c5f 03e3 823e
000004a0: d6af af6f 6933 313c d879 f3ea dd4b 0f36
000004b0: 9867 334d 7612 00b6 cee1 16a3 ff1e 783e
000004c0: dded 5cfd 8e43 e73b 4606 2304 36e6 503e
000004d0: 322e 8bae 3123 b0bd 4adb 4487 cfad 2bb6
000004e0: e8bc ae4a 1703 493e e8ee 6339 49b7 693e
000004f0: 1e3a 9a64 5ae5 3b3e 5666 bfd4 4090 423e
00000500: 1c8d 20e3 e42f ecbe d146 b247 4571 c3be
00000510: 7d46 6210 73e5 f2be b4d3 f2c8 8d8b a3be
00000520: f28b 8922 1c6b b13e c60e 73fc 1ced 97be
00000530: e6c8 5df8 2692 e6be 8c16 9cdc aa33 9fbe
00000540: 3ce3 5465 3368 17b7 d49c d4e2 d75f efbe
00000550: 93a6 234e 0247 c0be 46e5 54aa cefd 9ebe
00000560: 5c73 1452 52b0 e03a 8230 a256 c454 d5be
00000570: daf7 82b4 3954 1e37 e41c 11a4 64f8 263d
00000580: 7e85 383c a91c 21be 80a7 b10f ecb1 a4bd
00000590: d7f1 9daa 4119 653b c3dc bafc b330 f3be
000005a0: e498 f7c2 f0cd ea3c 5eab 0c4f 787b 11b7
000005b0: 80f7 25ab d173 fa36 04da 5eff a61a d7be
000005c0: 9cc3 26ca 6804 52bc 0c03 675e cdda a73e
000005d0: 1654 3661 b435 893e f028 0759 b4b4 3037
000005e0: 6f9c 8d3c 1a98 a0be 8ede f7fd 7823 cabe
000005f0: f0be cb52 3628 87be 667e 14df 912e 77be
00000600: c88b 4096 72b7 e03f d80d c682 bdfd d33f
00000610: 2a12 1121 202b e63f 17c4 88c4 a350 8a3f
00000620: 8fa1 8d1d 2369 b23f d4ce b06d e330 ac3e
00000630: cb0b dd07 2e8a e23f 4030 b7ba 0863 963f
00000640: 78e4 6872 2461 2c38 3739 7bf4 59f4 e53f
00000650: 7e45 f116 9590 d33f 11d9 2372 3870 d0be
00000660: 66ba 0e1a 4409 d0bb f070 0bad 0656 c23f
00000670: f4e7 092c 1015 2738 9781 dd57 43cd 20be
00000680: 9d51 09b5 90e9 033f 061b ffa7 ddb8 783e
00000690: e973 5a9c df6d 413c a5ca 6698 b1e9 e43f
000006a0: 0e30 1dbe 382f 5f3d d2c5 9b23 7fd9 1838
000006b0: 6fe9 132b 82ec 08b8 af75 7dbf 1017 d63f
000006c0: 2dfc 17c7 6e18 413d 3372 54b8 0275 ae3f
000006d0: f75e 1332 bc45 42be de9e b863 0ac1 2eb8
000006e0: ed82 f4fe 62e2 a53f f3cc f807 c853 c63f
000006f0: 6783 2a92 d81a 973f 4d41 1c3d a2de 973f
00000700: e7b1 db8e 0d63 d53f 2f08 90d3 9806 cb3f
00000710: daa3 cb81 122d dd3f 98b8 6d33 2d4e 813f
00000720: a9a0 f309 95b2 a83f d4de 2d18 2c35 a2be
00000730: 256f 583b 6a57 d83f 228a 7dc3 e505 8e3f
00000740: b63e baac 749f 25b8 6e27 c906 7be8 dc3f
00000750: 4089 e2d2 bc52 ca3f cc04 a767 3311 bf3e
00000760: 8a8d e0aa b21e c7bb 5739 22a6 3491 b83f
00000770: 3abf 8aa7 a85a 2c38 645f e189 5e8a 17be
00000780: 1bd5 076c 1bea fa3e 8d9a 4541 51a5 773e
00000790: 92cc 392a 3f67 393c 4f4c 0efe 147c db3f
000007a0: efe0 2a8d 2034 5d3d b0f6 c6d9 00eb 22b8
000007b0: 4012 7cad 9503 2738 cfe6 fd23 ead4 cc3f
000007c0: ea6d 2390 15cd 393d 0f61 94c8 496d a43f
000007d0: 0ccf 54cf f062 a4be 3f10 2a7a 5ca6 22b8
000007e0: e68c c357 1262 9d3f 2650 1d12 89d4 bd3f
000007f0: 82e9 885b 620b 8f3f b096 c2c4 921d 8f3f
1.4750938477296505e-28 -1.0740088057731335e-28 9.049943903629745e-29 3.522344955387743e-30 2.2827254132330078e-29 -1.0564571691501506e-33 1.5571037904999117e-28 2.4530022549490606e-30
1.5100377570734321e-47 2.345696900751673e-28 8.866494082750403e-29 7.912848156212705e-34 -5.750850928346609e-48 3.210789056534712e-29 -1.2876114810544067e-47 -3.700886936312511e-37
6.598576212843209e-33 2.0877305728284728e-35 1.771774140243665e-46 2.2387155456937016e-28 -2.3930868344296237e-38 -2.111660882084623e-48 2.6017352141298026e-48 8.902426682663567e-29
2.6148563478724795e-41 1.8223767265097276e-29 -1.3149255515249752e-34 -1.4028535823075542e-47 9.7745026388438e-30 3.7881891020316034e-29 5.087664063952072e-30 5.958900247929461e-30
0.31783032332601435 0.2025748808400301 0.43436144517493935 0.008068655015581516 0.04625976277292621 -4.419339897590152e-07 0.3629341605899764 0.014056039490134885
3.9223380233317597e-38 0.43029404870563875 0.1971570656485597 2.152479978519949e-06 -9.467751778511736e-21 0.0920659487745767 -3.6790510470554147e-38 -1.3211232145339179e-09
2.4541412265004562e-05 8.774646164058689e-08 1.3371263722150799e-18 0.4092035761201127 3.9455647812476915e-13 1.7016316123611762e-38 -2.808874017529469e-38 0.2150095761929364
8.942471055342725e-14 0.03825745844007879 -5.181311522127994e-07 1.7557377287866627e-38 0.027520501129215048 0.1117804243994012 0.014534261021561383 0.01440295198978985
1.8267908601479293e-13 -2.305906626098585e-13 5.270319221555449e-13 -4.790511442778602e-15 5.660120721202014e-14 1.7723897895443975e-16 4.303307803355592e-13 2.3422732471249882e-14
-4.475594616668564e-39 5.004577100680305e-13 2.0811929940730876e-13 -1.1625942306746856e-17 -1.0954672004339971e-32 1.1091749117675943e-13 2.094960442340043e-39 -1.9603943183824818e-21
3.167767934222298e-17 2.576643490234689e-19 1.809621589511961e-30 5.003003104787665e-13 5.058188369882107e-25 3.303235672686084e-39 2.8898432104471465e-39 2.8209010617721545e-13
4.783334272606682e-26 4.794142920835791e-14 6.795178131011726e-17 2.517879049332198e-39 3.956129541878636e-14 1.4264883294563906e-13 1.9765346033282514e-14 1.3189260096192922e-14
8.36493247919741e-18 2.5623088292188024e-18 5.0175682056307656e-18 2.092550829645736e-19 9.545353522769865e-19 9.528253236802479e-23 8.83631147575625e-18 1.2982697260221142e-19
-5.53493865595202e-44 1.6225606082501916e-17 4.625861748646603e-18 5.318637938492171e-22 -2.10487756796753e-37 1.9192796222465503e-18 -3.9921624376911596e-44 -2.697285493179773e-26
4.42834594289285e-22 9.918145104976632e-25 2.684171792847884e-36 1.569140954892925e-17 -6.301734543298113e-30 -7.27351640491488e-47 7.105729661257513e-45 4.359994772246169e-18
1.3036657155978516e-30 7.941297292540372e-19 -4.182150596844527e-23 -6.974737757588765e-44 5.970444256236926e-19 2.4720577733608453e-18 2.664918359504856e-19 2.906476803059609e-19
2.4712196976781864e-07 5.515767390131049e-08 1.4935025202121784e-07 6.5998741507466165e-09 1.899558624113291e-08 -1.2682063881417689e-11 2.6675447395321065e-07 6.4145195380044225e-09
-1.1083265852545222e-47 1.493678583130806e-07 5.807407391597676e-08 6.795828327984077e-11 -1.820023548645585e-27 4.012391749389875e-08 9.381616805764688e-48 -2.001307933501875e-16
2.0139022622940697e-11 -1.5455266683088032e-16 5.0619464385609375e-25 1.4071740377955307e-07 9.324587315323128e-19 2.6767293777817756e-48 -1.3746236429118577e-48 8.985805590486407e-08
3.9410580579120085e-20 1.5738663935272705e-08 -1.467694968075896e-11 -9.46935233426907e-48 1.1647154648591062e-08 4.789971013056828e-08 6.495022805731017e-09 8.64429829793443e-09
-1.344065012537934e-05 -2.3177222466329757e-06 -1.8020903575227752e-05 -5.824903314329483e-07 1.0382174286053628e-06 -3.5652851377804866e-07 -1.0762647217641947e-05 -4.6494343718148116e-07
-2.6240192905771173e-43 -1.4960473971271938e-05 -1.9404147774029956e-06 -4.618083642885504e-07 4.313942345105339e-25 -5.085735532383533e-06 3.39999910768726e-43 4.0803424031658846e-14
-1.992094019054223e-09 -9.411000182650144e-12 1.396192083817264e-22 -1.830124510490413e-05 2.9758923081684495e-15 -1.9598341177356885e-43 7.413546554907019e-44 -5.508449239791192e-06
-3.9068626726175505e-18 7.109253459745273e-07 1.878275247389907e-07 7.49117428130268e-43 -4.945442181159767e-07 -3.115959756657387e-06 -1.7253368280551228e-07 -8.63593567945861e-08
0.5223935064899417 0.31236207743515143 0.69276434381806 0.01284912055516156 0.07191676589503103 8.401563848015598e-07 0.5793676522811152 0.021862160106863593
4.169987214229006e-38 0.6860780501390654 0.3056996082351232 -3.919210742822527e-06 -1.3583185853090708e-20 0.14325030755470136 3.3916359264214776e-38 -1.9559879817586295e-09
3.797982083556253e-05 9.20971192633915e-08 1.889676921813636e-18 0.6535270668594718 4.431578243762971e-13 1.8256599999211648e-38 -9.155580641651634e-39 0.3451578016300471
1.2147040943734767e-13 0.05948647022362188 -8.508750650606184e-09 -4.518903676969135e-38 0.04274281847233916 0.1744318045544798 0.022563346787709018 0.02331021783817393
0.3341707129573294 0.21113882379728596 0.4558759944471241 0.008449891216255431 0.04823747393112516 -5.426318668696363e-07 0.38033538623288826 0.014659686115639895
-3.177195788978035e-38 0.451689488054959 0.2056499509536227 1.851748861456375e-06 -9.791664341762916e-21 0.0959656625366042 4.166265830846086e-38 -1.3702377353609692e-09
2.5667649198942143e-05 8.80873616875032e-08 1.3771160628161161e-18 0.4294483643545321 4.1500842507230653e-13 -2.7797475816500605e-38 3.3816037631195496e-38 0.22524763829624425
9.166395740538817e-14 0.039896302923979936 -6.075646569515035e-07 -2.74034895767714e-38 0.02869442616146225 0.1165242833351959 0.015158432405873116 0.015193125371591648

lin1.bias f8 [16]
00000000: 9a84 642a 3958 f839 9eb4 317a 9523 d03f
00000010: 9785 1418 530a 1c3d e8d8 e07f a658 d3bb
00000020: 7054 40c8 ea1a 10be 8bd7 385c c83b 113f
00000030: 71ad 2d49 0ca4 dd3f 907b caab 8b49 d13f
00000040: 7f1f 4ffc aa6e 2c3f 7844 754d 7c03 da3f
00000050: 2399 6a78 cd40 9bbc 850b 7280 02f6 d63f
00000060: fef4 7ce2 f900 41bd 11c8 2094 f270 f33a
00000070: dae8 8535 7e4c d63f 8ad9 e780 7333 253b
1.920452076730944e-29 0.2521718686392179 2.4904816355670233e-14 -1.6386945529368928e-20 -9.374428186884346e-10 6.574068452710865e-05 0.46313769480067096 0.270113866581533
0.00021692120767924023 0.40646274151101336 -9.455330695190039e-17 0.35876524489884104 -1.2081935763475898e-13 1.0050865580750846e-24 0.34841876246322345 8.768520305438059e-24

lin2.weight f8 [1, 16]
00000000: 4ffd ecf7 6be6 373a 0b1d fcf0 bea0 e83f
00000010: a9a6 1c95 9929 753d 7a2f e33c fabb 753c
00000020: 23ff a146 d504 983e 195b c835 05cd 16bf
00000030: b635 9911 aef6 f23f df23 b109 a4ae e93f
00000040: d4bf 34a9 f708 6d3f ae43 7c1e 5856 f13f
00000050: 7b27 e902 3f45 113d 3702 ee7d d81b ef3f
00000060: dd01 0670 d2f8 403e fdc5 1b95 746e f5ba
00000070: ee9b 46de 1177 ee3f 7fae 1868 6371 27bb
3.016614826028858e-28 0.7696222979292612 1.2029488364356364e-12 1.8851489012559938e-17 3.579091926233951e-07 -8.697838115554988e-05 1.185224598640486 0.8025684537216157
0.003544315064253548 1.0835801306568373 1.5339278937892042e-14 0.9721491298260564 7.903185218024076e-09 -1.107980844407887e-24 0.9520348874401614 -9.695765734501317e-24

lin2.bias f8 [1]
00000000: 3a01 ca5b 86d3 e23f
0.5883209030871861
