Q1/models/bestval.pth (torch, 14767 bytes, 16 tensors)

batch_norm0.weight f8 [1]
00000000: f4d2 6c74 986a d63f
0.35025607461584163

batch_norm0.bias f8 [1]
00000000: 816e 77b3 c83a c6bf
-0.1736689449597755

batch_norm0.running_mean f8 [1]
00000000: 83e1 3662 46e5 1340
4.97390130481688

batch_norm0.running_var f8 [1]
00000000: 8b3f 8330 51a7 4940
51.307165206991236

conv1.bias f8 [16]
00000000: d654 9692 abe3 46be f08c 4296 0e14 c83e
00000010: 9cbe 6d76 ba14 473f 94a2 54d3 9299 f8bd
00000020: 308f 5806 83ef 43be 843e 5622 9e90 88bd
00000030: e782 58ee 4eb6 7f3e a7b1 9a36 dab8 4c3f
00000040: bc4a f81c 7335 043f ce29 cada 2bab d03d
00000050: 0808 7866 b047 d63e a7c2 0a23 e179 08bf
00000060: 3a8c 9bbe 0b4e 40bf 083d f111 f1d7 8e3e
00000070: c06b 8964 c560 f03d 24cd cdce aaf0 123e
-1.0658678012066325e-08 2.8703627084778065e-06 0.0007043753110859865 -3.579756103789086e-10 -9.283233913413426e-09 -2.7927072705222247e-12 1.1813693453394057e-07 0.0008765283102625713
3.854520366188471e-05 6.064015149172359e-11 5.311974383472383e-06 -4.668443978539843e-05 -0.0004975850435723413 2.29802147951802e-07 2.3833144185345134e-10 1.1024592863753383e-09

conv1.lin.weight f8 [16, 1]
00000000: dbcb 12b7 3f99 e436 f365 b3ad 24e9 a92a
00000010: 3b96 3f73 6048 29af 1248 f44c c7e3 be3f
00000020: f4b4 c3e1 d42b e83d ace1 ac03 9e15 173f
00000030: a567 a524 6874 05bd 3b5c 3c06 0efe b1bf
00000040: 9ccc 86bf f9e8 4bb5 2e09 59d7 19e8 b1ae
00000050: 4325 be67 d042 36bf ab1a e6a2 c9ee b5bf
00000060: 0563 ae00 aa84 373d ac3c 09c1 607a b637
00000070: 28b3 9f18 8b24 032c ff3b eed5 1b47 afb7
2.8864826436235125e-44 3.6151881830327813e-103 -1.665846605268736e-81 0.12066312435879947 1.7586875088376747e-10 8.80601591405408e-05 -9.527807031491268e-15 -0.07028281833878307
-5.827892633439839e-52 -9.217548279645174e-84 -0.0003396757890575428 -0.08567486025831765 8.355349846575853e-14 2.5803523130141894e-40 1.1202518506345338e-96 -1.7952558674136876e-40

batch_norm1.weight f8 [16]
00000000: 7495 3b42 76d1 e036 5270 5cda 8ac8 9aaa
00000010: e2e7 6f46 e9f3 232f 7151 5b8a 4929 b23f
00000020: c286 d339 ad3c 143e 6dfe 127b 2f20 813f
00000030: 8a3c 56b3 5e29 fdbc d466 7255 f898 ed3f
00000040: 1b7f dd88 f2a8 c938 be8c ea52 b3f0 e9b4
00000050: 8b5c 5133 b2be 88bb bec2 89ed 3f75 f53f
00000060: 915b b046 c1e0 173d 6519 2f2e 2219 d23b
00000070: 1400 fbee c2d1 6533 50ce 4738 f9d4 1339
2.356733287549092e-44 -1.868472458033815e-103 1.3146633611822472e-81 0.07094249370431328 1.1779494942877437e-09 0.008362170165468552 -6.475176231975196e-15 0.9249231022724538
3.860880280301899e-35 -8.463396980188507e-54 -6.5499222458155915e-22 1.3411254195054165 2.120787915032067e-14 1.5329752883228312e-20 4.2431981076870304e-61 9.548725897892661e-34

batch_norm1.bias f8 [16]
00000000: 7ee9 a214 4eb8 48be 8c0d c956 b623 73b9
00000010: 4b66 54ab 5330 47bc acb5 a663 50ff 8c3f
00000020: 1997 e47d 8bdd 66bf 42b6 a093 20a5 b0bf
00000030: cd5d cf2b e7c8 afbf 334a 8187 41fd d33f
00000040: b880 0def 65a4 dbbb 3082 15c7 7ad6 17b9
00000050: 8e45 fe4b 75fd 38be 368c 02c1 9a21 de3f
00000060: d27c c7f1 40d3 02bf 8368 ce62 a1ed 80bd
00000070: bdab 54f7 dfd8 76b7 1261 e72b 0294 34bd
-1.1511119741746548e-08 -5.89781410235344e-32 -2.5141322066245918e-18 0.01415884784804685 -0.0027911877106302605 -0.06501964191621659 -0.06207964334287972 0.3123325179377929
-2.3413837521184446e-20 -1.1477488473821768e-33 -5.8184543293600236e-09 0.470801056371957 -3.590623802884333e-05 -1.924518506297365e-12 -1.639203874032159e-41 -7.310830388878036e-14

batch_norm1.running_mean f8 [16]
00000000: 5881 cb66 1990 da3d 489f b0c9 0553 adbe
00000010: b8d7 fc6f adc4 12bf 5af2 ee1b 49c8 98bf
00000020: 4572 cc11 a180 063e c134 7670 9d99 fabe
00000030: e01c b325 10c7 36be be75 0c1f e2b1 883f
00000040: 0810 cd3b 358d d8be 4caf 913e 664f 8ebd
00000050: d681 8428 ace4 103f 5ebd dfe1 db12 8e3f
00000060: 901e 6f07 7f3d dfbe b031 e817 ead2 50be
00000070: d07d 5d28 ff52 a6bd 9e77 7b3a 9cda cbbd
9.663522213225438e-11 -8.739324529648415e-07 -7.159527376362953e-05 -0.02420152886382918 6.549077145149757e-10 -2.536779268562796e-05 -5.303320972644678e-09 0.012058035442857992
-5.853556044158749e-06 -3.4458655450057706e-12 6.444264193251141e-05 0.014684408026339465 -7.44824875815283e-06 -1.566846341044582e-08 -1.0151873492379493e-11 -5.06660332701542e-11

batch_norm1.running_var f8 [16]
00000000: a89d 64a9 02e0 3b37 d65e a333 ba80 6538
00000010: f18a 1934 0df9 ef38 a1dc 9580 5a8a 7e3f
00000020: e485 6c54 c239 3a3c 7ad1 e442 4976 5e3e
00000030: a880 76b6 b219 0e3a 3c6a 7654 5962 5d3f
00000040: 739e 7fd3 58c1 a538 387e 5384 c761 1d36
00000050: 022e 89cf 1e2e 6c3e 4eea 40ef bda2 653f
00000060: e5ad 0892 9f4e c13a 89c5 0087 c33f a037
00000070: facf 0680 2ea2 6936 62c2 70b0 5bea 4b36
1.2499600513809828e-42 5.055293674417434e-37 1.9242963778093668e-34 0.007456162952954732 1.4216937895567563e-18 2.836999984344842e-08 4.7490031061666664e-29 0.0017934677469840917
8.183419886851148e-36 5.0259866095558523e-48 5.2489633921110976e-08 0.002641077962860983 1.118446567848354e-25 9.326512952146996e-41 1.4031334009090149e-46 3.820106779689576e-47

conv2.bias f8 [32]
00000000: 96a8 9608 78e4 94be b439 2c96 4ee2 293f
00000010: b201 8ea2 7622 da3f 25ce b401 88da 0abf
00000020: a12b 71e3 ee25 46be 92f1 e840 6634 15b5
00000030: 0a27 fcc9 f2b7 813e 3c5e c48c c590 0dbd
00000040: f253 8d20 7e6a ed3f 7bfb 2492 8cae 47be
00000050: 3bc2 8734 5304 e23f 2194 4e89 1819 69bd
00000060: 71b0 6f80 68a9 ea3f d1d1 400b 527a 23b6
00000070: 3fe7 f3aa 6d50 c3b8 cc51 1e0e 77e5 86be
00000080: 767a 6b47 aa3c be3f 9808 3744 6c68 a23f
00000090: 294d 046b 28cd 65be 2cc7 1413 a871 623e
000000a0: 18f3 b422 b144 30be 594b 4998 3af5 f7be
000000b0: 57da 2ed5 32cd 9cbb 1444 6ada 8ba3 70be
000000c0: 5bef 1a8a e963 23be 3969 3bec 2c2b 65be
000000d0: 5038 ec1e d493 d63e 86ca 127b 5592 84be
000000e0: d5aa bf8f c87c dfbe 7386 a5f4 fa20 54be
000000f0: 6531 c28a 86b1 e63f caac 9fa3 2625 a3be
-3.1132186303440605e-07 0.00019747933682663437 0.40835348009570815 -5.121924933817701e-05 -1.0313548333198196e-08 -5.534681100197397e-53 1.32013473035362e-07 -1.3129725916190479e-14
0.9192495952398743 -1.102771258044872e-08 0.5630279565794533 -7.133289342695362e-13 0.8331797131081783 -6.663630711703464e-48 -2.9060738201169876e-35 -1.7059108531045003e-07
0.11811317676208852 0.035952933623336125 -4.060826819438672e-08 3.4354572862179036e-08 -3.787765250157703e-09 -2.284805806802444e-05 -1.5247417264537133e-21 -6.198455669073095e-08
-2.2573259518905346e-09 -3.942969109350373e-08 5.382884849648438e-06 -1.532704892219362e-07 -7.507189589954073e-06 -1.874643310842876e-08 0.7091705999496695 -5.705690633272736e-07

conv2.lin.weight f8 [32, 16]
00000000: cc57 4def 4923 b12e fa4e 23f2 764a 67a8
00000010: 7e8c 8f63 f7c1 80a8 388d 5340 71f1 69be
00000020: c8de d3f7 f05e fbb7 e8d5 2610 ba51 bfbd
00000030: 8b36 5fe3 2446 21be 080b 0923 ab1d 943e
00000040: 0748 acca 3cb8 7a3a 0c86 651b 402b 87b7
00000050: 00b7 c573 66f9 68b1 6044 ae39 fb88 9d3e
00000060: bc82 f962 8aff a132 e3c9 738c fe48 d92e
00000070: 9fb4 053c ebc6 c035 3dd6 da30 b244 033c
00000080: 07f2 502a c416 6cb6 6446 528b 8368 c7a1
00000090: 096a e560 a0bb 5325 44cc 9c78 bb85 09bf
000000a0: 47f7 8fbb 6e96 d03c b44c edc9 e13c 483e
000000b0: 4e2a 514c 0a07 01bf 99b0 427c ba4b 303f
000000c0: b515 fc45 448d 073b f0fc 5456 ea56 c4b7
000000d0: 24f9 e3c4 70d4 2aba ce14 d296 7f86 2b3f
000000e0: a525 caa2 cf15 ba3b 7a31 0de8 4759 ecb6
000000f0: b187 7ae2 68db edb6 e0e9 2d1b bf49 c93c
00000100: 26e8 47c4 b2e9 a736 ffd3 7dc6 478f 552a
00000110: 4b9e 985e d56e 07af a27d b743 ef7a a13f
00000120: 20f1 1b19 a2eb 583d e17c 5957 d948 49bf
00000130: a9df f4a4 48ae 933f 5219 c422 ba05 d0bf
00000140: ce60 ea6d 012c 9a3b c28f 335f 1ca1 e2b8
00000150: 32d9 ce44 e5a1 98bb 254d 993e b5fe d7bf
00000160: b6fa d9dd 7ea0 25bd e01a eaeb c83c 4937
00000170: 5ca1 38cd 0b3b 1f37 5e7c fd5d b5d0 293d
00000180: 01c0 ecc4 60bd a135 00a5 791a 9173 1324
00000190: f0ce e714 5f61 e427 7bd6 11cb ab5f 37bf
000001a0: b42a b22f 9603 f23c 8fac 8a7d 6c7b 21be
000001b0: 6044 8fda 1c19 febe f224 2e8a ce56 093f
000001c0: 5a94 3db0 62b8 1ebb 665a f3c4 92d7 0f38
000001d0: 7a08 6170 2c41 7dba 5524 d70c 5872 153f
000001e0: 44f9 1829 9df4 e0bb 74a6 d4b3 3f7d 0236
000001f0: b8fe d4d0 1f79 c5b6 f28c 3c5e 5d79 94bc
00000200: 0aa4 d53e 2899 cb34 f8a8 8859 b1a9 08a3
00000210: 684f dd58 6b5e e025 ab24 d239 185a bb3d
00000220: b491 caa5 1c63 343c b934 22cf bb47 673d
00000230: 7d4a c54f 6cd0 d6bd 89ec b74e 234e 12be
00000240: 2b86 36f0 6b85 32b9 93cf 06af d8ba 10b7
00000250: d895 d18b 26de 823a f78d d9a9 eae9 19be
00000260: 253e 64c7 35cb a5bb 72b5 2c92 2971 d935
00000270: 1dbd 3c20 a00e 0535 7b8e 3214 ed3c 83bb
00000280: a27a 2d0d baee bf2f c9cb 524f f1bf fd28
00000290: f0e6 e701 3e4e bca9 20b5 6dfd 323f 76b4
000002a0: 4e70 5c59 1466 9533 4159 dd96 4435 7334
000002b0: ccb1 7261 2139 83b4 36d2 5d42 04b0 f434
000002c0: 61bc c335 f309 fb30 7c16 b272 cedf 34ae
000002d0: a1af fd01 26b1 1b32 6002 a69c f13d c434
000002e0: 9cdc c13d c325 14b3 2dfb 9de4 20f1 ceaf
000002f0: 360c 267f e741 7a2c 3b36 b232 03f1 9e32
00000300: 72af 9c74 ce8e 7db6 3aba 9470 185c e0a6
00000310: 38b0 0a01 5ac8 c02e 2cc1 d139 774e 79be
00000320: 0120 89d5 72d6 b33c 58ec 4e88 5b5d 92bd
00000330: 817d af27 78d5 a8bd a0a4 5ff8 b246 583e
00000340: 8492 e0a8 b936 a13a 9ce5 fe66 10e3 84b7
00000350: acef ca43 77af b4ba 466f 5f73 a862 883e
00000360: f784 09e1 b43b f1bb d036 e226 7bcb cc36
00000370: e21a db66 a9d4 23b6 aa57 8704 c60c c53b
00000380: 256c 8b8a acdd 2e36 1cf6 7acc df8e 50aa
00000390: 63ca c016 c62e e6ae 6e79 3118 c2b7 53b7
000003a0: 5efa c286 a071 5031 8476 c580 89b5 dd37
000003b0: ddb4 3e43 9f56 a130 b59f 60a5 d1c7 fd37
000003c0: 4c01 4cb1 975d 542f c858 bf8f 77d2 81ae
000003d0: 84ed a9e4 9fdd acb7 75a0 9be9 3d9d e2b7
000003e0: fb5a a94c 632d ebb7 2668 c828 b651 96b6
000003f0: 0b8a a168 a5f2 76b0 3002 6b02 6398 1db6
00000400: c66d 5c09 8ed3 f2b6 014c bb14 276b 79aa
00000410: c7d6 0620 4a54 f5ae 442d bb8e f912 a43f
00000420: e34b 73ac 5a72 0ebe 1efe 2bf7 ff1c 7dbf
00000430: 9de3 d205 a76d 93bf 9cdd e9c7 23ba e0bf
00000440: 5bb1 3831 0d85 af3b e0b6 4b6a 3a68 fdb8
00000450: c49a dfa1 f0cd 44bb bee7 b9bf 6926 e8bf
00000460: f7c0 f5e1 e32e f03d d477 91ab 04d0 5ab7
00000470: 5603 2066 d7ad 6d37 3a49 21c9 8138 2ebd
00000480: 32f7 57e3 eb42 41b6 effe 7714 21cc ec22
00000490: dd39 0a30 ff94 39ac 7fef 368c 6bbb 46be
000004a0: a4d2 0f45 b05c 44bc 3740 97a0 0e15 b2bc
000004b0: 552c a468 7e55 a2bd 800a 3663 5372 423e
000004c0: fb22 d5ae 7db7 203a 3070 7a09 2f83 ed35
000004d0: 2178 37df c471 f239 cf65 f899 850e 4d3e
000004e0: e9d5 b8fe daf6 463b dc86 0ae5 3976 a4b6
000004f0: acd3 b339 c999 3035 d1d0 480c 8aee 5e3b
00000500: 74c1 215e 0a74 ac36 a06a 0d22 0921 722a
00000510: 5514 ac76 bb0f de2e 682e c5ea 5e2d a33f
00000520: fc51 1918 c921 e33d ac83 bf5c 6a9d 67bf
00000530: f4e6 7f4e 0026 803f 1e57 f337 86ea d5bf
00000540: d8a9 b72e 9123 a23b 4e93 4488 8dd9 edb8
00000550: 7d40 cfe1 1918 a1bb c816 59f5 0440 e0bf
00000560: 6863 f2c4 e199 f03c 087c d288 7b5a fcb6
00000570: d4ea 716b dd62 4b37 5381 4028 3fc8 313d
00000580: f42f eab7 b11c 4c36 cc99 b579 dde3 412a
00000590: 6efa 74cb f9fe ebae 0bc1 20ea e9f7 84b9
000005a0: 9a15 3e84 395b e335 fccd 1c84 e7e7 9139
000005b0: 936a 4333 aaf1 4235 b0d3 6b4f 1138 74b9
000005c0: 4862 4511 b369 81b1 68d1 9146 5354 52ae
000005d0: cf07 c2c7 e897 25b9 5e48 5ba9 0e63 a5b9
000005e0: 690d 035a 9e9d 7939 6004 e17b 1ffb c136
000005f0: ef13 262e 0ceb 9fb1 0d5f fb2d bb2a 0038
00000600: 7730 aee8 370e cbb6 b8d3 ba52 1f77 822a
00000610: 559c 532d 714b 06af 059e e519 4642 a43f
00000620: 911d 4541 cd0b f23d bf16 b085 9b2c 7abf
00000630: 6e16 36b6 7357 8bbf 3b89 0272 22d1 debf
00000640: e600 83c9 8154 ac3b c972 f701 9b78 fab8
00000650: da7f aec2 8778 803b 182b 8ed8 3f60 e6bf
00000660: 7e94 d3b2 2a2a a73d 04c8 5b25 562c 42b7
00000670: 491f 5ddc 3063 6937 7228 4b54 3c73 2dbd
00000680: a32d 7f12 2d93 b12d a06b 5873 f883 e0a9
00000690: 318d 1116 5f2b 56ad 909e 8b44 1735 f035
000006a0: 516c 1e52 933e 0635 e65b 629f 2045 5fb5
000006b0: 2f68 2c25 fc9d 12b5 7f5a 72b6 0674 0936
000006c0: 33d8 4a18 290b 20b2 4c6a 0edc ea12 38af
000006d0: e0c3 3ee4 6821 4533 e0fd 4ca1 676b 1736
000006e0: a439 4bee b467 feb3 42a7 11f2 6e8d 82ad
000006f0: e2cf bb99 de44 86ad ee47 4f5f ba72 57b3
00000700: 1366 9d3d 33d3 ba33 68b0 8f99 2aba 3daa
00000710: 2e09 5cb3 9ef8 89ae 3a2e 8103 126c 8138
00000720: 0000 07be d055 cf2a 8e3d b4c9 7944 28b8
00000730: 8852 c7be 149a 1eb8 a3d9 82b7 4721 c538
00000740: 6c8b 0c96 7fe6 7db4 de1b f97d 8b0c f331
00000750: 0800 9bdb 101a b633 f6f1 7304 1814 d038
00000760: a2e9 73b0 b377 0c34 5aac 7be3 2e1a cf33
00000770: 836b 236d a640 61b0 c528 a8ee fb16 66b6
00000780: 263c 2f52 f9ea c2b6 4839 068d 61fd 1221
00000790: d406 1677 f683 2225 84df 8f52 e2f9 81be
000007a0: 09df eb9d 112b 17bc 1129 d183 422f a0bd
000007b0: 1a03 a16a ce96 57be b03a 9aa2 889d 8d3e
000007c0: 30e0 5261 685e ea39 8e40 8f48 3b5c 6f37
000007d0: fdb2 0369 77d2 2dba 0285 66d6 69c2 903e
000007e0: c850 e759 3857 57bb eff8 0053 3452 d336
000007f0: b93e f9a8 c683 f034 8ce7 8db6 1104 0e3c
8.821805390358892e-84 -4.72887138864225e-114 -1.360960639143436e-113 -4.832285331061987e-08 -5.027233821414025e-39 -2.848468770706136e-11 -2.010958312175834e-09 2.997501580595637e-07
5.395995920573567e-27 -3.324580840929359e-41 -1.1307925873113467e-70 4.401070385291302e-07 8.545158915962144e-65 5.206267358316925e-83 8.968209083995295e-50 1.3056737749650765e-19
-1.5375381061465459e-46 -5.8581595048709495e-146 7.116937143126837e-129 -4.8680099168051566e-05 9.207982790907025e-16 1.1286614585352729e-08 -3.2477380536539814e-05 0.0002486543928721468
2.4352014239568323e-24 -4.669723216392446e-40 -1.6932013105273043e-28 0.00021000201687485512 5.523755857784083e-21 -3.972506468253679e-44 -4.183866516768942e-44 7.018850028607924e-16
2.0943179778739466e-45 9.400349668723355e-105 -3.8599175975634406e-82 0.034141041771131656 3.5414078312285786e-13 -0.0007716237293599293 0.019219527309558924 -0.2503495540153341
1.3855286806521766e-21 -1.1212125672715399e-34 -1.3040286423833104e-21 -0.37492114175002406 -3.8417155378313055e-14 2.2633719720786468e-42 3.501076819495128e-43 4.585712688344675e-14
2.3707099348651117e-50 6.690422580094419e-135 1.6163800279802477e-116 -0.00035665458842202403 3.99991382488371e-15 -2.035187112876088e-09 -2.8703781626952438e-05 4.8330476849997835e-05
-6.352800016273111e-24 1.1696934064089995e-38 -5.907916257381678e-27 8.181250014795254e-05 -2.8723773372513875e-20 1.5813575572022803e-48 -7.522570129052816e-45 -7.103373769161928e-17
2.2510889600369614e-54 -6.471955234743e-140 3.022660314425438e-126 2.4876437380344247e-11 1.1051899346877362e-18 6.616633495946288e-13 -8.299740403861895e-11 -1.0655044024811717e-09
-3.567049181287692e-33 -1.8754831600805008e-43 7.6206339035288e-27 -1.508378012250117e-09 -2.3075072031725027e-21 2.7200235278541275e-49 2.748083797469687e-53 -5.092254224300868e-22
1.077244845917901e-78 3.092611103574221e-111 -1.20524251363963e-107 -5.670609840731174e-56 3.329118393606897e-60 4.89603734962093e-56 -9.799766278771557e-56 1.3499266026717687e-53
9.564660362862657e-73 -4.197319242035301e-86 2.5678821386909697e-67 1.6510625492345316e-54 -1.2243971191235442e-62 -2.0876526114672342e-78 1.9668612715227537e-94 7.345167064038621e-65
-3.2358869268347772e-46 -1.979832110279537e-121 1.7277904042495764e-83 -9.427408405468048e-08 2.753032486656116e-16 -4.17564431800477e-12 -1.1293134171013732e-11 2.2608943626912e-08
2.7810346051624786e-26 -2.9971330688659216e-41 -6.683817609970957e-26 1.816852603354809e-07 -5.838845013933132e-20 1.0087544035229017e-44 -6.784361152771586e-48 8.91497794020146e-21
1.0559657694257205e-47 -7.219582467805302e-105 -9.134942216945361e-83 -3.536707894121481e-42 3.722756998378194e-71 1.3641763184928603e-39 1.9166344389595984e-74 5.469821828348052e-39
1.0734907157776476e-80 -1.1467559484297331e-84 -1.656811132788802e-40 -1.7094466766564943e-39 -2.4958405027544113e-39 -9.77370023722916e-46 -3.1709021350718355e-75 -5.062474787624989e-48
-5.276277173814294e-44 -4.433151151914159e-104 -1.7566971824947075e-82 0.0392072664959309 -8.861154803848787e-10 -0.0071077345517092366 -0.018972978334861435 -0.5227221397935184
3.337281494608991e-21 -3.539755881006286e-34 -3.441808036562022e-23 -0.7546890968944735 2.35496041035822e-10 -4.809269111453117e-42 1.064684348888264e-41 -5.368280108810217e-14
-2.3621474550913463e-47 1.8892307563546366e-140 -1.197667327769402e-95 -1.058546351169731e-08 -2.2076594744217983e-18 -2.509416902747012e-16 -8.337319784245427e-12 8.58986046767534e-09
1.054975969968762e-28 6.310383898186389e-49 1.4550074187703e-29 1.3530592478947042e-08 3.799121290328821e-23 -1.792069888031928e-45 1.733196738340215e-52 1.0234472105148769e-22
2.4919713781986567e-45 3.1618149638092894e-104 6.1897226722e-83 0.03745552650306366 1.3920343701471842e-10 -0.0028826787365549746 0.007884981532686443 -0.3424392267601081
1.920534347004735e-21 -1.796520443813222e-34 -1.8099129950031552e-21 -0.5078148643449021 3.686184960934838e-15 -7.946328484171518e-44 2.4560785617520704e-42 6.317511386170164e-14
3.847014064134791e-47 3.900176366381662e-105 -1.1528881397130054e-82 -1.292278223638022e-31 4.138796762356597e-49 2.207069667103231e-31 3.955692459940548e-52 -6.230464762445604e-32
-3.153710620423836e-70 -1.4742440605099803e-85 -2.0793683685543668e-33 -5.27228837337816e-31 7.893446219029589e-32 6.299169109929518e-45 -1.1561622596066074e-69 5.938787976503819e-39
-9.478221874346582e-45 6.440927088353927e-104 -3.672423360923356e-82 0.03956812921643053 2.626053274747672e-10 -0.006390197285332354 -0.013350395200869527 -0.4815145600679391
2.999566583575372e-21 -3.1863445926164467e-34 4.359790160346814e-22 -0.6992491941067298 1.0534092338289026e-11 -1.6298280008865488e-42 9.107306174952867e-42 -5.2313956369745885e-14
1.3804297382809954e-88 -5.62579019889088e-107 -2.7207938283743627e-90 6.930964818046245e-49 2.9030342788583863e-53 -1.3058973449748286e-51 -4.859297318421137e-53 2.1769756168293795e-48
-2.97545021256245e-67 -3.172397234009297e-81 1.0273083316370511e-61 4.0060765963830363e-48 -3.0273828807852693e-58 -1.8215165918291854e-89 -2.18641416971757e-89 -2.2799724217197693e-61
1.6693238869170353e-59 -3.240378293107632e-105 -1.6711012671320889e-84 1.638371099835885e-36 1.7488162721485332e-102 -3.565786196264174e-38 -2.2482709965237625e-38 3.179289125589321e-35
-7.621449661398297e-56 4.416042554590512e-68 1.3753996184913793e-59 4.838445030450095e-35 5.6689350417414466e-58 3.8709990188437415e-59 -1.1919667105256825e-75 -1.2091553573052267e-46
-6.627394436766702e-45 2.3205015267576724e-149 8.347315742951153e-130 -1.3393245382165212e-07 -3.139881687208002e-19 -7.359907925540731e-12 -2.1969049392387062e-08 2.2065167231242544e-07
1.0400649914992974e-29 1.1249948578582534e-41 -1.8820412848700237e-28 2.497349299805647e-07 -7.722791000790629e-23 1.3537321519722846e-44 1.0776377236644636e-53 2.0339561795134093e-19

lin1.weight f8 [16, 32]
00000000: d30a 5279 c447 9d3e b3e3 cbcd 84ad 50be
00000010: 30f8 a707 74d8 a6be f8cd ddda fa8e e1be
00000020: cc50 d827 63de d13c a8be 52da 3fc0 0634
00000030: d53f 9240 02c2 48be c202 38d0 ba6a 2937
00000040: 307c d14a a0fd 85be 9f90 b4c0 4902 3b3c
00000050: 9172 0f73 8c89 a5be fc5e dbed 7b4f be38
00000060: 07cc 1902 b9fb 87be d6bd 7e74 a592 10b5
00000070: 80ca 3e08 6b82 a1b7 edeb 0e6a 3202 643d
00000080: dca0 b5dd beb0 553e f497 f419 a434 61be
00000090: 3748 be02 ba0b bebc be36 60e5 a7fd a63e
000000a0: d2de dd0b cf62 19bd ea52 6fe3 a793 393e
000000b0: c282 8323 1669 9dba e672 0898 4efc afbd
000000c0: 70b2 9fa6 f179 98be f8c0 3077 8faa ac3c
000000d0: c730 2e0e 54a1 fe3e 10e4 d383 817a 56bd
000000e0: 8de6 8edc 6a1d c33c 17d0 9124 3b23 61be
000000f0: 423d 7ee6 5e34 99be 8b8d f1db 3ddc 83bc
00000100: bb25 eb24 4ddc 993e c260 ac0d e927 123f
00000110: 0d08 be82 b91d cf3f c089 0035 daf3 f23e
00000120: 56e5 0b45 1d51 e4bd e8fd 78b9 148e e234
00000130: 2cd1 d92b fdf7 753e 5012 08a6 4a23 0038
00000140: 2931 f3a9 dc34 e03f 9e45 3b3a 1e3f 433e
00000150: 29b6 143d ca14 d53f 7224 5455 2684 9139
00000160: 6597 9499 bdbd dd3f 3a5e ae78 953e 0036
00000170: 7f9e b78c d755 c138 647c 35cb bec3 713e
00000180: 6cd1 e2ee 15a1 b23f 7efe 9fbf 44cd 963f
00000190: d11a f0ad df78 713d b0bd bc4b 9f15 843e
000001a0: 9afe c31b 289d 183e 4e10 8bba b24c 083f
000001b0: 1eca bace 3eea 933b 2697 0e1b ac9e 8c3e
000001c0: ea20 79fc 9c9b 1e3e 60ff 9d58 5e17 573d
000001d0: 02ec c2d8 e241 c83e c3c7 689e 7323 cf3d
000001e0: ab43 ceec dd49 773e 54bf 35f3 7bf8 2ebe
000001f0: 25e7 daa4 32ea d93f 3def 9b25 f8e4 c03c
00000200: 3ca5 ed73 e4ce 3e3d 190a 0939 7683 e6bd
00000210: b57e 2f84 8358 3abe b2c6 59f1 36ff 9d3e
00000220: 78b9 4058 1d08 663c 1b73 b749 5aa2 a0b3
00000230: a6f6 60f3 9c4c 2abd 4057 3e9c 4f03 0ab7
00000240: d41d 1e78 67af 4cbe d07b ea58 d06c b53c
00000250: d510 8444 fbf0 45be fd77 71f5 f8b8 a039
00000260: d6e2 ae79 26f5 4cbe eef8 5ab8 135f b934
00000270: 3565 ab7a 5d36 7837 a0bc 2512 9fce 0d3d
00000280: ccc3 53e7 8746 3dbe a18f 4387 a3cc 20be
00000290: e661 444d 63cb 24bc 6aba ccca 0d82 003f
000002a0: e6df 3f00 196c a23c 7439 2349 e6b6 38bf
000002b0: 8805 722a f0ad 183a aa2e 8f56 320f 463d
000002c0: 2a8f d4ed caa3 cb3c 0cd8 cd96 ae3b 12bc
000002d0: c042 6eb6 7d7f 2cbd 58a4 db27 83f0 b9bc
000002e0: 3563 05d2 5dc9 09bd 8cac 0214 2f08 6dbe
000002f0: 4ab0 041b 9077 4cbe 8d59 edf3 711c 49bc
00000300: 5919 8d03 41ee 843e ec57 0eb1 f936 f3be
00000310: c93c d0e8 3f6c ba3f 0df0 d1d3 2021 d3be
00000320: 14c0 9be9 19ea de3d 396a 7111 c990 f834
00000330: a01b 0554 29a5 723e 7c66 4081 131e f8b7
00000340: f278 595b b176 cb3f 29b1 40e7 e2b6 313e
00000350: 9b03 3f0e 7cdf c13f 3740 7fa4 2f93 b439
00000360: 6c2a 87cc 3a35 c93f 0edf 9940 c06b e2b5
00000370: 1794 ce00 b97b b238 21f3 ed3f 666f 70be
00000380: ab75 b347 0400 a03f aaac 09eb e7da 833f
00000390: 7d01 ffc1 0abc 61bd 4a0b aada 8090 4d3e
000003a0: 4006 07bc e7ee bebd 7465 76b8 d656 e4be
000003b0: c3d8 9dc0 cae7 6b3b bc12 228c ecb6 953e
000003c0: 600d 4562 b13e d7bd 8611 54ab a0a3 4abd
000003d0: 6a78 b367 774a bc3e 6430 8fc0 53ae e2bd
000003e0: 3376 e312 18db 843e 30e0 a3cf 766a 343e
000003f0: fa1e 8298 81f7 c53f 7257 2852 91a2 e1bc
00000400: 026c 9723 f524 d0bd 637a 7bf6 b557 83be
00000410: e19f 479b 8170 d93e 60a5 b553 feda d53d
00000420: 28d8 54e6 733f 1bbd f2ff d72a f1cf 4634
00000430: 2c10 482b 01cf 97be 7043 b611 7cf4 c0b7
00000440: aa6d 5822 5924 da3e cb62 0a0f a572 73bd
00000450: ae74 a11c f894 d53e 44e3 7a87 27f4 df38
00000460: 88fd a29b c9b2 e13e eaed 707b e9fb 42b5
00000470: 04dd 8d34 9e72 fe37 496b 63d2 beb7 cdbd
00000480: adda ef9c 0f15 a9be 3937 67f3 0bf7 9c3e
00000490: ac8c 4e68 5c43 54bc 6206 0649 d832 c3be
000004a0: 7f00 821e 7c04 053f 2ed6 e5c8 6ded 483f
000004b0: 1c7f 9c7d 04d4 e13a 3291 4638 b0c1 e1bd
000004c0: da72 e85b 4840 77bd 91bf f1ea e930 5a3c
000004d0: be4a e952 eec1 09bf b83b b16d 26af e3bc
000004e0: 76ed d33b 3279 963e c9bf 6ad3 e3a9 2cbf
000004f0: ae03 1f76 8f28 e23e dcbf 3e3c ce04 eebe
00000500: 3284 b65e 15fe b3bc 8b42 6449 28e3 c5be
00000510: b060 dab0 193c 813d 560e e6a1 e785 f93e
00000520: e012 8f12 dd4a bc3e d514 5fcf 69e9 74b3
00000530: 2911 0532 a2f8 b7bc 7623 f0cb 1903 7e37
00000540: b823 b22e 1afd c63d 7104 d344 4690 9dbe
00000550: 413a 6c86 c2cc d43d 7af4 db86 6267 2a39
00000560: e9f6 77e4 4dd9 ce3d f1fe 891c b445 5634
00000570: c057 3ac4 855a 1fb7 fa4c 15bb 4688 b1be
00000580: 169c c620 2561 973d 89f4 5915 b4cd 963d
00000590: a3ba 2e2b 5ca9 33bc ba1b 7f4a a9c3 c8bc
000005a0: 5281 5085 f450 6dbc f442 2330 2439 cb3d
000005b0: 7965 1fd6 fcf8 e8b9 9116 d293 4bf7 333d
000005c0: f2a1 15fb 6a55 62bc 8066 f864 056f 34bc
000005d0: c416 1853 5e6e 03bd c977 e5b9 5349 ba3c
000005e0: ad26 95cd 3630 12be 56b6 f387 da95 0cbe
000005f0: 4a72 b9fa 1760 d13d 5adb 068b cc5a 66bc
00000600: 98fe 7c49 2dfa 983e bb7b 8a16 3190 213f
00000610: fc00 69ad 12a2 d63f 82ac 42a4 2db2 0b3f
00000620: 1101 1c1a d1b6 fcbd c3db 4f34 34c5 e6b4
00000630: d8e6 a643 65ac 8a3e ecd1 1746 893a e8b7
00000640: 651a 3bfb 2386 e73f 6684 5878 8d01 493e
00000650: 6ff6 b82d 45a9 de3f 8235 2a01 4679 c739
00000660: 9a9d 766e 4698 e53f 3134 5a28 a8f0 1a36
00000670: bf5a ca12 eb9f ca38 9c10 7052 feb2 823e
00000680: b383 00b8 05ed ba3f 7ff5 49b5 915b a03f
00000690: 30fa 679e 975f 863d be77 23da 43d3 713e
000006a0: cf22 ca93 cfcf 0b3e a56f d954 e6a8 14bf
000006b0: b7e9 3f49 f385 8f3b df92 1b0a 0b15 af3e
000006c0: 4982 1258 90a0 293e 4edd c4e1 bc68 663d
000006d0: 6a66 a36a 9426 d43e 6e32 d7a0 e90c 0d3e
000006e0: 211d cbf8 9c2f 82be 9009 8c8a 6d4d 303e
000006f0: 183b a40b 06d5 e23f ddaa 7eea ed7f e53c
00000700: 1cfa 1c15 f2db 9a3e c02d 08dc 4d18 1a3f
00000710: 7a6a d8ed faef d03f 8aec 4f9c 2bd3 fb3e
00000720: b64b 8f93 af1d ebbd b797 6aba 7dc1 d334
00000730: 40d2 dd92 71bc 793e 6706 379b ad42 e1b7
00000740: c2f1 e3c2 97a4 e13f 5b56 00cf 8e8c 443e
00000750: 930d cef2 29f4 d63f 4114 8b46 8c08 a539
00000760: ec8a f13f 7d30 e03f 7754 51e7 bf83 0736
00000770: cede 252f 5f77 c138 5c88 fd94 641e 783e
00000780: 0aa4 395e 413f b43f ab79 c55b 83be 983f
00000790: 7fe6 a0e5 4383 813d e523 8f96 ea1b 843e
000007a0: ae31 fac3 fcc3 173e 90b6 590a 409e c2be
000007b0: ea9c 9d79 f538 953b 5488 f71a 61fe 963e
000007c0: 28f4 1fea 5c57 223e 856b b798 a5bb 523d
000007d0: 9c1c 4bda 0906 cb3e c48c ff21 9cfd f63d
000007e0: 0d73 0721 1606 6a3e 2b86 c5fe b922 28be
000007f0: c459 e60d 3737 dc3f 4337 9c95 0d93 dfbc
4.363110915410552e-07 -1.553241878429441e-08 -6.808495663366379e-07 -8.372552510605376e-06 9.91912135487507e-16 4.530549144307343e-58 -1.1528770842741579e-08 5.6986689949821634e-43
-1.6384368476098974e-07 1.4641574561782837e-18 -6.41861538249241e-07 2.280307430670184e-35 -1.7868944817179576e-07 -4.325712330485336e-53 -1.0049928947796532e-40 5.686780969261825e-13
2.0200770706717873e-08 -3.2047981374843506e-08 -4.1696933473054387e-16 6.851805192124432e-07 -2.2547272295132764e-14 5.955058271984433e-09 -2.375760790249529e-26 -1.4545355155596565e-11
-3.6472594067033314e-07 1.989120785524104e-16 2.9211224397183274e-05 -3.1943924826311183e-13 5.305453806263047e-16 -3.1921306994318216e-08 -3.755774060582004e-07 -3.4452161428914316e-17
3.8535225581041785e-07 6.925926156176306e-05 0.24309462436582444 1.8074558568179208e-05 -1.4782456033843496e-10 6.05385243741956e-54 8.18398104509228e-08 5.928112710726517e-39
0.5064528769812898 8.962375570340825e-09 0.3293939205640038 2.1590395646107627e-31 0.4647058486756264 1.3893645273631635e-48 2.608329095087148e-35 6.617840391441405e-08
0.07277047235658579 0.02226741237245599 9.931774842168709e-13 1.4964090221936983e-07 1.4327171524358822e-09 4.634781300219601e-05 1.054292426223729e-21 2.1323422807783825e-07
1.7816121788734265e-09 3.2814687299047717e-13 2.8917035646814333e-06 5.66405705334039e-11 8.675658165329559e-08 -3.605457177327178e-09 0.40491930102472146 4.689141136872602e-16
1.0945261910596408e-13 -1.6380743681423182e-10 -6.134099508691248e-09 4.469891206954629e-07 9.554725832212808e-18 -5.175740982763881e-60 -4.671688791830508e-14 -1.4580753510475373e-43
-1.335757438318937e-08 2.9733235495833396e-16 -1.0217229854278027e-08 4.122426559769731e-31 -1.3484441832110859e-08 1.0347254681526132e-54 1.7371519140553846e-41 1.3237018027969874e-14
-6.8162361217428465e-09 -1.955704093558541e-09 -5.636356175514145e-19 3.148655500805483e-05 1.2783008321719613e-16 -0.000377112600415417 7.787460009840089e-29 1.5674119317161085e-13
7.671589808184093e-16 -2.4710502697744875e-19 -5.062263847639457e-14 -3.599828945639554e-16 -1.1451545416646434e-14 -5.407625503056017e-08 -1.3255999715087034e-08 -2.722552411636004e-18
1.559457148086665e-07 -1.832461117919758e-05 0.10321425851747103 -4.5608060733580535e-06 1.1246614265063632e-10 1.6029781099661136e-53 6.94586406213455e-08 -4.429682424337391e-39
0.21455971680092706 4.124455100405811e-09 0.13963270850765927 1.0144231439922817e-30 0.19693694102018655 -3.938779005078804e-49 1.3905283166384022e-35 -6.122571958966174e-08
0.0312501275563862 0.009694873676571032 -5.040459186307156e-13 1.3767027369888517e-08 -2.813360287071387e-11 -9.698492944564963e-06 1.8466269511973483e-22 3.235719640076503e-07
-8.456443233807196e-11 -1.892826899181299e-13 1.6862681196309954e-06 -1.3592191285659484e-10 1.5538808768079552e-07 4.753441413265219e-09 0.17161579081243145 -1.957881625867818e-15
-5.873285963294089e-11 -1.4411375136906211e-07 6.065244111820552e-06 7.950963926086895e-11 -2.4200963224143426e-14 7.268409732232971e-57 -3.547759590829507e-07 -3.892681259412938e-40
6.232734937518435e-06 -1.1054812089630071e-12 5.14552852778659e-06 9.615725298997687e-35 8.439249416957213e-06 -3.964050718433271e-52 5.592364143904089e-39 -5.405628227898903e-11
-7.475098814370015e-07 4.3161252296924813e-07 -4.393865648007707e-18 -2.288652986404819e-06 4.008773595476442e-05 0.00076072559913482 4.608480011995574e-25 -1.2919623369209371e-10
-1.3216722499553464e-12 5.679282847308014e-18 -4.912861401309064e-05 -2.185382999248641e-15 3.348800950567484e-07 -0.00021868616177789086 8.658618472769316e-06 -1.431406588622835e-05
-2.774518612067335e-16 -2.609173473840374e-06 1.9593661603481746e-12 2.4340692215142567e-05 1.6863605856048088e-06 -8.13339181691739e-61 -3.3266757272831965e-16 2.153263461517584e-41
4.181616670722292e-11 -4.405315550786484e-07 7.566938881536486e-11 2.5425979936183266e-33 5.6113721792913987e-11 1.4192715346659238e-56 -3.5148605277443302e-43 -1.0450082580007554e-06
5.315876655637651e-12 5.184922225606242e-12 -1.0658554460293753e-18 -6.873474546667531e-16 -1.2713888575046607e-17 4.9518727674947814e-11 -9.849957067448898e-30 7.093347054612817e-14
-7.950959182470572e-18 -1.1077117989275545e-18 -8.629153737767417e-15 3.647975506362676e-16 -1.0587005077563515e-09 -8.319436388959395e-10 6.32112128968847e-11 -9.69479860089605e-18
3.72190080966792e-07 0.00013399695605628516 0.353642148347731 5.282594477881102e-05 -4.1784555859565523e-10 -7.429166094734803e-54 1.9873246677269303e-07 -2.2250507489565675e-39
0.7351245791295012 1.1644356377620575e-08 0.479081434870614 2.314687938304957e-30 0.6748382718550829 4.6082852720833005e-48 4.0060367024854314e-35 1.3931984563242558e-07
0.1051791738723427 0.03194861734389586 2.5435619214580825e-12 6.640424613258886e-08 8.094287805807011e-10 -7.88107474475873e-05 8.344133078222676e-22 9.263217359526795e-07
2.9833990283244273e-09 6.369058413959268e-13 4.804301776151213e-06 8.454790770978196e-10 -1.3549617640925026e-07 3.7957105590155764e-09 0.5885038592694825 2.386948867448474e-15
4.0023271196182663e-07 9.954428879426543e-05 0.2646472284992921 2.6535877413619065e-05 -1.9729457805320533e-10 3.222819281215063e-54 9.587447344172371e-08 -1.5851230477923917e-39
0.5513418966725612 9.56889897877671e-09 0.35865257941642276 5.185131068299914e-31 0.505919098748874 2.0111717946194098e-48 2.628036153403868e-35 8.984924204432908e-08
0.07909019995135239 0.024164249874382964 1.990969710254078e-12 1.498240849425254e-07 1.3833385686158625e-09 -2.2194581841748255e-06 1.1235095650223211e-21 3.4263237133462705e-07
2.135203861808455e-09 2.6621187818146715e-13 3.221462707567506e-06 3.3455818844299745e-10 4.84730585702641e-08 -2.8097595276248173e-09 0.44087005956080483 -1.7527327384870686e-15

lin1.bias f8 [16]
00000000: 6b45 b435 1bcc 99be 1ba4 08dc 8ff7 ce3f
00000010: 6e1b dd01 0994 45be 7049 419f e1b4 b83f
00000020: 9a73 43eb 7e23 b7be f02c ac3e 7d3d d8bd
00000030: 56df dba9 3bde d63f c569 6538 79ee d03f
00000040: aa0e d0e8 5652 96be 604d fa66 2bb4 dbbd
00000050: aa21 6f91 ca4b bf3a e6e3 2441 e278 cc3f
00000060: 1fa1 7ab1 d2ac 02be b01c 266d b3eb 77be
00000070: 880c 1cdc 8c6b d53f 570b 2712 049d 7fbf
-3.844095794606732e-07 0.24192999118648192 -1.004816146576159e-08 0.09651003015577486 -1.3791713345180863e-06 -8.818530599167763e-11 0.35731402957707326 0.2645552683585744
-3.3261833537487795e-07 -1.0078579094945412e-10 1.0112302276612707e-25 0.22243908100952509 -5.435166509204174e-10 -8.91115761511852e-08 0.3346893453128321 -0.0077181014079908605

lin2.weight f8 [1, 16]
00000000: d495 3edd d19a a9be 6394 bee8 839f eb3f
00000010: 4801 bac9 b13a 5fbe d04b 0c11 5ca1 d63f
00000020: ee42 5a41 978d d73e 5a4c 85f5 4e25 df3d
00000030: d45e 88e5 5763 f43f 59f4 198e da2f ee3f
00000040: fccd 496b d6a7 c3be 7c99 76cd b4ce 523e
00000050: a0ef da59 33ab cd3a 4891 f758 df6b e93f
00000060: f0bf bf8b 9221 333e f11f 0e25 20bd 9c3e
00000070: 0cbc a142 6d17 f33f 6edb 3874 6e7d a03f
-7.630814544592001e-07 0.8632220788755486 -2.9084529103250548e-08 0.3535986105427442 5.615494065872664e-06 1.1330752775291607e-10 1.2742537466164565 0.9433415198724432
-2.343131962506812e-06 1.7515799336691423e-08 1.9172981800415684e-25 0.7944180238378431 4.454316190186415e-09 4.2824107020960057e-07 1.1932194330981956 0.032206966101901865

lin2.bias f8 [1]
00000000: 2415 38fe 3cc4 d43f
0.3244774324997073
