Q1/models/bestval.pth (torch, 14767 bytes, 16 tensors)

batch_norm0.weight f8 [1]
00000000: 837d 0bac 29f3 bfbf
-0.12480411958994435

batch_norm0.bias f8 [1]
00000000: 5882 c10c 1224 e93f
0.7856531380785539

batch_norm0.running_mean f8 [1]
00000000: 6af3 e500 cb16 5140
68.35614035087715

batch_norm0.running_var f8 [1]
00000000: f6f9 4c7e 207c f93f
1.5928044255848568

conv1.bias f8 [16]
00000000: d213 6493 21cf 713d 0ff7 432b 1e84 c73e
00000010: 0fde 2972 04b3 3b3e f0a4 7cab 9b6a 853d
00000020: b8b5 24b6 272d 36bf 29e9 adcd bf38 7c3e
00000030: e34c bae5 3b65 91bd 11f3 c0be da4d 00be
00000040: 8301 0d1e 688c c8bd 18d6 d993 dc91 023f
00000050: 4819 2e9f ff28 813e 0fc0 1b0e d6cb 58be
00000060: ac53 ff92 bf10 64bd 5877 a2c4 d669 d93d
00000070: 2897 d554 1640 67bd de8b 709a 1a43 8abd
1.012330476170458e-12 2.803335826694483e-06 6.449242725463997e-09 2.4347670925771983e-12 -0.00033838481444345035 1.0513393837271212e-07 -3.9552663136861995e-12 -4.74512316164988e-10
-4.4653395353143454e-11 3.5419029228583334e-05 1.278530841997464e-07 -2.3093293394693644e-08 -5.702936275166902e-13 9.24535319470919e-11 -6.608144289509692e-13 -2.9856579071560146e-12

conv1.lin.weight f8 [16, 1]
00000000: 670b 33aa f39e 3bbf 1926 8c75 126b 543f
00000010: 9181 e74f ef39 613f de17 77fd 5d07 a93f
00000020: dcaf b02a 370a 51bf b319 2b6e 76c5 7a3f
00000030: 3367 7dd4 4d88 6fbf f203 80bc af03 81bf
00000040: 59a1 cc11 5954 8d3f db99 35df ff68 71bf
00000050: f696 16d5 f28d 62bf 202f 0349 5e4d 70bf
00000060: 26c7 7b62 d00e 103f bb43 eb29 6318 5bbf
00000070: 606c ab5c b28b 71bf 1d98 86c9 5f65 6abf
-0.00042146157120386555 0.0012462311044053652 0.0021028207840886955 0.04888433188493456 -0.001040033220088602 0.006535971277747898 -0.003849174510759301 -0.008307812633576692
0.014321037154858262 -0.004250525951056318 -0.002264951974853764 -0.0039800341621221424 6.125590209274094e-05 -0.0016537636180837662 -0.004283615805174085 -0.00322216709556057

batch_norm1.weight f8 [16]
00000000: b2d9 ab64 0db9 f03f 1fb4 d0a0 7612 f03f
00000010: ca7f 2920 de0a ee3f e9da a8bd 9775 ea3f
00000020: 8ecc 6d16 ffa2 f03f 123e 8b8c 9b48 ec3f
00000030: bdf7 5e47 33a5 f03f b93f e3b0 c7c4 ea3f
00000040: 47bd 2502 1a0c ee3f 9d0f ac5c bf2f f03f
00000050: ca76 f121 f5de f03f 344b 17b7 3e20 f13f
00000060: 7a17 7774 1577 ee3f 5ef2 3704 23dd f03f
00000070: 7aa4 99f4 4ab2 f03f 1b29 2a8d e3f9 f03f
1.0451787884208952 1.0045076639028208 0.9388266208807121 0.8268545822419046 1.0397940517548565 0.8838632340429646 1.0403321063927102 0.8365210013234822
0.9389772455159936 1.011657106399958 1.0544329954058633 1.0703723098747107 0.9520365977011658 1.0539884724413677 1.0435285143560393 1.0610080255742733

batch_norm1.bias f8 [16]
00000000: e799 8f21 0fe1 e43f fc43 98d8 7646 e43f
00000010: 776e b54c d027 e23f 916e a4ff 3d26 e13f
00000020: a19b 9e6a 7e07 e53f 7cb6 2138 ba4e df3f
00000030: c9f6 9f30 942e e83f fbcf 8920 a678 d93f
00000040: 9678 c92d 23f4 e73f 3725 0934 148f e63f
00000050: 0614 955d c6a7 e63f d424 879d a15b e63f
00000060: a1a6 caee f2fd e43f 5cbd 1ed3 9b6e e83f
00000070: 0b82 91f0 2562 e73f 8b0a 4931 da64 e53f
0.6524730353819991 0.633601592098898 0.5673600671975255 0.535918235112563 0.657164772263844 0.48918014031992363 0.7556858968452725 0.3979888265378119
0.7485519308354636 0.7049656883547532 0.7079803302555099 0.6986854626385601 0.65599962843881 0.7635020373763086 0.7307309816933992 0.6685610735515451

batch_norm1.running_mean f8 [16]
00000000: a08a 0172 46be 38bf 0a7f 393e 0f57 513f
00000010: 7ecc 4250 188c 5d3f abfa 75cb 70bc a53f
00000020: bd0d 5490 bd66 4ebf f122 61d3 a437 773f
00000030: 9e57 3776 b7de 6abf b21d 7820 7615 7dbf
00000040: 7014 ece7 e484 893f b35d 46b8 a27e 6ebf
00000050: 8b45 2f8f 0d07 60bf f71e 7358 e47d 6cbf
00000060: be80 c339 8843 f23e bb73 3d08 ae37 57bf
00000070: 6fdd cfc9 bca7 6ebf 5b99 4f8f a9bb 66bf
-0.0003775522218402525 0.001058354268842212 0.001803420776053582 0.04245331271794347 -0.0009277749637991922 0.005668300485986975 -0.003280027698319323 -0.007100545342388841
0.012460506751731354 -0.0037224939462238925 -0.001956488116299842 -0.0034779987214256197 1.7417714489265745e-05 -0.001417083695705686 -0.0037420928260833357 -0.002775031253338484

batch_norm1.running_var f8 [16]
00000000: 0a07 91e3 007c 323e 67e7 4170 8925 623e
00000010: 5a4f aecd 3456 7a3e 54ff 0e79 1880 0c3f
00000020: ab1c 975c 0fac 5b3e d142 92c7 6f42 b03e
00000030: 2db1 d3a7 31c9 953e f5d8 9513 2985 b93e
00000040: 00ce 57a5 aca5 d33e 2439 fb16 b6fb 9b3e
00000050: abb9 f60f 38ff 7e3e 8f8e d339 937c 983e
00000060: 6048 c499 a522 c03d 99ac 1dca f743 703e
00000070: 2e98 d1d2 b258 9c3e c64c d12d 122e 8f3e
4.303732086909285e-09 3.380072935515312e-08 9.811201399776388e-08 5.436014828985475e-05 2.5771660172051524e-08 9.691428018191034e-07 3.24635415284755e-07 1.5211199538546145e-06
4.6842493097612285e-06 4.169828775436285e-07 1.154726341132163e-07 3.648790938960591e-07 2.935001132829092e-11 6.059370829889829e-08 4.2239544734699337e-07 2.323088414158193e-07

conv2.bias f8 [32]
00000000: 7839 6ac7 63fb e53f 78a2 f23b a2a1 37bf
00000010: c217 5a20 b0d4 e83f 4dbc 3a0c 435b e83f
00000020: dca6 fc54 6e2a 11c0 d0ba 4724 869a e63f
00000030: 16fb 621b e27d c63f f342 d313 2bf5 e83f
00000040: b690 9bd2 78b2 e73f b34d 0662 1322 e43f
00000050: bf99 dc8b 3e84 e83f 8b75 524d 1686 e83f
00000060: e624 3993 678d e83f 6a72 9d88 9fb2 e53f
00000070: 7914 efe1 d07e e73f 7a02 643c 868a e53f
00000080: 1986 7056 55f6 e83f 44d2 864a 5984 e83f
00000090: d779 1ed6 55e0 e83f cc1b 01f7 3880 c9be
000000a0: 33ba a014 f65b e43f 97eb 92a6 76d8 f93f
000000b0: a0c1 565f 6398 e83f d61d 9800 c7f8 e53f
000000c0: 9bc1 2a93 38ff e63f a905 d1fa 2c62 e83f
000000d0: d991 b233 f70a e73f 9578 f936 05b9 e83f
000000e0: e051 0eeb fa1c f6bd 8742 bc2b 4ae5 5f3f
000000f0: 04b4 89b8 5c46 e83f f76e 9ae1 aff6 a3bf
0.6869372267554317 -0.00036058626933280864 0.77596288985 0.7611403693061988 -4.291436508103029 0.7063627918813271 0.17571665131796327 0.7799277674876904
0.7405361283713521 0.6291596331160946 0.7661431056665647 0.7663680563161263 0.7672613025144102 0.6780545871984718 0.7342304623386006 0.6731597117905743
0.7800699890396486 0.7661558585737756 0.7773846799862508 -3.039940502022847e-06 0.6362257388007663 1.6153475291054968 0.7686020719611868 0.686618329201276
0.7186549066882891 0.7619843386420843 0.7200885781972445 0.7725854943962697 -3.217894657819305e-10 0.0019467567753432018 0.7585891346221847 -0.03899144772478096

conv2.lin.weight f8 [32, 16]
00000000: 2a34 8165 fa1a 9c3f b692 b219 863b b93f
00000010: 2d94 d783 b661 b23f 018c 0801 059f a23f
00000020: 15b7 1314 1b2e cd3f 0262 e674 17ab afbf
00000030: 7e5d 3cb9 4c61 c33f 4e82 e515 1796 a6bf
00000040: 9082 179b ad1f b5bf ac6c 3526 2e96 b43f
00000050: ce7e 6a01 5224 ce3f fd9e 5e88 6b00 a33f
00000060: 2001 0032 c7c7 b53f 8c65 9d29 49dd b43f
00000070: 7371 f79b 5cb1 a7bf 1b2b 8bbe 501b bc3f
00000080: 37eb c7b3 8c49 f4be faf8 177d 7aa0 e9be
00000090: 1637 65a0 14f9 d7be 428d b77d da81 f6be
000000a0: b88a 6c75 fb85 163f 32db 009e 0969 c2be
000000b0: 08ce c483 17e6 20bf 764a bacf bd07 a3be
000000c0: c63b c272 fd15 1ebf 9cff 5cbd 1aa2 d2be
000000d0: 596c 8cb1 285a f8be f1fb a421 a14f fbbe
000000e0: 2624 a652 6bfb 6bbe 1496 666c 0e08 13bf
000000f0: 7573 2077 b4e0 213f 24fd 9084 81a6 f4be
00000100: 5e52 5d00 a49f e03f f55d 6ae6 ec03 9ebf
00000110: 995b eb13 a988 763f 97da 0637 6cdf af3f
00000120: 21de bd8d a343 9e3f c8e4 0c01 b1ee 95bf
00000130: 997a aaae abc8 d43f 76d4 1e1a bf2f 9c3f
00000140: 643f afb2 9a38 d03f f4ee e08f d1da e13f
00000150: a109 8c2f 19f2 db3f 2a89 027d 6a5a d73f
00000160: cd06 c9de c79c da3f 40f3 d660 a4aa e13f
00000170: 0f99 3107 9643 da3f 5f66 a59a 5219 e03f
00000180: 5854 4ac1 0ee7 c93f ad51 01b5 4396 9ebf
00000190: 0a4f 9b12 ddbf 3b3f db60 6cc0 6513 cb3f
000001a0: 452e b4ef dce5 d73f f418 9f7c af6d c03f
000001b0: a35c 3ced 5260 a93f 3cfa 9aa9 dc77 b7bf
000001c0: 4cb4 8952 19f3 a03f 38ec 8e7a 0e96 d73f
000001d0: 53a6 d022 85f7 c93f 53f6 22b9 71ab ce3f
000001e0: cf8b ea1b 8c47 dc3f 07ed afb5 255d cf3f
000001f0: bf81 65fd ec68 c83f a2ea 50f5 ab6d a83f
00000200: 0566 b62b 58bb e03f 6d90 9059 abce e03f
00000210: 7e8d 5cfd 0ba8 df3f cfed 2efb 8061 ca3f
00000220: 21e8 62c9 b056 e03f 5ab3 bee8 5399 de3f
00000230: 3829 259e 81ee e03f f6ca 2634 c0ea e13f
00000240: 1933 eacb 5192 e23f b720 22e3 f980 e03f
00000250: c3ed a9d6 b109 e13f 715a d4d7 16bc e03f
00000260: e1d3 d39f fb4c e03f 993d b02c 7e4b e13f
00000270: f655 585d bdb7 e03f d7e3 4e74 7a90 e03f
00000280: 3efc c58e 8737 99bf 7b6d 074a 15a2 d93f
00000290: 782a 7ea5 725f c53f 7b03 6c08 284b c03f
000002a0: e56a 6ce4 50f4 da3f f976 ff98 04e4 d23f
000002b0: 3a5f da41 81a8 963f 47c6 f3a5 a119 a73f
000002c0: e428 298b 6650 d83f a75d 65bd 6975 cb3f
000002d0: 5743 5edd bec1 b4bf 0ba5 7186 d46a c0bf
000002e0: 08b6 e592 5358 dd3f 3332 cdf0 d499 df3f
000002f0: 1356 4015 5edd b13f 202d c9c9 b57b cc3f
00000300: e1f9 7c9e fe34 76bf be19 f705 788f a3bf
00000310: ab8d e5f5 7f81 acbf d054 d1e3 234d d7bf
00000320: 723f 6544 72eb 843f dc63 e2cc 98d9 c0bf
00000330: c2a3 90c5 2261 b13f d1c5 da3b 459a bc3f
00000340: 6ca8 f69b 15b5 d2bf d4e0 7239 88f7 b63f
00000350: 4044 7adb b944 9e3f 174f 1507 6315 b13f
00000360: fc5a 9d86 413c 92bf c01b 9832 ff94 913f
00000370: 272b 5a9d c0da b73f 88ab 580b 1741 aa3f
00000380: d07a 0b9c cb18 ba3f 7669 ee7a 2839 d53f
00000390: d40e 337e 6eb5 ce3f 2aeb ef5d 9ad2 d73f
000003a0: b0d9 168f ff9b be3f 790b c826 2f36 bfbf
000003b0: cbd4 1263 7cc4 c43f d2db 0f32 5cfc 95bf
000003c0: 5b80 f214 0b3a c23f 3f24 0a79 e01f d63f
000003d0: b723 0bef 09f4 d53f e3f3 4a7a 5059 d83f
000003e0: cb38 24d1 5589 b03f c493 bbe2 6356 cb3f
000003f0: 75c2 6747 f20a e23f 8d8c 62ee a3a5 de3f
00000400: b42d ca14 46a4 c23f 1e8a b96e 525e e03f
00000410: ca4a 707d 8bf9 da3f 0907 7e49 6ce9 d73f
00000420: f13f 4b16 303c d33f f5be 6a4e 8960 c43f
00000430: df0c bd0f 5bf3 b73f 3255 8bfa b082 aebf
00000440: 99c7 b601 d3ea c03f 2239 e5a6 db5e d53f
00000450: c567 1b71 a14c dc3f 3092 30a2 82d7 e13f
00000460: 7c71 eb44 1f12 de3f ffea a703 a2fa df3f
00000470: bcd0 f239 4373 d33f 5456 2af5 6b03 c33f
00000480: 97e4 e4a4 690f ca3f 654a ca68 036a b33f
00000490: d215 74d4 a62c d23f c1e0 aff5 ea2f a53f
000004a0: 1f30 2619 ec8c c73f bd01 6ad9 32e6 ba3f
000004b0: 1dd5 9aa2 1937 b13f 5e4e 24cd 733d d33f
000004c0: 704f e9e8 74d8 a9bf 2578 5904 0740 d63f
000004d0: 3098 9ab9 0618 d03f 426b 6a64 d9af d13f
000004e0: c214 a290 a4fd b83f 1e95 0a2a bde4 b5bf
000004f0: b7a8 1e68 b205 453f ce4a eb2f 9672 8bbf
00000500: ee4a 8d76 bc1e 973f 55f1 39be ba9e 26bf
00000510: 757c 7509 47e0 cb3f 1a67 7e69 4732 85bf
00000520: 6fc7 2f17 73b7 e13f 3872 8c27 ff29 d43f
00000530: c7a4 97f7 002b dc3f 49f4 f634 671e d83f
00000540: 4392 d890 fc3d de3f 01a2 2c01 692b c43f
00000550: 6c45 313e a9f1 cc3f 0454 6746 d58e e03f
00000560: 6da8 b054 ec4e e13f 3693 e4ce a4f6 e23f
00000570: 009c 9496 4f37 d03f 5bda 1844 717d d43f
00000580: 6608 704e 51b8 9ebf 1dee 0428 88f6 b13f
00000590: 30ae f478 827c 95bf 0061 8646 23d4 db3f
000005a0: d3d2 05fc 16ba d03f c357 44d8 fe36 de3f
000005b0: 7b38 89e4 ee0b bd3f e75f 67e5 3254 b23f
000005c0: 08e9 00e4 c232 ba3f d5c0 0f3e fce8 d53f
000005d0: 3fd0 dd27 1852 d73f 457d 663b 2df5 a5bf
000005e0: 35e4 529c 9fa4 d03f f9b5 4eaa c976 d33f
000005f0: fc2d ed6e cb4d dd3f 3da3 ba80 4863 da3f
00000600: 34c5 4284 092b d13f 848d d4ca d43e e13f
00000610: a1c8 ca7b 971b 94bf 423f 5ebb 7c52 bebf
00000620: a68f 4984 f1fa d43f 57a4 5c97 6a33 b1bf
00000630: 82d8 6a46 5270 e23f 78d6 b789 bd3c ac3f
00000640: 9510 f385 1f2b bd3f 7e43 5cd8 2e61 e13f
00000650: e80c b025 2a61 da3f 4c7b b7d6 c73e e03f
00000660: 6f6d 7789 d486 cb3f c1df 1f5c 58d9 a13f
00000670: 9703 d1fb 6e91 63bf 244c c5a4 94c3 e03f
00000680: 5327 0e7a 6eca ae3f 8838 0a0b 18a3 a1bf
00000690: 0b19 eca2 4564 b8bf 0115 b24b 4a5d 85bf
000006a0: 7aa6 09b2 d6fe afbf 593b 658e 78de ae3f
000006b0: 2926 d333 253b 96bf 4ff5 ae94 df73 a7bf
000006c0: f6e7 aaee 83d6 963f 4024 2808 4084 a1bf
000006d0: b99b 94ef 9146 cc3f c832 beab 076c ba3f
000006e0: f249 f460 a5a2 a13f 1bd0 ef21 60c0 be3f
000006f0: 3567 7786 b5b3 9b3f 5e5b 5fab 5426 b43f
00000700: 844f d947 feae bd3f a6bd 859d cacf 7fbf
00000710: 16f3 1d4f bae3 b93f ca86 2383 8999 c0bf
00000720: 3810 eafa b946 ca3f eff5 9218 b85d d43f
00000730: 74b2 a378 994f dc3f 06e9 6cf0 a34b 953f
00000740: 7b1d faff 708d d03f 3f0d 1275 df17 da3f
00000750: 9030 2ba9 829d c73f 1d0d 21fb 1db0 c83f
00000760: 2c1b 6505 d6de d53f c1e6 77b1 a98b cd3f
00000770: c93b 2b12 6464 d53f c976 7f88 bb1f a03f
00000780: c724 da01 f8af cb3f b4d2 017a 8715 d13f
00000790: 48f1 e55c 2058 d13f ae56 0ed5 c2ad c03f
000007a0: 46a7 a9b9 1845 d83f 1241 9019 d6a6 d53f
000007b0: 9f22 b5cd 8d5b 8bbf 69cd 27fd 0a74 79bf
000007c0: 9466 7b60 cbb1 a13f 3279 1bb0 1b79 d63f
000007d0: fb9c 9a91 2388 a23f 004c bd9e 92f2 b73f
000007e0: 4289 0b15 4b6e c1bf dcd9 8431 d07d bbbf
000007f0: cef8 1889 ea25 a83f bba5 aaa5 8878 d83f
0.027446663327556 0.09856451156026477 0.07180348128129373 0.036369472862382686 0.2279695365936553 -0.061852200527201986 0.15140685124127268 -0.044113847182192786
-0.08251462017461564 0.08041656906918843 0.23548340863361833 0.03711257972400792 0.08507962198928398 0.08150155321108893 -0.04627503780258992 0.10979180004066473
-1.934748000740756e-05 -1.2219843401159177e-05 -5.715601679346659e-06 -2.1464576873142913e-05 8.591983110454559e-05 -2.1946791406672947e-06 -0.00012892758412307048 -5.671453488668353e-07
-0.0001147685949851449 -4.4425059593788104e-06 -2.3224051889686067e-05 -2.604584924736567e-05 -5.2120734689186e-08 -7.25992968911504e-05 0.00013639643617660192 -1.9693769250259414e-05
0.5194873816604504 -0.029311849177785693 0.005501423320956622 0.0622514550372461 0.029554896856522576 -0.021418348015889405 0.32474796349735296 0.027525888413681497
0.25345485162414705 0.5579612550859268 0.4366515125585924 0.36489355285643177 0.41581913715718316 0.5520803347968481 0.4103751249553093 0.5030911465102682
0.20236381948476168 -0.02987008850353028 0.00042342326433451925 0.21152946372672585 0.3734047261102414 0.12834733567269263 0.04956301828331646 -0.09167269840961806
0.03310469753783049 0.3685337254389114 0.20286621284440062 0.23960706272002827 0.4418669006938076 0.2450301301140387 0.1907020795142795 0.04771172875958497
0.5228691915282871 0.5252281903563137 0.49463176481568627 0.20610058083353386 0.5105823453261601 0.47810838440891745 0.5291145409367237 0.5599061029991776
0.5803612692558061 0.5157441555211538 0.5324334328319583 0.5229601111812611 0.5093973275785367 0.5404654381581394 0.5224291632791267 0.5176365157741384
-0.024625890816875044 0.4005177710475533 0.16697533684449062 0.12729359065272292 0.4211618643472959 0.29516711178972305 0.022127170223569005 0.04511742735656959
0.37990726079864445 0.2145206618103945 -0.08108132271287381 -0.12826019825596577 0.4585160193008453 0.49376414790893647 0.06978405016737836 0.22252533295463994
-0.005421633344495609 -0.038203955391100206 -0.05567550541561713 -0.3640832638532858 0.010214703285470004 -0.13164052967184048 0.06788842509617068 0.11172898017209511
-0.2923025153237464 0.08971454050595479 0.02955904390416131 0.06673258707934014 -0.01780798324702014 0.017169940436385422 0.09318164674384076 0.051277847418837175
0.10194084701241057 0.3316136551381058 0.2399118534286716 0.3722291867594999 0.11956784480466953 -0.1219205350571836 0.16224627339912553 -0.021470490031756224
0.14239634058776826 0.34569560833239515 0.34301994651883255 0.3804513162866085 0.06459556919091651 0.21357391901906742 0.5638362307200412 0.4788598850229356
0.1456382371437549 0.5115139162629168 0.4214810109125834 0.3736220090578262 0.3005485742296506 0.15919605568841858 0.09355706342926194 -0.05959084566499441
0.1321662672394808 0.3339146737897797 0.44217716260538636 0.5575574081199814 0.46985608797492495 0.49967241627716413 0.3039100709822937 0.14854192229238328
0.20359535743208276 0.0758363848529285 0.2839753222218323 0.04138120888814135 0.18398810604082969 0.10507505233727606 0.06724701137394047 0.3006257537210554
-0.05047955840259888 0.3476579229808315 0.25146644711856236 0.2763579826948225 0.09762028246958024 -0.0855215289726243 0.0006415482641746383 -0.013402150475859822
0.02257818673690342 -0.00017257718637953925 0.21778190576421577 -0.010349805743135532 0.55364374664917 0.3150632749764415 0.44012474230710236 0.37685566112833563
0.47253336091151626 0.15757477338162576 0.22612491165868265 0.5174356818266692 0.540884175691884 0.5926078835369484 0.253375908900523 0.32015639925103806
-0.029999990856602564 0.07016802765877413 -0.020982779152445896 0.4348228634567164 0.2613580189857149 0.47210665817089764 0.11346333579533223 0.07159727192572483
0.10233705584042607 0.3423452955312432 0.3643856419869315 -0.04288617467977444 0.26004781976695607 0.30412522918308543 0.4578732093111453 0.4123097664947187
0.2682517806634508 0.5389198266533843 -0.019636504107162115 -0.11844615530412475 0.32781637114225715 -0.06719080157621825 0.5762111068095381 0.0551509123433051
0.11393925686121727 0.5431131578244359 0.4121804588359752 0.5076636499105489 0.21505219185096844 0.03486133694235561 -0.0023886840486117655 0.5238745897462462
0.060138180159880726 -0.03444743284954749 -0.0952800295600335 -0.010431843218848604 -0.0624911396342442 0.06029106844163463 -0.021709996498236492 -0.04580591859801563
0.02230268615924299 -0.034212113376334674 0.22090362737909944 0.1032109064382879 0.03444401558421707 0.12012291744741825 0.027052723247698657 0.0787098806753028
0.1159514356052665 -0.007766524759389359 0.10113110000197553 -0.12968558219204446 0.20528340102839748 0.3182201614361863 0.442358367740588 0.020796357678798415
0.25863289830927955 0.40770708496730274 0.18449433574858576 0.1928746677604999 0.3417258312878626 0.23082467236945628 0.3342523744039992 0.031492100155202936
0.2163076409381459 0.26693903841741506 0.2710038096627341 0.1303027668297338 0.37921732073902026 0.33830788132128575 -0.01335821899432804 -0.006214182782503166
0.03455958893546299 0.3511418552206066 0.03619490768806518 0.09354511619066841 -0.1361783840903375 -0.10738850792845461 0.04716427730134996 0.3823567979657942

lin1.weight f8 [16, 32]
00000000: 3825 8d0b c465 063b 42ff d6f9 37a4 9dbb
00000010: d0e1 3e1b 0521 91be 44ed 582a 5909 343b
00000020: daf8 9760 0a1e 37bb 3237 d9ef 4fce 053d
00000030: 6826 e6a5 73af cbbe f6b0 fdee 2bae acbc
00000040: 6a4c 2e20 9968 663f 3b46 7517 0194 403f
00000050: 2ee3 9360 4cea 223f 3d33 3959 dc80 3bbc
00000060: e195 f9e7 8e47 f1be f0ab 1540 5e71 28bb
00000070: 678c 425f b14c a9bb 392e 4b42 a0e6 2d3f
00000080: 1493 03f4 a600 1abe 61cc 63d3 fdd0 f0be
00000090: d48a bc00 2be9 82bf 6ef8 708a 24f5 553b
000000a0: 56f6 e145 e867 3fbf e23b 4634 3858 223b
000000b0: 578f d775 2516 3bbf 9ea7 7878 2a34 493f
000000c0: b993 44d3 d71b a8bb 4aaa 441b c5b2 703b
000000d0: 6f79 057e 8e83 4cbc 23ca b064 e3e2 a2bf
000000e0: 7fd9 6183 114a 35bb f6f9 20d6 2d0d 40bb
000000f0: 481b f9c4 ccbf 21bc f674 28a4 6330 74bf
00000100: cc2f 49ea 89a1 cc3f 58da dab9 a51e 173f
00000110: 5a39 e4cd aeea d33f 3cf9 1be9 757a dc3f
00000120: 4d36 bfd2 4ee8 fcbf 29b5 7d57 8a56 db3f
00000130: 7907 3317 7ae1 b93f 5ffb 1cec ab28 df3f
00000140: 5764 bd15 0ee4 dc3f 443f 1328 9b4f c63f
00000150: 7d85 531e ba55 d93f 6df3 92c2 71c8 c73f
00000160: 43cb 4cf6 1f28 d63f 5bb2 28ad 5ead ca3f
00000170: 7955 0899 ddcc da3f 8d66 0997 088d c93f
00000180: b6ce f7da c921 d83f ccc1 de4e f599 d73f
00000190: 338d 5112 2b36 d33f 9ca7 14ad cbbe 9bbc
000001a0: 7e7a 15a4 0a1a db3f 15b4 0f9d e8fa d23f
000001b0: c7ec 287f 1a66 cb3f 430e eeeb f5bc d13f
000001c0: d3f3 fea9 b9d3 c43f fc69 3cd9 a89f dc3f
000001d0: 67c1 6f2f 5341 d23f 73ea f36b 2747 c33f
000001e0: 3ee8 8ba2 db9b b5bd 002a 03f2 bd3f a0bf
000001f0: cbbf 5c7a 69fb dd3f 80d0 da23 a175 f13e
00000200: e0e6 0f36 4073 36bb 9129 3b82 eb2e fdbc
00000210: 5f32 30bd 0392 50bf 812f e17b 619b ce3b
00000220: 8c36 0fe9 8f12 f23a 2519 e3fc 39db 3d3f
00000230: a069 8bb7 57a0 5a3b 3414 cb91 df71 6e3c
00000240: 33c1 f6d1 c652 29bf 45b5 ea3e b690 eabc
00000250: 3a3e 8e7c 6b65 7ebf 22a7 e03b 25e5 dd3e
00000260: c6ee 054f 7aac 67bb 6a10 7a92 6547 033b
00000270: 2e2d 454b 4603 ff3e 45d1 d808 5d48 9f3b
00000280: d4b8 ceea adf6 57bb 86c3 5f80 01fd 39bb
00000290: 8ae6 05d8 d188 c03e 718c 2b34 068a 1fbd
000002a0: f3c7 f513 8035 de3e 1627 5c60 d605 493b
000002b0: 5592 3a1b 6312 80bb 36c6 9d2c a509 833b
000002c0: 086d f31a fe65 9dbc cf9e e854 96a9 5a3b
000002d0: 82de 1a9a 3613 543b e2f9 84da 4fe2 7ebf
000002e0: fe15 6318 198e 463b 6453 ae30 8773 27bb
000002f0: 3acb fe3f e7d5 c3bd 882f 59d8 b432 a8bd
00000300: 682f 2cf6 7780 b33f 7c2c 36b0 3e6c 22bb
00000310: a7b3 99a1 c26d bc3f 9c1c 256c 5001 b33f
00000320: 3f70 7199 3c8c d7bf 2343 5312 c975 b83f
00000330: f526 3598 5b02 a83f ab3d 6bd6 fa87 b63f
00000340: 777a 9d54 6184 b13f c699 c3cb 0725 b53f
00000350: 3917 b847 dae7 b53f cdd8 a004 e62e b63f
00000360: c5c3 f65e 5d38 b73f 1304 3a32 663b bc3f
00000370: 7f1b 3ddd ab43 b43f 8496 18d8 7dfb bb3f
00000380: 4682 e704 d513 bb3f 8d2e 60f9 5eef bc3f
00000390: 667e da90 fb71 b63f 6a58 1eac 7aff 773b
000003a0: b920 fa9c 84c8 b63f e2e1 4955 0c58 ba3f
000003b0: af5f f3d8 45a2 b13f 8988 644f 6207 ae3f
000003c0: 3fe5 e68a 6e0f b13f a052 5063 8804 be3f
000003d0: 76fb eaab f09b b73f d9e8 51dd 5636 b13f
000003e0: 6527 ef22 5c55 b23d 6d90 2a5a 70fa 75bf
000003f0: 0373 357f a05b b83f 98cd 70d5 d33a 4a3b
00000400: 17c2 3830 35c3 c53f bf50 d267 0a30 33bb
00000410: 591a fd30 f281 953f 2d80 6d8e e8cb ba3f
00000420: 1a13 5b30 219c fcbf 7c6a 1449 9810 b83f
00000430: 3dea c21d 9675 e03f 6e62 3e78 ab3c b13f
00000440: 488f 2383 0e74 a43f 5704 d23d 9740 b63f
00000450: 952c 907f 9b03 903f 2713 e5e8 c0d4 b63f
00000460: fba2 0913 6f8a 943f 58f3 a084 baed cd3f
00000470: e021 9894 f90d ad3f 4dcb ac27 eb37 be3f
00000480: db53 1a38 67d6 b13f e245 b192 da33 9c3f
00000490: bea3 fbd4 5f06 a63f 8a86 35bb 1c43 21bb
000004a0: 57b4 abe3 0994 c13f 2b1e 4b27 06c3 f03f
000004b0: 1ed4 625c 87a5 b03f f088 7251 654e b43f
000004c0: 9619 a907 11d5 b63f d102 2f22 2efb ac3f
000004d0: 51c7 4817 3dc4 b73f 8dda 6ae3 1a76 ab3f
000004e0: e88a 15a1 01ef d9bd c756 cfb6 bcf0 56bb
000004f0: 8c17 0f73 f72e b13f 9612 2bcf c928 243b
00000500: a6a6 3430 1fab 43bb e09e ffba eef5 f13a
00000510: e4e0 7a2c 0cb0 8fbc 8b47 fcda 9ceb 3e3b
00000520: 6410 0bdf 7768 32bb 83e8 3a63 6355 413b
00000530: d530 388b 3586 703d e2af bd2f 3b0c 34bc
00000540: a83e 9ff6 b646 ccbe a7ba 947c 75ad a3be
00000550: 9c07 5ac2 2395 4c3d 4144 ad44 1382 54bb
00000560: 9346 6e23 cab8 bebe 0600 8c22 5b25 3cbb
00000570: ebf5 be9b 2dc6 43bb 3468 940f 4df1 233c
00000580: 4120 b5dc 9d6c 333e 426f ae4a f96a b1be
00000590: 6f2c 6bfa 9c80 133f 8685 c293 3274 46bb
000005a0: 6d61 b7c2 0658 90bb 2bbe 42cb 7f4f 54bb
000005b0: 544b bf3c d911 13bf d138 0f23 9813 30be
000005c0: d096 afbe afbe 483b 625c e738 02c9 11bd
000005d0: e135 bc8d 3c29 bf3c 089e 9bd4 6bf5 2dbf
000005e0: 3170 8f77 d2b2 4ebb a018 1988 15bb d13a
000005f0: c1ae 65d2 6f26 213b ed60 5c48 a1a2 623d
00000600: 5578 6fb1 1a78 d13f 2f7e aff6 8890 68bf
00000610: 17bf 2585 be8a db3f 54d2 b367 0e90 cd3f
00000620: eaa6 86c8 ce51 04c0 ee5f a48f 4196 c83f
00000630: 5ec6 eb6b 966a aa3f 48d5 daa4 ce72 e03f
00000640: 1584 d592 6c30 e03f ae92 9ae9 d02d d13f
00000650: 032c 7c4f 816f db3f a980 48fe 3dea da3f
00000660: a702 0ca1 5165 e03f 7302 cf41 c653 d13f
00000670: 314a fae3 bba9 d83f a5e6 2eb5 a91e db3f
00000680: 620f dfbd af99 da3f 835c 6646 6518 d63f
00000690: 67eb de17 be8f d63f 3079 bfb3 3f40 f6be
000006a0: 3bd5 1de7 5b3c c73f b61c 5df8 9d1e db3f
000006b0: 2cd2 f1fe 3a69 cc3f 2af6 2300 a2f6 d63f
000006c0: 7934 d60e 7f5f c73f 5109 fa7e 6430 db3f
000006d0: 8f0b 9674 f4c6 c83f b944 939c d5d4 d73f
000006e0: 811a 750f 4ba5 d6bd 5459 ba14 7d47 a4bf
000006f0: e7ff ed3b 6785 e03f 3839 7c3c 7c60 7cbf
00000700: 9e85 6239 8874 c93f 1d8d ded4 2b46 363f
00000710: a4ed 3047 f275 da3f 71b9 275d 4940 de3f
00000720: 7591 596a a606 00c0 c861 2458 aca9 d63f
00000730: fcf9 6be6 efdb b53f 2bf1 f7d8 eba2 cf3f
00000740: 268c 64c0 a87f de3f 2d0b 70c7 bccb d23f
00000750: ec80 4c28 f61a d93f facc 5eb6 ab06 d23f
00000760: 512e 98c9 98a3 d53f a283 1a29 818a cc3f
00000770: 3693 a43e 7424 dd3f 32fb b7d8 48fa db3f
00000780: 0c70 f8f3 9568 c63f c27c 227e 948f dd3f
00000790: 6187 4a1f 7f05 d43f dc8b f436 97c3 f33d
000007a0: f0b1 2cea 0921 d03f 0121 e668 72d3 d43f
000007b0: 9c79 8980 a4c5 dc3f 1b40 64c8 817e de3f
000007c0: a2a7 20ad eebb dd3f 4d25 fe00 8638 cd3f
000007d0: 8610 cab8 d4ba d93f 740f 2a5b 0227 da3f
000007e0: f8e0 08cf 9c16 d2bd 603f 5720 7a8c a6bf
000007f0: e63c 524c 51b2 c63f f1dc 2156 4b0e 71bf
2.3158495643171473e-24 -1.569206839014781e-21 -2.5524175417291517e-07 1.6573818245286214e-23 -1.9122220296932218e-23 9.683768116462094e-15 -3.3003519057148163e-06 -1.9900996040615905e-16
0.0027354231583074833 0.0005059247331848435 0.00014431173648412607 -1.4909602551988075e-18 -1.6479038548308337e-05 -1.0109323499975638e-23 -2.6786973835442364e-21 0.0002281256321537849
-1.513547467961323e-09 -1.603734309525392e-05 -0.009233795127845758 7.265156707514e-23 -0.00047921581961660653 7.587151879107591e-24 -0.0004133073287830766 0.0007691581130917396
-2.5526144645539164e-21 2.21000426472235e-22 -3.0914824746926417e-18 -0.03688727001317129 -1.761012080723972e-23 -2.6554947207094086e-23 -4.810935255716779e-19 -0.0049289600597408525
0.22367977084866053 8.819471846775154e-05 0.31119890314666565 0.44497440113618203 -1.8067157966901448 0.4271570066838018 0.10109675470724068 0.4868573957245896
0.4514193737318854 0.1743043847732172 0.39585736238048935 0.18580457688031107 0.3461990266106804 0.20841582732227235 0.41875400490365383 0.19961650252189536
0.377062286220489 0.368771864911676 0.30018116749689056 -9.626083038516519e-17 0.4234644510633315 0.2965642484476246 0.2140534516237038 0.27715824165372654
0.16271134186345523 0.4472448464818226 0.2852371180770405 0.1506089474786055 -1.965310740463958e-11 -0.031736312668346756 0.46846997212832936 1.665066724028429e-05
-1.8570368975997002e-23 -6.4799901173380904e-15 -0.0010113750947794637 1.2962550173675428e-20 9.343267854526651e-25 0.0004555718013644786 8.809916381220369e-23 1.3203334974786201e-17
-0.00019320179943128346 -2.9493386455020182e-15 -0.0074209402745420375 7.127547119659287e-06 -1.566596785232721e-22 1.9933908790759463e-24 2.95761025921718e-05 1.6560907390489179e-21
-7.928887240993763e-23 -2.149702135468052e-23 1.971060271607776e-06 -2.8012398767099135e-14 7.202383414438632e-06 4.1396753991634973e-23 -4.254176587464226e-22 5.039231039827547e-22
-1.0199621907076728e-16 8.821864732051104e-23 6.642277494372645e-23 -0.007540046623317727 3.731423393785763e-23 -9.699222734613426e-24 -3.608067317089058e-11 -1.1004009128282486e-11
0.0761790252692528 -7.619504542398366e-24 0.1110498089344235 0.07423880234010699 -0.36793436989478673 0.09554726312059052 0.04689298851969951 0.08801238760792411
0.06842621150779303 0.08259628987034437 0.08556904078440376 0.0866531144427853 0.09070380752997582 0.11028135992275194 0.0791575827725932 0.10930620694906606
0.10577136392340333 0.11302751148485353 0.08767673765623271 3.176104299134545e-22 0.08899716217468069 0.10290600855103763 0.06888233706138068 0.05865008563184044
0.06664172068748984 0.1172566645112263 0.09222320744718879 0.06723540213889424 1.6674163944875568e-11 -0.005365790248706853 0.09514811616595513 4.339355550352436e-23
0.17001976828170548 -1.5871659339903407e-23 0.0210035173797912 0.10467389561881708 -1.7881175888916858 0.09400321754621105 0.514353807571133 0.0673319977344222
0.03994794226471626 0.08692307719503965 0.015638761196936263 0.08918386159809853 0.020059333359685443 0.23381740070353874 0.05674724520583019 0.11804074972751018
0.06967778320024769 0.027541556552312836 0.04301738238229501 -7.139460864574548e-24 0.13733028046354676 1.0476132903003286 0.06502576833266047 0.07932122457944835
0.08918863713288369 0.056603852913672655 0.09283811396087784 0.05363544488993908 -9.434595489493458e-11 -7.590334882905123e-23 0.06712290343338462 8.337703206313299e-24
-3.253871218006144e-23 9.28545081942169e-25 -5.4969372381493887e-17 2.557672412315689e-23 -1.5226806137847427e-23 2.867594934851851e-23 9.392951206989929e-13 -1.0867922292427856e-18
-3.370789205959922e-06 -5.86437402782588e-07 2.0309142379829803e-13 -6.785563242246644e-23 -1.8311640254991501e-06 -2.3281760884163292e-23 -3.271355960449693e-23 5.405447710906208e-19
4.522568496194748e-09 -1.0381857389112709e-06 7.439573401339811e-05 -3.714685613015387e-23 -8.652363819082711e-22 -6.720195202040775e-23 -7.274521266191258e-05 -3.743111196822534e-09
4.093695204845393e-23 -1.579642208975874e-14 4.3244685923065944e-16 -0.0002285665635135411 -5.078644772735267e-23 2.2916518388894553e-25 7.093133212963863e-24 5.296463279501625e-13
0.272955582882678 -0.002998607165394927 0.4303432750957525 0.23095874847025988 -2.539945189103368 0.19208545221113077 0.05159444873232809 0.5140145511456149
0.5059111469128107 0.2684213906561962 0.4286807323666723 0.420547006915522 0.5123680253455704 0.2707381861364759 0.38535973800131545 0.42374651616737885
0.41563027898904725 0.345238989591458 0.3525233491051751 -2.122018052818606e-05 0.18152951035487228 0.4237437177111575 0.22196137855975573 0.3588032723781419
0.18260181641054254 0.42482864761418165 0.19357162182504026 0.37236538210442977 -8.238449147216543e-11 -0.039607914715065334 0.5162845774175339 -0.006927953050548212
0.19886877824778265 0.000339875889830492 0.41344887687929543 0.4726737413137903 -2.0032470997413676 0.3541060314905988 0.08538722396404091 0.24715946287313648
0.4765416983447629 0.2936851451524259 0.39227060256418045 0.28165715036011785 0.3381101578422419 0.22297682291994386 0.4553499805208959 0.43715115703519125
0.1750667039167414 0.4618884307655656 0.31283548408293 2.8760443241826046e-10 0.2520165240155441 0.3254056953815195 0.4495631461376435 0.4764713723134279
0.4645954790781791 0.22828745888208815 0.4020282558997298 0.4086309328342772 -6.580496196446792e-11 -0.04404050488267219 0.1773168203985513 -0.0041640227155916735

lin1.bias f8 [16]
00000000: 71ac 0df4 aed3 7fbf 891a 65a1 70b8 e23f
00000010: 8e34 56a2 b349 693f 08df 5962 7a5f d63f
00000020: 3d73 2a4a b6bd d93f c4a9 b0a8 88fc d5be
00000030: 699c 727e 88b8 e33f 6b3e d166 22fa dd3f
00000040: e316 48ac 7441 5abf 94a4 9143 aaf9 9b3f
00000050: f874 b029 81e5 8e3e 50a1 d3b4 ebc9 e43f
00000060: 3b88 98b7 cd0d 56bf d6b7 167f f691 42bf
00000070: 6abc 8cf6 d406 e03f ba91 a49f 55f5 81bf
-0.007770236407718221 0.5850146438832137 0.0030869015196857757 0.3495775185069623 0.40220410578494975 -5.241980612284044e-06 0.616276022880709 0.46839199105031665
-0.0016025199303170638 0.027319584249572218 2.301968791981345e-07 0.6496485263606164 -0.0013460644680738504 -0.0005667165370846171 0.5008339705872349 -0.0087687196106082

lin2.weight f8 [1, 16]
00000000: 541b 39cd 7b44 74bf 15d7 4570 2fe4 dc3f
00000010: 0759 9eb2 f7eb 4d3f fc46 d2ea dcf7 c53f
00000020: 3076 7c15 5c83 fe3f 08e6 6f4c efd2 22bb
00000030: a17e 3ca0 d526 e33f 24d7 aff3 fb27 df3f
00000040: aaa9 b878 1752 3d3b 3d52 4c25 6bbc acbf
00000050: 7221 ec70 ca76 05bf a749 e500 ee8b db3f
00000060: 44a6 cf0e 3f04 98be dac4 e406 7776 a6bf
00000070: f971 9651 163b e23f f52d 5a70 11fd 713f
-0.004948123550611101 0.45142732586042317 0.000913139291912641 0.17162667718780955 1.9070702399543613 -7.785408997465574e-24 0.5984905366530776 0.48681544110819375
2.4253490306830857e-23 -0.056125019362444274 -4.093938161104067e-05 0.43041563117472 -3.5787503699247726e-07 -0.04387256583357564 0.5697127908238705 0.004391735191926473

lin2.bias f8 [1]
00000000: 6b7a d3b0 92f1 d53f
0.34286944645092515
