Q1/models/bestval.pth (torch, 14767 bytes, 16 tensors)

batch_norm0.weight f8 [1]
0.774212596305939
00000000: d620 a97e 59c6 e83f

batch_norm0.bias f8 [1]
0.8003655335081907
00000000: b86c e82d 989c e93f

batch_norm0.running_mean f8 [1]
4.032380537630404
00000000: 1299 185d 2821 1040

batch_norm0.running_var f8 [1]
42.35410103058285
00000000: a7ea bc2e 532d 4540

conv1.bias f8 [16]
-3.2685691389518186e-10 -6.184910691092557e-11 -5.04562900134006e-11 2.06057896892508e-09 -7.657340359430753e-07 -6.754870256764938e-11 -7.16385150832632e-11 -5.894976814395009e-06
8.476447354488182e-10 -0.001204212088699324 -1.909038005092308e-10 1.0720618935828044e-10 -2.245759406651742e-06 1.6317109188947992e-07 -2.1662389308845313e-09 2.5860336702747026e-10
00000000: 108d f5ac 2076 f6bd e1e4 9775 3e00 d1bd
00000010: e09d 646e 17bd cbbd c8db a6d5 42b3 213e
00000020: 3e05 def3 9ab1 a9be 15b3 313f 5191 d2bd
00000030: 3cf0 63c2 1cb1 d3bd 16ab 62e3 aeb9 d8be
00000040: 4003 e241 f61f 0d3e 4a55 75e2 d4ba 53bf
00000050: 3027 d691 d43c eabd 146e 8d04 f777 dd3d
00000060: 40af 574a bbd6 c2be d8c7 501a 84e6 853e
00000070: f810 f11a 9c9b 22be 347c 0207 66c5 f13d

conv1.lin.weight f8 [16, 1]
0.05265313393336744 -0.06299850996024886 -0.06657699512933815 0.2413660412203503 0.26658448912503774 -0.17821709925168147 0.23723681016304266 -0.1987982872827428
0.2699019170499462 0.18737775790917346 0.06105672798184518 -0.08338719273560666 -0.101717566835549 0.2886341516440945 0.19461894979172578 -0.08886200841752578
00000000: 4d2b 8d00 5af5 aa3f 14db f99b ab20 b0bf
00000010: ea17 bfa0 300b b1bf ab04 b41a 15e5 ce3f
00000020: 086d 9a63 b80f d13f dbdd 6f62 d1cf c6bf
00000030: 6060 879a c65d ce3f 2aaa 30e7 3872 c9bf
00000040: c1dc b6b0 1246 d13f c5dd 1b8f fefb c73f
00000050: 76fd c3d3 d342 af3f de65 b4f1 dc58 b5bf
00000060: c0c4 fc96 290a babf 5d7c 7460 fb78 d23f
00000070: 2cc7 4414 46e9 c83f 3099 021c a9bf b6bf

batch_norm1.weight f8 [16]
0.5762414485527411 1.184374535991226 0.9567675017358017 0.868332331664134 1.0043748214569816 1.1168396897420454 0.8559726316909884 1.2733941674312632
0.958297680541779 0.9909077070276303 0.34963072257973826 1.0795411163330737 1.139414092889129 0.9990938301484696 1.009166147321776 1.1650055844612996
00000000: 2f47 04e8 9170 e23f 86c2 a4b6 32f3 f23f
00000010: aa96 3ae1 d69d ee3f f8d1 d1e2 60c9 eb3f
00000020: 5356 3155 eb11 f03f e811 654b 93de f13f
00000030: 7c48 6cb7 2064 eb3f 008d 0090 d25f f43f
00000040: 9d4e b8e5 5faa ee3f 7937 6114 84b5 ef3f
00000050: 6a09 ca89 5960 d63f f867 d5e7 cc45 f13f
00000060: 0df7 9845 0a3b f23f 13f0 c39f 93f8 ef3f
00000070: 35a3 ef66 8b25 f03f c8b2 4ee5 dca3 f23f

batch_norm1.bias f8 [16]
-0.7586752078098613 -0.0863258155468703 -0.220041891333825 0.20967704745246052 0.3401309451624141 -0.2717089332906512 0.2676082776342467 -0.21660749948219357
0.30699756630667896 0.33579620167381646 -0.6891365812041162 0.1363510391302495 -0.09587827201253907 0.3842337930573943 0.370237806910801 -0.033722151044809016
00000000: 1a8a ba3a 1147 e8bf b407 93da 7219 b6bf
00000010: 8cae 832b 552a ccbf 38dc c38e b2d6 ca3f
00000020: fb20 7595 b4c4 d53f cfeb a0dd ad63 d1bf
00000030: 97fd 2478 7e20 d13f ef13 2c67 cbb9 cbbf
00000040: 2248 cf1e d9a5 d33f 0fd8 135a af7d d53f
00000050: 37f7 d728 680d e6bf 5d86 eb6a f373 c13f
00000060: 60db b07a 7a8b b8bf 45c5 cc55 4997 d83f
00000070: 842d 1bea f9b1 d73f afc5 c69f 0744 a1bf

batch_norm1.running_mean f8 [16]
0.04247516053370256 -0.05087907414013203 -0.05378402375183035 0.19828365936558623 0.2172994100852227 -0.14731516016247465 0.1951561894875011 -0.16430058308775045
0.22152507927920048 0.15197259164819726 0.04845639835010749 -0.06735456064640585 -0.08173096265141383 0.23675328066036064 0.15786059132608296 -0.07143360079461131
00000000: 9bea c4e2 4dbf a53f ce1a f76e d20c aabf
00000010: a26f 1f5e 9489 abbf 0438 27e4 5b61 c93f
00000020: acc8 e091 77d0 cb3f 8e29 8d21 39db c2bf
00000030: 5ffb bac5 e0fa c83f e1ad 892f cd07 c5bf
00000040: 97bd 5f0d ef5a cc3f 2e39 827f d673 c33f
00000050: 8d2d 64ec 46cf a83f 8e77 3603 263e b1bf
00000060: 348e a803 52ec b4bf 3517 d476 ee4d ce3f
00000070: cb4f 899e c634 c43f 8495 3ff3 7849 b2bf

batch_norm1.running_var f8 [16]
0.001196359680246914 0.0017168449097932934 0.0019185333452244884 0.02608629837059375 0.03132615986340138 0.014376413566361105 0.02527046148458229 0.017881962346415113
0.032560380648322125 0.015311754164799008 0.0015575814289312418 0.0030088628626507566 0.004429705921707034 0.03718602460125377 0.01653296031904516 0.0033837914369707804
00000000: 5ac4 db6c e599 533f 09f8 592f f820 5c3f
00000010: 826b 567e e96e 5f3f 6668 80d9 5db6 9a3f
00000020: 61c2 3e80 fb09 a03f 0272 cf90 6171 8d3f
00000030: 5141 86f6 7fe0 993f 1658 dd2d a64f 923f
00000040: 2149 0f14 c1ab a03f bac0 0edb c45b 8f3f
00000050: c857 1453 f884 593f bec5 fbf2 0aa6 683f
00000060: aeb8 0821 e224 723f 92af 0fef 0b0a a33f
00000070: bf65 812f 04ee 903f 2a62 dd31 53b8 6b3f

conv2.bias f8 [32]
-0.21684463038905744 0.22715802605141405 0.482723092946237 0.3759996161131765 -0.1389337200276493 0.34536742176432184 -0.050174108406719514 0.4474112734755301
0.4734149438250053 -0.09021047276168423 0.45723572233788656 0.4784956393534746 0.3739884476529088 0.2723213985155355 0.3482218480680403 0.30603930892038067
0.3160670874553059 0.4193137579942271 0.4303814979210607 -0.06879755590259787 -0.06958753981096663 -0.05531593910634688 -0.38819420457991827 -0.07000289031837975
0.3916530192906335 0.36315562451791883 -0.025972810326728622 0.39237036139986264 -0.02488459446392256 -0.013414287384394033 0.5239493072078731 -0.07708872300905395
00000000: 60c7 ea99 90c1 cbbf 2e16 75a2 8313 cd3f
00000010: 7998 4e66 efe4 de3f fdef a0b1 6010 d83f
00000020: b249 ea83 94c8 c1bf f338 65f5 7f1a d63f
00000030: 9cf6 6cb5 6bb0 a9bf 721a dce4 62a2 dc3f
00000040: f9a0 4a31 6e4c de3f 56a4 4496 0818 b7bf
00000050: 2644 809e 5943 dd3f 6e50 932c ac9f de3f
00000060: 3911 f03d 6def d73f 6803 28bb b66d d13f
00000070: 4f1d 4d4a 4449 d63f 5a9f c6e5 2596 d33f
00000080: c699 fd72 713a d43f ae46 565f 09d6 da3f
00000090: f3f6 97d6 5e8b db3f ca79 a574 b79c b1bf
000000a0: ae7b b22f 7dd0 b1bf 1b8e d1ea 5e52 acbf
000000b0: 08b8 4a81 2cd8 d8bf 8cfc 8a9c b5eb b1bf
000000c0: 4be8 4ed3 d710 d93f 3c6d aa16 f13d d73f
000000d0: e608 c1cb 9d98 9abf 8174 8893 981c d93f
000000e0: e34a 96dd 587b 99bf dbc2 eb2c f378 8bbf
000000f0: 8e07 6756 31c4 e03f acdb 3628 16bc b3bf

conv2.lin.weight f8 [32, 16]
-0.12966267149255828 -0.009393788519557059 -0.09037007862721456 0.048068785841052585 0.1751160041261337 -0.009038885096380534 0.03238238409920244 -0.01735667524364063
-0.10151143178214761 0.029931722634727386 -0.010308418968952359 -0.05655571671915828 -0.002210807068728172 0.01479170809766551 -0.10854819984424424 -0.018414603583774777
0.1779035012472332 -0.7020517952730924 -0.17931088231679315 0.03620404998643768 0.21004556752091624 -0.8535197078201515 -0.0969874355731394 -0.8435067212975345
-0.09704653359558735 0.06598528951575328 -0.011069921508502875 -0.3862934445275396 -0.8545751632101856 -0.015230464334960383 0.28271778295264866 -0.6944014770670127
0.17009840774772456 -0.4125781488174268 -0.36431402631958437 0.03644670435147236 -0.049370551584864024 -0.42409125553782834 0.21731489872394358 -0.3330910733742372
0.22271390589280995 0.5189633851911931 0.0891890709416658 0.06122045926221872 0.07598798349465091 0.47960296148026815 0.3507777926246288 0.17641737273150063
-0.06852716569590286 -0.7332299932985238 -0.4550614115580712 0.1713922594603416 0.29818073132601686 -0.5223591939980984 -0.12914284494247844 -0.7850811904849546
-0.06494771578896685 0.268545567807875 -0.018773944720816647 -0.33718608879496315 -0.28576459629739365 0.09603258924512267 0.06464487173424682 -0.6254639662129087
-0.08643093346451189 -0.1592546030026868 -0.09367195164343846 -0.12348494630236169 -0.1221332266411844 -0.11276000947071382 -0.12277779869623304 -0.16214065668426658
-0.12324059797400437 -0.1223527149010009 -0.06397783021281203 -0.18007369162210016 -0.15975114729339 -0.12082150610437817 -0.1229092857857032 -0.17018441656926958
-0.3572022132206094 -0.41971079335284145 -0.30255815886170145 0.08782506172438083 0.3683603410012365 -0.45898910310112856 -0.1461873729894708 -0.7137683308397375
0.3413233796052723 0.10934564178224494 -0.3573956042706367 -0.8586372403190916 -0.4306770734134458 0.3928810429729693 -0.05768730531120821 -0.5350289152732081
-0.021200535706676026 -0.010989284687520319 -0.03612384011192743 1.180919667653826e-18 -3.823362091338722e-18 -0.03810404208839037 -1.2478419577239824e-18 0.01592201373537601
-4.3670372066850566e-18 -1.049653499784431e-18 -0.015196425914625547 0.00019170998412057575 0.007999699511337914 5.387613858681887e-21 -4.332483064078303e-18 0.020630122496306028
-0.2957920683849196 -0.031430225906189165 -0.10874746341881819 0.37520711864867007 0.02877852597909583 -0.5384298611111552 0.01300669644395712 -0.3988675731542429
0.07566867061442752 0.25934314034262534 -0.01726150326555019 0.06639457687073423 -0.27765776806165793 0.07854924182034251 0.5023673531201223 0.14185671244661333
-0.244608633239955 0.04303090505020016 -0.015857614312149364 0.40274531104492234 0.269296159755373 -0.36221601734525966 -0.01721302760885433 -0.5801374915106609
0.10383005713838536 0.28284144582849635 0.051673741366387645 0.13996676175194198 0.04003741688621053 0.43426658651987404 0.24850228913345632 -0.3226771732860574
-0.03130574230961658 -0.10886136616393581 0.03166420780635998 -0.007768217417640751 0.026489956359712317 -0.049293088060153006 -0.040220460085570585 0.07086242562871108
-0.059813223914553314 0.08429826756290415 -0.014770839547513166 0.0013076087861534915 -0.06705131081881198 -0.10102742195954965 -0.05545179758680714 -0.1749785763801155
-0.37906566820274434 -0.5047139492724791 -0.23208304224150553 -0.04244543028820909 0.5390146125625482 -0.21341844198541757 0.3487246354950424 -0.12557531916257939
0.4680331326304594 0.07419646722670648 -0.1798470959904845 0.09389168120197763 0.13279783120638175 0.5262066549639215 0.17930486888034475 -0.149029806513152
-0.40673579092467094 -0.30857688477668394 -0.3775111213332789 0.46477047799572435 0.20631272000156883 0.10229619382813758 -0.02467151985007342 -0.29269419742935243
0.04555127805705301 0.2742138258061801 0.056302243913741695 -0.3746464639894497 -0.11321272147953997 0.19903942106567063 0.4026447395689644 0.08254092507745085
-0.15142232555680918 0.04275312533552396 -0.4814541918803752 -0.22753219546760575 0.22247118601726731 -0.5927331282619338 0.43671932197672036 -0.4580406174531754
0.0065979648121001966 0.437357290886916 -0.0016152331427326987 0.04034922635998198 -0.29594089567255605 -0.15703042808820677 -0.1695742180653169 0.038786003019835966
-0.17305029114497925 -0.2862950611327008 -0.48232019093830747 -0.03172051828470146 -0.2370417530992754 -0.1434051564795496 -0.23895975255215354 -0.30353929842212957
-0.04521416025356908 -0.2238082374994977 0.17340771292308022 0.03945931604722481 -0.14813012404945883 0.08910806527509482 -0.1422530499056681 -0.03255956274299475
-0.18364565876586297 -0.9144571937692482 -0.3973770617057098 -0.2142348225437136 0.117621205676273 -0.46780903754554376 0.321344179722499 -0.8021803084170137
0.19917186590259764 0.3214654891091179 -0.07764542348177318 -0.5922687538419694 -0.6322464176489649 0.08915253938458952 0.23498240353275546 -0.8027410019592766
-0.10058595692295476 -0.6111566697496937 -0.22329813091186845 0.21872460100632926 0.4451197623129059 -0.4815210969549532 -0.07131429642019485 -0.8347501582120067
0.06587074593993522 0.38709282128851363 -0.2536053212211725 -0.6892430752995318 -1.0212070932756043 -0.1749487584470108 0.0316632187816908 -0.43023969919265354
00000000: a448 c952 c998 c0bf 35f9 d0f3 0c3d 83bf
00000010: 5fa7 3d54 7e22 b7bf 939f 4ace 789c a83f
00000020: 502d 5d83 336a c63f 0dd0 0c9f fa82 82bf
00000030: 0c5d 5881 6c94 a03f aaa8 27c2 f2c5 91bf
00000040: 58a9 ac37 a7fc b9bf d3fe 50e7 6ba6 9e3f
00000050: 66cc c292 941c 85bf 12d7 6bf3 def4 acbf
00000060: 82c0 da01 661c 62bf c569 4074 1d4b 8e3f
00000070: 48e6 5e98 d0c9 bbbf dffb a420 47db 92bf
00000080: 90b2 d9bb 8ac5 c63f fd78 9953 3577 e6bf
00000090: 440b afb3 a8f3 c6bf f157 5955 5689 a23f
000000a0: 3607 96ed c5e2 ca3f 6287 f28f 0850 ebbf
000000b0: a9d7 e827 2bd4 b8bf 2abb bdce 01fe eabf
000000c0: d8b3 fba7 0ad8 b8bf 8cbc 7c74 69e4 b03f
000000d0: 1855 c9b6 d3ab 86bf 13eb b923 08b9 d8bf
000000e0: 81c5 3e03 ae58 ebbf 9bbb c551 2631 8fbf
000000f0: 45df f153 0c18 d23f 5180 4972 8938 e6bf
00000100: 3867 30dd c8c5 c53f b2c3 0d2e ae67 dabf
00000110: 9511 21c7 eb50 d7bf b21d 7976 24a9 a23f
00000120: af8b e2d0 1847 a9bf c67d 43a6 4f24 dbbf
00000130: 4bf8 797f f9d0 cb3f 35d7 ae38 5d51 d5bf
00000140: f546 16a7 e381 cc3f c9f6 e619 599b e03f
00000150: 6de6 da4e 18d5 b63f 5b31 c1bc 4958 af3f
00000160: 949e ffcf f273 b33f 08d7 a79e d0b1 de3f
00000170: 2e18 dfb2 2473 d63f 21fd 292f d894 c63f
00000180: 862d 8d0f ff8a b1bf 0e3b 35bf 9e76 e7bf
00000190: 9610 14e6 b91f ddbf 2eb9 957a 2ef0 c53f
000001a0: 3eed 55a2 6415 d33f 7993 dfa0 2ab7 e0bf
000001b0: fd29 c5b3 c087 c0bf d6cd ba96 621f e9bf
000001c0: c075 43db 69a0 b0bf e01d cebf d92f d13f
000001d0: 090c 5f1a 7a39 93bf dc97 02f6 7494 d5bf
000001e0: b9ec dc96 f749 d2bf e672 287e 9795 b83f
000001f0: 78e4 f3f9 908c b03f a0bf f601 cd03 e4bf
00000200: bec3 9770 5620 b6bf 0427 d16f 7462 c4bf
00000210: 896e dc90 e2fa b7bf ddbd ea9d b59c bfbf
00000220: a6c8 2d86 1f44 bfbf 862e f908 d7dd bcbf
00000230: ce3f 13a6 5d6e bfbf 34cb e768 06c1 c4bf
00000240: 337c d621 b28c bfbf c39c 13ed 8152 bfbf
00000250: 92dd 6ee0 d960 b0bf 3f86 319c a70c c7bf
00000260: c3d1 8fc0 b972 c4bf 3a2c 5f81 28ee bebf
00000270: 2c06 d3a2 fb76 bfbf de17 ba5b 9ac8 c5bf
00000280: 74d8 f5ab 66dc d6bf 80a2 cea8 8adc dabf
00000290: 18bc 5ce5 1c5d d3bf 051a e007 b47b b63f
000002a0: 1699 6f40 3793 d73f c38a c2d4 1360 ddbf
000002b0: a3f9 0991 44b6 c2bf dd11 bcae 30d7 e6bf
000002c0: 1bf3 3004 3ed8 d53f 2135 6a73 13fe bb3f
000002d0: 13e6 04d0 91df d6bf c88a 49ce f479 ebbf
000002e0: c9a7 5c92 3690 dbbf b162 b287 f624 d93f
000002f0: ab79 69c3 3089 adbf b968 b0f5 f41e e1bf
00000300: 4348 12de 97b5 95bf 67f4 b6d2 8c81 86bf
00000310: 78f8 c5ef d27e a2bf 192b f146 bcc8 353c
00000320: 8fdd 9849 d4a1 51bc 12e7 3a7d 5f82 a3bf
00000330: 67ac 8a5c c404 37bc d49e 1e41 dc4d 903f
00000340: 4a45 3302 b023 54bc 5496 b037 d95c 33bc
00000350: 7b23 8ec2 4d1f 8fbf 1e14 6739 b820 293f
00000360: af70 3b7e 2562 803f aa18 5cba 3971 b93b
00000370: ffc5 e8a8 e4fa 53bc e186 bc15 1020 953f
00000380: 8148 08db 41ee d2bf 81f6 be60 9f17 a0bf
00000390: c422 e8ae dfd6 bbbf b0a2 f4b7 6403 d83f
000003a0: 0814 a12f 1e78 9d3f 0531 9542 d13a e1bf
000003b0: 38ab d83e 41a3 8a3f 9a78 88db 0b87 d9bf
000003c0: 49ea 9ea1 055f b33f 37aa 8df8 1399 d03f
000003d0: 9c76 05e0 ffac 91bf c7a3 4a28 3cff b03f
000003e0: f987 5316 25c5 d1bf 9874 be98 cd1b b43f
000003f0: 0a54 07b3 6413 e03f 5b90 565a 5c28 c23f
00000400: dddc 0af0 554f cfbf 14d7 d093 2508 a63f
00000410: 3bfb 737b fa3c 90bf db89 e344 94c6 d93f
00000420: 2e9d c5f5 253c d13f e274 2517 8c2e d7bf
00000430: 9ba8 94ba 4aa0 91bf b518 2780 7c90 e2bf
00000440: 1a4d c04b 9b94 ba3f 125a f201 131a d23f
00000450: d910 760a fb74 aa3f e734 204c 6eea c13f
00000460: de01 49c8 c87f a43f 684c b614 06cb db3f
00000470: 2998 674a ecce cf3f 547a 9b28 bea6 d4bf
00000480: 402a cb66 4e07 a0bf 07d4 78a7 56de bbbf
00000490: 18d1 f681 4a36 a03f e29b 1cfc 90d1 7fbf
000004a0: 4621 f3e0 2e20 9b3f c43f 4692 f13c a9bf
000004b0: b32b 65b1 c697 a4bf 0b2e 9738 0a24 b23f
000004c0: 4ba4 29c1 d69f aebf 18c9 4a3e 9294 b53f
000004d0: d708 5486 2c40 8ebf 014d 3d3e 826c 553f
000004e0: 0fe8 1e53 462a b1bf dbc1 50e1 eedc b9bf
000004f0: 1a8d 4792 2d64 acbf 60d0 86af b265 c6bf
00000500: 2ee6 fda5 9c42 d8bf c9ba 3ede 9d26 e0bf
00000510: fb14 31aa e5b4 cdbf daae e74d 68bb a5bf
00000520: 51b6 a092 9b3f e13f f366 58a6 4b51 cbbf
00000530: c4af 3022 8151 d63f 1d78 7e20 da12 c0bf
00000540: 7ce7 853d 41f4 dd3f 28aa 3728 8afe b23f
00000550: 5fa4 c7c9 3a05 c7bf fe02 2104 4909 b83f
00000560: f76c 01f3 84ff c03f 403e c056 afd6 e03f
00000570: 2265 ed41 76f3 c63f 8435 8da0 6813 c3bf
00000580: 0096 088e f507 dabf f9b6 1a43 b9bf d3bf
00000590: 942c 0068 2429 d8bf bed3 c8ac ccbe dd3f
000005a0: d7e8 9388 7468 ca3f c743 ff56 1530 ba3f
000005b0: 9d3f 98ab 7d43 99bf c808 6c71 80bb d2bf
000005c0: 3993 1743 7f52 a73f 9bb5 7c25 b88c d13f
000005d0: 3c14 9ad0 a5d3 ac3f fe63 9929 35fa d7bf
000005e0: 7feb 3e48 82fb bcbf 0cc1 0bae 1f7a c93f
000005f0: 9aba 1671 eec4 d93f 7b0b caed 6621 b53f
00000600: 1e4c 1388 ce61 c3bf ba58 3cd6 bce3 a53f
00000610: 147e 293e 25d0 debf 6104 2965 c61f cdbf
00000620: 2b8d 1f92 ef79 cc3f 4381 2477 abf7 e2bf
00000630: b6f6 5a99 35f3 db3f c3dd 0c98 8950 ddbf
00000640: 17fa 68b1 7706 7b3f 92b1 416f a9fd db3f
00000650: d43d 8061 c776 5abf d421 455f a7a8 a43f
00000660: d99a 1d15 b2f0 d2bf 2cd0 8eb4 9219 c4bf
00000670: 63eb 6aa4 9bb4 c5bf 8687 064d c2db a33f
00000680: a3f6 830e 8326 c6bf b38f 2485 a852 d2bf
00000690: d0f3 9181 55de debf 9038 4af9 ab3d a0bf
000006a0: ce87 ac58 6257 cebf 9a26 94a4 195b c2bf
000006b0: c5c8 22b1 3b96 cebf 7286 f117 306d d3bf
000006c0: 73da 3577 4f26 a7bf 0a60 5192 bfa5 ccbf
000006d0: 107c f053 3932 c63f 0906 e4ef 0234 a43f
000006e0: 0124 2c8b edf5 c2bf ee96 2a42 c9cf b63f
000006f0: dbf0 8c12 5935 c2bf 2e73 4ea2 a5ab a0bf
00000700: 2ed3 3971 b381 c7bf 5f96 9abb 3b43 edbf
00000710: e538 0d33 a06e d9bf a7ab 3ef2 0b6c cbbf
00000720: 3918 b25f 6c1c be3f 9501 4251 95f0 ddbf
00000730: d1c1 aa2d e790 d43f 39ae c409 76ab e9bf
00000740: c9df 2ab5 767e c93f 260b a1fc e392 d43f
00000750: 21cd 890a 92e0 b3bf b334 069a ddf3 e2bf
00000760: 4318 dad6 5c3b e4bf 2d1d 0369 b3d2 b63f
00000770: 2882 2745 e713 ce3f 0159 d2e5 0db0 e9bf
00000780: bdc3 6b53 00c0 b9bf a4d4 a96e 988e e3bf
00000790: 981f c37c 0895 ccbf 0790 13f0 2aff cb3f
000007a0: 7bfb 7b99 d77c dc3f 3f5b f0dc 3dd1 debf
000007b0: 2aab dc5a a741 b2bf a03e bbf6 45b6 eabf
000007c0: ce3c 93bb e7dc b03f a0d5 fcf7 20c6 d83f
000007d0: fe22 2fd0 113b d0bf 94fd 6c7e 470e e6bf
000007e0: b7fd c03f dd56 f0bf 46bb 008e b864 c6bf
000007f0: a691 4e52 2936 a03f f34a 5e17 0c89 dbbf

lin1.weight f8 [16, 32]
-2.058170797812468e-20 -0.005932122114601914 -0.06206128695231584 -5.950177912340311e-18 -8.173399045055952e-20 -0.05263750208156062 -0.010102238320958854 0.004096116520613013
0.018834243606686948 -0.002236426064132626 0.025395448514150636 -0.011206282921228994 -0.007827152258214759 2.9200357411941255e-20 -0.010917943527046652 0.007601726030977689
-0.000994674321633574 -0.012345979896997096 -0.10672518359304464 -2.6871940729599664e-09 -0.026524205091010507 6.227424284364769e-21 -0.009451092922972377 0.006912597817984265
-0.01020541472825244 -1.6688669906837029e-06 -1.2980289615630063e-06 -0.16787713413690247 7.52225219639588e-20 -9.558100509923057e-21 -0.005955265543182207 -0.05589749307645129
0.007330034064775748 0.12971039049016692 0.14583722338804683 0.22098733951335175 0.26837834078637157 0.24969027321459758 -0.013233395785006654 0.3044066858111717
0.2838687210672293 -0.02643691428531243 0.25319580796658614 0.01601218255318478 0.03887298013675866 -0.019110554385169523 0.22912621061390817 -0.00031804270007639094
0.09576109627941672 0.11751051126841593 0.10130046223027347 0.06456961807790486 0.18098432406742831 0.02511112321694973 -0.2874855612851406 -0.03673282644527899
0.0009104690150342218 0.1651217774780833 0.031247740283731545 -0.026953028337518656 -0.05186635510518147 0.00011016124646929016 0.319568021538696 0.011983371749441354
-2.5167273468795884e-20 -0.031491151472260163 -0.18876408869799202 -0.06205196108595399 7.162922417918797e-07 0.05748360117291193 -2.3766422032793846e-06 -0.22715674485521165
-0.17408748899967005 -0.04949251899797498 -0.17611088920971663 0.061328243154855994 -0.04719172679349158 0.26558824123626895 0.03210075491848415 0.0014004112281280048
-1.6621726279941756e-06 -0.07079553465072398 0.02879704034316936 0.01625757982622029 0.036736738741008565 4.1673661178916776e-21 0.20391958340458777 -0.006389901956512493
0.01441789328721238 1.655876459820614e-08 -1.2118618845150307e-18 -0.10854871658004542 -4.0930653268825817e-20 3.98806204134124e-20 -0.19996898723926074 -0.06952725360385892
-0.10533274763654986 -0.020031388790397113 -0.01086658924884806 -0.009736850206301141 -4.5227726298532547e-07 -0.0050823260622687855 -2.3513070876129786e-08 0.03397125754340226
-0.06791717057702351 -3.371870965329296e-07 0.004381857010071754 -0.004242003618036869 0.0037343936662581068 0.01595187363677477 -0.05123287200693816 0.07193055024174226
0.006013317581582057 0.004780376799844815 0.007047246605926685 4.175350916586882e-20 6.502275676607407e-20 0.006590559787613675 -0.13084460375675627 -0.0063295492890367
-0.014857720990707635 -0.002670638527366435 0.00010769554727307887 -0.06465499400455335 -0.026011526255898934 -4.8156426387611024e-15 -0.01964417297115079 7.205708654636459e-20
1.386558626854946e-20 1.7505996640384747e-20 -1.3986464779811019e-19 -2.7800098458053127e-20 -1.4738718442917963e-21 4.760619961542925e-20 -2.2274982206876458e-20 2.1699750526170332e-20
4.054729073425297e-19 -1.2140610029096631e-20 8.819476982343907e-19 -3.5972089015120107e-20 6.095407937214383e-20 3.2797000000893326e-21 -2.290223977673806e-20 -1.595471792185267e-20
3.57129193294666e-20 -7.948174514728109e-20 -8.638722414762977e-21 7.22883598876467e-20 2.2580597063539423e-19 -3.5733348771656076e-20 1.0637245469648321e-19 -8.56563845205261e-22
8.819113030819087e-20 8.173562483634688e-20 -1.68027966948171e-20 -6.767007184358617e-18 6.797867102253726e-20 4.482128435069581e-20 -7.593969356266175e-20 1.6991113542465672e-19
5.431479176074286e-20 -0.05648883678556735 -0.15054599767971505 -0.011222491271536352 -2.6392208275922044e-20 -0.09246721447577459 3.827031708464469e-19 -0.0367548527587659
-0.05047343588120703 -3.85608032976545e-20 -0.14458676499828457 0.0727079527541657 -5.3495269578218755e-17 -6.394152487448092e-20 0.05551344320169997 0.014410911421639189
-4.648305086200775e-12 -0.01218649025814194 0.07225411839217198 -4.194317793451567e-20 6.112797708066707e-20 7.659652329550805e-20 3.817494998094266e-19 -5.120278419263403e-20
0.0495369691083785 1.4216369282392631e-18 -1.0520810825801703e-20 -0.04835605380832832 1.0618336288709378e-20 6.4015382207724575e-21 -0.03954151002574161 -1.0912224983593954e-19
0.030208760743295555 -0.025047424161310852 0.31737392886405624 0.03308473765715067 0.26430673298906365 0.04475340296307071 -0.04445144360595595 0.3772793089556473
0.3844328808762792 0.024383274336528694 0.3347274376458265 0.308829455741231 0.24979668437600444 0.17332189687300217 0.23433146240915328 0.2753737444186345
0.16339648721592437 0.1358480397374691 0.19831842708281375 -0.02308737381999524 -0.054496910667332886 0.011298553135399516 -0.25957803117977907 0.011560405074821346
0.06947444114150549 0.17235528863770494 0.014187771649407339 0.2424687604146602 -0.054102639808627624 0.0013684782799089602 0.4173469275057746 -0.06437358035601735
-0.017883060196926936 0.09902993551766932 0.2696560303580517 0.2631710135973882 0.26797947088293145 0.18787628983216495 0.04159250152460659 0.07114626812002546
0.32100667501116686 0.019045123747671314 0.2663473938650465 0.13509405014195422 0.036717277081074265 0.04372994688561134 0.2829824161513535 0.2605666246649345
-0.11342189718222224 0.22106285930155817 0.12396780848837394 0.08430263880369718 0.026865748344080547 0.032700899859571274 -0.007326139400259741 0.058669129176219956
0.3361619746693735 -0.06000981153410149 0.0726034640150575 0.25039447234480555 -0.05978445081242897 0.00017062725306454753 0.03233460377551254 -0.056039606771397875
00000000: 7ec4 2086 704c d8bb 7545 a6e7 474c 78bf
00000010: e1a0 9d3b 7fc6 afbf cbeb 68ed ba70 5bbc
00000020: 3db3 654d a51f f8bb c484 f77b 4df3 aabf
00000030: 1fab a379 7bb0 84bf e63a f2e7 16c7 703f
00000040: 1fac 57b1 4849 933f b89a c519 2052 62bf
00000050: db94 57b3 4301 9a3f a04f 40d5 51f3 86bf
00000060: 103e c297 ae07 80bf 9840 d01c a23c e13b
00000070: b61d 1b93 255c 86bf b8a3 23cb fc22 7f3f
00000080: dc1f 9f6b f74b 50bf e14b 285f d948 89bf
00000090: ba14 3175 5752 bbbf 3a90 38c7 3315 27be
000000a0: 6253 ac45 2929 9bbf b036 3f77 7e68 bd3b
000000b0: 2aff 1f38 185b 83bf 0a34 f058 6250 7c3f
000000c0: 88eb ff93 93e6 84bf 17fc 55a9 baff bbbe
000000d0: c0c7 b9ef fdc6 b5be 269e 6e78 ff7c c5bf
000000e0: 264b 2e2f a733 f63b d090 436a 8491 c6bb
000000f0: be8f f36b 8c64 78bf 5d2c 62a1 989e acbf
00000100: 1a71 6309 1906 7e3f eaa6 8d9e 599a c03f
00000110: 9cdc 7e4c cbaa c23f 421b 052a 5049 cc3f
00000120: 1c76 2859 1c2d d13f 1802 cbd2 d9f5 cf3f
00000130: 219d e450 1c1a 8bbf e288 0f2e 667b d33f
00000140: 85d4 55b6 e72a d23f b3df 0c49 4712 9bbf
00000150: a4d9 ac30 5c34 d03f d531 9d61 7f65 903f
00000160: e057 c5c4 28e7 a33f 44f5 5e98 b791 93bf
00000170: 551f 9ff6 0154 cd3f 0dff dcfe ded7 34bf
00000180: b5cb bf98 cc83 b83f a786 d53a 2b15 be3f
00000190: ea44 59bc d3ee b93f 39b6 f56d a287 b03f
000001a0: 9aa8 7a8c 7e2a c73f 5b35 eef3 bab6 993f
000001b0: 34ae f2d6 2966 d2bf f252 8b20 a5ce a2bf
000001c0: 0844 6152 91d5 4d3f cf18 10dd b522 c53f
000001d0: dbbf 5e5a 68ff 9f3f dc82 f31c 9399 9bbf
000001e0: 2303 e115 3a8e aabf ee70 b1cd cbe0 1c3f
000001f0: b8ca 566e cd73 d43f 1bc9 13ee bc8a 883f
00000200: f24e 1b78 57b6 ddbb 579c 5fb3 9b1f a0bf
00000210: c1fd cef1 6b29 c8bf dd9e 084f 46c5 afbf
00000220: f91c 274c e708 a83e 0c1c 3096 7d6e ad3f
00000230: 00a8 68de ccef c3be 9006 1ce3 7813 cdbf
00000240: 5bbb f2b3 7f48 c6bf 6a65 fc5c 1557 a9bf
00000250: f406 d036 cd8a c6bf 14ad 575d 6a66 af3f
00000260: 5e8b 7096 8329 a8bf b9f6 93d2 65ff d03f
00000270: 9b85 1a99 826f a03f f7aa 3f1b c0f1 563f
00000280: caf5 c021 fae2 bbbe f916 07fa a71f b2bf
00000290: ab65 fba9 f87c 9d3f f3b3 a9b6 d3a5 903f
000002a0: ae9d e866 28cf a23f 7075 0b58 09ae b33b
000002b0: 824a de72 091a ca3f ab8b d83e 4c2c 7abf
000002c0: a096 2ae1 2087 8d3f 48fa 4b78 a3c7 513e
000002d0: 1233 3b1f db5a 36bc e2eb bb43 d9c9 bbbf
000002e0: d2eb 1ff4 4329 e8bb a412 69c6 968a e73b
000002f0: 3114 3472 9598 c9bf 10c6 68c0 89cc b1bf
00000300: 47fb 4b42 16f7 babf 7e2c febe 1b83 94bf
00000310: 2efe 8aeb 3841 86bf 14ee 9de9 e9f0 83bf
00000320: 8420 4370 105a 9ebe 10d1 9983 34d1 74bf
00000330: 6dbd f144 393f 59be b249 4e40 ae64 a13f
00000340: 5815 770a 0563 b1bf 9930 9388 d4a0 96be
00000350: f235 ddc8 b5f2 713f 2497 f12c 1060 71bf
00000360: 80cd 5755 9797 6e3f 06ca 511e b055 903f
00000370: e0f9 7feb 313b aabf 131f df60 0a6a b23f
00000380: 6759 a7a5 6ba1 783f ac47 49a0 9694 733f
00000390: 6957 30db 92dd 7c3f 3a7f 37a6 9ca5 e83b
000003a0: 0a02 4308 fb30 f33b ec8b 00ec b3fe 7a3f
000003b0: fe25 ff16 84bf c0bf df08 1e73 03ed 79bf
000003c0: da46 fc8d b96d 8ebf 89a1 4d24 bce0 65bf
000003d0: fa1f f269 533b 1c3f 42cb c5cc 3a8d b0bf
000003e0: 143f 5afa c3a2 9abf 1691 40d6 0eb0 f5bc
000003f0: 114b df21 9a1d 94bf 5132 33c2 7a44 f53b
00000400: 405f 8fc6 9d5e d03b be1b b3e2 dcaa d43b
00000410: fdfd 2ddf efa3 04bc 8582 d137 0869 e0bb
00000420: e8dc 04f8 34d7 9bbb e72a faa4 0b1a ec3b
00000430: f47a 9245 334c dabb ec35 4de0 589e d93b
00000440: c142 d8aa 2aeb 1d3c 6e2b 3468 8caa ccbb
00000450: b1cb 0c58 e144 303c eaf5 4eca f23b e5bb
00000460: 0f75 a65d 8ffd f13b 08d1 35f9 d3f9 ae3b
00000470: 1a36 bef9 c609 dbbb 3c6f 1882 04d6 d2bb
00000480: 25cd 0fa6 c814 e53b 5623 d78a 7875 f7bb
00000490: 1a3c b28b c965 c4bb f016 513c f455 f53b
000004a0: d4c4 28ac 5aa9 103c e61b 75f9 de17 e5bb
000004b0: 41bf fb82 4665 ff3b 2887 20ae 162e 90bb
000004c0: f1fb 458d 8807 fa3b 12d3 7bea c41f f83b
000004d0: 8eca ce6c 55d6 d3bb c463 3a6d 1235 5fbc
000004e0: cc6f b4ba 5210 f43b c351 1474 3375 ea3b
000004f0: 21db ed4c d769 f6bb 5643 53ab 0f13 093c
00000500: e8c6 c8dd e807 f03b 3c8b 2ad5 1aec acbf
00000510: 22fe 495c 1745 c3bf e159 ed47 d1fb 86bf
00000520: ba48 9935 8e28 dfbb e32b 206e eeab b7bf
00000530: af2f 5afa 0e3d 1c3c 72ea 2235 88d1 a2bf
00000540: 1363 da78 a7d7 a9bf dc1b cbd2 24c3 e6bb
00000550: 9f10 8db1 d181 c2bf 44fe 3c07 fd9c b23f
00000560: f97b f624 82d6 8ebc dda4 42f7 48df f2bb
00000570: a64d 140e 426c ac3f bd89 17ca 7783 8d3f
00000580: 7ce8 34b9 8671 94bd 1cd9 e408 3bf5 88bf
00000590: 97e5 7ef3 3e7f b23f 2056 b81a 46c2 e8bb
000005a0: 890b 6509 b30a f23b 43f2 3a3c 789b f63b
000005b0: be8f ca4e 0b2b 1c3c 4d4c 66c5 8b39 eebb
000005c0: a6e2 86dc e85c a93f e4d1 b296 7d39 3a3c
000005d0: b2b8 f19e 70d7 c8bb e23c 57eb 1fc2 a8bf
000005e0: 0876 8ef4 6312 c93b 7623 7f1e fc3a be3b
000005f0: 953f cae8 c83e a4bf 4c64 7fa4 851a 00bc
00000600: 95d3 c79d 0bef 9e3f 94cb 7c2e 08a6 99bf
00000610: e8be 44bd da4f d43f 4ce9 7794 7bf0 a03f
00000620: 913d 93c9 66ea d03f dde1 3804 ebe9 a63f
00000630: fb5a 18f1 56c2 a6bf ce01 5b1d 5825 d83f
00000640: 45b9 b75e 8c9a d83f cd0f 61d7 edf7 983f
00000650: 25d0 70a1 2c6c d53f e4cd 1c9f dcc3 d33f
00000660: 78a7 0577 56f9 cf3f 8107 6073 692f c63f
00000670: 314f bcc7 92fe cd3f 5220 9d32 b99f d13f
00000680: a8d4 6f14 2dea c43f 31f6 f2f3 7763 c13f
00000690: 77e6 418b 7f62 c93f 7a95 076e 37a4 97bf
000006a0: 7334 19e2 04e7 abbf 8155 ab21 b223 873f
000006b0: 9057 ab2c ed9c d0bf b488 cc4d fbac 873f
000006c0: 1953 9cb4 13c9 b13f 32ec fef3 bc0f c63f
000006d0: 4a08 e679 7a0e 8d3f 0e2d 2462 3709 cf3f
000006e0: f1ec 3559 57b3 abbf 719a 475d d06b 563f
000006f0: f04b 2ee3 cfb5 da3f 8703 5b76 c97a b0bf
00000700: 13f5 cada ef4f 92bf bd95 5f9e 065a b93f
00000710: 23a6 e35d 0b42 d13f 25fb 293c cbd7 d03f
00000720: c342 dc5d 9326 d13f 8bf0 428c 540c c83f
00000730: 2131 9dc3 9c4b a53f 41d6 ce4e a436 b23f
00000740: 541f be94 5f8b d43f 61fd 939e 9080 933f
00000750: f99c 81f0 d50b d13f 6137 9f07 c34a c13f
00000760: 2ad4 8560 9bcc a23f 5a83 7587 c563 a63f
00000770: d9a3 ad47 621c d23f 2c5c d7a2 1fad d03f
00000780: 6d44 0cab 3709 bdbf 8ebc 87ab c94b cc3f
00000790: 1ee0 36b3 5abc bf3f 82dd a094 db94 b53f
000007a0: abe1 14da b182 9b3f a3ac e41e 2cbe a03f
000007b0: 14b2 1492 0302 7ebf f67d 314e e109 ae3f
000007c0: 8247 d783 ad83 d53f 25c8 f423 9bb9 aebf
000007d0: 435f 85ff 2396 b23f c97c 7489 7606 d03f
000007e0: 9bef 184a 119c aebf ec17 85f1 4c5d 263f
000007f0: 5d69 7d43 298e a03f 134b ba2c 39b1 acbf

lin1.bias f8 [16]
-0.02816732721089265 0.41241466511605074 -0.035611062481540195 0.15601130068337743 -0.0014760080806723401 -0.052824861980033055 0.5292011390053827 0.31683020641558074
-0.018780226260226775 0.0044649981814575525 -0.020584358319717024 0.4737976985394589 0.05782871631092571 0.010157800800684218 0.40268703031895964 -0.03585524564848529
00000000: befd be54 e5d7 9cbf 581c c47a 0065 da3f
00000010: 7cd2 77f9 9c3b a2bf 68ea 1ea5 2df8 c33f
00000020: 2bff d89b d32e 58bf d86a 3d3d dc0b abbf
00000030: 1717 213a 37ef e03f 7b26 bc33 f246 d43f
00000040: ba88 65a6 1f3b 93bf 2d2e a8d2 e349 723f
00000050: 9758 2be7 1014 95bf 2769 0995 b352 de3f
00000060: e571 a6ba b99b ad3f 96e0 e7f1 9ccd 843f
00000070: 1992 6fd2 9fc5 d93f 7e8c e666 9e5b a2bf

lin2.weight f8 [1, 16]
-0.020355376168774895 0.18703632151708688 -0.091578272217207 0.018620736447086082 -3.618475851436106e-18 -0.020930671672289385 0.37126515398214666 0.23547777338617812
-7.270265231221704e-09 -0.2726895881211028 0.00583100438217015 0.18650232378071804 -0.005315889781944879 -0.07302702337369348 0.3341919319075234 0.011129520045522494
00000000: 394a c52b 0ad8 94bf 663e 0a62 cef0 c73f
00000010: 7574 3274 ac71 b7bf 464b 4578 5011 933f
00000020: 55e1 9a38 f1af 50bc 2b60 4399 d96e 95bf
00000030: b6da 9feb cec2 d73f cf73 d0bb 2224 ce3f
00000040: e855 94bc bd39 3fbe 7226 bc07 bf73 d1bf
00000050: 37f1 fc51 40e2 773f 6b12 a2e2 4edf c73f
00000060: 9695 334c 1dc6 75bf e73e 1d25 e6b1 b2bf
00000070: d24f 888e 6663 d53f c9f1 ece4 12cb 863f

lin2.bias f8 [1]
0.3924854359698015
00000000: e361 e93b 7b1e d93f
