Q1/models/bestval.pth (torch, 14767 bytes, 16 tensors)

batch_norm0.weight f8 [1]
00000000: ad5e 69bd 80ac a2bf
-0.0364723426070531

batch_norm0.bias f8 [1]
00000000: 57b7 d15a ca32 e73f
0.7249500058949064

batch_norm0.running_mean f8 [1]
00000000: 5962 7b02 db01 5140
68.02899229096637

batch_norm0.running_var f8 [1]
00000000: c6a9 c408 f283 0540
2.689426487447437

conv1.bias f8 [16]
00000000: bee6 d128 cd78 b13d 4c54 ff8c 4999 08be
00000010: 4799 03b4 1d21 b93d d716 9932 306d 79be
00000020: e14b 9e93 a5e4 34bf e2f4 5ac0 276c a43d
00000030: 0c14 2599 7fc5 cc3e 9cac abf3 17cd 1ebe
00000040: 8258 1a67 51a8 96be 546a f678 f346 1f3e
00000050: 4f24 54cf aeb0 38be 7204 b49d fef8 c03d
00000060: 2a50 8d96 d589 e83d dcec bc92 e315 22bf
00000070: 6028 71c5 2b27 a73e b868 ac19 0771 61be
1.5890582730949124e-11 -7.159186802368004e-10 2.2855019310151664e-11 -9.472115594055913e-08 -0.0003188041915730949 9.287069387047592e-12 3.4298274808352655e-06 -1.7928627043757672e-09
-3.376229421396042e-07 1.8205698926276879e-09 -5.748627564648432e-09 3.087304345583955e-11 1.785404699743162e-10 -0.00013798144333940817 6.900135173318175e-07 -3.248735254962308e-08

conv1.lin.weight f8 [16, 1]
00000000: 315a 21bb e472 7fbf 9a01 379e 9556 793f
00000010: 624f 1a33 685b 783f ab96 5503 1371 a3bf
00000020: 6499 8cee 505c 84bf 55c7 2ab5 cf70 bebf
00000030: 7580 93b2 06a3 87bf 04ca 3386 64a3 463f
00000040: 540e e5f7 15ed b33f 7d15 a7c9 3d60 533f
00000050: c6a5 61be ad96 8e3f bb94 8768 6cd2 78bf
00000060: 0e21 f664 4a46 913f 7b1c deb2 66df 5e3f
00000070: b637 55dc 9a63 743f f684 9048 76b1 6e3f
-0.007677930336362369 0.006186088986794758 0.005946547536627241 -0.03797206321432375 -0.009941704063362429 -0.11890886471772195 -0.011541416477882852 0.000690864643188072
0.07783639242284696 0.0011826136966289473 0.014935834286194171 -0.0060600504589036165 0.01686969987125147 0.0018843176762588776 0.004977803158295593 0.0037467298721059984

batch_norm1.weight f8 [16]
00000000: ec35 f96a 30bf f13f e912 0ce1 6c88 f13f
00000010: 5645 c952 51a2 f03f c039 6e95 9827 f13f
00000020: 83e6 d8fe 547a f33f 19bb aa89 09c8 ee3f
00000030: dc17 8127 9f86 f23f a6ae e3b4 301f ed3f
00000040: e00e e3b6 0fd9 f23f 0f63 70cc 8cc1 f23f
00000050: 3f5d 515d 9d83 f23f 7d55 efc0 74bb f23f
00000060: 4aa8 9734 b09f f13f 424f 04f7 ea97 f33f
00000070: d4e1 4acd 3db8 f33f 5088 6796 0279 f23f
1.1091770342494511 1.095806960192187 1.0396283372723096 1.0721669995433416 1.2173662142726307 0.9619186104590397 1.1578666251311835 0.9100574048038268
1.1779935020467107 1.172253416623963 1.157132496378679 1.1707656418342076 1.1014864019766883 1.2245893143744557 1.2324808139074905 1.1545434832737733

batch_norm1.bias f8 [16]
00000000: 53c5 4554 fefd dd3f 90f1 39fa 78ef de3f
00000010: bd73 aa42 3d82 dc3f 6d51 0a75 0ee7 81bf
00000020: a3a8 e5fe 32d2 b73f a3ba e163 1e9e d83f
00000030: d8ea 6275 8e76 b23f 33bf cdd1 fc5e d53f
00000040: 6b21 3d4a 225e a33f f82c 622a 5b2f b83f
00000050: bca2 caf2 84f2 e03f 0270 3e32 6a79 e03f
00000060: ebc2 6df8 4b33 df3f 9e5a 07f0 b78f bd3f
00000070: f965 2dbb df7f ba3f 3672 9c81 a71c e03f
0.46862753133526275 0.48336624561468344 0.44544917593321626 -0.008741486498629237 0.09305113528322066 0.38465080026700543 0.07212152830008323 0.33392258156435445
0.03782756000743145 0.09447259697678934 0.5296044103643776 0.5148211461378198 0.48750590572949076 0.11547422037197427 0.10351370162734232 0.5034978419749396

batch_norm1.running_mean f8 [16]
00000000: 0ab4 d6e4 3ff9 77bf b3e0 96de 3276 733f
00000010: 3b09 4b21 1cc8 723f d646 ee50 88ad 9dbf
00000020: e514 7592 5813 7fbf e72b adcf 243e b7bf
00000030: 51ba 265b 230a 82bf ac6a 2632 2acd 463f
00000040: 6ccc 951b 236d ae3f f526 a25e 2598 4d3f
00000050: 3ac6 91c6 2263 873f 8bf9 96c0 2d03 73bf
00000060: 33a3 e757 8272 8a3f a047 3e9a 74d0 573f
00000070: 7830 c02e 6806 6f3f 7c3f 29e7 a378 673f
-0.0058529373031151 0.004751394947952447 0.0045853709058881155 -0.02898228639566621 -0.007586809143792926 -0.0907919890425287 -0.00880839940950043 0.0006958442721044142
0.05942640029652399 0.0009031469792415136 0.011419555363519785 -0.004641703338562296 0.01291372137798561 0.0014535082527555657 0.0037872347657011383 0.002865142939562247

batch_norm1.running_var f8 [16]
00000000: bca0 c5ad 4441 aa3e cb8b 034e 844d a13e
00000010: 50d5 83f9 831d a03e 4388 3321 251e f43e
00000020: 6aba 05d6 1a07 b63e dc68 8ed2 b2ad 283f
00000030: 5ef1 001e a1bb bd3e 4f0c b209 8a64 483e
00000040: a2a2 57b0 2e25 153f 5f4f 358c 3001 543e
00000050: 9b6f 0263 82fc c83e be2a 583e 4a83 a03e
00000060: 9a56 15be ebf3 cf3e fd7e b878 dc9e 693e
00000070: bc0f c9e9 6dfc 953e 55e8 85dc 8a2a 893e
7.824586094997412e-07 5.156636256022506e-07 4.802732176667022e-07 1.9185785345217592e-05 1.3129564067866387e-06 0.00018828208820027045 1.772220564091082e-06 1.1358750653819869e-08
8.066270319030203e-05 1.8630779375263937e-08 2.978606765747681e-06 4.921213274123243e-07 3.809072482023287e-06 4.77219962125783e-08 3.2761770699476175e-07 1.8750266251780283e-07

conv2.bias f8 [32]
00000000: 097d 2d13 d1c8 f03f 6907 55f3 66e9 f33f
00000010: 49dc 0fe3 330e f03f 0c2f 325a 221b f03f
00000020: ad21 10bc ecdb 98bf 5d17 8451 73ab ee3f
00000030: 6dbd 954d 4cf1 ee3f 7f64 7209 4962 f03f
00000040: af24 2900 cb43 ee3f 34f4 dfd1 78f1 ef3f
00000050: 39da 821d 4795 ef3f 5446 8cbc c42d f03f
00000060: 0a74 53be 6200 f03f 8e58 d462 cac1 81bf
00000070: 32c2 4b46 a2e3 ee3f 07c1 aa51 6f44 b2bf
00000080: fa5f 8521 fbb9 f03f c5eb de2a b8f0 ef3f
00000090: 5273 2db7 6560 f03f 0368 2ab6 49f7 a3bf
000000a0: facf ab15 afe1 ed3f 02bf 2452 011f 52be
000000b0: 0656 c79a 13bc f03f 3c2b e2c7 a378 ef3f
000000c0: a6a3 e20f e99a ef3f 8849 0e7f b507 f03f
000000d0: 867d 7c78 ee3a 99bf 2795 21fd 0076 f03f
000000e0: a251 7832 fe77 1540 8380 7678 ff2a 83be
000000f0: 13a6 f0c1 cf36 ef3f 3083 aa49 c1cd c3bf
1.0490275143745882 1.24448294688815 1.003467452011835 1.0066245578081547 -0.024276446321921764 0.9584290115460409 0.9669553294497014 1.0239954346673412
0.9457755091799721 0.9982265566937998 0.9869723869695185 1.0111739506868576 1.0000941691025695 -0.008670407429729712 0.9652873394935055 -0.07135673278640207
1.0454055127538582 0.9981346928901692 1.023534503495473 -0.038996032225625775 0.9337993071808335 -1.6876602456835618e-08 1.0459171339074387 0.983476534268767
0.9876599607715562 1.001882072746044 -0.02463886843099552 1.028809536737137 5.367180622667009 -1.4281243586062794e-07 0.9754408634082118 -0.15471664521194262

conv2.lin.weight f8 [32, 16]
00000000: 7a9b 8e47 af57 a1bf cdba 462c 18a2 9c3f
00000010: 4458 e2f8 7a1c 773f ad6f 6f33 84cc 933f
00000020: 1f68 1ae5 b0bc c43f 5ecb 71aa 529f bcbf
00000030: 7018 f352 e6ad 843f 8a05 f14f 7241 b7bf
00000040: 095d 9b2e 1130 c1bf 02c6 8b17 3190 96bf
00000050: f9b2 67c2 e6d3 c83f b7d0 1ce0 464a 97bf
00000060: 7074 d485 c55d a43f 344a f274 995c 99bf
00000070: 3996 3329 e424 c3bf 0fa4 dfad a45d a43f
00000080: ec03 1306 0497 a93f 80cf 6d16 2281 d0bf
00000090: 9c6e e233 9ba3 c8bf 7a6a d1cc eb2e d83f
000000a0: 197e 3859 357b e03f eb62 bdb8 95c3 dbbf
000000b0: ff16 3a55 2f54 cd3f a2b8 5521 d626 ddbf
000000c0: 037e d728 6aaa cd3f a87e 150f 8fff d63f
000000d0: ca82 033a b092 c9bf d344 fa10 1bb3 b5bf
000000e0: f054 72e4 fee8 dfbf 5143 4085 b8af d23f
000000f0: c4be 6fa9 1ccc e13f e91d 7702 9196 d6bf
00000100: 593a fb3f 34de e13f 962b c041 4b31 a8bf
00000110: 1cda 2c00 4dfd 53bf fc35 db31 c978 b93f
00000120: c12f 60a3 5129 66bf 8a5b d18c 95c6 80bf
00000130: 2678 e245 d129 d13f ea74 9af1 abe9 a93f
00000140: 8a88 fc74 9f87 d13f c5d4 7907 d5e4 e13f
00000150: e18e 5e8d 326a dd3f 819f aa70 6185 d83f
00000160: c717 3b2e c8a1 dd3f f566 25d5 60a7 e03f
00000170: 59dc 7faf 3f2e d93f 7caf e897 2b4a e13f
00000180: 16e4 20dc 8228 c93f ae4d a4c8 df56 a7bf
00000190: a801 0f51 c3ae 6dbf 6db0 1367 6faa d13f
000001a0: 084d 8e5a ace3 d83f 5b45 a2ea 741b c53f
000001b0: cbab 216b 1127 a1bf 7d4c 610a fbd4 b5bf
000001c0: 0e2c a5fc 196c a03f 4e95 25c0 06b0 d63f
000001d0: 76e9 faf3 6203 c83f ba12 cb18 8233 ce3f
000001e0: ec10 8d80 79c5 dd3f c2fb 82ba 18a0 c73f
000001f0: 1e2a a0ba c7bd c33f e28a 984b 3a3a a43f
00000200: 5a85 2c59 232c a1bf 3789 7b6c b063 a0bf
00000210: 25a4 9872 70ec 9fbf a483 ccb0 36ec abbf
00000220: 05d2 f75a 9306 94bf cf04 2a12 3544 9dbf
00000230: eca8 1a83 47e5 a6bf d93b 81ed 00fa 98bf
00000240: df34 2511 5fa5 a4bf cc77 cc90 06aa 9ebf
00000250: 2ba8 2a76 f427 a1bf cc33 401f 3076 9abf
00000260: af3d d85c 8d9e a3bf 2cd2 3745 1623 763f
00000270: 9d38 0464 8d13 9dbf d6f3 8c3f b131 a6bf
00000280: 5f8b fbb9 46bd 7bbf fcf5 14b5 193a df3f
00000290: 8e21 cc8a 2098 cd3f da84 1b08 2a6d c63f
000002a0: b9a9 3643 9f46 dc3f afe9 f43f 143b da3f
000002b0: 84d0 ce30 9f51 b1bf f753 bee3 8899 be3f
000002c0: b4a2 3d85 0bcd da3f d153 bd59 fadf c63f
000002d0: 7cfd 21ed 08a9 b3bf ae21 cf94 f54a c0bf
000002e0: cb7e 358c 4d7c e03f 097e 22fe 48aa dd3f
000002f0: dcdd eb90 193b 903f 94ea 2f68 54b7 d13f
00000300: 03f3 6caf 8fa0 98bf 2753 1061 ebd0 b43f
00000310: 9ef3 39d3 1678 c8bf 048c 1017 0adb b6bf
00000320: b467 8bd7 d802 a9bf c36e 56eb 4201 d3bf
00000330: 782c 6901 bcd4 79bf 99d2 99fe ab8f d23f
00000340: 6076 1ae8 567c b6bf 4868 daa2 56d1 c0bf
00000350: 87e6 ba8b 16a9 b63f b200 3c75 ee35 c83f
00000360: d0b9 e89a c157 d23f df61 10cf 514e a3bf
00000370: 1c13 d216 cf34 b7bf f68b 2d08 44d7 d43f
00000380: 1a7d bee5 7b57 b83f a219 e657 ccf0 d63f
00000390: 0361 4533 0dfc d03f 0be6 b88f 422b dd3f
000003a0: 3676 ebd3 4c4c b83f 6b74 228d 0fb5 bfbf
000003b0: ab46 585c d66c b53f 9cb0 02e6 30ee 79bf
000003c0: 177a f92a 2cc5 c23f 5c9f e676 ec7a d43f
000003d0: 6842 12f8 f8f2 d63f ebf0 abf8 ced2 d93f
000003e0: 5382 792c 726f b03f 6554 9107 8600 c23f
000003f0: 200d 1f12 020e e23f 0df4 471e ad8e e03f
00000400: 0370 8341 e038 c23f 6721 46e4 1c77 e13f
00000410: 4d35 ed7b 2e57 dd3f 7634 ec81 fd59 dc3f
00000420: e8e4 e0ba f3d1 d23f 6e96 97ec 4dce c83f
00000430: 80ef 61e5 7de3 8c3f f492 0629 a7ec a7bf
00000440: 9963 1f8a 373c c13f 33b9 01a1 506e d33f
00000450: 4c47 4f47 6e55 dd3f ef85 6eed 1fc1 e23f
00000460: 05d6 235b e54f e03f f1cc fbc8 a31c dd3f
00000470: baa8 ade5 b356 d13f 0472 117b b9bc c23f
00000480: 0dde 55f4 013d c93f 0f3a 0103 96dc ac3f
00000490: 1305 aa32 7e9e d33f 52eb ea19 f179 b0bf
000004a0: b15c a785 2850 9d3f cbf6 1531 2424 bf3f
000004b0: 5ccc 91d6 a354 c5bf e1f7 fa1d 9004 d73f
000004c0: e7cd ab93 0b3d ccbf 172a b117 9e3f c83f
000004d0: d853 1e57 45ad cf3f a622 6e54 36e6 d13f
000004e0: 1658 201f a821 c43f 19d9 c5a5 8d4b d6bf
000004f0: d488 04e2 06e7 cbbf d12f 4233 b9be a8bf
00000500: 8184 93a5 da7c 7e3f 4c34 afce 355e 8bbf
00000510: 4311 435f 0c5d ce3f 6128 872f 156b 903f
00000520: cc2c 2431 d484 e23f 7e74 517a 60d4 d73f
00000530: c7e7 4fc0 bf3f d93f 1ea5 51d6 83dd dc3f
00000540: 5823 c491 ce6d e03f 85ea 40aa 4b91 bc3f
00000550: c24e 5656 63f2 cc3f 0208 0551 aa90 e13f
00000560: ef79 3b3b 7f35 e33f da9a c9be c1fc e13f
00000570: a5c7 42b6 20df cb3f 406c e16e 2e80 d53f
00000580: f397 3057 aebc aabf 8be6 0031 f6c0 b03f
00000590: 5fc2 60b7 dd0d a0bf bcb6 79a7 a208 e13f
000005a0: 7f86 9fab 388d d03f ae17 e5d6 011c e23f
000005b0: 5d0d 5d3d 3327 a13f 46a5 3d1c 5792 ba3f
000005c0: bdee 860d ecb5 ba3f 4ef1 b8f3 5b9a d43f
000005d0: c006 c11c 08c4 d83f efd4 7969 4178 b1bf
000005e0: 3a61 b541 2942 d23f b54d cc91 0aaf cf3f
000005f0: a783 c462 b2e6 dc3f 148b 50a1 bfb0 dc3f
00000600: 15a3 2823 a497 d13f 8d67 500c ee8d e23f
00000610: 55eb 1597 c4be 9fbf 1711 c838 dc40 bdbf
00000620: 9f3b c971 2800 d23f e1bb bd43 5476 afbf
00000630: 6296 b3da 35dd df3f 20c8 e982 a266 b43f
00000640: 36f2 5fed 0626 bc3f 67ac 8b4f 5a70 df3f
00000650: f229 ca7f 6955 db3f 1bfe d1b4 ed1d e13f
00000660: 0f68 495f c426 cd3f 62b6 826f 8c39 afbf
00000670: 0e79 b9de 0871 b2bf 378a e250 61d0 e13f
00000680: e9a4 bfd4 f97f b2be 010e a97b c9b4 c6be
00000690: cb3a ec85 e4db aabe b7cc 7b5e 1b0a 84bf
000006a0: f5bd 2387 5aa4 87bf 1a9d 4a5c 3335 45be
000006b0: d070 4e9d 3064 86bf 5c6e eeaf e8f6 c8bd
000006c0: 3730 ab6f b808 8abf 6a12 3c06 41eb 82bf
000006d0: e2cd 1084 714c cf3e 3d3c aadc 71c9 e2be
000006e0: 94eb 9d52 b35b c0be 70fa f9ee 03dc 92bf
000006f0: ce03 e80e 7e0e 82bf 4c68 87ab 50cd d2be
00000700: 08c4 7b14 3e8b bd3f 5f7c edd3 299c 94bf
00000710: ff43 93c7 d5bd bc3f 010f 8b94 f0f4 bbbf
00000720: 7431 3673 fc8a ca3f 5d89 c358 d44d dc3f
00000730: ced9 6975 ef80 da3f 6559 1025 9c93 a83f
00000740: e054 82bd 0fc4 d23f 4ac4 094a 91fa d93f
00000750: 4ec7 ec32 98e8 c73f ac2d ed5f 0885 c93f
00000760: 60dd c6c4 8b23 d83f 4d0a 5ee7 ce93 c63f
00000770: 3821 62db f5a1 d43f bf61 b07a 8738 953f
00000780: 978a 4164 8ede 96bf 0611 3a1f 1075 9d3f
00000790: a913 61a8 fe44 aa3f a9f2 0cd4 6e36 903f
000007a0: 3c7e ab05 c395 be3f adfd e822 3688 c23f
000007b0: 3045 00ae 01e8 bfbf c274 ba0b f62d c4bf
000007c0: eddf 103a 5b0e aebf 0c47 67d7 6b06 b73f
000007d0: 86e5 cb1f 9ce6 c9bf 3734 2086 8b35 c3bf
000007e0: 308b 1449 7bf5 b4bf a55c 2c83 0b88 c6bf
000007f0: 5a25 8786 00aa b3bf c1ae d564 10ea bf3f
-0.03387210606097475 0.027962091162119052 0.0056423953630169756 0.01933485568939346 0.16200839220692928 -0.11180607472651391 0.010097312361164706 -0.09084238483139565
-0.134279392010946 -0.022034422933705507 0.193966717647889 -0.022744281224007703 0.0397779203287677 -0.02476730133327916 -0.1495633317164662 0.039776941513828594
0.0499802834906474 -0.25788166227652454 -0.19249286683485856 0.3778638363052448 0.5150400869933406 -0.43381255188937357 0.2291316190859831 -0.4554953885589247
0.23176314348437196 0.3593480727485976 -0.19978907425595188 -0.08476418652050492 -0.4985959273265754 0.2919751454619944 0.5561660107905131 -0.3529398464274594
0.5583745240817947 -0.04725108316059516 -0.0012200595817383258 0.09949929682917252 -0.002705249261458293 -0.008191269264143281 0.2681773359744305 0.05061089824924088
0.2739027635999568 0.5591836114896515 0.45960677915193854 0.3831409073122743 0.4629993869278874 0.5204319155702409 0.3934478010045886 0.54030399007523
0.19654880283795312 -0.045584672205360874 -0.00362337253361052 0.2760275370226342 0.38889607280107485 0.1649004121468732 -0.033501190497950604 -0.08528107646388779
0.03207474907920736 0.3544937969621359 0.18760334885684998 0.2359469052372754 0.4651778941518063 0.18457326037420613 0.1542291318185826 0.039506742218028426
-0.033539871821867975 -0.03201056789636641 -0.031175381655121143 -0.05453654201688288 -0.01955633394932656 -0.028580502732897636 -0.04471801257507643 -0.024391188141006246
-0.04032418331426312 -0.029945471370517215 -0.03350795690978744 -0.025841476352116463 -0.03831903227193877 0.005404555314715991 -0.028394898633501076 -0.043347872741356916
-0.0067723047975246356 0.48792116817261877 0.23120505120483553 0.1752064265811331 0.4418104320890524 0.4098559021546419 -0.06765170041654939 0.11953025398391036
0.4187649537257514 0.17871026403250181 -0.07679801740049713 -0.12728757635183058 0.515173696370732 0.4635183793816116 0.015850448103234757 0.27681455778626085
-0.024049992639663575 0.08131285781594198 -0.19116483033931514 -0.08927977622128941 -0.04884984618338653 -0.29695198995771593 -0.006306394955184584 0.29001903403631385
-0.08783476988397743 -0.13138850166143556 0.08851757918719204 0.189145858043053 0.28660621764984473 -0.03770690586697233 -0.09064955050605444 0.3256387786734075
0.09508489951121071 0.3584471567523001 0.2653840065663788 0.4557653811967561 0.09491424726316997 -0.1238565177504413 0.08369197611343775 -0.006330672273332418
0.14664222811093516 0.32000266658223153 0.358579866654543 0.40349172863331145 0.06420053087050208 0.14064097756878194 0.5642099718028568 0.517416533606253
0.14236071776292655 0.5457901438212901 0.4584461412640238 0.44299256980668333 0.29406445741513076 0.19379591038084548 0.01410578113813421 -0.046727393873231465
0.1346501755167793 0.30360809062303246 0.4583392807372675 0.5860747945154666 0.5097529201581784 0.45487303378395355 0.27091691426779685 0.14638441571413818
0.19717430525246052 0.056370437495037 0.30654864261312403 -0.06436068423037725 0.028626092107370386 0.12164522360213963 -0.16664550759341779 0.35965350082176256
-0.2206129523325295 0.18944145352209382 0.24747530702430143 0.2796760391725378 0.157277121733103 -0.3483614081263951 -0.21798788105031142 -0.0483301043578589
0.007443288887970857 -0.013363285417563507 0.23721460963691685 0.01603348829829832 0.578714462260359 0.3723374552262796 0.3945159318969868 0.451020201965166
0.5134041640277287 0.11159203440267092 0.22614709582977893 0.548909338227759 0.6002803952104027 0.5621041036909802 0.21774681949096678 0.33594857052020544
-0.05222077192620125 0.06544436165213534 -0.03135578979015884 0.5323041220669533 0.2586194683081899 0.5659188458600874 0.033502198448810395 0.10379547538254483
0.10433841066599832 0.3219213371374011 0.38696482475289073 -0.06824120354743334 0.28528815667006635 0.24752933615728315 0.45158061642910713 0.44828787568455764
0.27488044198484946 0.5798254242429138 -0.031001159402403406 -0.11427093874232629 0.281259642714696 -0.06144965483587562 0.4978766093975989 0.07969108291743554
0.1099552468803687 0.4912324692547316 0.42708814124549044 0.5349033862730183 0.22774557736084985 -0.06098593579495738 -0.07203727185831019 0.5566870288642524
-1.1026803177167113e-06 -2.706789897362469e-06 -8.004592578508112e-07 -0.009784902401838698 -0.011543948411115482 -9.87565841024828e-09 -0.010933284569368956 -4.541013918313074e-11
-0.012711945445879376 -0.009237773897902108 3.73108471809503e-06 -8.958288977538065e-06 -1.950049996088949e-06 -0.018417417012182857 -0.00881670458784525 -4.482749027501643e-06
0.11540592193684074 -0.020126966056860925 0.11227165338938504 -0.10920623423140442 0.20736652017184165 0.442250334437764 0.41411959139022947 0.04800117447318789
0.2932166433977965 0.4059184287098715 0.18678572165077373 0.1993723362341887 0.3771695539139355 0.17638574883683802 0.3223852770247677 0.020723454345075384
-0.02233335959352675 0.028766872316297508 0.05130763821993096 0.015832645123043197 0.11947268379616899 0.14478184418292753 -0.12463388917992257 -0.1576526219622903
-0.058703280294537176 0.08994173058388472 -0.20235015442430554 -0.15007156418906373 -0.08187075170694125 -0.1760267630095075 -0.07681277546284573 0.124665283792349

lin1.weight f8 [16, 32]
00000000: 6cd2 4b53 5490 ba3a de89 c1f9 463e 9bbf
00000010: c137 5f54 14af b5bf 1e56 a977 597d c5ba
00000020: 92fd 91ed 2333 d0ba e5d1 dfcf a91e bdbf
00000030: 3b62 64a8 b6fd b6bf 11d8 b4ad 325b a03f
00000040: d76f 4c69 a92d a83f 0252 a9ea ea9b 7f3f
00000050: 1d25 9f4c 85e9 ad3f 8885 0567 83e0 91bf
00000060: 1bed 3847 f86c 9bbf 424a fd36 fff2 b13a
00000070: c01d d499 2168 abbf 1f1d 6e4f 97e7 a23f
00000080: ff90 6699 84ad 72bf c722 fa4e 8dc0 b1bf
00000090: cbb1 17a5 b4ca c4bf abc8 6a51 c211 b0ba
000000a0: 834f 10f1 aed0 acbf 78b7 60a7 5361 acba
000000b0: 0717 757f ec6c 94bf ea23 74f8 ef3e 9d3f
000000c0: 9b97 3385 6c6e 93bf ac25 72fb 0425 60bf
000000d0: bf58 30ec 793b a9bf c8f8 951e a46f cabf
000000e0: 64aa 6a6c e6f1 e33a 9405 30bf cde8 b6ba
000000f0: d83e c450 7e0f 76bf c06b c5f6 5439 bbbf
00000100: 33e4 84fa 0159 d33f 614c db98 f25d e73f
00000110: fc67 23a7 f687 d43f 158c b3a9 29d2 df3f
00000120: 7768 b3f1 6a1a 6abf d8dc 3dc5 d6fd dd3f
00000130: 2f7b 15db f56b d33f fb45 b7dc 0da5 e03f
00000140: 085b cc4f 7531 de3f 855e d759 c4e1 d03f
00000150: cefc 52a2 b149 da3f 3729 b2ca d612 cb3f
00000160: 8185 e35c 476c d73f 6697 a9c2 eb5f f1ba
00000170: 3267 eb60 92bf dc3f 5148 5ad6 8a5e 16bf
00000180: 6306 acd4 be81 d93f da65 c7d6 29e4 d83f
00000190: 3fab 0f4f 8d3d d43f a2b5 5515 3ddf 943f
000001a0: d01e 12c5 7d2d e13f 7263 d475 1141 3c3e
000001b0: 2750 2900 f2d8 ce3f 4394 b182 dde1 d53f
000001c0: 4d2b 2e6e c558 c83f a4da f2ec b823 de3f
000001d0: 2a66 ac0f 6244 25bb ecfe b159 fe18 c53f
000001e0: c5ab a2e5 4e8b 0640 60d4 0ca7 2f77 e53d
000001f0: e824 eb49 d320 e03f 3a23 2718 9af0 ae3f
00000200: a6b7 7258 de46 caba c386 02a7 ef4c 76bf
00000210: c1bc 6d4f d5e9 bebf e9b4 2fcb d657 7fbf
00000220: 1882 ee91 c3eb 89ba 8c34 1103 221b ab3f
00000230: 7a24 4da9 d5f9 89bf b7c9 3a62 1d41 77bf
00000240: 2793 00ef 1462 babf fcf1 28a5 9b36 c1bf
00000250: ac63 e803 b123 c0bf 9ed6 0604 6b25 b03f
00000260: 4524 3074 e797 7dbf dcd6 5dd1 3b1e a13a
00000270: 16c8 ca0a b4d4 9a3f 83f1 9de5 3af5 943f
00000280: a81e 694f 8734 3ebf 4545 a8d7 5a17 76bf
00000290: fe44 b3b1 66c4 aa3f 1b93 8591 7d14 773f
000002a0: a4c6 8135 5ee4 9f3f 499a fc03 3ad5 d53a
000002b0: a801 7680 c9d0 a1bf 79ca 9507 8118 a8bf
000002c0: 981b 84ff fc02 883f 5b60 a63b fbf8 ecbe
000002d0: 3563 c755 0bd8 b1be 98f2 d8e2 0b16 b9bf
000002e0: 0d38 0869 47d4 d7ba 40c2 e2ca ffc3 c23a
000002f0: f844 1a16 d82d a0bf c4e7 37f6 b69b b4bf
00000300: f96a 6e7c 3e8b 15bf a6b7 af29 12d0 5cbf
00000310: ae9b 1604 3cf8 93bf 621c 2b0e 3256 9dbf
00000320: e5f5 8e2a d093 c5ba 6ee2 b1e5 f0c0 8ebf
00000330: f981 c1d4 7317 5ebf ad61 ae8b 5ee3 a4bf
00000340: add4 5f84 2b01 a5bf 7cea 61f5 7d7a 85bf
00000350: 139f 9cbf 4b87 a1bf b598 e1d4 2093 9abf
00000360: 04b1 b5db e75b a5bf cc9f 98f0 381b aa3a
00000370: d4c9 dfe5 afb6 9abf 0474 3e7d fa74 cc3a
00000380: 5a8d 28a7 93a6 95bf fa88 1ac4 9618 98bf
00000390: 52e0 4258 62a3 a4bf 40b2 a3f5 095f b2ba
000003a0: 379c d222 1362 61bf b8bb 8456 9980 9f3a
000003b0: 359a 3aa9 1c23 a2bf 1074 55c9 318c 97bf
000003c0: adc0 bb8b 386e a1bf e4ab da5f f0e4 8dbf
000003d0: b208 58ae 598d ce3a a0b5 9d4a 47a5 a3bf
000003e0: 7cf8 b177 c13d a8ba 5a1f 2982 bea3 d33a
000003f0: 8a3b cd71 c04d 94bf 80a7 967d 501b 72ba
00000400: 89ce 534d 6031 be3a 9b72 aa96 6bd4 d33a
00000410: ad43 4748 2936 86bf 33c5 b277 7635 a2bd
00000420: f253 0813 f0e7 c63a 2596 7916 6b18 4abf
00000430: 9316 08aa 1deb bdbe a95c 95eb c703 7bbf
00000440: 7354 91ee ff61 8cbf 13de 9f9a 219c 47bf
00000450: 216f aca2 5ecc 82bf 94f3 bae8 5f6c 44bf
00000460: 022e 02fa 4d17 71bf 74e3 64ca 284c d9ba
00000470: d512 79e9 ee9c cfbe 749a 9cc6 71db cb3a
00000480: 79fa 0f65 a77e 70bf 713b cb7f b38b 7fbf
00000490: 1566 31ec 2968 8ebf 1e27 712c ced5 c6ba
000004a0: 7a20 d0f2 4a0a bebc 5ce0 8804 92a9 d1ba
000004b0: 7119 6ac0 caaf 9dbf 6ae1 2959 40d1 7abf
000004c0: 5201 c089 b6c1 40bf f9f9 640d b899 5d3f
000004d0: 27ff 097c f9ee a4ba aeca 0e0b 39bb 95bf
000004e0: 5988 a4d3 02b4 de3a 88ee 656d 57e2 ae3a
000004f0: f4c1 2979 2703 d8bc a9dd 91ef 72f7 bc3a
00000500: 0b36 10d2 589a d2ba 6903 a385 c5c3 8abf
00000510: 62bd 9396 c7d9 bbbf 5890 80bb 3187 8bbf
00000520: 49b2 23fb 76b4 cc3a 8a9f 7be9 422e a9bf
00000530: 83f1 b7a8 7549 c7ba bbe0 b7b5 454b 98bf
00000540: 994f ac0f ce86 a1bf 9a77 1aaa 8161 94ba
00000550: b469 08b4 5267 bcbf 689c d162 2e5b a83f
00000560: 309f 7872 3425 b7ba 669c 1b7f f5ce e0ba
00000570: 8e32 631b 0069 a03f 68b8 d92a c596 9e3a
00000580: 2105 7f02 23cd e13a 7afc b43a b4d3 5abf
00000590: fe76 3034 1d5a a53f 4701 6c09 7f46 e1ba
000005a0: f09d 1619 110f dcba ac4d 0af5 8c6c d93a
000005b0: 1869 6d6d c030 d2ba 7c9f 58b2 1b56 b7ba
000005c0: e35f 9a5a 5570 983f ecbd aa34 5cf7 d9ba
000005d0: 16ed 1759 dcf1 baba 38e7 a568 0994 a1bf
000005e0: 00f3 24ab f194 76ba 7637 33e9 d137 a3ba
000005f0: 4474 0dc5 497f 9bbf a0d3 7efc 3746 ddba
00000600: fac8 7820 cbca d43f f418 df90 f3b4 e03f
00000610: ed9e 8c79 a644 dc3f d03f b818 bfc0 d03f
00000620: f648 ad81 c8b1 7bbf 9996 3ff3 f098 cb3f
00000630: 6f7f 274b 0b63 cf3f 25bb d2f8 5151 e13f
00000640: 833e bee8 6bc6 e03f 3abd f18d 1ddb d63f
00000650: ddac 03c1 df4e dc3f 554d 1f49 2fe8 dc3f
00000660: 486e bd27 8521 e13f 602d fad6 54a0 51bb
00000670: 5178 9391 d9fa d93f 609f 4698 03ed c43f
00000680: b33e 3aa3 16ef dc3f 90cf 88d2 0019 d73f
00000690: 3660 dff9 6e97 d73f ab0c 17a0 8727 90bf
000006a0: 622b c643 acbf cf3f 2487 3aaa 8e13 083e
000006b0: 6d60 9c2b 97e2 cf3f 0f1b bbea 2e08 db3f
000006c0: 378b decb caad ca3f 6773 1d99 ede1 dc3f
000006d0: 0c4a d248 032e 5dbf 0c8a 98fd c518 d93f
000006e0: 270c 3510 45ba 0540 f7ce 30b6 458c 933e
000006f0: 2d22 ea4e a470 e13f c8a1 d7aa 55b7 90bf
00000700: a081 f0f2 82a5 d13f cf95 3e05 86af e53f
00000710: a440 0bac a27c db3f b9d1 5011 2cbb e03f
00000720: a45e c15a 0aa8 56bf f08b 6638 a9ee d83f
00000730: 666f 84a1 dace dd3f 02cf 7fd1 0b48 d13f
00000740: 5ec6 3054 85f2 df3f 236d 5f63 ddf6 d83f
00000750: 17ac 2768 9f35 da3f 0d22 27ef c808 d43f
00000760: b688 5a8f 5d01 d73f 7d93 8659 b170 33bb
00000770: f70d 2859 6814 df3f 8c39 51dc 0f1f c73f
00000780: ba61 a1e4 8561 ca3f 7846 79a6 861e df3f
00000790: de33 27fa c535 d53f dfe0 5aaa 5fc5 a43f
000007a0: 4e38 4265 042c d53f 7e33 10f0 7cb9 343e
000007b0: 7218 c235 ad62 df3f 12c6 da21 83be e13f
000007c0: 013e 2a2c bd4a e03f 52c8 dc05 3f14 d03f
000007d0: 0ed2 9d13 4ad1 a03f 7ae0 50fd 9dbd db3f
000007e0: dcd5 cb38 980b 0640 30a9 1914 fa58 253e
000007f0: 69bb 2797 3935 c93f c911 ad9f 4de8 9cbf
8.583222405005914e-26 -0.026604756349465457 -0.08470274982320715 -1.388735850373575e-25 -2.093770806833019e-25 -0.11374913525634829 -0.08980886088500821 0.031945785240552145
0.04722337160475803 0.0077170540267457195 0.05842224655459403 -0.017458012736260936 -0.026782874438351017 5.799701503861818e-26 -0.05352883341589232 0.036923149534283654
-0.0045600108773309325 -0.06934436014320076 -0.1624360853305816 -5.192293906962795e-26 -0.05627962773010522 -4.585065803731393e-26 -0.019946761397725356 0.02856039956990123
-0.018975921277977297 -0.001970777254943731 -0.04928189285435413 -0.20653201573799707 5.155641559540357e-25 -7.402422967319387e-26 -0.005385869426632182 -0.10634356522261523
0.30230760063892886 0.7302182183724534 0.3207985527238859 0.49720231602094717 -0.0031864250901039687 0.46861809980278 0.3034643783084218 0.5201482115609787
0.4717686919479296 0.2637797238689717 0.4107479176709149 0.21151242158186687 0.36598381110351147 -8.982504802153308e-25 0.4491926142196575 -8.533213039133124e-05
0.39854403275248823 0.3889259908151793 0.31625683518238995 0.020382837702916164 0.5368031357802128 6.5784372092709045e-09 0.24099564559821937 0.3419107223801953
0.1902090824117643 0.47093032016293024 -8.79587521024116e-24 0.16482524280217292 2.8180215778606645 1.5618258381472505e-10 0.5040070003243757 0.06042939705691315
-1.6981003531162324e-25 -0.0054444657727416605 -0.12075551213432602 -0.007652129209401817 -1.046938950574535e-26 0.052941382288374944 -0.01268355296055489 -0.005677332668414462
-0.10305910906806713 -0.13447900356722176 -0.1260892170983231 0.06307095382984548 -0.0072249451795949925 2.765578251698813e-26 0.026202023657511196 0.02046672846289389
-0.0004608946177637554 -0.005393366673631055 0.05227967185204284 0.0056347756402359795 0.031144592300228383 2.821838319083252e-25 -0.03479604428412425 -0.047061950851362284
0.011724449680071733 -1.3815204387410284e-05 -1.0635806894003165e-06 -0.09799265182750572 -3.0798538059314134e-25 1.21269988778961e-25 -0.03159976262862502 -0.08050101767722057
-8.218354115145298e-05 -0.0017585923549136933 -0.019501626729517767 -0.028649122347612972 -1.3944064772159111e-25 -0.015016443261843562 -0.0018366461909168337 -0.04079719023792747
-0.04102455130479519 -0.010487541247347958 -0.034235350742447455 -0.0259518747265239 -0.0417168098163945 4.217706311189049e-26 -0.02608752098599061 1.8389871082166108e-25
-0.02114325244668911 -0.02353129932328899 -0.04030902221114786 -5.936069643876492e-26 -0.002121960997630203 2.5447387395124236e-26 -0.03542413297445927 -0.02299573699325569
-0.03404404359560096 -0.01459682266734847 1.974386397038645e-25 -0.038370349748997556 -3.9163824678733924e-26 2.538362124800492e-25 -0.019827849336532512 -3.656618326448771e-27
9.755844304139231e-26 2.5629372721165243e-25 -0.010845491903553961 -8.280421262354734e-12 1.4802660075216622e-25 -0.0007963679208386516 -1.7832768791649104e-06 -0.0065954026589089354
-0.013858794658668771 -0.0007205165941276979 -0.009178866710093882 -0.0006232708269276904 -0.004172615619733035 -3.269624907493134e-25 -3.7685657152973107e-06 1.8002296684693568e-25
-0.004027036557998736 -0.00770158879158954 -0.01484711410573695 -1.4756887399928441e-25 -4.1689160628040306e-16 -2.2828096667669436e-25 -0.028990905756040634 -0.006547213898209095
-0.0005113736438034178 0.0018066689859349545 -3.381988410983819e-26 -0.02122201089850744 3.9682914723644e-25 4.989602978366529e-26 -1.3329515860337433e-15 9.359612456883349e-26
-2.4043707712921104e-25 -0.013068717137117951 -0.1087918036098379 -0.013441456350911249 1.8550133024379306e-25 -0.049181071282702396 -1.504883974714707e-25 -0.02372464105243986
-0.03423160497018713 -1.646354760809435e-26 -0.11095158477147643 0.04757065731319515 -7.478659965924103e-26 -4.3448782192693065e-25 0.03205108961410473 2.470955382717106e-26
4.601532194835986e-25 -0.0016373882343286004 0.041703140850797724 -4.465580013137847e-25 -3.626521964471688e-25 3.2859783225923704e-25 -2.351058776046195e-25 -7.540384631564829e-26
0.02386601796624167 -3.356059243422308e-25 -8.70632426091724e-26 -0.034332555794164 -4.560360730838976e-27 -3.1048429046393894e-26 -0.026852753307469848 -3.783613532713211e-25
0.3248775307757935 0.5220887975235926 0.4416900813107379 0.2617643109706451 -0.006761344174110775 0.2156048953758514 0.24521008653300266 0.5411767825915815
0.524221376968811 0.35712374555346893 0.442314089289267 0.451671430023642 0.5353418136759922 -5.832051649800289e-23 0.40593566147243104 0.163483094552471
0.4520927995699637 0.3609010749817054 0.36861776734940876 -0.015775794168587137 0.24803689297945214 7.007153368457096e-10 0.24910249356685502 0.4223744671148077
0.2084287162261604 0.45128955795899234 -0.0017809898447792597 0.39213704838962893 2.715952040308838 2.912869858124072e-07 0.5450002232838124 -0.016324366142642238
0.27572702145155326 0.6776762106352922 0.42948214341323365 0.5228481615254658 -0.0013828374021808499 0.3895667124544948 0.4657503678624749 0.2700223489657533
0.4991772958920587 0.39006743149157524 0.4095228688372016 0.3130361876942807 0.3594583415925955 -1.6080561624540266e-23 0.4856205816906533 0.1806354356544485
0.20610116637796044 0.48623815781784385 0.3314070647145949 0.040568341775214505 0.3308115948538032 4.825313260948895e-09 0.4903977417928963 0.5545058881018028
0.5091234076116394 0.25123572895529833 0.03284675111254752 0.43344831216700863 2.7556614339070915 2.485183753926908e-09 0.196936796957256 -0.028229916449406454

lin1.bias f8 [16]
00000000: 16f2 146e a068 8bbf 71d5 1c12 fbc2 e83f
00000010: eac6 e7ad ec80 a13f 2de0 2603 4647 98bf
00000020: a440 dcc7 e6d2 89bf 09db d466 faa4 a2bf
00000030: 5894 a58b 2b21 e83f 0bd9 1cf8 12ee e33f
00000040: 80fd d866 05f7 abbf 985b 033a 0830 a73f
00000050: 1ddd 8828 2dc6 48bf 110b fabb 6683 eb3f
00000060: dc2b 6e8b 65e3 b6bf e263 5aa5 3ec5 41bf
00000070: ae8b 8526 374a e43f a11c ff36 6b6d a0bf
-0.013383153304510603 0.7738013604891149 0.03418674109333415 -0.023709386770605235 -0.012609293913129989 -0.03641493325488027 0.7540490844227277 0.6228117795897402
-0.05461899643386925 0.04528833110969471 -0.0007560463428210349 0.8597901984615836 -0.08940729764996952 -0.0005423122299418293 0.6340595009208891 -0.03208479925484054

lin2.weight f8 [1, 16]
00000000: 7f69 7764 aad4 a4bf 5d3e 0d3d 7114 e03f
00000010: 80d1 bbbf fc12 77bf c9f5 0e4c 955d a43f
00000020: c2bb 9dbe 6048 a03f aae7 d563 35f3 82bf
00000030: 47bb 8be0 8978 e43f 036e c543 ad21 e13f
00000040: 55b4 4e31 2047 1fbf 158b 9b24 9259 b6bf
00000050: c08d b48c 5541 a23f 5220 9974 14e0 de3f
00000060: ca39 f393 94ca 8cbf f73c dd69 5c74 b1bf
00000070: a997 7d5e 1ba1 e33f ffa3 4b41 bfcd 803f
-0.040685009731265424 0.502495402566591 -0.005633342075942571 0.03977648309180954 0.031802199619839225 -0.009252946004142466 0.6397141824398681 0.5353609393745845
-0.00011931547153550108 -0.08730424302806868 0.03565471022218558 0.48242675196207074 -0.014058266415671112 -0.06818177780700184 0.6134163709182207 0.008204931430968896

lin2.bias f8 [1]
00000000: 9adc b882 c9dc d93f
0.40410077825385715
