Q1/models/bestval.pth (torch, 14767 bytes, 16 tensors)

batch_norm0.weight f8 [1]
00000000: 1a79 ef61 8903 e1ba
-4.397968108718482e-25

batch_norm0.bias f8 [1]
00000000: 2872 bbf6 2425 643a
2.0341347958602545e-27

batch_norm0.running_mean f8 [1]
00000000: b5a4 836f 38d2 e73f
0.7444116762173026

batch_norm0.running_var f8 [1]
00000000: 5497 b6ed 375d 0040
2.0455168315265073

conv1.bias f8 [16]
00000000: 18b3 23bd 6f68 93be a82d abdb dc65 dbbe
00000010: 07f8 e0fd 1244 b63e 1b07 78a4 cc7d c1bd
00000020: b647 2478 9f2c a7be eee1 56dd ebd0 72be
00000030: a40c 2991 0db1 91be eb77 e97c 29a0 533f
00000040: eec8 4e4b e7b3 2f3e 9728 4ed3 f579 9cbd
00000050: e0f4 79ca 2f7d 20bd 1cb7 4cea 9c1a e0be
00000060: b4ad ef5d 77e2 dfbe 6fae 6803 0777 4cbe
00000070: b5f8 4278 3218 b3bd 12e7 977c 450b e03e
-2.892010658856594e-07 -6.532168692795401e-06 1.3271519416903196e-06 -3.1816678249154634e-11 -6.906482073207329e-07 -7.009543109046333e-08 -2.6362558106316414e-07 0.0011978535800589672
3.690685613426069e-09 -6.474785379418351e-12 -2.9290366543967044e-14 -7.67896501371493e-06 -7.601889108403899e-06 -1.3255025616246464e-08 -1.7366364870762043e-11 7.650389210123467e-06

conv1.lin.weight f8 [16, 1]
00000000: 3667 0856 c7a0 623a f428 c85b 28c2 28ba
00000010: 65e9 5ad5 0242 5fba b26d 2f1e f7ce 683a
00000020: 872e 1bd7 eba4 803a 615e 6f06 508f 40ba
00000030: dbcd 8dbe 644b 753a 35ec a2d2 729d 793a
00000040: c691 dac8 b665 62ba fe3f cc39 26f5 74ba
00000050: b044 869a e040 45ba dc48 03e0 2da4 5f3a
00000060: 8e52 36aa 401d 5d3a 5018 e4fe 6417 7d3a
00000070: d31b a118 d5aa f8be 4040 78df 91ed 763a
1.8809515238852687e-27 -1.5624764942472957e-28 -1.5781184236808111e-27 2.5050141195046943e-27 6.722548390294085e-27 -4.180284967154566e-28 4.300391236860244e-27 5.1729147805996704e-27
-1.857654625587533e-27 -4.232356548767677e-27 -5.365119297144012e-28 1.5974786739256388e-27 1.4698948976733257e-27 5.8749583781107376e-27 -2.3524583902447535e-05 4.63027415840825e-27

batch_norm1.weight f8 [16]
00000000: 9ec3 54a8 cc2c e0ba 673e 6907 5722 e0ba
00000010: 5019 fc79 e627 e0ba 65b5 1aae c38a dbba
00000020: 0b5a 5afd 059e c0ba e8c6 6724 da25 e0ba
00000030: efe9 4569 11fb d2ba 2b1c 5af3 2499 deba
00000040: 7c54 bed9 ddc5 71ba 2a30 c48c de22 b33a
00000050: a033 a952 6b5c ddba a190 eb1f d118 dcba
00000060: 604e 8208 2ffe dfba aad8 e727 5f81 c73a
00000070: e71b 2cce 4f21 dcba cffc 0473 ad2a e0ba
-4.181138940621912e-25 -4.170577558040333e-25 -4.176192068667611e-25 -3.5597263152994737e-25 -1.0738664793199302e-25 -4.17412393453677e-25 -2.453202426203034e-25 -3.9547272533785847e-25
-3.5892118876704795e-27 6.183242397603497e-26 -3.7948219378192155e-25 -3.631444509150757e-25 -4.1349860775138353e-25 1.5189981722922117e-25 -3.635733310560176e-25 -4.178996361868561e-25

batch_norm1.bias f8 [16]
00000000: b717 53c9 6fce 4a3a 6868 8d53 bd78 30ba
00000010: f43f b348 d32a 4c3a f416 8d27 fdef 5cba
00000020: c685 120b 9fbf 41ba 2266 ae4b 0d9a 4f3a
00000030: fcc0 da49 5c84 70ba 087d f704 b531 19ba
00000040: 1218 4468 1519 5b3a 3a01 60ef 8fea 623a
00000050: a1ce 5b1f 1ebf 573a b648 b1d3 db03 51ba
00000060: 8941 1dfb 0b4e 483a a41a 5881 7196 3f3a
00000070: ee5a 7097 a74e 54ba a5fc 7ed3 9784 4eba
6.766885000176495e-28 -2.0790131145950573e-28 7.110422744611851e-28 -1.4609682043732376e-27 -4.480356477844398e-28 7.977407116950862e-28 -3.335588293153545e-27 -7.949877791980152e-29
1.36809851645513e-27 1.9100540186116965e-27 1.1988945662353848e-27 -8.590416590614972e-28 6.135411839162959e-28 3.986924402921686e-28 -1.0252538541748151e-27 -7.703811552565147e-28

batch_norm1.running_mean f8 [16]
00000000: b255 95f8 327c 6b3e af54 948e 7a65 a83e
00000010: a0aa 65fe 0963 6dbe c738 4cbc a7cc 753d
00000020: ce92 d13a 362d 5d3e 8042 ccef 6ba0 d13d
00000030: 4ab7 405e 98e9 553e da5d 7aed 7775 10bf
00000040: 6cc2 6b00 4375 d8bd 0704 2bec 6866 533d
00000050: c6b6 9d5c 72b2 e03c c420 0009 ada0 ad3e
00000060: a671 9b75 3165 a13e 4a10 0f45 83dc fc3d
00000070: bc2f f395 f18f 763d 8c88 f72d 3add a6be
5.119508645716074e-08 7.270694172579389e-07 -5.473731317064243e-08 1.239154382869482e-12 2.7172834361413396e-08 6.412536816605178e-11 2.0407588410975384e-08 -6.278557281757334e-05
-8.897788071028805e-11 2.7569112846171674e-13 1.8537457704749335e-15 8.829724880152767e-07 5.184199196278934e-07 4.199883262858923e-10 1.2825171356710936e-12 -6.814053356530666e-07

batch_norm1.running_var f8 [16]
00000000: a821 96cf 146d b537 3905 db9f 6a2e 2238
00000010: 41ee 79c1 58be c537 b0a9 fd04 e508 f035
00000020: c8dc 8fc6 d006 a737 a5b8 1a76 369a 5c37
00000030: 07e4 5143 a65f 7e37 35c3 6ad8 9381 ca38
00000040: eb7a 62f6 b4c1 cf36 7c45 c378 3187 a035
00000050: 5eaf be15 bc49 dd34 4a7c c3a8 58ff 2b38
00000060: 4936 b92b 4a1c 1238 7e65 9c4d 9196 0137
00000070: fd16 7768 abff d635 0982 e7b8 4ecb 1f38
2.459595517408663e-40 2.67150405474846e-38 4.992072374855604e-40 6.8571359033243e-49 1.321663351905278e-40 5.13030273375144e-42 2.1792011308080262e-41 3.988204021508142e-35
1.1125142356157775e-44 2.2087859369838387e-50 4.777832205288232e-54 4.113855036902014e-38 1.3305498989256476e-38 9.85850164075709e-44 2.4588055362555006e-49 2.3358666983243028e-38

conv2.bias f8 [32]
00000000: 7dd0 6396 e052 e3ba 7be6 da22 790f 523a
00000010: 8612 6ce2 8f07 7a3a 06c1 8dd5 8d30 853a
00000020: 4581 9f15 676d e63a bb12 e854 dac6 28ba
00000030: 5ed9 7e78 1d9c 8e3a 669c 42ad e038 31ba
00000040: 84d4 4449 947f 9bba 044a e93c 349b 6d3a
00000050: 6035 1995 32c4 aa3a 5f36 75ce 4433 333a
00000060: 5fb0 a58a 0047 41bc 7488 0385 91e2 6f3a
00000070: 9245 5582 b2b8 74ba 3178 9d64 d87e 9b3a
00000080: 56f4 4fee 5b7d 8aba e569 e8e7 c10f 1e3b
00000090: 8a05 c466 7d76 86ba a732 3e80 da31 a03a
000000a0: 068a 3b7d b837 6bba 91e7 7ed0 4ef0 57ba
000000b0: ce07 4298 ef7f 9bba ca94 0f02 2ed0 77ba
000000c0: f401 e202 dd41 953a e24a 788e 0660 e0ba
000000d0: 0cf6 1c70 b316 42ba 02d8 a50a 7691 933a
000000e0: e845 43b0 a140 a03a 3e60 b4ae 6e8c c5ba
000000f0: 1827 dd99 2f67 65ba 0c9a 46ba 48c7 8e3a
-4.995069568982741e-25 9.118193111066819e-28 5.256623589716462e-27 8.558437220547402e-27 5.797335181320776e-25 -1.5636339522817212e-28 1.2363209733746284e-26 -2.173744505656295e-28
-2.221299541601379e-26 2.9894688856171763e-27 4.324344633341986e-26 2.4234146096783286e-28 -1.8732142588395602e-18 3.219565562628192e-27 -4.184668314967947e-27 2.2210679453778627e-26
-1.0699098164567631e-26 6.216583356755873e-24 -9.072673256013856e-27 2.616401408139345e-26 -2.7482812139413517e-27 -1.2085956232318428e-27 -2.2214120880798486e-26 -4.809037851477944e-27
1.717149291534725e-26 -4.232864151722112e-25 -4.5662236587775795e-28 1.5807072071976428e-26 2.6257276855673494e-26 -1.3925433023357965e-25 -2.1611577908534007e-27 1.2431318363158368e-26

conv2.lin.weight f8 [32, 16]
00000000: e866 5e9e 698f 53ba 3856 a2c4 2ad8 233a
00000010: e05f 57a1 dc58 2a3a a39c 58d1 f462 61ba
00000020: cbe1 e857 0e03 54ba 102a d194 0c96 353a
00000030: f385 0956 fa6b 5c3a b398 161c 5410 62ba
00000040: a8d7 fe3b ad36 543a 401e e57d 1f70 f039
00000050: bcff 2162 7da3 093a 7e31 51b9 8eac 2a3a
00000060: f202 c383 47a9 3b3a 7eb9 d93b 03ec 49ba
00000070: 9006 a416 86b3 fe39 0a50 c933 24d9 29ba
00000080: 57a8 89c3 be61 27ba 66bb 88c9 9c9b f4b9
00000090: 08b6 0308 c243 f1b9 a8a4 df68 f70d fdb9
000000a0: 15ec 68fb 9a81 2aba 7f92 9d0b 3292 263a
000000b0: 387c a228 92a9 d539 1494 8800 fe56 f439
000000c0: 746c fba0 fe1c 19ba b8a1 96d2 a00d d2b9
000000d0: de89 9eae a2d1 f8b9 1ebf f284 9c53 f0b9
000000e0: a4c5 b3c9 c834 13ba 4568 1450 6818 0f3a
000000f0: bdf3 55af 2b0a 11ba 916a f4e2 b391 153a
00000100: 2cfa db3d a02d 19ba 887e 885b 3f76 49ba
00000110: aebd b2f2 8b74 563a 9c68 e657 5432 5b3a
00000120: 60a3 d762 63ab 43ba 179a c0b6 b1d1 36ba
00000130: b818 adca 5247 55ba 7501 4925 ba10 463a
00000140: e151 44ef c4f3 52ba 8285 b7e1 31bf 50ba
00000150: 1b6e 60a7 8bbc 5b3a d235 ca8a 017d 39ba
00000160: 30ae a7ad 2aef 58ba 9aed a229 563d 483a
00000170: 507b e3bc 3ed7 3cba ce72 29e4 ce6e 52ba
00000180: 3239 404b 5f3f 51ba 0469 db29 7ea7 4d3a
00000190: 1a1e e3e4 3373 413a 4ef6 412c 9abe 433a
000001a0: fb74 bb9c 9498 5f3a dc14 e47d 0b69 48ba
000001b0: 668f a4e5 7a2e 623a 754d 8d76 54bf 4bba
000001c0: abc5 6e37 08c6 61ba 9ca8 b81f 2d8e 50ba
000001d0: becf 9763 79e3 533a a70a 738b 743d 56ba
000001e0: e4d9 7184 1fc4 073a 8991 f00d f991 52ba
000001f0: 91c4 32b9 5274 483a a6f8 fe6c 903e 543a
00000200: 56ab d7c6 09a5 05ba 491c d8d7 c14c 29ba
00000210: 0af4 ae4c 91d5 40ba 33a6 e0e0 2085 55ba
00000220: 95ec 31f1 f06c 39ba eede 98fe a52c 36ba
00000230: ddef 0436 6d5e 60ba 8c1e 5275 b587 2a3a
00000240: e053 b37c 3c22 3a3a e7d8 26db 397e 42ba
00000250: 5dd0 eaca 7060 46ba be83 e5a7 490e 3aba
00000260: 7395 a6f3 5515 43ba 104b ce27 36d8 1fba
00000270: 6ea5 0977 239d 573a 2127 1a4e bd8c 443a
00000280: 2a70 eb24 c244 e6b9 2f4c f52e c0fe 2cba
00000290: 64bf 269a 7b34 11ba 768b ef0f 4ae5 123a
000002a0: edc1 1a25 8d3a 193a 37e1 2259 7d5c 253a
000002b0: 1520 42ee dca4 22ba 1ff9 544c c887 023a
000002c0: 4022 ba71 a59b 21ba f20f a21a a81d 013a
000002d0: 8c41 8cdb f3f5 223a e261 1c8c 5a0f 2fba
000002e0: 319d 2a15 61a4 283a 7e0f 8a02 6956 203a
000002f0: 1c1b c8e7 4c89 0c3a eaba 7fa1 34a3 18ba
00000300: 28ac 9adc 0a1d 52ba ee06 e5dd a85e 44ba
00000310: f861 4834 ba96 4d3a 53c1 9061 5ce2 513a
00000320: 10c2 615d 975b 57ba 20dc cee8 dd5c 503a
00000330: de8e 8937 1d63 603a 1214 b1a4 6aa5 3a3a
00000340: f672 e52e 04f5 5e3a 3fc3 518f 1c86 5d3a
00000350: 78f9 4dd2 3e4e 53ba dc63 93f5 27e8 40ba
00000360: da0a 8911 af84 203a 3ac1 db53 6249 48ba
00000370: 2110 fb98 1c73 4bba 8ef5 5612 8a7e 3b3a
00000380: 4206 34b8 6900 243a 59ea 4e3b 19fd 2fba
00000390: 0b5f 1b69 cf13 253a 1e63 47cf b29f 3c3a
000003a0: 1288 c335 39cc 10ba 5211 694a 29fe 203a
000003b0: 931f 433d cd7b 193a 2b9b 7c4a 613d 34ba
000003c0: 9fea a7ab 1d00 183a b779 55c8 ed69 1fba
000003d0: a6bd 6a94 8d21 2a3a a448 ab09 3979 0aba
000003e0: 67da 0e3c f9f7 1b3a eb4e 81c8 ac28 20ba
000003f0: 13b2 0373 cf31 303a 749b 64b5 11d1 31ba
00000400: 25f9 ca2d 37b6 423a 8580 8f03 2134 3eba
00000410: f019 736c 520c 433a 01d3 3b69 93f7 59ba
00000420: 2233 017e 4fd4 433a 94ba fbd6 c252 443a
00000430: 400c e146 7d22 5dba 0c41 4562 0ce1 4dba
00000440: 344b 06d5 31fa 27ba 388b f94e b5f0 4cba
00000450: 156c 99b2 7826 37ba 30d1 de66 3229 383a
00000460: c062 a210 3e00 393a 17b0 da48 3f08 553a
00000470: c1fd 24db 9252 363a d898 2c96 6938 303a
00000480: 05dd d41b 53aa e839 ef2a 4832 abd0 fbb9
00000490: 6343 9387 a6f5 04ba d33a 8514 15b9 ceb9
000004a0: 5aad ef67 43e5 093a 9ce0 39b6 d1c4 fd39
000004b0: 2cf9 fa07 6435 20ba c658 cf52 7b45 2a3a
000004c0: ec78 594d 5bd2 2dba d6e4 2506 3c40 27ba
000004d0: 1c67 8054 3085 e039 5245 69d3 f74a 0b3a
000004e0: a318 257c b27e 18ba ca12 d058 86f0 25ba
000004f0: 24ac dffc b2a1 163a 3829 b571 6cbd fa39
00000500: eaf1 a27f f393 64ba 24f4 728f 07a4 573a
00000510: 6a1b 105b 16a3 4dba 22db 4aed 3adb 4d3a
00000520: ac97 ec8a 4c06 30ba 74f5 e5f9 887b 47ba
00000530: c758 894e dca3 443a a06b ab03 c1af 30ba
00000540: 004f 1d7d 99d6 253a 2e53 10f5 b10f 383a
00000550: efbb 4871 45b8 4d3a 82ff 250e cf5b 533a
00000560: 08c9 1585 1cd6 333a 3038 f2d1 108e f339
00000570: 5636 dcb2 c926 533a c57d 6eba 3452 54ba
00000580: f0d7 2c1f 7dfb 29ba 2b59 e755 f841 3aba
00000590: 6cd6 114c 338e 313a 05d3 8738 a80c 23ba
000005a0: 98ef 1000 6c92 43ba c022 068e 0039 2c3a
000005b0: 345c 49ac e513 40ba 02d4 d1d1 3428 38ba
000005c0: ee5b 907d f6e0 29ba 4180 08b3 b8cb 423a
000005d0: 6a72 17e2 1734 38ba 5807 0b70 cd71 38ba
000005e0: 9862 5268 1922 22ba acd5 de9e bb30 31ba
000005f0: 7600 93c2 1d42 24ba 4690 00df cfa9 26ba
00000600: 23f7 177a 5496 f339 226b 291f 7aba 09ba
00000610: b068 d9b8 d480 263a 9ce9 54a8 195f e039
00000620: 6cbc 433a 9016 f1b9 de57 1a64 502a 1dba
00000630: 8ba1 62ff 411e 2bba 6233 a1bb a61c 06ba
00000640: 1c54 2bd8 7662 ff39 eff2 932e 136a 0fba
00000650: 08a7 bca4 327f f5b9 472e da2a 3315 203a
00000660: c987 7fb7 5b1a 0aba 3104 6e41 ccff 26ba
00000670: 08b4 4657 b170 d039 904d b3d2 5cf4 e8b9
00000680: 17d3 f28a 29bd 47ba 6b96 f44c eafc 50ba
00000690: 71c2 7cfe efeb 31ba 21a3 83c9 1dac 563a
000006a0: f5e4 8b84 28c5 583a 9cab f751 ac61 403a
000006b0: 1a9d 0fea eb7e 54ba aaa4 e4fe 2b06 4c3a
000006c0: c8a8 b220 7e28 2a3a f10f c783 3e41 54ba
000006d0: 182e 2706 3d4c 233a f23e 4819 f154 343a
000006e0: ccfc a2c8 333d 0bba 4ef3 3691 7ea5 60ba
000006f0: 5fd5 a208 073c 34ba d4bd e75b 3c40 273a
00000700: 6740 e3b2 b208 343a 34b7 8763 e2e4 e139
00000710: d0e1 e19a ca43 fab9 707a eaa1 e8d6 38ba
00000720: 3e52 7935 1366 2b3a 20b2 59e2 cd18 07ba
00000730: d905 2d70 7e15 213a 0b94 a77d ed34 123a
00000740: cb85 76c8 6925 2a3a a265 5a3c 45e4 23ba
00000750: ffd0 f322 45e0 1a3a 206a 0f8c f492 e739
00000760: 7ea3 1d9c 56ec 29ba 2c78 ad28 50d7 303a
00000770: 39db e748 71da 313a 3bb7 1fbc cc72 243a
00000780: 2478 787c 3cd8 edb9 c6e1 02c2 042f 0c3a
00000790: f819 f1a6 525b 13ba 658f 5823 9f0e feb9
000007a0: a70e 2b86 3b6f 273a a1aa 7bb6 9255 293a
000007b0: b107 b947 1d02 1cba 78b4 1a32 1849 d5b9
000007c0: ceb5 dbe0 272b 16ba 7cb9 eab6 7f9b 29ba
000007d0: 8cd9 5961 9ccf 11ba 2491 ec25 bf83 f1b9
000007e0: e32a 8ffa af49 1fba e4c2 f163 ee31 20ba
000007f0: 0391 31cd 67dc 213a 1ebf 8b7d 0c3a 29ba
-9.875380037417107e-28 1.25235787122257e-28 1.6627368169457076e-28 -1.7555927155981455e-27 -1.010344654113116e-27 2.724552582141438e-28 1.4349336232739354e-27 -1.823976004413353e-27
1.0205250357978552e-27 1.296728019805122e-29 4.0450628813946034e-29 1.6833693946270699e-28 3.4913402759601287e-28 -6.543613664917994e-28 2.4219027523593063e-29 -1.631251302115024e-28
-1.4756001106720617e-28 -1.6256735988412336e-29 -1.3619430645692888e-29 -2.292000367973751e-29 -1.6727808804059e-28 1.4244351639310164e-28 4.2721524470781486e-30 1.604528350364013e-29
-7.924347710065453e-29 -3.5603728671462694e-30 -1.957865091333568e-29 -1.2879422013042264e-29 -6.060404586798486e-29 4.905979878301968e-29 -5.376790442314926e-29 6.806024024890192e-29
-7.944847370030086e-29 -6.427488269699418e-28 1.1337009328508517e-27 1.3730773812978447e-27 -4.965276143577919e-28 -2.880177606598494e-28 -1.0742951180932677e-27 5.570074997804669e-28
-9.568427757319815e-28 -8.455001026395605e-28 1.4003356921530791e-27 -3.2170763491734185e-28 -1.2588576677035072e-27 6.118934282546398e-28 -3.6402208682256473e-28 -9.306208209353679e-28
-8.707786359254365e-28 7.48578987855707e-28 4.4050019682936375e-28 4.984222621071937e-28 1.5951912370585635e-27 -6.162034010562791e-28 1.8358686793242737e-27 -7.0044241022334015e-28
-1.7946712189528956e-27 -8.358328912785444e-28 1.004116231831175e-27 -1.122836066145442e-27 3.7496303654182314e-29 -9.375558351996493e-28 6.173155222419785e-28 1.0220805642764686e-27
-3.41492843960926e-29 -1.5966439210962276e-28 -4.249561724234281e-28 -1.086484010335146e-27 -3.209155769722744e-28 -2.7988037550884496e-28 -1.652831862645916e-27 1.674285490270403e-28
3.2985411538943013e-28 -4.668307260087999e-28 -5.6486785428493025e-28 -3.288705754639224e-28 -4.817312976644893e-28 -1.0048376529459637e-28 1.1921933642504652e-27 5.187489628497817e-28
-8.783409009412091e-30 -1.829849327958738e-28 -5.428944226774792e-29 5.962419406998004e-29 7.960779159909657e-29 1.348086777711231e-28 -1.1766015734328383e-28 2.923581632701253e-29
-1.1112205982113782e-28 2.700404403379728e-29 1.1965916929098021e-28 -1.9601600243273406e-28 1.5551355466385996e-28 1.031043716384571e-28 4.5022389810086093e-29 -7.774231110270536e-29
-9.144953719538202e-28 -5.1420514009386795e-28 7.469257852782553e-28 9.029224738477475e-28 -1.1792664452585839e-27 8.26108320554714e-28 1.654680764528966e-27 3.363218034147168e-28
1.5629338910804162e-27 1.4905746821165666e-27 -9.746860443255296e-28 -4.26789141479443e-28 1.0424510558539453e-28 -6.130814053729112e-28 -6.929267130109914e-28 3.4702678231457015e-28
1.2622792525712035e-28 -2.0187686574843417e-28 1.33016991151358e-28 3.6128342827693684e-28 -5.300434663155345e-29 1.0723975544995656e-28 8.04120644874271e-29 -2.554617594299364e-28
7.57320754853178e-29 -9.912442598357085e-29 1.6491021472884154e-28 -4.1767860280320374e-29 8.825348802951856e-29 -1.019769104189774e-28 2.044042315359118e-28 -2.2487807234039384e-28
4.723517211319131e-28 -3.8122339069553415e-28 4.8084247016013845e-28 -1.3110031706078583e-27 5.005628636466336e-28 5.130318531727468e-28 -1.4709276675758083e-27 -7.542544030973568e-28
-1.5131818104201188e-28 -7.305550357266865e-28 -2.9219760329374865e-28 3.0495375071529125e-28 3.155563153683309e-28 1.0618555310998625e-27 2.8175023422023755e-28 2.0472974014778525e-28
9.728757527483493e-30 -2.194225462833127e-29 -3.3068374339309624e-29 -3.029519520417513e-30 4.0855989464742913e-29 2.3483462196188305e-29 -1.0229037939416325e-28 1.657959252316517e-28
-1.882014217786832e-28 -1.4673390847357058e-28 6.516097063964996e-30 4.306051528248385e-29 -7.729231054568545e-29 -1.3845802600457226e-28 7.141285582265894e-29 2.1094090100149957e-29
-2.077840362864988e-27 1.193552373879481e-27 -7.481445720969833e-28 7.536806851508093e-28 -2.022589561585581e-28 -5.927831239600609e-28 5.2102887937148655e-28 -2.1061373109606898e-28
1.378189198077092e-28 3.0369641802901772e-28 7.502334691494104e-28 9.773609559183064e-28 2.5037022252046323e-28 1.5426130947179909e-29 9.66904422353727e-28 -1.025954227604978e-27
-1.6397185755847766e-28 -3.3141871168878635e-28 2.2158118622513324e-28 -1.2021887950901916e-28 -4.940657420809978e-28 1.7811005468041054e-28 -4.058587949425195e-28 -3.0490491255438577e-28
-1.6331794355095607e-28 4.744723704784694e-28 -3.0549098527811615e-28 -3.0853348360369733e-28 -1.1443658171755958e-28 -2.1697288334657924e-28 -1.2784763624148862e-28 -1.4302570823362592e-28
1.545159723988714e-29 -4.0592298737555803e-29 1.4201544732975373e-28 6.457412338277433e-30 -1.3480164199337616e-29 -9.2029425661841e-29 -1.711398679639668e-28 -3.48864571019875e-29
2.475810441469466e-29 -4.956311334936775e-29 -1.6958037573341282e-29 1.014968130779309e-28 -4.118321244426194e-29 -1.451454237547478e-28 3.242258948319459e-30 -9.842831046198193e-30
-5.9925446682057175e-28 -8.576723025973284e-28 -2.2620278194621667e-28 1.1446601206728043e-27 1.2505729637482205e-27 4.135280972699795e-28 -1.0347728189638032e-27 7.074279632750315e-28
1.6508129007572476e-28 -1.0226091080091086e-27 1.2178627864434315e-28 2.56623443355015e-28 -4.2975677055200333e-29 -1.680863166290644e-27 -2.553950727133193e-28 1.467339407318504e-28
2.5286433625649317e-28 7.057969844200383e-30 -2.0719281994872594e-29 -3.1351840559891697e-28 1.7291029941122745e-28 -3.644046954126487e-29 1.0781494863363119e-28 5.745036942932952e-29
1.6500537524563209e-28 -1.2553415870391963e-28 8.48058761142301e-29 9.298320841928445e-30 -1.6359837044319625e-28 2.1256414819247766e-28 2.253402139102673e-28 1.2904777705998674e-28
-1.1771647858248706e-29 4.44659850972407e-29 -6.107906995105734e-29 -2.3710883542224882e-29 1.4789249978745218e-28 1.598817207547923e-28 -8.837848307680559e-29 -4.1978297181327406e-30
-6.995169565297526e-29 -1.6160552451470121e-28 -5.620154298181965e-29 -1.3816611167154004e-29 -9.872701978588679e-29 -1.0220509529064472e-28 1.1271849755792643e-28 -1.5920319421799521e-28

lin1.weight f8 [16, 32]
00000000: 96f1 40cb 8933 d43a 22aa 4ab2 877c 343a
00000010: 60c1 1add d8c8 50ba edbe fd6a 6e29 5aba
00000020: 5f96 ee50 30ab e03a 6044 7bd5 885a 283a
00000030: df78 de9f 3107 613a 928f 2f96 48df 313a
00000040: d442 c841 ccd9 66ba e6fb ee5e 55d6 61ba
00000050: 57fc 097d 446c 883a a08e 73e7 bea8 fdb9
00000060: de52 6305 cc15 5abb f9b1 da9c d02c 59ba
00000070: 004c 630c c58a dc39 c644 af46 fb41 8cba
00000080: 4df2 358a c6e4 68ba 18a7 864f 366b d8ba
00000090: d000 6e78 cfcd 1bba 8b89 07f0 bb5f 86ba
000000a0: 758f 9e23 ec92 533a 6887 842d aabf 1cba
000000b0: 2d66 bd0d 4503 b3ba b0d7 e775 6df7 733a
000000c0: e6c9 6274 c70d 613a e136 dd77 5f48 d63a
000000d0: 50d2 22de 9567 49ba 689d 774c aa08 8bba
000000e0: f086 2f49 1060 4eba caa9 416b e206 e3ba
000000f0: 9c95 d36f c501 4cba aa06 eecb 04c4 9c3a
00000100: 7290 c030 ffd9 a3ba 5379 a9fb 1cf2 253a
00000110: 8d02 9d3c e055 723a 9e7d 0be2 c68e 40ba
00000120: ae9d a384 ff52 81ba 0201 fe6a 3951 02ba
00000130: a8c8 0bab 3728 413a 7eab 572c b5ef 2b3a
00000140: 5723 b6d5 829d 6bba 7463 8cb9 bc3f 043a
00000150: 1153 9d5b 8087 8f3a dd27 8f90 951c 29ba
00000160: 47cf a2de ca0c 3bba 1f53 87d4 b3a0 51ba
00000170: 489f d4e5 1163 4eba 4770 7447 b482 40ba
00000180: 75f3 16e3 e099 513a 602f 6c88 f26f 84ba
00000190: d8d6 6b01 e777 703a 189c f22e 9ee8 82ba
000001a0: 0820 6853 606b 3cba 3d37 c43b 94a6 51ba
000001b0: 37ce 40b1 05a0 94ba b847 5ff2 16d1 65ba
000001c0: 5ca3 7afe 7d1b 69ba bc83 6f3f a7b5 613a
000001d0: b7c3 a84f 0fcd 6d3a 14b4 1a8f 80ef 593a
000001e0: 9ae6 201b 6503 553a 03d7 7412 4ed3 8f3a
000001f0: 2e03 ef90 b467 623a 04c3 d045 2dd7 28ba
00000200: c447 5e3b 37eb 3f3a bc1b 227d 6ecc e9b9
00000210: 5c6a 6ae3 aa1c 36ba 4cc1 9fd8 ebd8 47ba
00000220: 42d6 d142 854f 2e3a 1ba7 6b5c 954e 0e3a
00000230: a3c1 e944 81da 20ba 5f1a 8088 2573 26ba
00000240: 478f c830 9841 20ba c08c f050 c72a 143a
00000250: 6e3e d3eb b343 3eba b93a 1cf7 af56 09ba
00000260: 8ae6 f6ac 4a57 4b3b f8af 442d 9841 3fba
00000270: 8ab3 dc2a 5ec0 083a 1784 452d 69a8 1aba
00000280: c01b 9152 4dc5 d439 8646 a95a a922 263a
00000290: 187d 39a3 30ac 0e3a d4f5 00e6 c0dd 25ba
000002a0: 92c3 3c5a 24e0 f9b9 94ae d611 4596 343a
000002b0: 0ac6 199a 2ebe e839 4a90 0a53 11d7 35ba
000002c0: 77d4 afb3 9a7b 2dba 3b09 e8f1 c230 33ba
000002d0: 364c 09e8 5e3b 2fba 1a7f 49ad 71ae 113a
000002e0: 5ea4 17bb 1776 40ba 88d8 1cfa 1935 2eba
000002f0: 27d0 264b 9526 2b3a 072c 955b b867 2d3a
00000300: a059 70c6 3b75 c33a 2104 62c2 3c0e 573a
00000310: 6a6a 2a2f 6a4c 6bba 08b8 493d bcdb 30ba
00000320: 8403 a447 7794 c63a cc04 8d52 98ab 193a
00000330: 1e81 8dfe 7276 673a 425b 2c07 df65 d0b9
00000340: fae2 40e5 cd20 84ba 2428 ddd3 311d 53ba
00000350: 0c19 2711 0fc2 53ba 698d b75e b307 29ba
00000360: c9f7 f343 a36e 10bb 4563 7932 604c 763a
00000370: a8da 6bec 4567 693a 02dc 3b1f 16b9 773a
00000380: 9f08 c8ca 10c0 673a 3dd0 d02e 3f77 03bb
00000390: e70f 10b3 7a91 59ba 949f f4a4 9372 943a
000003a0: 38e3 3229 2f93 64ba 46e2 af35 9338 393a
000003b0: ae2c c61f 1877 a5ba 6e93 f614 e207 773a
000003c0: e837 7c3e eb21 7bba 2bdb 27a8 31dc e0ba
000003d0: 3a5e c14b aaf1 423a c647 abf8 38bb 55ba
000003e0: fa33 35c7 978d 8f3a e1f4 7983 e5e6 e83a
000003f0: eeb5 8671 79db 553a c860 f842 72d3 a93a
00000400: 96bc 6411 94a8 dcba 9089 0613 9e42 38ba
00000410: 6a80 a39d b52b 5a3a 1a2b eef1 f55f 803a
00000420: 00ae 0ce7 8f5b 683a d3b4 92a6 7415 393a
00000430: a63d 79ae 0596 593a 73fb 7212 9a09 1dba
00000440: 38be a6a4 be92 80ba 4089 5190 e4aa 31ba
00000450: 89d0 4cb8 5e0e 74ba c0cd f742 6620 35ba
00000460: 2add edeb 094c a13a 4d2b ec36 bd20 903a
00000470: e8c1 32fa aecc 54ba fb67 6cc1 caec acba
00000480: bc56 df63 dd82 91ba 06ca 9ba9 6dc8 12bb
00000490: 0edb c8e0 3fd2 463a 34e5 033b 05eb 95ba
000004a0: b01c 1f90 c2f9 843a aec2 d71f d406 4a3a
000004b0: 7a73 5524 765d b93a 508e 2144 71fe 453a
000004c0: e494 15e6 e1fc 803a 8873 fb62 75e7 a53a
000004d0: 605d 2049 7c7d 0bba 865e 2e80 d46b 63ba
000004e0: 28e7 633d 9430 7f3a b8a9 fc5d fcc3 dc3a
000004f0: 123a 2da4 af95 803a c2ba 89b1 1657 ac3a
00000500: d713 2983 09a5 e13a f1b7 3939 1826 293a
00000510: 1cc4 4d79 ae77 41ba b641 65ab ea04 61ba
00000520: df39 a2c0 aec9 ce3a 6e17 34cb 63ca 1c3a
00000530: 95dc 6001 7b7d 70ba 1e9e 2907 1aae 2b3a
00000540: 29d6 6b00 38c2 36ba 367f 7c63 46f2 513a
00000550: dfb6 b955 1512 6e3a 8d28 88a5 2d09 333a
00000560: 3f8a b7b6 f975 f43b 0823 3e36 04a6 5cba
00000570: a332 9657 4a50 56ba 9258 ddc9 49fc 8aba
00000580: 5245 0bfa 159f 6eba 749b ca82 a79a 01bb
00000590: b87e 4095 8fe9 61ba e674 4147 0cbc 9d3a
000005a0: fdaa 3655 583b 533a 0ea8 c41b 66b1 503a
000005b0: 905b fb52 e014 8d3a b9a8 196c ac68 643a
000005c0: 7cfa d793 11b3 81ba 61ad 32a0 4642 e73a
000005d0: 6f87 d913 fcf0 5aba 28f3 0424 a111 643a
000005e0: ebe5 f820 3464 91ba b8ba b2c4 3bd5 a23a
000005f0: bd79 08c4 1c27 493a ba63 d772 cdea 973a
00000600: d021 e1ec e880 003b f8bd 3b11 1793 50ba
00000610: ec79 277b 3a85 83ba 32e0 71dd f203 73ba
00000620: a6cd f6b8 ed1c cf3a 8f2d 25c7 cf9c 433a
00000630: 580e 1238 4ecd 3f3a 725d 2f53 c965 363a
00000640: 1578 3732 7384 9dba ec69 bcfd cc10 3aba
00000650: d5d5 73c3 5a57 a0ba a987 bdc9 127e 703a
00000660: bb59 9bfc d701 923b 3e95 7519 c48e 6eba
00000670: fca5 e0fc c383 84ba 9570 3d17 70c8 b13a
00000680: 462d 9d02 b30c 903a 85bd 58b2 697c 083b
00000690: 0e28 41ce ae95 653a 3a3b 4b63 045a b53a
000006a0: 1591 8326 e8b5 913a e46a 754d 5359 80ba
000006b0: 5b29 ef71 bd9f b7ba cc1c 4c72 13f2 85ba
000006c0: c8f0 142d f7ee 85ba b2e2 9fd3 35c8 053b
000006d0: b82d a1de 1d43 623a 58aa a25c 9e3f 873a
000006e0: a044 2272 d7a1 333a 1b04 566b 4767 c8ba
000006f0: c49b ad8f 2e2c 88ba 25ad 353b 1a2e 953a
00000700: b00f bd0b 4995 af3a 6619 21e1 36eb 263a
00000710: d5f7 33c5 0cd2 753a 2353 2d24 87eb 593a
00000720: 7edc b2bd 853e 553a c86f 3ca9 1bdd 0fba
00000730: 687b bb67 63bc 44ba a0a5 f499 3f1a 3cba
00000740: ea85 8ade 5d8f 7bba 1dc9 39e1 0d08 433a
00000750: 052d 0da3 d23d 7f3a 64df f06a 46c9 35ba
00000760: 2acb ebfe e30e 703a 1aa5 f5c5 0e9b 533a
00000770: 881f c437 e161 3a3a 75bf 2d0b 808a 62ba
00000780: 7e88 67c2 6f38 4bba c3e8 70f2 c073 ceba
00000790: 21b5 1343 0eb6 6aba 3c68 684a 4422 70ba
000007a0: 44ec 983f 3492 49ba 1c64 919a efaa 213a
000007b0: 202a be85 324e b93a d6c8 aa1a 9710 73ba
000007c0: 9612 794a 8cd7 67ba 48d6 3921 a6e1 a2ba
000007d0: d51b 97e4 3390 463a 3a52 41b2 b760 69ba
000007e0: 5b67 128d 853f 643a a335 b0ca 47f8 ae3a
000007f0: 2240 2cc8 0a80 633a b02b ca7e ce3a 583a
2.6109595848441066e-25 2.5857529587217178e-28 -8.474036779167535e-28 -1.3208354334487467e-27 4.308759511271787e-25 1.5369314172480986e-28 1.7193988015597515e-27 2.2557889476945902e-28
-2.3073384249984076e-27 -1.8011009812161958e-27 9.86433885144402e-27 -2.3396954145061885e-29 -8.630850277457973e-23 -1.2710156276985968e-27 5.628930640407076e-30 -1.1413210463529374e-26
-2.513616743162899e-27 -3.1560556007315135e-25 -8.773378718867664e-29 -9.036771063378826e-27 9.882301987642296e-28 -9.071487191196213e-29 -6.143358102022139e-26 4.032205388004348e-27
1.72199623416412e-27 2.879972344028188e-25 -6.4130303527701e-28 -1.0918884475030525e-26 -7.667790729681768e-28 -4.918336404156594e-25 -7.069940285888068e-28 2.323674594685889e-26
-3.207190900542865e-26 1.3849718363951183e-28 3.702815211100579e-27 -4.179756714811708e-28 -6.99719325950533e-27 -2.889957591612538e-29 4.331060795571863e-28 1.7630320675938447e-28
-2.7884304524470466e-27 3.194724706988523e-29 1.2734583798522828e-26 -1.5847683689148454e-28 -3.414186280119615e-28 -8.899736372283476e-28 -7.670755166866773e-28 -4.167852141742885e-28
8.886278412012465e-28 -8.254557514825738e-27 3.325760556321649e-27 -7.637148442943905e-27 -3.5870374451840107e-28 -8.911325873530127e-28 -1.6660812482454559e-26 -2.2029294329212427e-27
-2.535198643512262e-27 1.7882109277131465e-27 3.0091335135564718e-27 1.3094109256925962e-27 1.0608985915026253e-27 1.2854180746107093e-26 1.858440068447715e-27 -1.5676581261342594e-28
4.028720408134813e-28 -1.0175738062473261e-29 -2.7909245711953375e-28 -6.019917153306522e-28 1.9128695018170575e-28 4.781596216308498e-29 -1.0636075895548018e-28 -1.4167810251317781e-28
-1.0259122499988622e-28 6.363615911126134e-29 -3.8199124110784348e-28 -3.9977297391637515e-29 4.5231862478693786e-23 -3.9450906460832827e-28 3.905088180685862e-29 -8.4117358099926e-29
4.096300489737626e-30 1.3969399224169074e-28 4.8392857062182404e-29 -1.3799527814907392e-28 -2.0412213499771405e-29 2.598443629940591e-28 9.759352689518038e-30 -2.756609191223764e-28
-1.8606281136696508e-28 -2.422178429339131e-28 -1.9710110594191313e-28 5.579273048487165e-29 -4.155416226081955e-28 -1.9063566962167881e-28 1.7134510429966932e-28 1.8557262905502726e-28
1.2574401169003495e-25 1.1640110729219567e-27 -2.7564436055696477e-27 -2.1278217896768585e-28 1.4591947493062915e-25 8.100116231311733e-29 2.3691264752232715e-27 -3.233922341173643e-30
-8.129691696517199e-27 -9.650124880932269e-28 -9.975262218487428e-28 -1.5796201706879778e-28 -3.398094917471797e-24 4.5031144774017265e-27 2.5650889675680224e-27 4.7908204461047496e-27
2.3981630242212106e-27 -2.0127173570446927e-24 -1.2908681803965073e-27 1.6517411768920094e-26 -2.0775378568215788e-27 3.183337268165054e-28 -3.467892009893098e-26 4.651031704880941e-27
-5.4793638885575904e-27 -4.358242155445753e-25 4.78213911779168e-28 -1.0971521930781209e-27 1.2744194468043279e-26 6.437000516095827e-25 1.1035127478177206e-27 4.172409232130198e-26
-3.704025516978461e-25 -3.062070828452494e-28 1.321284712723505e-27 6.613747860900123e-27 2.459495588990919e-27 3.166022081295132e-28 1.2917641091966782e-27 -9.162621687061929e-29
-6.693870849138078e-27 -2.22995833113993e-28 -4.050303765699551e-27 -2.6665468083124577e-28 2.7944853292830025e-26 1.3028003516293982e-26 -1.0501086624863315e-27 -4.673080744851701e-26
-1.4145427152797614e-26 -3.884217503819367e-24 5.76090280973207e-28 -1.7705258628017906e-26 8.471987487172364e-27 6.570056261641815e-28 8.195900656841053e-26 5.552044905782824e-28
6.861326640439992e-27 3.538803856892061e-26 -4.337185292787927e-29 -1.961041189107506e-27 6.298722266453595e-27 3.7178627273106064e-25 6.698511558504744e-27 4.578604637718796e-26
4.561041946958216e-25 1.5871128601091228e-28 -4.409418432850905e-28 -1.7185006172063002e-27 1.9896164133398648e-25 9.084706851179682e-29 -3.330160920542421e-27 1.7468589310306448e-28
-2.8725476263819267e-28 9.060609750655174e-28 3.0363584957600048e-27 2.4026624066346118e-28 6.9324027784721e-20 -1.4463797144413903e-27 -1.1265506437536272e-27 -1.0899357023482769e-26
-3.0919741785345654e-27 -1.8202231919368427e-24 -1.808684849882208e-27 2.4019388184425772e-26 9.709586082649918e-28 8.42779323505932e-28 1.1745943661230315e-26 2.0607703430022287e-27
-7.148765852908573e-27 6.01228219155514e-25 -1.3601903940725054e-27 2.0264375116204946e-27 -1.404867753721776e-26 3.0426260796201956e-26 6.349455012552879e-28 1.9320158196549788e-26
1.7064275047327938e-24 -8.368019756284554e-28 -7.884236304206089e-27 -3.8401344113302795e-27 2.010630652236519e-25 4.95090251166316e-28 4.0139735377411173e-28 2.8269749687533918e-28
-2.3843951901683933e-26 -3.2899447733777098e-28 -2.640067882500122e-26 3.330628636986657e-27 9.53293333517755e-22 -3.0855371393622965e-27 -8.28582509472152e-27 5.74598439512543e-26
1.2964768865794133e-26 2.5317917987458926e-24 2.1794975814705266e-27 6.899083566553934e-26 1.430648740862721e-26 -6.603279168442562e-27 -7.633321066431978e-26 -8.863760979211662e-27
-8.858853584154398e-27 2.2522133881392852e-24 1.8440083874320142e-27 9.389998474236782e-27 2.47793121404551e-28 -1.5770349288215834e-25 -9.763229518828893e-27 1.7109138638018117e-26
5.10253240690135e-26 1.446380012866929e-28 4.406616368164276e-27 1.3086271356186995e-27 1.0725594309746981e-27 -5.0272059696614156e-29 -5.234475001061359e-28 -3.5470383369200674e-28
-5.565702943451086e-27 4.804216375794579e-28 6.309169734174402e-27 -2.749808912391074e-28 3.242920886714909e-27 9.898346017466064e-28 3.3299198118734735e-28 -1.8721642105951356e-27
-6.871408965995372e-28 -1.9679249024495072e-25 -2.6971374090709205e-27 -3.258205975392529e-27 -6.455055610591791e-28 1.1149897967387422e-28 8.176634605260841e-26 -3.850106843146967e-27
-2.4074252046533917e-27 -3.050461345495132e-26 5.695775619994118e-28 -2.56250324913593e-27 2.0445388038718863e-27 5.0034483856046004e-26 1.9690134316177405e-27 1.2232879117165587e-27

lin1.bias f8 [16]
00000000: e386 045c c9c3 9ebe 32e4 136c b385 883c
00000010: f897 54f4 b0b2 e33e a41a f234 79a4 e1bd
00000020: 6cfe d703 c8fb ffbd 75db 0162 adb0 83bf
00000030: 418e de53 4f10 363f 5e67 933a 3043 e9bc
00000040: 85de 1c28 a338 00bd 43cc 22c8 b0ae 82bc
00000050: 11ae ced6 949c 103f f1f9 54e3 87cc 6a3d
00000060: 7c5a addf 3cfa 4cbd 7ec3 1b0f 4017 6bbe
00000070: 1fc0 d622 c421 fe3c b395 b33d 83f1 6abd
-4.584311135304404e-07 4.2539355744842987e-17 9.392744355251462e-06 -1.283658964478479e-10 -4.65421482468321e-10 -0.009614328912204798 0.00033666550359099176 -2.804695882570542e-15
-7.203677464995114e-15 -3.2408771804940485e-17 6.336840097159064e-05 7.616719269254559e-13 -2.0589745986073305e-13 -5.04605867211407e-08 6.6906256200237964e-15 -7.657777368042205e-13

lin2.weight f8 [1, 16]
00000000: 61dc 0384 f942 a0be 841d fe64 3f61 783c
00000010: 47c2 1ccc aafc ddbe aa18 8bab 4fc0 55be
00000020: 5cd3 9be1 07b8 ffbd 7a22 e06f 4c33 84bf
00000030: 77fc 5c0f 3826 373f d5ed 36bd 4cc5 e1bc
00000040: 69e8 9e36 cb1c 00bd c187 9533 6268 79bc
00000050: cdef 015b a0e7 01bf 3444 b126 f179 483d
00000060: cd2d 484f cc69 4dbd bc34 35e1 5bc4 70be
00000070: c0ca 1422 9f67 10bd 925d 268b fd17 6bbd
-4.846340360399663e-07 2.114616951451081e-17 -7.14945343975642e-06 -2.025739817797773e-08 -4.6157031114634435e-10 -0.009863469280405147 0.0003532301774277833 -1.972944274179575e-15
-7.155376642233479e-15 -2.2037708841803965e-17 -3.415067783493729e-05 1.7391482689116073e-13 -2.089938801116002e-13 -6.246204291745181e-08 -1.4570364407315737e-14 -7.700496245664426e-13

lin2.bias f8 [1]
00000000: fedd f5ee 8de0 eb3f
0.8711614291377712
