Q1/models/lastmodel.pth (torch, 172451 bytes, 22 tensors)

batch_norm0.weight f8 [1]
1.1065753996545038
00000000: 0530 0168 88b4 f13f

batch_norm0.bias f8 [1]
-0.17481194105888356
00000000: e92a e6d8 3c60 c6bf

batch_norm0.running_mean f8 [1]
68.01502578374244
00000000: 5171 b42e f600 5140

batch_norm0.running_var f8 [1]
2.4817484195815083
00000000: a304 58ea 9eda 0340

conv1.att_src f8 [1, 8, 32]
-0.035876199291208576 -0.265045153967796 -0.2905820085661545 -0.2336993680119678 -0.15501859247795235 0.4109833198429601 0.4065390805619425 -0.3087443289206356
0.265848734101408 0.40357420910442354 -0.2218805451695036 -0.09292647710683594 0.1146994204357447 0.17774768835984486 0.03824040852132005 -0.3907927320323698
-0.07884289010237386 0.2831782887155254 0.30780888233455633 0.030198351956370946 0.2873270733910073 0.1889590338130131 -0.35149939804721425 -0.29325579001007346
-0.21200374417062398 0.47137742692499807 -0.3378119961511995 -0.2784760222199053 -0.4968406136162106 -0.4698000631830434 -0.25044283046916704 0.4174857070518603
0.11962288897697272 -0.3051013848448537 -0.341244181119449 -0.002554102834805947 -0.18201792099745034 0.10293348300815582 0.028911221768773893 0.2533999778062686
-0.5214254889471879 -0.3509606547930632 0.26881889452860175 0.17757681497521244 -0.37905469741071124 0.080482376958728 0.26585221693542177 -0.43878486947785755
0.3686149472060683 0.19757754941913724 0.4270449594586512 -0.31888102441011057 0.2446606600288933 -0.5466136985417935 -0.3297808822208719 -0.5379307863003919
-0.44610233111191083 0.36473378265609097 -0.16940969604260697 0.20467704016081126 -0.35824345249108425 -0.19417165935479197 0.4810827445288692 0.18691111225002602
0.29485604731433734 0.15763278786225596 0.14925151999437591 -0.183339839822751 -0.13388964067180353 0.022069996324054146 0.4036330486339609 -0.41032278343119477
0.06301267928514606 0.0672497300811545 0.41736065276740036 0.1450031231852691 -0.08514801006143607 0.012998323744890145 0.4014839951407181 -0.08530271944473039
-0.2980436019260312 0.028925895098218826 -0.4563750034946094 -0.10233214307049207 0.2786381956510037 -0.17721297593133045 -0.01410383920596872 -0.15201848443872526
0.11242214388080492 -0.1030661419843596 0.2297922027815983 0.2527948908687823 0.4289993252494201 -0.13522771431518588 -0.22516821612225868 0.11746281374241398
0.12264876568876372 -0.30993038557805214 -0.462299325383012 -0.28746948508824566 -0.14103923413094127 -0.03239461933841726 0.07454523076328175 0.28959663729715424
0.1952525757161665 0.46852610115378135 0.026370085227006523 -0.14044239610666417 0.3995691119593522 -0.1710910513086531 -0.19762585885379638 0.47185093069288614
-0.3642054357239104 0.4705124405941525 -0.3158555059476052 0.27607567030397817 0.15908496688441176 0.3364914694017237 0.1895537527633464 0.16078414434496183
0.005731797434652108 -0.32575967508099596 -0.24225803692203962 0.04794227265749113 -0.018047135019725664 -0.15952047695696764 -0.3870303575788081 -0.33085155451346515
0.1552653195464616 0.028354599576381544 -0.38273735625279814 -0.43778984358378814 -0.049968808053343444 0.1721116526082933 -0.24162368467448123 0.2928694728607212
0.30710748540508453 -0.25959203148419724 -0.25397418839852715 0.46713274403530136 0.2315248703858758 -0.2876031326424133 -0.11643360246742694 0.19773408762401995
0.008877697421873108 0.2469456370223636 0.17515119361211628 0.27975659736751857 -0.23496986581480758 -0.39150849344570354 -0.19012192621766155 0.230875440722386
-0.07870773710753887 -0.25131525839893576 -0.26860105539419465 0.47897799844070926 -0.1757328725506237 -0.48537544773660585 0.4857115491470582 0.33697753043595274
0.2788619458160832 0.136339000755643 0.1962084845875845 0.16736683425066157 0.24551608760698812 -0.26196188434797796 -0.4330084974730377 -0.10899588382516409
0.1731314430306094 -0.16584083763194166 -0.0453972764079331 -0.2723899981699163 -0.08106982565307953 0.17654524510993266 0.3747008417086436 0.025314736179257707
-0.24857250916033036 -0.5149301911095894 -0.15490213498839575 -0.05671724589006109 -0.150717842012029 0.0900148290143003 0.2179936795465254 0.01706444169242485
-0.41490957166111697 -0.14100067970590402 0.38499056997720704 0.5116709252274048 -0.24148582097873136 0.020239491994004783 0.005954544422172905 0.1494327838439038
0.24164991296698723 -0.11059602510597771 -0.4425322846257951 -0.33464502327807216 0.3054979060858036 0.4337888346150227 -0.03164415700613082 0.04964209842873419
-0.27408800549147766 -0.507208015315617 -0.20551385166254085 -0.1779102237995341 0.15710909151868493 0.015565773988144887 -0.1844990105319579 0.2777200030508889
0.2736498688880336 -0.13342543249017041 0.1431654099523131 0.5151344255178371 0.43518972409995604 0.4442929926891479 -0.3681812991264996 0.11820920553364118
0.20599783173756647 0.3069075161478574 0.3367244378002059 -0.1355394828427576 0.410241143359648 0.32482779742112206 -0.19786248678430454 -0.28845005353274344
-0.07870822012208581 0.30530391530207696 -0.32723900327736194 -0.21309680810830733 0.09607654081719717 0.24285173761135334 0.07853607232267576 -0.24844034606214327
-0.5089708844810626 0.13289686427276637 -0.35811930940378317 -0.28678916375861446 -0.3999048271366691 -0.3627552392435539 -0.20612290831785335 -0.2340317190215621
-0.22390685282090367 0.0047926527165071415 -0.3551492377447341 -0.1950807092487994 -0.1251751282554963 0.45728496697237264 -0.4693998838202897 -0.28808516889248764
-0.13865701345753273 -0.25694217684426823 -0.17391288210738107 -0.04899873359448155 0.04452488035896668 0.19937999946772017 -0.1639792371709296 0.2660648483656795
00000000: 932f 527d 5d5e a2bf 6751 10f3 7ff6 d0bf
00000010: 7f3f e647 e598 d2bf d587 5a63 dce9 cdbf
00000020: 287d 7b34 a6d7 c3bf 5254 7bfb 8c4d da3f
00000030: 11ce e37d bc04 da3f c188 e292 77c2 d3bf
00000040: cd81 a968 aa03 d13f 4234 67eb 28d4 d93f
00000050: d792 8fea 9466 ccbf f439 1b94 07ca b7bf
00000060: fb44 a4f3 f05c bd3f 23fa 38ae 6fc0 c63f
00000070: 1131 f82f 3f94 a33f 3bfc e584 bf02 d9bf
00000080: 7e06 8332 0c2f b4bf 7c1b 3ed4 971f d23f
00000090: 13e5 c206 24b3 d33f d2ce 2e18 51ec 9e3f
000000a0: af10 de17 9163 d23f f65c 4143 cf2f c83f
000000b0: 4f4b cb54 f77e d6bf 9d2d ddee b3c4 d2bf
000000c0: 21d3 eb4d f022 cbbf b2ca 2d3a 0c2b de3f
000000d0: c69d ea34 b69e d5bf fee5 0918 8dd2 d1bf
000000e0: bb98 b392 3ccc dfbf f7e9 c148 3411 debf
000000f0: e47e 985d 4107 d0bf 8873 95f8 15b8 da3f
00000100: c956 020c 9b9f be3f 86de 77f5 c786 d3bf
00000110: f2ee 76d5 f1d6 d5bf fbf3 ac84 57ec 64bf
00000120: ae27 fcfc 5c4c c7bf 5df3 2e47 d959 ba3f
00000130: f8e8 ef3f e79a 9d3f 0d0b 5f8a b437 d03f
00000140: 0487 ca81 84af e0bf 8336 a1ad 2376 d6bf
00000150: 9e05 232a 5434 d13f 3256 6c4a d6ba c63f
00000160: 2d8c 31a2 6e42 d8bf 332c f138 7e9a b43f
00000170: 87a1 5304 b903 d13f 0cc5 1822 0d15 dcbf
00000180: f146 c425 6397 d73f 12ea 969c 384a c93f
00000190: b8fa b261 b454 db3f 8002 caf4 8b68 d4bf
000001a0: 3c8f b85e 0a51 cf3f 1c0b d902 dc7d e1bf
000001b0: e004 ff45 211b d5bf f67e d59f ba36 e1bf
000001c0: 9de1 b2ca f08c dcbf 2b46 105d cc57 d73f
000001d0: 0e6c 1088 37af c5bf 2dcb dd74 db32 ca3f
000001e0: 3c24 1df2 75ed d6bf c093 5eef 9dda c8bf
000001f0: 7bf8 9a47 0fca de3f 71b9 2f0d b4ec c73f
00000200: cc8b 0fe6 ebde d23f 23a6 52aa 4f2d c43f
00000210: 7c87 a07e ac1a c33f 1fda 0b0c ae77 c7bf
00000220: 00b3 fab5 4b23 c1bf 9e15 bd61 8499 963f
00000230: ceed ddb5 1fd5 d93f c600 e97d ba42 dabf
00000240: 8656 c354 9921 b03f dd06 5d3f 4737 b13f
00000250: 0d7c 9174 09b6 da3f 0005 f35b 768f c23f
00000260: 6c89 888e 42cc b5bf 2ad4 187b dd9e 8a3f
00000270: b0cb 3fed e9b1 d93f 1c65 4626 66d6 b5bf
00000280: 6a7a c378 2513 d3bf 1748 d1f5 bf9e 9d3f
00000290: af28 ae80 3f35 ddbf 463e d177 7032 babf
000002a0: 5e33 6f4c 35d5 d13f a4a4 0630 eaae c6bf
000002b0: 0ff7 1941 79e2 8cbf b5a1 8679 5775 c3bf
000002c0: 9573 5097 b2c7 bc3f c8d0 25ed 8a62 babf
000002d0: 5c50 e9b5 d469 cd3f d525 389f ca2d d03f
000002e0: eaf2 fc95 b974 db3f 188f 3f49 244f c1bf
000002f0: 5c00 2ce6 4fd2 ccbf 1912 85ff 0a12 be3f
00000300: 792b 87d5 e865 bf3f b70a 8641 e6d5 d3bf
00000310: d2e7 dee8 4f96 ddbf 8e53 4369 e665 d2bf
00000320: bacb 05d9 920d c2bf 21ef 3f0d 0796 a0bf
00000330: 3579 3370 6515 b33f 3243 8e55 c088 d23f
00000340: c891 9451 09fe c83f c4c8 71e6 54fc dd3f
00000350: b326 9276 c200 9b3f 0300 2035 04fa c1bf
00000360: 0adc 1653 8a92 d93f 6424 01c3 4fe6 c5bf
00000370: dd7b 4fdc cd4b c9bf 5f70 fa3e ce32 de3f
00000380: 806a dd50 244f d7bf 3fa2 2d36 e01c de3f
00000390: a99d 1303 fa36 d4bf c051 cb49 39ab d13f
000003a0: a4e2 066d e55c c43f 26a8 1d84 1389 d53f
000003b0: 30f0 7920 4c43 c83f 71a6 d628 9394 c43f
000003c0: 664e 77a8 397a 773f 8d05 b51b 3fd9 d4bf
000003d0: 2cfc e2b4 4f02 cfbf 79d6 51ba e38b a83f
000003e0: 62ed c8ba f27a 92bf 9a47 c9bf 2a6b c4bf
000003f0: f80c 17fa 1ac5 d8bf 7cd4 9dff ab2c d5bf
00000400: 6cd8 d3e6 bbdf c33f e3a7 7cf7 fc08 9d3f
00000410: 9a0c 04d3 c47e d8bf 20a7 2db1 bf04 dcbf
00000420: 2c84 d1f8 8295 a9bf f047 9b2f c107 c63f
00000430: 3fd6 ce5f 86ed cebf 66bf fb99 5fbe d23f
00000440: 13fc 8a27 a6a7 d33f 93b7 61e5 279d d0bf
00000450: ccc9 4cf4 1c41 d0bf 526e a1bc 80e5 dd3f
00000460: 054d 4261 9ba2 cd3f bf48 3bf8 1668 d2bf
00000470: c7c8 c0b2 97ce bdbf ea24 d3bf 594f c93f
00000480: dfcf b960 782e 823f f451 7325 ea9b cf3f
00000490: 04af 35b4 5a6b c63f aa28 2237 88e7 d13f
000004a0: 772c 9c18 7e13 cebf 5b27 dda3 790e d9bf
000004b0: acbe ad4f ea55 c8bf 0516 ad91 538d cd3f
000004c0: f0ac d1b4 3026 b4bf 3cca f397 8c15 d0bf
000004d0: a4b4 257b c230 d1bf d19b b355 93a7 de3f
000004e0: bef1 372e 6a7e c6bf 57d8 932e 6410 dfbf
000004f0: 3712 b8e4 e515 df3f 8b64 2d34 0a91 d53f
00000500: 8f41 58c6 dfd8 d13f 5d18 b56e 8e73 c13f
00000510: ba2d 4010 5c1d c93f 9854 c5c3 466c c53f
00000520: 2efa 7437 126d cf3f aaad 84c7 fbc3 d0bf
00000530: dc5a e245 69b6 dbbf 6e7d 6d7c 27e7 bbbf
00000540: 86e5 dcce 2b29 c63f 3b37 fcc6 453a c5bf
00000550: 5dc4 ffd2 4f3e a7bf 356d 7975 d66e d1bf
00000560: 8155 dff9 fdc0 b4bf ad77 01db 0899 c63f
00000570: ea06 3b3d 19fb d73f dbb3 fc2f 1bec 993f
00000580: a89e c356 39d1 cfbf 2a3d 51e1 4e7a e0bf
00000590: cb88 ed49 d5d3 c3bf fd1a 6ff8 0a0a adbf
000005a0: 19c4 2ee5 b84a c3bf dc7d c53a 360b b73f
000005b0: 398a 3186 37e7 cb3f 874e f94b 5779 913f
000005c0: 4a3d 45e0 e08d dabf 007b 066e 4f0c c2bf
000005d0: 2283 d47c afa3 d83f f24d 45b4 9b5f e03f
000005e0: 0793 c6e3 01e9 cebf 05c0 ce50 a9b9 943f
000005f0: f69a e4d8 ca63 783f a8a7 c70b 9d20 c33f
00000600: 6421 a364 62ee ce3f 34d4 e566 0550 bcbf
00000610: c415 79ee 7252 dcbf 13e7 aff5 d26a d5bf
00000620: f0a3 e816 478d d33f 88a7 823e 32c3 db3f
00000630: 07d2 e6b6 a933 a0bf 1930 836a b06a a93f
00000640: f5f3 f36a a88a d1bf ab96 c14d 0c3b e0bf
00000650: 73ff e123 474e cabf bbe8 6b20 c3c5 c6bf
00000660: 150f fd94 261c c43f 5663 bad1 f2e0 8f3f
00000670: f786 30e0 a99d c7bf 111c a31e 2ac6 d13f
00000680: 5571 5bbd 7a83 d13f f6fd 7fa6 1514 c1bf
00000690: 6df1 d480 3e53 c23f 4b92 d430 fb7b e03f
000006a0: fc21 2400 26da db3f 6447 5ce0 4b6f dc3f
000006b0: a3d0 af4b 4890 d7bf cd66 da5f f542 be3f
000006c0: 940c 2e0f 235e ca3f dc1a 306c 5fa4 d33f
000006d0: 6c6a 07a8 e48c d53f c72d 1097 5b59 c1bf
000006e0: 7403 8d11 6441 da3f 0159 b087 fac9 d43f
000006f0: 4d02 ecd6 8e53 c9bf 1cf7 9c36 f775 d2bf
00000700: 4ac9 59cf 3826 b4bf 0d0b e46e 198a d33f
00000710: 6f52 43dc 7bf1 d4bf 7884 da96 c146 cbbf
00000720: f700 b9e0 7898 b83f 03a5 6807 c415 cf3f
00000730: 8ea3 2ea6 f01a b43f 8c02 acac e4cc cfbf
00000740: a3cb ee4e 7d49 e0bf 1070 e5b2 c302 c13f
00000750: 8524 7d40 6deb d6bf 2130 ccef c05a d2bf
00000760: 3621 846a 0a98 d9bf f23c 40c0 6137 d7bf
00000770: 3a3e 1747 3c62 cabf 7e4e b659 c0f4 cdbf
00000780: 12a8 1bd1 faa8 ccbf c211 dbea 75a1 733f
00000790: 9107 54de c3ba d6bf 08ec 2699 67f8 c8bf
000007a0: 99a2 1015 bd05 c0bf 6c52 862a 2844 dd3f
000007b0: 2b47 70cf a50a debf 97c6 b6c6 fc6f d2bf
000007c0: 12a0 1455 83bf c1bf 6a96 a099 bd71 d0bf
000007d0: 138d 80fe c642 c6bf aadc aaac 5c16 a9bf
000007e0: c809 0012 f7cb a63f 925d 98a8 4885 c93f
000007f0: 46a3 6f8a 45fd c4bf 7721 96db 3407 d13f

conv1.att_dst f8 [1, 8, 32]
-0.2824572248228975 0.15412189221962005 0.01188452756163102 -0.16487596716519826 -0.5419122523725366 0.04002018992580888 0.6255891248264362 -0.4960072995070078
0.5728286797185977 0.49379773299318236 -0.5668795767077328 -0.5417301058976544 -0.16379512250630857 0.24223769727485758 -0.0742190135049938 -0.5961321626331979
-0.3036271960527178 0.6330614510058903 0.5137381824999918 0.11190246416912539 -0.06185528139695526 0.23172162468905347 -0.3761652339625628 -0.12918494766989688
-0.22766333545271197 0.5465760393424893 -0.33098372937517473 -0.40319376887706654 -0.13638001276435502 -0.5074534720516898 -0.2740001288897711 0.2509402352843236
0.157246421509676 -0.12142148103381695 -0.34949221781437295 -0.06976010665784593 0.4197826355451077 -0.3610440274842547 -0.17534825133985046 0.37504242370934443
0.059613489247922945 -0.14934046717496036 0.5889888315140817 0.10773759886785858 -0.22931016800162574 0.11299230156472388 -0.11089982399665481 -0.0457100020447538
0.3832350589879694 -0.04053687163317981 0.07245305930023643 -0.24657196956858218 0.2432473605526978 -0.2944831932990426 -0.20168713469084973 -0.012813069197193284
-0.30456213549052036 0.038009009302322094 -0.6072330567319221 -0.07600464175798004 0.15335357720638268 -0.5671773211974156 0.35832817226074004 -0.07286427722144968
-0.20060331986012211 0.15729295539025442 0.038187538017955526 0.31844979009569685 0.2280117577820382 0.2626457073659406 -0.20428023808195836 0.37261552101567197
0.2991099025131562 -0.2844376545183866 0.12932873143531412 -0.3523308414405447 0.12456529582874228 -0.21723243255683983 0.17683486874373305 -0.21930321152156204
0.22385563591140661 0.14453683088438285 -0.05506545576303074 0.10750170563560116 0.327430379996601 0.18065790398300668 -0.24717038405347955 0.028108590496544784
-0.35709083086618926 0.3891228246368651 0.04446660291301501 -0.4018360884761475 -0.1004155360371908 -0.017949726260691117 0.31373796243886987 -0.007061705083329775
0.31988143741150826 -0.08002194697423826 -0.357306756264424 -0.29729747009837226 -0.19894135050706355 0.22778551440796635 -0.27560677946865303 -0.31727597478589387
0.013571261764648679 -0.14021174608201148 -0.20672312598558235 0.22436669947538856 0.1699584612955634 0.06994925237874254 0.0753526105638664 0.5105564824996479
-0.005724615190417713 0.16097914968386443 0.31295845366710334 0.3499099576001777 0.38479896901269534 -0.1252546727449554 -0.14230308901832409 -0.27871048444764446
0.36051976988642687 -0.14381116554835238 -0.4901772226253912 -0.17579935875877578 0.3311448702748626 -0.15805680429314353 -0.43392307406670094 -0.14664692354152378
0.2136252807010105 0.5298840005801889 -0.4467720209856156 -0.06389484857009736 -0.024359875984298743 -0.2131417047793374 -0.13301881764381365 0.48766963587758627
-0.31729317132985546 0.1035743256940301 -0.20896151098205626 0.3243973208532183 0.5013229424633464 -0.3587252840833437 -0.6113570297953745 0.6435436321278181
-0.06979170001638368 0.12438234488497803 0.21196772706181263 -0.03269619519593204 0.10374838279233142 -0.017932606503834894 -0.6209993243794748 -0.2703138968704442
-0.14418794528460815 -0.3893693995004384 -0.5518837222782386 -0.07374854597814373 0.03800690274655319 -0.4850488836547572 -0.061282361222500845 -0.16645231681737366
-0.015181109068526301 0.3538280975803825 0.13912827235850372 0.3706592973988447 -0.30607429104819717 0.002331255624291982 0.013374931387967127 -0.4014221610566905
-0.08454930360666665 0.0828179732034989 0.024150316580313684 0.348267892873692 0.4851573787068463 -0.10502117073952964 0.32992661651055527 0.27203098653099705
0.42478763426698957 -0.26617986468154153 0.14917721656420727 0.010070416837449954 -0.1763483293947812 -0.0735386993948916 -0.2435453838048832 0.2687475976991077
-0.3597582097447377 0.5632317101384587 0.11043458302212102 -0.07325562398519365 0.5354993928572637 0.1820753429639078 -0.33279203678052555 -0.10021138680430935
0.3673299696998752 -0.33944077485604235 -0.5412853828396902 -0.42088469201802514 -0.03192198458930216 -0.050051849150876786 0.6201847190883558 0.10229294047352329
-0.015252774864537185 -0.20721088013519973 -0.5870117175521588 0.36563473775032346 0.03549753043266144 -0.29291909368872143 0.20143243198839084 0.4580509770295629
0.3685324211400126 -0.43171388861781657 0.3814242483594257 -0.19685201691536353 0.55546548181982 0.49625000415441356 -0.5038005509798038 -0.13274983042125507
0.3739924958662055 0.49395707811867257 0.0261756225804529 -0.21772751174437785 -0.10372148964268922 0.26654346018529096 -0.09235526030794444 -0.32683831479060266
0.4229162180237376 -0.0611413405950459 -0.12158498905152679 -0.5396058344104718 0.15802433335319874 -0.41009254825481417 -0.25027265503742174 0.08357720104486722
0.059039605219405426 0.1753669633296464 -0.06829991636425775 0.051765639977488065 0.043711031190824264 0.06849369162200247 -0.21822501756162951 0.30124891575635654
-0.1526985930981026 -0.04332149002290409 -0.2893843432001374 -0.5607665172455416 -0.6242857729881147 0.679225813598331 -0.5729205216554963 -0.2489987560441587
-0.6435113419794122 -0.1166236784236492 -0.3985481398918234 -0.3029955593494959 0.1940313391934874 0.12351603417465574 0.09138085371563234 -0.04158886279757314
00000000: 6687 c877 c713 d2bf e527 5723 44ba c33f
00000010: ed19 a549 ea56 883f 8879 6fdb a71a c5bf
00000020: 5cbc 275d 5857 e1bf 2b76 d2bd 867d a43f
00000030: 1a9c fb7b d304 e43f 996e 7d66 95be dfbf
00000040: 8445 b3cf 9c54 e23f afdb 82ce 619a df3f
00000050: 745c 57a3 e023 e2bf 6fd9 0260 da55 e1bf
00000060: 2057 3413 3df7 c4bf bdb1 d315 a501 cf3f
00000070: fecd be6b 0400 b3bf 8c4e d3c1 8313 e3bf
00000080: 223f 4ec3 a06e d3bf 22b7 8d16 0a42 e43f
00000090: fe67 910e 8b70 e03f 96bd f2cf a3a5 bc3f
000000a0: 1c9e 5ed5 7eab afbf 5961 e8df 0da9 cd3f
000000b0: b5ba 7058 1713 d8bf c557 b0e2 2189 c0bf
000000c0: 2f43 227a 1224 cdbf 391a b808 8d7d e13f
000000d0: d82a 4b61 d62e d5bf 7bca d13c edcd d9bf
000000e0: e652 5377 e674 c1bf 5d84 5610 0f3d e0bf
000000f0: 449b 2bd6 3789 d1bf 61fd f2a1 670f d03f
00000100: 0607 e696 a620 c43f fc76 126a 7a15 bfbf
00000110: 0908 6e9b 145e d6bf 1032 a960 ccdb b1bf
00000120: 3f13 c6fc b7dd da3f 0281 9d68 581b d7bf
00000130: 552d 75be cf71 c6bf ed6d 1cf0 b100 d83f
00000140: 1bc8 70c5 a885 ae3f 3a2f 3ea3 961d c3bf
00000150: d4fd 211b ffd8 e23f 7ee0 aff7 b094 bb3f
00000160: 1c87 1a1c 095a cdbf 1396 eb3f 10ed bc3f
00000170: 43a2 324d ee63 bcbf 3abe c327 4d67 a7bf
00000180: 642c 4257 ec86 d83f 47b0 e4b3 3fc1 a4bf
00000190: d48d 30a0 488c b23f a024 b498 ab8f cfbf
000001a0: 94c1 34c1 ba22 cf3f e839 1c09 d0d8 d2bf
000001b0: efb4 c24f e2d0 c9bf 0780 4e09 bd3d 8abf
000001c0: 7807 e22e f27d d3bf 704c d0b7 ea75 a33f
000001d0: c7d6 f604 746e e3bf 2fd9 b14a 0a75 b3bf
000001e0: 2dbb 690b 17a1 c33f da6c b20d 5126 e2bf
000001f0: ef19 4649 d9ee d63f 557a b6b7 3ba7 b2bf
00000200: 1356 229d 5ead c9bf 0f6b a5f1 2c22 c43f
00000210: a5c2 cd25 518d a33f e442 783a 7b61 d43f
00000220: 787f 6341 7d2f cd3f 7a93 e4f0 2fcf d03f
00000230: 3ffb e3d6 da25 cabf cea2 2fc5 eed8 d73f
00000240: 4f0a 4ddc 9d24 d33f 1f13 fafd 3934 d2bf
00000250: dd52 f907 d88d c03f cafe 56a8 968c d6bf
00000260: 350f cddf 82e3 bf3f d227 bbb8 45ce cbbf
00000270: 16fd 0565 86a2 c63f df49 b2ac 2012 ccbf
00000280: 22e4 a12d 4da7 cc3f d8a2 dbd0 2e80 c23f
00000290: 7979 4817 8a31 acbf a218 f855 3b85 bb3f
000002a0: 2158 738d 9ef4 d43f 5e7a af56 cc1f c73f
000002b0: 8754 0676 47a3 cfbf 3d61 ad93 7fc8 9c3f
000002c0: 5b64 1180 93da d6bf 9251 7c6b 63e7 d83f
000002d0: c71d 8d9a 53c4 a63f 2ee3 96b6 aeb7 d9bf
000002e0: 5240 4a23 d5b4 b9bf bb1a 0cbd 6961 92bf
000002f0: 6412 0c64 4814 d43f 50bc 3006 bcec 7cbf
00000300: dde9 11fe ef78 d43f 1073 377d 517c b4bf
00000310: 32ea 3228 1dde d6bf 1263 d0f7 eb06 d3bf
00000320: 15fd 1f01 e976 c9bf 903f 7163 1328 cd3f
00000330: 81eb 179e 8aa3 d1bf 8ac3 e0e3 3f4e d4bf
00000340: a095 8eeb 3fcb 8b3f 4cf9 f75f 75f2 c1bf
00000350: e6ac b744 e775 cabf e074 474a 0cb8 cc3f
00000360: d2b1 78e8 32c1 c53f 5baa 58b7 31e8 b13f
00000370: 6d3f 0a06 4f4a b33f db18 638c 7a56 e03f
00000380: b184 66b0 b172 77bf 7973 9dfb f69a c43f
00000390: b571 e0e4 8207 d43f 2900 1cbc ec64 d63f
000003a0: 376b dcda 8ba0 d83f 942d 8e59 5808 c0bf
000003b0: 970b bad4 fc36 c2bf 1851 f07f 64d6 d1bf
000003c0: 4450 4e83 c112 d73f 6437 6a7e 6768 c2bf
000003d0: 02e4 1a49 105f dfbf 566b 43e8 9780 c6bf
000003e0: 8a65 0441 7a31 d53f a5b6 ac92 343b c4bf
000003f0: 3a29 0649 65c5 dbbf e1bd 558e 53c5 c2bf
00000400: 24d6 1abd 1258 cb3f 3d4c a54a cff4 e03f
00000410: b7aa b9ac e997 dcbf 0ccf fdac 695b b0bf
00000420: d4ab bf9a cbf1 98bf c170 b835 3a48 cbbf
00000430: b931 c4b7 c206 c1bf 6c2c 56b4 fa35 df3f
00000440: 50c6 8604 884e d4bf 06a5 8fd5 d883 ba3f
00000450: e334 e533 40bf cabf b55f fefa ecc2 d43f
00000460: 7faa 5369 d60a e03f a8b8 d8e4 5af5 d6bf
00000470: 9cd3 249e 3c90 e3bf 9237 b1d0 e897 e43f
00000480: b044 1a6d dedd b1bf f913 7b77 85d7 bf3f
00000490: 33db c42b c221 cb3f 11ec 2342 8ebd a0bf
000004a0: b61f 1b07 418f ba3f 2431 ddd9 ec5c 92bf
000004b0: b988 a1f9 39df e3bf bd9f ada8 d24c d1bf
000004c0: 36c7 bc26 c074 c2bf 01b9 3aa1 6deb d8bf
000004d0: 2b27 4c0d 08a9 e1bf c08a 1a49 2fe1 b2bf
000004e0: 742c a308 a475 a33f 1e8b 1079 0a0b dfbf
000004f0: de6a 8bd2 6660 afbf 7e7a 893c 4f4e c5bf
00000500: f40a bbf7 4517 8fbf 78df e09a 1ea5 d63f
00000510: d247 dd89 f4ce c13f fb53 12c6 e1b8 d73f
00000520: 76b2 8c9f b896 d3bf 7c45 4755 ff18 633f
00000530: 5a35 2ee7 5064 8b3f 4a33 6893 e6b0 d9bf
00000540: aee4 e3ed 05a5 b5bf 9616 6e06 8f33 b53f
00000550: 0e1b 9a4f dcba 983f ecea 886a 054a d63f
00000560: 1e60 bd88 d10c df3f efc2 b6dd aae2 babf
00000570: 8589 ff86 841d d53f 4b8d a9a7 f468 d13f
00000580: e300 3b79 b82f db3f 9e4c 6a45 1709 d1bf
00000590: 5dcd 3931 3d18 c33f 979e ca77 cc9f 843f
000005a0: 9137 ba01 9592 c6bf 0c35 e4a4 6ed3 b2bf
000005b0: a351 44c1 7e2c cfbf 46c2 bf1f 2933 d13f
000005c0: d68d 544c 4706 d7bf b4ac e381 fe05 e23f
000005d0: 856a 6dda 7045 bc3f f5b4 436d e1c0 b2bf
000005e0: 9731 6b9f cf22 e13f 530f b8ad 3e4e c73f
000005f0: 8ddc 95f8 764c d5bf 84e5 0215 74a7 b9bf
00000600: 96e7 ac8f 5582 d73f e3e0 bbcc 65b9 d5bf
00000610: 8a2d 23b9 3552 e1bf 50af e658 c6ef dabf
00000620: 7e3f ab0f 1458 a0bf 9f28 6a5e 65a0 a9bf
00000630: 76d4 be9f 8dd8 e33f 7d09 f2c1 de2f ba3f
00000640: de43 bbc9 d83c 8fbf f02c c7d8 e285 cabf
00000650: 822b 28cc ccc8 e2bf c7d3 3a3e 8f66 d73f
00000660: 5d16 9878 bb2c a23f d516 f1b9 2fbf d2bf
00000670: 8e37 dfb5 89c8 c93f 5c8a 8f0b b550 dd3f
00000680: aef8 1302 0996 d73f aaeb 354a 33a1 dbbf
00000690: 34ba 2640 4169 d83f cecc 6667 7232 c9bf
000006a0: e522 cf8b 5fc6 e13f a0ea 9e60 8fc2 df3f
000006b0: fe47 4555 221f e0bf 27bb 1a4a f2fd c0bf
000006c0: 1377 ac38 7eef d73f 436f 0926 fe9c df3f
000006d0: 9bef bd4b c8cd 9a3f ebd6 30bf 7ede cbbf
000006e0: 7f62 e8d5 7d8d babf 1c58 1d4d 0c0f d13f
000006f0: 3cdd a226 98a4 b7bf bcbe 4640 ebea d4bf
00000700: 9009 572f 0f11 db3f a921 94f4 ea4d afbf
00000710: de2b a99f 3120 bfbf b5c2 7074 7344 e1bf
00000720: 47b2 dc2f 243a c43f 599d c5d0 f43e dabf
00000730: 1501 1e99 7704 d0bf d1cd 2dc1 5065 b53f
00000740: ef14 2c6b 703a ae3f 585b 26b6 6c72 c63f
00000750: 34a1 1a73 1a7c b1bf 5007 85a5 0681 aa3f
00000760: 09c8 e0d2 4a61 a63f 00b2 7f75 cd88 b13f
00000770: 1551 cc20 ccee cbbf b541 4888 a947 d33f
00000780: 2f33 c0a3 a08b c3bf b187 b9fd 3b2e a6bf
00000790: ca37 81e8 4585 d2bf 905d 889f ccf1 e1bf
000007a0: eff1 4a28 26fa e3bf 531f 00c6 37bc e53f
000007b0: b7f6 f66a 5d55 e2bf f127 faf4 30df cfbf
000007c0: 4103 0d19 a597 e4bf b1cf c4a4 0cdb bdbf
000007d0: 91e3 ad0e d081 d9bf e350 8f7c 4764 d3bf
000007e0: 2118 1ed8 04d6 c83f d1cf 4f2f bf9e bf3f
000007f0: 7a6f 3052 bc64 b73f 22d3 2fab 224b a5bf

conv1.bias f8 [256]
-3.5662725034303575e-06 1.3424738710178106e-05 1.9726373094466994e-05 1.0597890557182128e-06 -1.4392617735410488e-05 -1.0882049589122587e-07 5.049243281215664e-09 -5.167057859428447e-09
-1.1270083148853168e-09 5.853209977797698e-08 -1.273720406471461e-09 5.675618057724353e-07 1.5226916878033124e-06 2.832190429767273e-05 1.2313463402964861e-05 -1.8645545693319686e-08
1.034163591827626e-08 -4.4821189761691036e-07 4.9677169269036765e-09 1.8711774621598605e-06 9.159857685403437e-07 7.100651663987917e-07 -1.2537677920565933e-07 3.958903803816597e-08
6.141247906132796e-08 1.1528012055632549e-09 1.5628439331732313e-07 -1.8438165398477229e-07 6.588598638232596e-08 5.732363562703382e-09 -7.854635382709146e-07 8.754628004162414e-07
-1.1052353214155719e-06 -2.529746463055598e-06 -1.7056708474651366e-06 5.559806828577757e-07 -1.511320743321025e-08 -3.274949359681383e-07 -2.057807423320374e-05 4.0595283977811695e-07
1.0628603031867167e-08 -2.249207809011366e-10 -2.5685322304013016e-07 -2.1789669365324315e-05 -5.274900376648887e-07 4.0970506416148537e-07 -1.0358160924300598e-06 -6.64544643574656e-06
-2.642907257041223e-08 2.36543590369206e-05 -1.3368955604641368e-07 8.439780869797992e-07 9.390433212202963e-09 8.861554870279505e-10 1.6471383189357156e-07 6.322347124243181e-07
-8.031140275336536e-09 1.9649682892399696e-09 -6.653453040782594e-09 -1.705414776746797e-05 -3.823051019176483e-06 6.7545185077188494e-09 -9.668808249515712e-10 6.904594036754645e-06
-2.579831864041718e-08 -2.206874161970035e-06 -8.933515866748201e-07 1.6694347773240578e-06 -8.248411107615943e-07 -1.402835261461771e-07 -3.583239714430871e-07 -5.395646873046121e-10
2.878209202147979e-08 5.414687754595075e-10 2.789343736664695e-06 9.988053754455095e-08 -1.5764020079865112e-05 -2.4916873910203287e-06 2.6850110077373476e-08 1.7534270446546922e-06
2.4079741506557357e-06 4.387023398940466e-07 4.145694750385227e-09 -1.2505685587589322e-06 7.197928551444992e-06 -2.798161103882764e-06 2.466693895699557e-07 5.340749698362412e-07
1.0136755557340011e-06 9.825749912718767e-06 1.0345344244340192e-05 -1.0138572950103586e-08 5.483505383134381e-07 2.244166745524364e-06 -1.3307277875060775e-07 3.9426738345055835e-07
2.6227953223381167e-08 2.2870791435650058e-05 6.5354032846990444e-09 7.344069466978026e-06 5.5603132941212e-06 8.482816614206576e-07 -5.124632453460932e-07 -1.7658609244666096e-05
-3.738985731196642e-09 -7.823766131409947e-06 2.5705360049491302e-05 7.323696718324205e-10 -5.0002482830369975e-06 -1.8993187361405109e-06 1.2198034696830529e-08 -5.8013022410331385e-09
-3.062042460637349e-05 1.4493431994852998e-07 -2.341168642394567e-06 -2.163613576290602e-08 -1.7777244502132466e-08 -9.189553101997975e-06 -4.5649936397192103e-07 8.427950901336109e-06
-1.0021035955423577e-08 7.397177596777976e-07 2.906344073779625e-05 -8.325303354963115e-08 -3.516456888220864e-08 7.784937974906192e-07 -1.9290120866713484e-08 5.669294300213155e-06
1.0939097652860502e-06 3.585111279897514e-05 -9.111884483672562e-09 1.717812413480169e-05 -6.293066990308881e-07 -4.655014945585031e-07 -3.0012592835392036e-07 -1.6060632992237713e-08
-1.6366392220965252e-07 5.854800122384315e-07 -6.761911075665266e-06 -8.085481183689336e-08 9.34149669329043e-06 7.352575513588312e-07 -4.1236893259088716e-06 2.6189996454454984e-08
2.178410184469428e-06 -9.258183914701648e-09 -1.4412644116532411e-08 3.1763166273886924e-08 -3.168322959824815e-07 -1.9053522078761372e-09 -1.9830857224485633e-07 1.0170957588312536e-07
-2.7577260090692822e-05 -3.848227685547728e-07 3.2862881689253634e-07 1.1415616594580297e-07 -6.188493323781604e-08 -1.4707187663139353e-07 -4.665868087551425e-07 -1.901398988837042e-08
-8.114941608738265e-07 7.275508017475776e-06 7.769352671984626e-08 1.5838221020224046e-07 1.0090481327518688e-05 -4.5503867983260484e-08 5.481123841206156e-07 -5.308185377456682e-09
6.988827361450511e-06 -6.689480361297809e-06 -1.2599512835102915e-05 -5.611549174169577e-06 -3.2435705669793356e-08 -7.1049379370369554e-06 2.281360454518219e-07 -4.537301550743805e-06
7.179376490363726e-06 1.9574645042561458e-08 7.642155469327214e-07 -2.916556863118759e-06 -8.236015731412575e-06 5.764908173161102e-06 2.5502094661485056e-06 -4.3455218197899774e-06
-2.7754385020303956e-06 -4.869820703584197e-09 8.496836443066578e-06 4.431183823123646e-06 -4.914183614322122e-08 -1.875612338700622e-06 -7.586841625266756e-06 8.108475978232673e-06
4.1504466816601166e-07 -3.8084622618560585e-08 2.5101216645730912e-08 -8.931427268074425e-09 3.090946489928296e-10 -4.838562681785462e-09 1.8236153704666753e-09 2.344698334006759e-08
-3.2647277228950875e-07 1.2987097017276809e-08 5.19174821948019e-06 1.0394452100981627e-06 -7.849083457596753e-08 -4.144136328238991e-06 4.2758670137734474e-07 1.696436345429762e-06
-6.148660140048998e-08 3.6579647415317265e-07 -3.600498142847849e-07 8.764723205495426e-09 -1.868048226804544e-09 -2.9344106586250484e-08 -1.292147864887138e-06 -1.5275353785016695e-07
8.509309648893434e-07 2.0663965781132125e-09 -9.919782613787334e-07 -5.161516361177291e-11 9.762200920683019e-09 -3.3085531454680125e-07 -1.6960138619518388e-07 1.083851367428386e-05
8.073265338945584e-07 2.470999658953778e-07 1.3532446315086841e-08 -4.97329065213184e-06 -3.0355264882273436e-08 2.498394706652327e-07 -6.299447152114973e-08 -1.3400225967864632e-07
-4.793299300046554e-08 -7.508896602501793e-09 -7.444311728952162e-07 -6.972030996789311e-08 -7.172028345381065e-07 -4.879693876889896e-07 -5.730971935294913e-09 1.984222085351781e-08
2.561654489782674e-09 -1.0449768388701203e-06 -4.47964922100465e-08 -3.195244738854957e-07 -1.211799698863973e-10 2.577533379679539e-09 -9.434678139299553e-07 -9.617584957095362e-07
-1.0173198553244983e-07 1.4159988215990719e-05 -1.180286155938749e-06 1.2726602402115e-05 -2.2700958038987385e-09 4.517241895731877e-09 9.123625911818144e-09 6.301705226376832e-06
00000000: a367 ec0a 83ea cdbe a668 f909 5a27 ec3e
00000010: e99c 7509 42af f43e 2fc8 c663 c2c7 b13e
00000020: 4d29 bc51 fa2e eebe b0f9 be68 1636 7dbe
00000030: 9a7b 8ea2 b3af 353e 13ed 9a7d 3d31 36be
00000040: 4787 868e a25c 13be 89a5 7f2d 976c 6f3e
00000050: b68f deaf e1e1 15be 2091 1f9c 510b a33e
00000060: 8ca8 5c37 e98b b93e f86b 8971 9ab2 fd3e
00000070: 3077 1286 bdd2 e93e d6d4 8ba2 3f05 54be
00000080: 54f6 57dd 5f35 463e 6acb c5c5 3814 9ebe
00000090: 1e3a 9d01 1056 353e 493c 9560 a564 bf3e
000000a0: c0ff bb01 42bc ae3e ffac 59d0 69d3 a73e
000000b0: 4c46 0ed0 e9d3 80be cecc e971 1341 653e
000000c0: d105 d1c1 3b7c 703e 8a8e 1bc5 12ce 133e
000000d0: fcfc c00f e4f9 843e e802 172e 4ebf 88be
000000e0: e06a b887 a6af 713e aea5 7ae6 cc9e 383e
000000f0: dca3 4896 145b aabe f066 b70e 2b60 ad3e
00000100: 2cf1 5a16 f38a b2be 47df 62d3 9638 c5be
00000110: a8f8 10ee cc9d bcbe 5497 8473 d6a7 a23e
00000120: 1e54 756d 493a 50be 94e0 e5f5 51fa 95be
00000130: a5a8 587e e293 f5be 2b1a 7d78 373e 9b3e
00000140: 1af4 3ae5 22d3 463e a08c 444a b2e9 eebd
00000150: e0a2 e46b b43c 91be 6e33 52ad 1ed9 f6be
00000160: 3a37 22dc 1ab3 a1be b086 92ed ad7e 9b3e
00000170: 3147 7ed6 cb60 b1be 88f4 2e68 7edf dbbe
00000180: 0ef9 84a5 c460 5cbe 115d f02c abcd f83e
00000190: 57a0 65c5 89f1 81be acfe c070 b751 ac3e
000001a0: 9b62 1ffc 712a 443e 90be b5c2 b472 0e3e
000001b0: dc25 f82f 861b 863e 811d e9d5 da36 a53e
000001c0: e098 cf82 2a3f 41be 1421 91ce 02e1 203e
000001d0: d8c2 298a 8c93 3cbe acb0 5a1c f0e1 f1be
000001e0: c386 2543 f808 d0be 3006 8df0 ab02 3d3e
000001f0: 9ca2 de07 639c 10be 844a 6c5b c0f5 dc3e
00000200: 52f2 dc48 63b3 5bbe bd03 ace6 3983 c2be
00000210: 8681 1bea d4f9 adbe 3037 11f3 2a02 bc3e
00000220: e31a e2c8 54ad abbe 9200 0af2 1ad4 82be
00000230: 5a37 117e f50b 98be ba5a 8fa9 0f8a 02be
00000240: 808c 9cab 8fe7 5e3e 9673 a649 cf9a 023e
00000250: 2969 a8ef 1166 c73e eacd aaff bccf 7a3e
00000260: a28a 0d36 9f87 f0be 88c8 2da1 dbe6 c4be
00000270: 400f f586 80d4 5c3e ffd9 8e6c e96a bd3e
00000280: 3ee3 fcc9 1533 c43e 124c 9e4b d970 9d3e
00000290: d613 5455 3dce 313e d4a5 f3ab 26fb b4be
000002a0: 2c82 d888 b730 de3e fa26 c655 0179 c7be
000002b0: 88dc bc72 bf8d 903e 948e 6447 abeb a13e
000002c0: 6c40 710f b401 b13e a21c fbc8 289b e43e
000002d0: f5a8 4749 1db2 e53e ff98 e14a bdc5 45be
000002e0: b789 0096 4b66 a23e ce34 37b7 4fd3 c23e
000002f0: b0ae 658a 58dc 81be 3c4e 4c4a 7675 9a3e
00000300: 063c 7421 7c29 5c3e 0e43 ebd1 54fb f73e
00000310: f452 c37c c011 3c3e 0b76 8b71 a2cd de3e
00000320: acde bd47 5752 d73e 04f0 c819 af76 ac3e
00000330: 0404 1998 0632 a1be d028 1e63 3284 f2be
00000340: e0a2 eeeb 0e0f 30be 7e1a b43a 5a68 e0be
00000350: 3f50 54e4 3af4 fa3e 501d fde3 fd29 093e
00000360: 46fb 40c8 f9f8 d4be 7c71 0509 83dd bfbe
00000370: be54 1fc4 f031 4a3e 7493 c669 99ea 38be
00000380: 5298 37c7 cd0d 00bf 5b1d a8c2 e773 833e
00000390: 4fff 8b12 9fa3 c3be 2a97 d6b3 4b3b 57be
000003a0: 42a6 dc5e 9216 53be 0cb8 ab8f 9a45 e3be
000003b0: dba4 5e6f 99a2 9ebe 1e82 75c0 b8ac e13e
000003c0: f291 5b6e 1f85 45be 3d04 5b8e 20d2 a83e
000003d0: fcd7 8c70 a879 fe3e 0420 dfda 1a59 76be
000003e0: e00d a146 fbe0 62be 723f 09f7 351f aa3e
000003f0: 07cc 9694 6db6 54be 1793 47c0 5bc7 d73e
00000400: 741b b581 4e5a b23e 1b24 21db dacb 023f
00000410: a5c1 85bc 4f91 43be c26a acb3 3703 f23e
00000420: 833b e810 b41d a5be 06c8 5b39 413d 9fbe
00000430: 0855 c6ca 1f24 94be 7365 0993 b63e 51be
00000440: c0e7 8915 73f7 85be 5d65 9e29 3ca5 a33e
00000450: ceb6 a2f6 8b5c dcbe d1b1 75e4 4cb4 75be
00000460: 94f8 8587 2d97 e33e 6e45 4a74 d0ab a83e
00000470: 3438 3e17 c74b d1be 44ac 1729 0d1f 5c3e
00000480: fa4a f8a9 1946 c23e f9ea 068d bde1 43be
00000490: 8690 6155 6ff3 4ebe 6422 970f 7f0d 613e
000004a0: 860a 882c 2343 95be e5ef c9ef e95d 20be
000004b0: d97c 08a6 d49d 8abe e018 0cc8 6d4d 7b3e
000004c0: ec57 1ce2 b6ea fcbe 0849 446f 34d3 99be
000004d0: 4e3a 53d2 cc0d 963e 5262 6a82 c0a4 7e3e
000004e0: 8209 4542 b39c 70be 029c 65e8 59bd 83be
000004f0: e8eb 827c e64f 9fbe b4b7 1a97 866a 54be
00000500: 54ca 1088 ae3a abbe 66bd 716a 0484 de3e
00000510: b30e fcf9 0edb 743e 99a9 6ca7 f841 853e
00000520: 4834 9531 4929 e53e 4f62 c905 016e 68be
00000530: 8f3f 1ce1 3f64 a23e 31c0 015b 69cc 36be
00000540: 1824 b33c 3250 dd3e b2c5 395c c60e dcbe
00000550: 4470 badb 4f6c eabe 980b 47e4 5a89 d7be
00000560: 229b efef ed69 61be a8eb 1678 decc ddbe
00000570: 6eaf a4e0 b19e 8e3e 1cca 14f4 e307 d3be
00000580: b004 9bfb cb1c de3e ac75 7a30 a304 553e
00000590: c4b3 8cc2 8fa4 a93e 7292 8f17 4277 c8be
000005a0: b203 0662 ad45 e1be d4e4 71e4 052e d83e
000005b0: 79b4 0b7b 8864 c53e 9458 41f1 f739 d2be
000005c0: 4245 dc73 3548 c7be afde 4bab 6cea 34be
000005d0: 38a5 fd4e b4d1 e13e f084 da88 f295 d23e
000005e0: 80c5 e2a5 0062 6abe 369e 5a93 b177 bfbe
000005f0: 9ee1 7125 4fd2 dfbe fa38 e473 3401 e13e
00000600: 7e40 39c1 69da 9b3e b68c 7788 4f72 64be
00000610: 52a2 ba17 c5f3 5a3e 558f 21a4 1a2e 43be
00000620: 8a61 c88b a63d f53d 887f 7351 0ec8 34be
00000630: f486 2f60 5854 1f3e 8ab0 bbc5 0e2d 593e
00000640: 184c e86f c2e8 95be 2c12 4d6a bbe3 4b3e
00000650: 149c 4ae2 98c6 d53e 10ec 4d18 6270 b13e
00000660: ef2b 595d d911 75be c484 1e85 bb61 d1be
00000670: 3376 3f33 e2b1 9c3e f429 d27c 2376 bc3e
00000680: 7bd0 27bb 5381 70be 8c23 2ce8 558c 983e
00000690: 52a8 5cd4 9b29 98be b356 4c21 75d2 423e
000006a0: b46b 8aa9 e10b 20be ec0d f3ed 0b82 5fbe
000006b0: 4303 2d9a bbad b5be e11d 1254 9280 84be
000006c0: e498 0cfb 708d ac3e b97c 7edb 0dc0 213e
000006d0: dbe0 04a2 83a4 b0be e008 bc40 3060 ccbd
000006e0: 57fc 6da3 d3f6 443e 109e d30f 0d34 96be
000006f0: 77c7 d591 75c3 86be 7782 01fa e1ba e63e
00000700: d6d7 a6d2 e116 ab3e 9219 9524 2595 903e
00000710: 78cf 7481 8a0f 4d3e 08fc 9eb9 07dc d4be
00000720: c29e 39ef fe4b 60be 7362 bf9c 35c4 903e
00000730: be13 7876 f2e8 70be 0fb6 6057 48fc 81be
00000740: f9cf d442 dcbb 69be 1c26 873f 0f20 40be
00000750: f652 1b76 9dfa a8be ced6 fda9 24b7 72be
00000760: 04ff 4bb6 b910 a8be 180f 1208 a05f a0be
00000770: 48ff 2731 459d 38be 68b7 c429 304e 553e
00000780: 7c94 9446 2301 263e 2257 622f 2488 b1be
00000790: d8d4 3f73 c80c 68be b9b1 617f 6371 95be
000007a0: 9e55 6b22 a4a7 e0bd c0c8 c84b 0e24 263e
000007b0: 3808 e8a9 53a8 afbe b35d 2ea6 b822 b0be
000007c0: ccb6 2204 f84e 7bbe 7c36 2af6 15b2 ed3e
000007d0: 8c38 415a 4acd b3be 14b7 57ea 8ab0 ea3e
000007e0: daa4 ba53 fe7f 23be c19a b18e c266 333e
000007f0: 81c9 0d32 c497 433e d53c f58a 676e da3e

conv1.lin_src.weight f8 [256, 1]
0.01044142050056691 -0.007919466289692851 -0.18144916755935106 0.009393503140346083 -0.03256043387635317 0.25737551617452237 0.25489224730901033 -0.26191957826326495
0.3184528953443154 0.2704035864480786 -0.29576402119935274 -0.03194347470290942 0.013836783201156421 0.18893883523270885 -0.016263919357675738 -0.2916629082665166
-0.19958270377561477 0.28519006769341976 0.31173653283332803 0.011999465264987153 0.014990406669885326 0.02005405793940135 -0.26979892664902216 -0.20817379484773682
-0.25733789852553846 0.2227824236011769 -0.28791107893450874 -0.24661508437831373 -0.25487440166935266 -0.2628559724866007 -0.25256106676599915 0.21398748684818877
0.01175213249572034 -0.0060093235041508465 -0.013467755313359026 0.01504096116783684 0.06494074540819372 0.013580122719920987 -0.028332969071791524 0.010548759082401665
-0.2607326378501077 -0.10323564026837818 0.3142322853787297 0.011852179124526942 -0.2036700909782949 0.01590958389023872 0.0171214649775309 -0.17002774532892084
0.29596034787176384 0.011921499159166314 0.13581077543063882 -0.018002567907808124 0.3001049665689269 -0.2845353935712316 -0.2091364243387168 -0.2613513979248904
-0.22197430997870757 0.18250735406711915 -0.3606890540077093 0.13621745751391004 -0.2564746116655481 -0.11981474219885035 0.302551338662732 0.013736056910615304
0.22751870397477977 -0.043625076031563896 -0.014182331242397683 -0.15741049244680075 -0.20588266945693257 -0.00029225172277041436 0.03893185996730683 -0.16757614767283208
0.09256684879411098 0.12476901956739411 0.17749179249465633 0.14750208167399476 -0.015239402863538296 0.0007976863318071385 0.1639450365600995 0.0026259284668997108
-0.0005668098938520306 0.007033941132135345 -0.18942265029798278 0.0021982939069898903 0.16628650909368042 0.008352040299881262 -0.05336671877065867 -0.2105210898076733
0.008444692588528578 -0.0010789051802855803 0.12462955085062827 0.1452861561667663 0.20866662049713774 -0.04341238185334119 -0.11725063900791732 -0.019887961687542494
0.07632306111189813 -0.049296842074109636 -0.24354756625329255 -0.2815371088503322 -0.2019525681895422 0.004671196486363774 -0.020796196758483574 0.006262589214345908
0.1884861530430095 0.12176767827248218 -0.0003862622321047493 -0.17907432743836327 0.22560068608183695 0.013277005570045627 -0.18215397051483978 0.2179515879481465
-0.21818925981935763 0.26841362811595576 -0.0035175233391046656 0.10510736206956625 0.2862860253209657 0.2406978738588603 0.006737542903030176 0.00432459647376556
0.06179775223544689 -0.011678674272112922 -0.27523245857895334 -0.03764932379317501 0.07188869857513383 0.011629332692350842 -0.21403300327449856 -0.001781844668268243
0.01270690073109353 0.2887596798788268 -0.2132512125495046 -0.19679983601784182 -0.022278626002887995 0.016257051683066397 -0.16182323530022333 0.252864371674831
0.0018722888733284546 -0.18149899817745618 -0.006753333856178454 0.17656646193274828 0.2435206150744287 -0.017408656062316716 -0.24751246286407838 0.24280849986459657
0.013912204496598957 0.15568878056192556 0.14071871442024397 0.18548932180373456 -0.12009611030442886 -0.24832577778832016 -0.20998859952477097 0.017287742907598706
-0.14245578872054745 -0.01817860724350756 -0.034517044557508085 0.1537850856934023 -0.14945445961513026 -0.15003052075074427 0.23911551996487154 0.18887234409735582
-0.0007603958999023625 0.3208517194495192 0.22951108657050984 0.248463055731727 -0.010737064865643919 -0.1509295875605309 -0.20819242915989922 -0.3424021048323533
-0.013434902658243682 0.00874777742701529 0.014286426209738665 0.05493986857932302 0.044331136317397976 0.20964676036807864 0.0803662032874154 0.0015724377985916345
0.006406037958470175 -0.13427537271808612 0.008985638107520306 -0.0007907756840319022 -0.0008162200211244059 -0.015432144407253845 -0.015434516490665759 0.11627876290644126
-0.1657711257083471 0.06424157767269517 0.17167591989052894 0.1776697564005441 0.004755366998457079 -0.010783703310225542 -0.0008225761115443519 -0.0006312305903588822
0.011166552139650196 -0.2760457451597533 -0.07429387940087039 -0.24691633437165705 0.2594221282301218 0.1677528555949934 0.19642356560858568 0.12947859132643644
-0.014442680102576277 -0.1824830657342007 -0.18478958056359657 0.04416642760259767 0.26895914609588456 0.01392044753112671 -0.05431257607927774 0.1891742685252493
0.014056348613034944 -0.24636147549438425 0.004058897736035684 0.23576727593534524 0.1654206194329836 0.294306887689393 -0.2308291997652658 0.008590123472759786
0.012199229994372975 0.1955251161413318 0.17814187987936297 -0.31374556952519167 0.12946827324963944 0.09842144205395464 0.013855538723462485 -0.0012618769648879019
0.02387665297794238 0.22012039338346184 -0.23245095495873425 -0.33563959549263533 0.16995258434378302 -0.01953985025947024 0.008802366003133697 -0.12130606100480341
-0.1460820565063446 0.2796170718382731 0.013494837317721631 0.007507318871640755 -0.09646224849481293 -0.20848219041207278 -0.26258929396749264 0.021165173415049744
-0.1710613597736648 0.010689545309937784 -0.2617264300805414 -0.16604328173728725 -0.3493469703480945 0.22659304701587463 -0.25552739991729045 -0.2078225444197909
-0.018243372025106973 -0.21334477201833174 -0.013511329322024809 -0.2529983298578165 0.04390269176795578 0.20011564112840366 -0.09117592669517546 0.011993687491776706
00000000: e6f9 96bc 4f62 853f f760 bac5 1438 80bf
00000010: 21e4 46f0 b939 c7bf 1ae3 42a6 e63c 833f
00000020: baf6 48dd c2ab a0bf 30af 3028 d778 d03f
00000030: 9d8d 8c92 2750 d03f 56a9 b455 4ac3 d0bf
00000040: 8a80 b440 8861 d43f b2ff 20d8 4a4e d13f
00000050: 729e 9837 cced d2bf b7d5 5626 e55a a0bf
00000060: 337f a59a 7556 8c3f 9968 22d3 252f c83f
00000070: 10e7 fb26 7da7 90bf fd7f 1de7 9aaa d2bf
00000080: 7621 c810 ed8b c9bf efc8 78d7 8d40 d23f
00000090: 6a34 5fc9 7df3 d33f ad94 0ff7 2c93 883f
000000a0: e009 3553 4ab3 8e3f 90dc 010c 0d89 943f
000000b0: 6005 9db7 6244 d1bf cdab 605c 70a5 cabf
000000c0: 4611 8c60 3978 d0bf 62ce be6b 2284 cc3f
000000d0: ac81 0b97 226d d2bf 2975 0d45 1591 cfbf
000000e0: db79 f0b8 dc4f d0bf b1d8 58db a1d2 d0bf
000000f0: 832e 80e4 f529 d0bf df12 e224 f163 cb3f
00000100: 69ab d185 8011 883f 841a be7e 3b9d 78bf
00000110: 5da4 f884 fb94 8bbf 0cb6 87a2 cbcd 8e3f
00000120: f8bf b4e9 f49f b03f e26c a937 e5cf 8b3f
00000130: 0669 3f5e 5103 9dbf a3aa 2d7a 969a 853f
00000140: be39 24f2 d7af d0bf 69fb bba2 a66d babf
00000150: 8a22 43bb 611c d43f f435 cf8d f445 883f
00000160: 5f6a f68d dc11 cabf b094 011a 9a4a 903f
00000170: 4a6b 8d10 4a88 913f acd7 cc1a 78c3 c5bf
00000180: 9868 c1ab 03f1 d23f 8c33 1088 4c6a 883f
00000190: 99a1 755b 3f62 c13f 2ed9 a1e1 436f 92bf
000001a0: 39f7 3176 eb34 d33f f058 7cf0 d335 d2bf
000001b0: 17f5 777b fbc4 cabf 7b7b b636 fbb9 d0bf
000001c0: 5392 f478 a769 ccbf e8b6 7fa6 665c c73f
000001d0: 2140 bf8a 8715 d7bf 4d50 95da 926f c13f
000001e0: ace6 567d 146a d0bf a89e 52cf 2dac bebf
000001f0: 92b7 3a4a 005d d33f 811d a859 a621 8c3f
00000200: e365 6638 551f cd3f 17a2 aea5 0656 a6bf
00000210: 93e5 ef46 a00b 8dbf 119a 8dea 0626 c4bf
00000220: e4ba 1002 5d5a cabf 9473 6c97 2b27 33bf
00000230: 6c00 aa72 e0ee a33f ee17 ec9c 2273 c5bf
00000240: 34b5 4304 76b2 b73f a48f 98ca dcf0 bf3f
00000250: fd56 0912 0db8 c63f 7adc 7024 59e1 c23f
00000260: f895 4607 d635 8fbf 56e9 915a 7a23 4a3f
00000270: d4fe 2ea5 26fc c43f 3b0e 629c f882 653f
00000280: 53af 83fa be92 42bf bffe fd31 9fcf 7c3f
00000290: b863 135c 003f c8bf 0125 000e 2802 623f
000002a0: fe63 2957 e048 c53f 4ffc 8adf df1a 813f
000002b0: 8e2e a1ef e152 abbf 62ce ebe5 5af2 cabf
000002c0: d9a5 f073 734b 813f f378 bf9d 41ad 51bf
000002d0: 1cc4 04e5 b8e7 bf3f a31e a69c bc98 c23f
000002e0: 92a9 667b 96b5 ca3f a266 9ad0 253a a6bf
000002f0: 105f f94b 2304 bebf c5dd 2084 825d 94bf
00000300: 80fd 677b e889 b33f cb3d 0289 6f3d a9bf
00000310: 3c05 0a10 912c cfbf 2bd8 c738 b404 d2bf
00000320: 47d0 dbed 94d9 c9bf 4322 46c2 1a22 733f
00000330: 89e1 d523 994b 95bf b886 d2fd cca6 793f
00000340: 1fc7 8873 5020 c83f 93e1 e3a3 2a2c bf3f
00000350: ebe3 91a7 6750 39bf d852 f355 e8eb c6bf
00000360: 899c 56b8 7be0 cc3f be7e b285 f930 8b3f
00000370: 0651 1941 d250 c7bf 849d 2c6f d6e5 cb3f
00000380: 7b9c a12b a0ed cbbf 55c2 a35a b02d d13f
00000390: 9735 8af6 c7d0 6cbf a659 a8ea 50e8 ba3f
000003a0: 468b 039f 8252 d23f 8f63 381c 30cf ce3f
000003b0: 6e57 c866 d398 7b3f 5682 c506 abb6 713f
000003c0: 9b96 a279 f4a3 af3f 9492 7920 fdea 87bf
000003d0: df3b 199a 689d d1bf c4ff d0ac c546 a3bf
000003e0: 2a0b 5539 4c67 b23f 641f b49c 1ed1 873f
000003f0: 9f10 aaf6 6e65 cbbf dbb3 e924 9931 5dbf
00000400: 5aa9 9658 1306 8a3f 50e9 5ee1 097b d23f
00000410: 7bc1 ddd3 d04b cbbf 7903 c7ad bc30 c9bf
00000420: 4131 5448 35d0 96bf 2e8c 3b45 b0a5 903f
00000430: af76 acaf 9fb6 c4bf eeaf aa0b ee2e d03f
00000440: d1ef b1de f2ac 5e3f 70e7 b6f2 5b3b c7bf
00000450: d7f1 d140 62a9 7bbf a029 c9d5 ba99 c63f
00000460: b9bf d2fa ae2b cf3f ace1 d121 93d3 91bf
00000470: c943 ad06 7dae cfbf 52fc 0d53 5914 cf3f
00000480: 9a10 a07a 007e 8c3f 370d 6f26 9ced c33f
00000490: d05f 2f22 1203 c23f c8be 7335 1dbe c73f
000004a0: 7d63 2262 9ebe bebf 7a63 2d9b 23c9 cfbf
000004b0: 17f1 be0b e8e0 cabf 9ea0 a3c9 e0b3 913f
000004c0: 1d1f d7c4 fd3b c2bf d009 64ae 699d 92bf
000004d0: 87e2 0ed3 37ac a1bf 5336 d5cc 3aaf c33f
000004e0: 3ce8 24e0 5221 c3bf ab5d 033a 3334 c3bf
000004f0: 4f8a 1b5d 569b ce3f 1e2d 820e f82c c83f
00000500: a9f2 d3c2 a9ea 48bf d6aa 79a6 d588 d43f
00000510: cee3 7189 9e60 cd3f 24e5 502d a3cd cf3f
00000520: 66af 9f73 50fd 85bf ad1e 4925 a951 c3bf
00000530: c41e 42ad 0ca6 cabf 8f89 9584 eae9 d5bf
00000540: 9138 561c c283 8bbf 0c99 b1cf 5aea 813f
00000550: 92c5 c7aa 3342 8d3f e6e6 9615 1421 ac3f
00000560: 0601 5b19 92b2 a63f b522 bf7d b4d5 ca3f
00000570: 18b9 d226 e192 b43f 4662 e03a 48c3 593f
00000580: 88ff 74b8 373d 7a3f f9be 3d77 ef2f c1bf
00000590: 4aa5 71ee 0f67 823f ca1d c7d9 81e9 49bf
000005a0: b461 0626 f3be 4abf 0d5a 4a5c e39a 8fbf
000005b0: 0bb3 74bc 219c 8fbf 720a e7eb 71c4 bd3f
000005c0: 1dec c4fd fc37 c5bf accd 25d3 2272 b03f
000005d0: 8a63 b8fe 79f9 c53f 8a43 9df0 e1bd c63f
000005e0: 4155 d21b 5d7a 733f dea2 6028 c415 86bf
000005f0: 1ed8 afbf 44f4 4abf f628 f45e 25af 44bf
00000600: ebb2 fd41 7dde 863f 4f4f eac5 bbaa d1bf
00000610: 47d8 5176 ec04 b3bf 5cbb 7c56 f49a cfbf
00000620: 96da 2645 5f9a d03f 67a9 4bf2 ec78 c53f
00000630: 55ee 394b 6824 c93f 9fbc a325 c192 c03f
00000640: e640 a8b5 1f94 8dbf a07b b3e7 9a5b c7bf
00000650: 1ec3 945a 2fa7 c7bf 1bc4 4464 fb9c a63f
00000660: 4248 1c6c a036 d13f 658e 22d7 5282 8c3f
00000670: de44 0ba4 dbce abbf f7c3 47c8 dc36 c83f
00000680: fbd6 c02c 93c9 8c3f 5410 1fd8 c588 cfbf
00000690: 4299 8b10 10a0 703f 0efe cd41 9f2d ce3f
000006a0: ad3c 46bb 802c c53f 6343 678e ecd5 d23f
000006b0: c711 faab cf8b cdbf c3a5 12db b297 813f
000006c0: 8ed0 e5ee e8fb 883f d7d2 af8d f706 c93f
000006d0: 169e 1066 5acd c63f b509 184c 6814 d4bf
000006e0: 8e07 bd97 6a92 c03f 10ce d8ca 2532 b93f
000006f0: 9061 7ced 4a60 8c3f 45e2 ed12 b2ac 54bf
00000700: fd7a b60e 1f73 983f 2edf 61b1 e72c cc3f
00000710: bc61 bcf0 f3c0 cdbf e28b 787f 1e7b d5bf
00000720: 1049 d09b 01c1 c53f 5e28 5527 4102 94bf
00000730: d215 e390 f906 823f 757c d2fc e90d bfbf
00000740: 0a14 9d1b d1b2 c2bf f0b6 bc00 3fe5 d13f
00000750: 4d3e 8e67 2ea3 8b3f cca8 8c90 febf 7e3f
00000760: fb76 95fa bfb1 b8bf 5e24 cf5e 8baf cabf
00000770: e6af 7753 43ce d0bf 7df8 86be 52ac 953f
00000780: b928 ebb0 56e5 c5bf eb51 1f7c 66e4 853f
00000790: e276 6c36 20c0 d0bf e91d 6400 e840 c5bf
000007a0: 0883 2665 b35b d6bf f292 373f 0001 cd3f
000007b0: 741b 7898 8f5a d0bf f5c6 d3db ed99 cabf
000007c0: 46cb ddf8 63ae 92bf 12b0 4ba9 e14e cbbf
000007d0: 7e37 82ec d3ab 8bbf f1a4 2be8 1f31 d0bf
000007e0: ed10 b3e2 697a a63f b543 08ab 639d c93f
000007f0: fe98 5637 4e57 b7bf e0f5 487c 2590 883f
