Q1/models/lastmodel.pth (torch, 11343 bytes, 8 tensors)

conv1.bias f8 [16]
0.0 0.0 0.0 -0.00020001250041527813 -0.00019992602052969593 0.0 0.00020000873583777304 0.0
0.00020012577363120912 0.00020000510142907706 0.0 0.0 0.00020002432400003753 0.00020000773750735308 0.0002000205045131187 0.0
00000000: 0000 0000 0000 0000 0000 0000 0000 0000
00000010: 0000 0000 0000 0000 0276 d04b 4e37 2abf
00000020: 8de6 8870 6734 2abf 0000 0000 0000 0000
00000030: d6ba 6bf5 2d37 2a3f 0000 0000 0000 0000
00000040: dc17 404e 1b3b 2a3f 1286 45bd 0e37 2a3f
00000050: 0000 0000 0000 0000 0000 0000 0000 0000
00000060: 57f3 26dc b337 2a3f 9aaa 1162 2537 2a3f
00000070: aef7 020d 9337 2a3f 0000 0000 0000 0000

conv1.lin.weight f8 [16, 1]
-0.3077227771282196 -0.3232782483100891 -0.3456764817237854 0.3625772298701934 0.03143145140156463 -0.5179451107978821 0.5070552487544131 -0.24112963676452637
0.4956838492980622 0.0256436687183018 -0.5913798809051514 -0.536786675453186 0.009947446204364802 0.5694979080512471 0.016501276543074827 -0.15648417174816132
00000000: 0000 00e0 bab1 d3bf 0000 0040 97b0 d4bf
00000010: 0000 0040 901f d6bf b745 2420 7734 d73f
00000020: 0acb ab7f c817 a03f 0000 00a0 0193 e0bf
00000030: 8a4a d5ed cb39 e03f 0000 0000 56dd cebf
00000040: 18ff 78c0 48b9 df3f 1c6f fa79 5542 9a3f
00000050: 0000 0080 95ec e2bf 0000 0040 5b2d e1bf
00000060: b000 03a1 535f 843f 830e 47ad 5339 e23f
00000070: 5308 61ec b5e5 903f 0000 0060 ac07 c4bf

conv2.bias f8 [32]
0.0 0.0 0.00020000335553808 0.0 0.0 0.00020001681006409817 0.0 0.0
0.00020000028105272082 0.0 0.00020000924443142938 0.0 0.0 0.0 -0.00019996066750128114 0.0
0.0 0.0 0.00020003103543427204 0.00020003856049268345 0.0 0.0 0.0 0.0
-0.00019995745968532646 0.00020000373728908788 0.0 -0.00019994309428062777 0.0 0.0 0.00020000080104640947 0.0
00000000: 0000 0000 0000 0000 0000 0000 0000 0000
00000010: ab44 04be ff36 2a3f 0000 0000 0000 0000
00000020: 0000 0000 0000 0000 4010 d550 7337 2a3f
00000030: 0000 0000 0000 0000 0000 0000 0000 0000
00000040: e5e0 2655 e536 2a3f 0000 0000 0000 0000
00000050: 4681 d453 3237 2a3f 0000 0000 0000 0000
00000060: 0000 0000 0000 0000 0000 0000 0000 0000
00000070: d0f0 070e 9135 2abf 0000 0000 0000 0000
00000080: 0000 0000 0000 0000 0000 0000 0000 0000
00000090: 4e8a c082 ed37 2a3f 8cd2 8726 2e38 2a3f
000000a0: 0000 0000 0000 0000 0000 0000 0000 0000
000000b0: 0000 0000 0000 0000 0000 0000 0000 0000
000000c0: 3119 f87f 7535 2abf f8fa 7e05 0337 2a3f
000000d0: 0000 0000 0000 0000 4131 1c1a fa34 2abf
000000e0: 0000 0000 0000 0000 0000 0000 0000 0000
000000f0: 224d a1cc e936 2a3f 0000 0000 0000 0000

conv2.lin.weight f8 [32, 16]
-0.16841016709804535 0.11724603921175003 0.10348206013441086 -0.06885471194982529 0.32601436972618103 -0.23424674570560455 0.16148093342781067 -0.1794213205575943
-0.2714947760105133 -0.01207144744694233 0.28325355052948 -0.17371168732643127 -0.05320306122303009 -0.13983936607837677 -0.2776966392993927 -0.04159695655107498
0.24579304456710815 -0.08422866463661194 0.007866793312132359 0.05087878927588463 0.2178228348493576 -0.265008807182312 -0.0865551233291626 -0.2570362687110901
-0.08859625458717346 0.07697531580924988 -0.028814071789383888 0.10152733325958252 -0.30572277307510376 -0.009092086926102638 0.28925254940986633 -0.18409119546413422
0.3025783598423004 -0.30757150053977966 -0.2498215138912201 -0.14056761109535135 -0.23941976172734172 -0.24656589329242706 0.03367845922719147 -0.16140885651111603
0.03689126880208546 0.33433157283606063 0.19102047383785248 0.11067045480012894 0.20935607128428016 0.2884732095314602 0.1593517278299611 0.2766883671283722
0.07236263900995255 -0.27096086740493774 -0.21688337624073029 0.05867287889122963 0.17743974924087524 -0.028410768136382103 -0.24771016836166382 -0.2625563144683838
-0.18446584045886993 0.15134984254837036 0.049620240926742554 0.09627587348222733 0.26079970598220825 -0.026415325701236725 -0.058141324669122696 -0.19142958521842957
0.014720882289111614 -0.012076757848262787 -0.24054503440856934 -0.312217116355896 -0.1282937377691269 -0.07302455604076385 -0.2729512155056 -0.24365417659282684
0.12051276117563248 0.00958128459751606 -0.0337480753660202 -0.16776704788208008 0.20145650207996368 0.3274749517440796 -0.09518283605575562 0.17601880431175232
-0.19032669067382812 0.30539196729660034 0.05927566438913345 -0.0045992546872134984 0.2672384938028403 0.24923862516880035 -0.24483371787984332 -0.016663936898112297
0.24274091906793868 0.012068232744677231 -0.2736082673072815 -0.3279896080493927 0.3422627442781746 0.29073745489818037 -0.16177023483559524 0.08655200898647308
-0.056667573750019073 0.04762880504131317 -0.21444737911224365 -0.22608837485313416 -0.16960182785987854 -0.3107835650444031 -0.10148745775222778 0.3136986196041107
-0.2198372483253479 -0.2508384883403778 0.04638344794511795 0.1427573561668396 0.2958400547504425 0.14411503076553345 -0.21579214930534363 0.2885737717151642
-0.15186816453933716 0.11091229319572449 0.02921568974852562 0.2286522090435028 -0.13104289770126343 -0.35215499997138977 -0.14165012538433075 -0.20746605098247528
-0.08077885955572128 0.10481368750333786 0.1002841666340828 0.14165404438972473 -0.17672961950302124 -0.08333481103181839 0.34138235449790955 0.26445508003234863
-0.09946685284376144 0.3037198483943939 0.22737663984298706 0.1932486905157217 0.046463523824520445 -0.027559613808989525 -0.23436656330879846 -0.243968665599823
-0.11560403291000325 0.06367648164409725 0.20561490952968597 0.33045846223831177 0.24534588936568885 0.20940383036139348 0.023351313245815297 -0.1027810275554657
0.10489018261432648 -0.03771257773041725 0.22820723056793213 0.039362628012895584 0.1409139335155487 0.054671164602041245 -0.05679258331656456 0.3235000967979431
-0.11513886600732803 0.3138369023799896 0.14143884181976318 0.16955579817295074 0.019231649115681648 -0.23729442059993744 -0.10709956288337708 -0.1510029286146164
-0.2586366534233093 -0.2813839912414551 -0.01826648600399494 -0.22927327879214074 0.34007542123202966 0.1280764788389206 0.1555316120185422 0.23291528224945068
0.27265512644432116 -0.12151494702190391 -0.05128344148397446 0.26925158500671387 0.3423012716265627 0.3248251645985456 -0.022863919787907153 0.06350265443325043
-0.29140204191207886 -0.17494714260101318 -0.26064348220825195 0.3032960891723633 0.03185610473155975 0.350162535905838 -0.19454209506511688 -0.08833780884742737
-0.12595096230506897 0.10384401679039001 0.1375325471162796 -0.32351523637771606 0.05016140639781952 0.022349335253238678 0.22655262053012848 0.2037651687860489
0.012233712710440159 0.3166660964488983 -0.28515005111694336 -0.3410995304584503 0.10102489590644836 -0.305443674325943 0.3195442855358124 -0.13745667040348053
-0.11327871680259705 0.32070207595825195 0.15283513069152832 0.25746458768844604 -0.023358836770057678 -0.2815742492675781 -0.2940658628940582 0.28746679425239563
-0.1114097535610199 -0.23742525279521942 -0.3030959367752075 -0.018847733736038208 -0.2524806559085846 0.16388781368732452 -0.2542288899421692 -0.17461401224136353
0.015458030626177788 -0.2337767630815506 0.3024097979068756 -0.044196829199790955 0.010537976399064064 0.19911372661590576 -0.15541616082191467 0.004789862781763077
-0.11403276771306992 -0.251990407705307 -0.10742544382810593 -0.3057972243079951 0.017614521398531403 0.23432420194149017 0.22616445368728635 -0.1360258311033249
0.10209517275089587 0.22643994993251493 -0.054405175149440765 -0.04546418413519859 0.20079239571707297 -0.011859580783279018 0.13359852683488144 -0.21672828495502472
0.05165049806237221 0.11404763907194138 0.14168000221252441 0.11698991060256958 0.33588629961013794 0.25626370310783386 -0.17870621383190155 -0.1144966334104538
-0.04217356815934181 0.2812283933162689 -0.16829632222652435 -0.10431930422782898 -0.3125174939632416 -0.2869671881198883 -0.08019006997346878 0.2317284196615219
00000000: 0000 00e0 768e c5bf 0000 0020 d603 be3f
00000010: 0000 00e0 cc7d ba3f 0000 0060 76a0 b1bf
00000020: 0000 0060 6bdd d43f 0000 0020 ccfb cdbf
00000030: 0000 0040 68ab c43f 0000 0020 47f7 c6bf
00000040: 0000 00a0 2b60 d1bf 0000 0040 eab8 88bf
00000050: 0000 0080 d320 d23f 0000 0040 2f3c c6bf
00000060: 0000 0080 6e3d abbf 0000 00a0 41e6 c1bf
00000070: 0000 0020 c8c5 d1bf 0000 0040 324c a5bf
00000080: 0000 0080 2576 cf3f 0000 0080 0290 b5bf
00000090: 0000 0020 771c 803f 0000 00e0 c80c aa3f
000000a0: 0000 0060 9ee1 cb3f 0000 0080 e7f5 d0bf
000000b0: 0000 0000 7a28 b6bf 0000 0040 4873 d0bf
000000c0: 0000 0080 3eae b6bf 0000 0080 a7b4 b33f
000000d0: 0000 00a0 6f81 9dbf 0000 0000 b2fd b93f
000000e0: 0000 0040 f690 d3bf 0000 0040 df9e 82bf
000000f0: 0000 0020 1d83 d23f 0000 00e0 4c90 c7bf
00000100: 0000 00a0 715d d33f 0000 0060 40af d3bf
00000110: 0000 00c0 26fa cfbf 4904 4496 1efe c1bf
00000120: 2949 5187 4ea5 cebf 0000 00a0 788f cfbf
00000130: fec0 eb91 4d3e a13f 0000 00a0 0ba9 c4bf
00000140: 1c9b 0692 69e3 a23f ca78 d640 b065 d53f
00000150: 0000 00e0 5b73 c83f 0000 0020 e654 bc3f
00000160: 9948 b103 2ecc ca3f fd6c 2d56 5876 d23f
00000170: 8c9e cb2d a365 c43f 0000 0020 43b5 d13f
00000180: 0000 00a0 5b86 b23f 0000 0040 6c57 d1bf
00000190: 0000 00a0 d5c2 cbbf 0000 0020 5f0a ae3f
000001a0: 0000 0080 58b6 c63f 0000 0060 b617 9dbf
000001b0: 0000 0080 f7b4 cfbf 0000 0000 b9cd d0bf
000001c0: 0000 00a0 939c c7bf 0000 0080 6e5f c33f
000001d0: 0000 0000 d367 a93f 0000 0020 89a5 b83f
000001e0: 0000 0040 f1b0 d03f 0000 0080 9e0c 9bbf
000001f0: 0000 0020 b3c4 adbf 0000 00c0 c380 c8bf
00000200: 0000 0060 fb25 8e3f 0000 0000 b3bb 88bf
00000210: 0000 0000 2eca cebf 0000 0080 5dfb d3bf
00000220: 0000 00e0 ed6b c0bf 0000 00c0 bcb1 b2bf
00000230: 0000 0060 0878 d1bf 0000 0060 0f30 cfbf
00000240: 0000 00a0 ecd9 be3f 0000 0040 5a9f 833f
00000250: 0000 0080 6d47 a1bf 0000 0000 6479 c5bf
00000260: 0000 00a0 53c9 c93f 0000 0080 59f5 d43f
00000270: 0000 0000 e75d b8bf 0000 00c0 c887 c63f
00000280: 0000 0000 a05c c8bf 0000 00c0 8a8b d33f
00000290: 0000 0040 6159 ae3f b81c 7b07 abd6 72bf
000002a0: 5164 c77b 6f1a d13f 0000 0020 0de7 cf3f
000002b0: 1c42 a015 b656 cfbf 0000 00e0 5910 91bf
000002c0: a31d 666a 2212 cf3f 66d6 abc7 3ab7 883f
000002d0: 0000 0040 cc82 d1bf 0000 0020 c8fd d4bf
000002e0: 1a18 54ff a1e7 d53f 2ea3 2045 719b d23f
000002f0: 43e5 0a16 e3b4 c4bf 0000 00c0 4528 b63f
00000300: 0000 0040 8803 adbf 0000 0080 cd62 a83f
00000310: 0000 0000 0373 cbbf 0000 00c0 76f0 ccbf
00000320: 0000 0040 83b5 c5bf 0000 00c0 e0e3 d3bf
00000330: 0000 0000 15fb b9bf 0000 0060 a313 d43f
00000340: 0000 0080 a023 ccbf 0000 00e0 bc0d d0bf
00000350: 0000 0040 92bf a73f 0000 0080 df45 c23f
00000360: 0000 0020 0bef d23f 0000 0080 5c72 c23f
00000370: 0000 00c0 139f cbbf 0000 0020 fe77 d23f
00000380: 0000 0080 6a70 c3bf 0000 0080 bf64 bc3f
00000390: 0000 00c0 b7ea 9d3f 0000 00c0 7944 cd3f
000003a0: 0000 0080 03c6 c0bf 0000 0020 b589 d6bf
000003b0: 0000 0060 9721 c2bf 0000 0060 3f8e cabf
000003c0: 0000 0060 ecad b4bf 0000 00e0 11d5 ba3f
000003d0: 0000 0020 39ac b93f 0000 0040 b821 c23f
000003e0: 0000 0080 139f c6bf 0000 0020 6e55 b5bf
000003f0: 0000 0060 35d9 d53f 0000 0000 d5ec d03f
00000400: 0000 00e0 a876 b9bf 0000 0060 2570 d33f
00000410: 0000 0080 ad1a cd3f c442 e182 5fbc c83f
00000420: ce03 9126 11ca a73f 0000 0060 9638 9cbf
00000430: 44f6 573a b9ff cdbf 0000 0080 5d3a cfbf
00000440: 1359 a2d4 3998 bdbf ca8c 2f16 1a4d b03f
00000450: 0000 00e0 9651 ca3f 0000 0040 3b26 d53f
00000460: 3a4f 847d 7e67 cf3f b297 87a5 becd ca3f
00000470: 6074 d61a 68e9 973f 0000 0080 db4f babf
00000480: 0000 0040 15da ba3f 0000 0020 104f a3bf
00000490: 0000 0000 e535 cd3f 0000 00a0 5627 a43f
000004a0: 0000 00c0 7709 c23f 0000 00e0 dbfd ab3f
000004b0: 0000 00e0 ea13 adbf 0000 00c0 39b4 d43f
000004c0: 0000 00a0 bd79 bdbf 0000 0060 e715 d43f
000004d0: 0000 0000 ab1a c23f 0000 0020 01b4 c53f
000004e0: 0000 0020 76b1 933f 0000 00e0 a95f cebf
000004f0: 0000 0080 e06a bbbf 0000 0060 1054 c3bf
00000500: 0000 00c0 808d d0bf 0000 0000 3202 d2bf
00000510: 0000 0020 73b4 92bf c724 21a9 d358 cdbf
00000520: 055c 17b3 cbc3 d53f 0000 0060 cf64 c03f
00000530: fa90 8eb9 75e8 c33f 0000 0000 2bd0 cd3f
00000540: 1191 ca7c 2e73 d13f 002b 6f83 9a1b bfbf
00000550: 0000 00c0 d241 aabf 0000 0000 6b3b d13f
00000560: abfa c097 43e8 d53f a896 b77c efc9 d43f
00000570: e45d fdae a369 97bf 0000 00c0 b541 b03f
00000580: 0000 00c0 54a6 d2bf 0000 0000 ab64 c6bf
00000590: 0000 0000 62ae d0bf 0000 0000 3469 d33f
000005a0: 0000 0080 714f a03f 0000 0020 1069 d63f
000005b0: 0000 0060 c1e6 c8bf 0000 0080 4e9d b6bf
000005c0: 0000 0040 291f c0bf 0000 0080 8595 ba3f
000005d0: 0000 00a0 aa9a c13f 0000 0040 79b4 d4bf
000005e0: 0000 0080 c1ae a93f 0000 0080 bee2 963f
000005f0: 0000 0020 adff cc3f 0000 0020 fa14 ca3f
00000600: 0000 0020 fd0d 893f 0000 00e0 4144 d43f
00000610: 0000 0000 e63f d2bf 0000 0020 93d4 d5bf
00000620: 0000 0080 c4dc b93f 0000 00a0 638c d3bf
00000630: 0000 00e0 6973 d43f 0000 0020 2e98 c1bf
00000640: 0000 0080 d5ff bcbf 0000 0000 6286 d43f
00000650: 0000 0000 1a90 c33f 0000 00c0 4c7a d03f
00000660: 0000 0000 61eb 97bf 0000 0000 5005 d2bf
00000670: 0000 00a0 f9d1 d2bf 0000 0020 db65 d23f
00000680: 0000 0080 5985 bcbf 0000 0060 f363 cebf
00000690: 0000 0080 ec65 d3bf 0000 0000 d24c 93bf
000006a0: 0000 00a0 a428 d0bf 0000 00a0 46fa c43f
000006b0: 0000 0040 4945 d0bf 0000 0080 c059 c6bf
000006c0: 0000 00c0 75a8 8f3f 0000 00a0 65ec cdbf
000006d0: 0000 00a0 ae5a d33f 0000 0080 f7a0 a6bf
000006e0: 0000 0040 ef94 853f 0000 0000 8f7c c93f
000006f0: 0000 0040 ade4 c3bf 0000 0000 899e 733f
00000700: 0000 0060 4031 bdbf 0000 0060 9c20 d0bf
00000710: 0000 00e0 3b80 bbbf 0b11 6785 2e92 d3bf
00000720: ea93 5d85 8a09 923f 0000 00e0 55fe cd3f
00000730: 9563 0df2 f4f2 cc3f 0000 0060 4b69 c1bf
00000740: d168 0bc4 e822 ba3f 60e8 bbf9 fbfb cc3f
00000750: 0000 00c0 feda abbf 0000 00e0 1447 a7bf
00000760: f8f5 71b2 90b3 c93f d71c defc d549 88bf
00000770: 1a59 c6ab c119 c13f 0000 00a0 c0bd cbbf
00000780: 0000 0020 ef71 aa3f 0000 00e0 3932 bd3f
00000790: 0000 0000 9222 c23f 0000 0000 0df3 bd3f
000007a0: 0000 0040 297f d53f 0000 00e0 9f66 d03f
000007b0: 0000 0060 d8df c6bf 0000 00c0 a64f bdbf
000007c0: 0000 0020 c697 a5bf 0000 0060 a5ff d13f
000007d0: 0000 00e0 bb8a c5bf 0000 0080 abb4 babf
000007e0: 0000 0060 4900 d4bf 0000 00a0 ab5d d2bf
000007f0: 0000 0020 5687 b4bf 0000 00e0 46a9 cd3f

lin1.weight f8 [16, 32]
0.05205653980374336 -0.0013045081868767738 -0.0787399411201477 -0.050140101462602615 0.17100085318088531 -0.1763818860054016 -0.060711879283189774 0.12634563446044922
0.1293334811925888 0.07377664744853973 0.14929015934467316 0.037565652281045914 0.03186643123626709 0.026056213304400444 -0.06440660357475281 0.11305702477693558
0.062128353863954544 -0.029944535344839096 -0.11323252320289612 -0.023166753351688385 -0.006261736154556274 -0.02741391211748123 0.043274275958538055 0.09826996922492981
-0.010028337128460407 -0.11028163135051727 -0.07956593483686447 -0.14669537544250488 0.16709385812282562 -0.10693632811307907 0.057129040360450745 -0.059640444815158844
-0.08183809369802475 0.048521917313337326 -0.03100590859726588 0.136892631649971 0.09472168982028961 0.11436406381667176 -0.09729842096567154 0.16140230000019073
0.13011221552201707 -0.12979838252067566 0.06676546223857836 -0.15300610661506653 0.05895083770155907 -0.11222002655267715 0.08767323794726242 -0.10288640111684799
0.09916569292545319 0.08232463896274567 -0.03317065089033243 0.03969969773097979 0.15517982840538025 0.1239870935678482 -0.10758532583713531 0.005092287436127663
-0.16778199817033126 0.1721091083568575 0.02386278659105301 -0.1751256137885983 -0.036708343774080276 -0.015950601547956467 0.13674881292321217 -0.050364576280117035
0.07390911132097244 0.021721074357628822 -0.0964868813753128 -0.07010211795568466 -0.005569769069552422 0.12763485312461853 -0.1043807789683342 -0.13596318662166595
-0.06716125458478928 -0.14224548637866974 -0.08615382760763168 0.17281474173069 0.009997358545660973 0.006114580202847719 0.10042167454957962 0.16433613002300262
0.06514884531497955 0.008561879396438599 0.14465461671352386 0.08346390724182129 0.10641910135746002 -0.12311730533838272 -0.05927241966128349 -0.1283629685640335
0.10392938554286957 -0.062388818711042404 -0.15648220479488373 -0.046346571296453476 0.10614883899688721 -0.09457053244113922 -0.1285935491323471 -0.06100378930568695
0.0936221182346344 0.08440405875444412 -0.09490635246038437 0.07245232909917831 0.051726508885622025 -0.0952618420124054 0.05308452248573303 0.11665259301662445
-0.14935491979122162 0.14389756321907043 -0.014919878914952278 0.03584275394678116 0.11688591539859772 -0.07976467907428741 -0.14289520680904388 0.17412535846233368
-0.052911426872015 -0.05771637707948685 -0.03196848928928375 -0.11468742787837982 0.15218676626682281 0.08614661544561386 -0.1479969024658203 -0.15419284999370575
0.056012824177742004 -0.07343392819166183 -0.11614453047513962 -0.13953208923339844 0.11826974153518677 -0.09518768638372421 -0.12189774215221405 -0.17139209806919098
-0.04250699281692505 0.08897008001804352 -0.0029060884844511747 0.0993112251162529 -0.05858451873064041 0.052213747054338455 0.07164310663938522 -0.10514654219150543
-0.07973191142082214 -0.05165374279022217 -0.07222574949264526 0.07512256503105164 0.13177601993083954 -0.11071519553661346 0.09644655138254166 0.10415320843458176
0.10189657658338547 -0.06770433485507965 -0.019587600603699684 -0.06499532610177994 -0.14374114573001862 -0.080362468957901 -0.14485163986682892 0.03783383592963219
-0.1023823618888855 0.17133407294750214 -0.011752205900847912 -0.096344493329525 0.15114176273345947 0.15994660556316376 -0.1747732013463974 -0.07342024892568588
0.1523936241865158 -0.05657811835408211 -0.14613744616508484 -0.1228376179933548 -0.07040870934724808 -0.09226065129041672 0.15959176421165466 -0.016158996149897575
0.015931719914078712 -0.019983505830168724 -0.134407639503479 0.16535331308841705 -0.04135642573237419 -0.14599977433681488 0.15434443950653076 0.11145877093076706
0.15558063983917236 -0.09409498423337936 0.16999617218971252 -0.1457778364419937 0.1526702344417572 0.16609923541545868 -0.1567322015762329 -0.08941373974084854
0.14042510092258453 0.13498979806900024 -0.057842545211315155 -0.03034372813999653 -0.1255173534154892 0.014186481013894081 -0.018705761060118675 -0.12831325829029083
0.14976288378238678 -0.15438967943191528 0.07591221318874411 -0.10783896595239639 -0.07800466567277908 -0.14780437614573036 -0.16697543859481812 0.17047302424907684
0.16323241307452444 -0.05506997928023338 0.08353288683255622 0.07565318793058395 0.16441358625888824 0.15907351672649384 0.035079892196662917 0.10970957577228546
0.07194852828979492 -0.007521547377109528 0.0008137190719299155 -0.08589698086994649 -0.13296464085578918 0.16679857671260834 -0.12472029775381088 0.02539200149476528
-0.1625714077799842 0.08037927846082354 -0.15394309163093567 0.03614897005246327 -0.051196809858083725 -0.0797605887055397 0.16712098280932158 -0.1626337468624115
-0.12009891867637634 0.0004954994074068964 0.06985153976634727 0.15948790311813354 -0.14790073037147522 0.03215234078448766 0.05000276863574982 -0.09499473869800568
0.14327019294835253 -0.02098306082189083 0.05660596094601285 -0.05671357735991478 -0.00957382470369339 0.008805845864117146 0.12113448693329357 0.13510476052761078
-0.17276711761951447 0.11999144405126572 -0.03298547920089964 0.052624870544309484 -0.043617308139801025 0.09816864877939224 0.11820979416370392 0.15901796519756317
0.14545232959446613 -0.11519105497986305 0.07330439239740372 0.08176503195282642 -0.13001835346221924 0.11180032789707184 -0.17515792848394265 -0.1752777248620987
00000000: 0000 00a0 27a7 aa3f 0000 0000 815f 55bf
00000010: 0000 0000 4d28 b4bf 0000 00a0 f6ab a9bf
00000020: 0000 0020 5be3 c53f 0000 0080 ae93 c6bf
00000030: 0000 00a0 a015 afbf 0000 0000 182c c03f
00000040: 0000 00e0 ff8d c03f 0000 00c0 06e3 b23f
00000050: 0000 00a0 f01b c33f 0000 0020 ce3b a33f
00000060: 0000 0000 cc50 a03f 0000 00e0 7aae 9a3f
00000070: 0000 0080 f37c b0bf 0000 0020 4ef1 bc3f
00000080: 0000 00a0 49cf af3f 0000 00c0 c7a9 9ebf
00000090: 0000 0080 cefc bcbf 0000 0080 06b9 97bf
000000a0: 0000 0000 e8a5 79bf 0000 0080 6412 9cbf
000000b0: 0000 00c0 0b28 a63f 0000 0080 3828 b93f
000000c0: 0000 00a0 bc89 84bf 0000 00c0 6a3b bcbf
000000d0: 0000 00e0 6e5e b4bf 0000 0000 eac6 c2bf
000000e0: 0000 00e0 5463 c53f 0000 00e0 2d60 bbbf
000000f0: 0000 0080 0440 ad3f 0000 0040 3189 aebf
00000100: 0000 0060 57f3 b4bf 0000 0060 ddd7 a83f
00000110: 92d0 a14d 03c0 9fbf 0000 00a0 b285 c13f
00000120: 0000 0040 ae3f b83f a925 ee99 f646 bd3f
00000130: 0000 00a0 8ce8 b8bf 0000 00a0 d4a8 c43f
00000140: ce13 3d5f 84a7 c03f 0000 00c0 3b9d c0bf
00000150: 0728 d194 8a17 b13f 0000 0040 b495 c3bf
00000160: 0000 00e0 cd2e ae3f 0000 00a0 73ba bcbf
00000170: 7ec9 b7d9 c071 b63f 0000 0060 c356 babf
00000180: 0000 0040 ec62 b93f 0000 0040 3a13 b53f
00000190: 3ea3 8559 befb a0bf 3dcf d4ce 8453 a43f
000001a0: 0000 00c0 eedc c33f 0000 0040 9ebd bf3f
000001b0: 0000 0040 b68a bbbf 0000 0080 a6db 743f
000001c0: a9e2 7f69 e179 c5bf 1e43 ded7 ab07 c63f
000001d0: 0000 0080 7c6f 983f 86fc f41f 846a c6bf
000001e0: 0000 00a0 6fcb a2bf 0000 00c0 5a55 90bf
000001f0: 80d1 a22f fc80 c13f 0000 00c0 62c9 a9bf
00000200: 0000 0020 b5eb b23f 0000 00a0 0c3e 963f
00000210: 0000 0040 5db3 b8bf 0000 0060 36f2 b1bf
00000220: 0000 0080 53d0 76bf 0000 00c0 5656 c03f
00000230: 0000 00e0 b2b8 babf 0000 00e0 3d67 c1bf
00000240: 0000 00e0 7a31 b1bf 0000 00a0 1935 c2bf
00000250: 0000 0060 2d0e b6bf 0000 0020 cb1e c63f
00000260: 0000 00c0 7e79 843f 0000 0020 9a0b 793f
00000270: 0000 0020 3cb5 b93f 0000 0060 f708 c53f
00000280: 0000 0040 98ad b03f 0000 0000 e488 813f
00000290: 0000 00e0 0a84 c23f 0000 0000 e45d b53f
000002a0: 0000 0040 483e bb3f 0000 00a0 9d84 bfbf
000002b0: 0000 0060 f458 aebf 0000 00a0 326e c0bf
000002c0: 0000 00c0 1d9b ba3f 0000 0060 6df1 afbf
000002d0: 0000 00e0 9b07 c4bf 0000 00e0 bcba a7bf
000002e0: 0000 0000 922c bb3f 0000 0040 c635 b8bf
000002f0: 0000 00e0 c075 c0bf 0000 0080 e33b afbf
00000300: 0000 0080 9ef7 b73f 0000 0020 819b b53f
00000310: 0000 0060 c84b b8bf 0000 0060 3c8c b23f
00000320: 0000 00a0 e57b aa3f 0000 0080 1463 b8bf
00000330: 0000 0000 e52d ab3f 0000 00c0 f1dc bd3f
00000340: 0000 00e0 0f1e c3bf 0000 0040 3c6b c23f
00000350: 0000 0040 508e 8ebf 0000 0040 fb59 a23f
00000360: 0000 0040 3cec bd3f 0000 0040 756b b4bf
00000370: 0000 00e0 634a c2bf 0000 0060 bd49 c63f
00000380: 0000 00e0 3417 abbf 0000 0040 008d adbf
00000390: 0000 0080 2c5e a0bf 0000 00c0 275c bdbf
000003a0: 0000 0020 db7a c33f 0000 0060 b40d b63f
000003b0: 0000 0000 90f1 c2bf 0000 0060 97bc c3bf
000003c0: 0000 0080 b6ad ac3f 0000 00e0 90cc b2bf
000003d0: 0000 00e0 a5bb bdbf 0000 0000 30dc c1bf
000003e0: 0000 0000 ed46 be3f 0000 0060 385e b8bf
000003f0: 0000 00c0 b034 bfbf 0000 0020 2df0 c5bf
00000400: 0000 0000 7ac3 a5bf 0000 0040 bec6 b63f
00000410: 0000 0060 82ce 67bf 0000 00e0 756c b93f
00000420: 0000 0040 cafe adbf 0000 00a0 c2bb aa3f
00000430: 0000 00e0 3357 b23f 0000 0040 e2ea babf
00000440: 0000 0080 4f69 b4bf 0000 0000 5c72 aabf
00000450: 0000 0000 637d b2bf 0000 0080 3b3b b33f
00000460: 0000 0060 09de c03f 0000 00c0 d457 bcbf
00000470: 0000 00a0 b8b0 b83f 0000 00e0 c8a9 ba3f
00000480: 0000 00e0 e415 ba3f 0000 0040 1255 b1bf
00000490: 0000 00a0 c50e 94bf 0000 00a0 88a3 b0bf
000004a0: 0000 0020 1c66 c2bf 0000 0080 a292 b4bf
000004b0: 0000 00a0 7f8a c2bf 0000 00e0 f45e a33f
000004c0: 0000 0000 bb35 babf 0000 0060 46ee c53f
000004d0: 0000 0060 8a11 88bf 0000 0060 08aa b8bf
000004e0: 0000 0000 9d58 c33f 0000 0060 2179 c43f
000004f0: 0000 00e0 f75e c6bf 0000 0060 abcb b2bf
00000500: 0000 0060 a281 c33f 0000 00a0 cef7 acbf
00000510: 0000 00c0 a1b4 c2bf 0000 0040 4972 bfbf
00000520: 0000 0020 4e06 b2bf 0000 00e0 649e b7bf
00000530: 0000 00c0 806d c43f 0000 00e0 fb8b 90bf
00000540: 0000 00a0 6750 903f 0000 0060 8e76 94bf
00000550: 0000 0000 4534 c1bf 0000 0020 4c2a c53f
00000560: 0000 0060 ab2c a5bf 0000 00e0 1eb0 c2bf
00000570: 0000 0000 8fc1 c33f 0000 00e0 8f88 bc3f
00000580: 0000 0000 11ea c33f 0000 00e0 9b16 b8bf
00000590: 0000 0040 6fc2 c53f 0000 0020 d9a8 c2bf
000005a0: 0000 00c0 b28a c33f 0000 0060 bd42 c53f
000005b0: 0000 0000 cd0f c4bf 0000 00a0 d1e3 b6bf
000005c0: 0000 0020 73f9 c13f 0000 0080 5847 c13f
000005d0: 0000 00c0 899d adbf 0000 0020 6d12 9fbf
000005e0: 0000 00e0 f310 c0bf 0000 0040 cd0d 8d3f
000005f0: 0000 0060 9a27 93bf 0000 00a0 916c c0bf
00000600: 0000 0020 6e2b c33f 0000 0080 0ac3 c3bf
00000610: 1a3c 0399 fb6e b33f 0000 00a0 559b bbbf
00000620: 0000 0020 1df8 b3bf 3f34 e0f8 40eb c2bf
00000630: 0000 0080 735f c5bf 0000 0060 0fd2 c53f
00000640: f9af e6b9 cce4 c43f 0000 00e0 2132 acbf
00000650: a017 1649 6962 b53f 0000 00e0 015e b33f
00000660: 0000 0020 810b c53f 0000 0060 855c c43f
00000670: 09b8 76db fdf5 a13f 0000 0040 ed15 bc3f
00000680: 0000 0000 386b b23f 0000 0000 eace 7ebf
00000690: ab3e aa66 f8a9 4a3f da5b a933 58fd b5bf
000006a0: 0000 0040 fc04 c1bf 0000 00e0 a759 c53f
000006b0: 0000 0060 abed bfbf 0000 0060 5c00 9a3f
000006c0: ce00 d7cf 23cf c4bf a4eb 4384 bc93 b43f
000006d0: 0000 0040 68b4 c3bf 9a9e 5128 1e82 a23f
000006e0: 0000 00e0 7736 aabf 0000 00a0 306b b4bf
000006f0: de19 d269 3864 c53f 0000 00c0 2ed1 c4bf
00000700: 0000 0080 cdbe bebf 0000 00e0 8c3c 403f
00000710: 0f28 df5e cae1 b13f 0000 0080 196a c43f
00000720: 0000 0040 69ee c2bf 7a85 5188 4576 a03f
00000730: 0000 0080 f699 a93f 0000 0040 9351 b8bf
00000740: 5c36 9a7c ad56 c23f 0000 0060 957c 95bf
00000750: 8a26 0bde 74fb ac3f 0000 00e0 8f09 adbf
00000760: 0000 0000 719b 83bf 0000 00a0 cc08 823f
00000770: 12d6 cb73 ab02 bf3f 0000 00e0 1c4b c13f
00000780: 0000 00a0 3b1d c6bf 0000 0060 c2b7 be3f
00000790: 1c4e d204 79e3 a0bf 9959 e3a3 a5f1 aa3f
000007a0: 0000 0000 0255 a6bf 0000 00a0 9421 b93f
000007b0: 0000 0040 ff42 be3f 0000 0060 b35a c43f
000007c0: 821c 5e93 2e9e c23f d924 ee35 297d bdbf
000007d0: 0000 00a0 13c4 b23f dc9b 319a 8dee b43f
000007e0: 0000 0000 71a4 c0bf 0000 0040 f29e bc3f
000007f0: 41a0 3c33 936b c6bf 0000 0020 806f c6bf

lin1.bias f8 [16]
0.06768334656953812 -0.030256218218272842 0.11125203967094421 -0.03710366040468216 0.03348592296242714 -0.03640294820070267 0.0389651080652641 -0.15087974476457686
-0.028083330020308495 0.14781606197357178 -0.01764102652668953 0.025317776035762216 -0.07472815364599228 0.082727812230587 -0.08965655196536026 0.046913355516442205
00000000: 0000 0020 b253 b13f 7f13 fe6e 7cfb 9ebf
00000010: 0000 0080 037b bc3f 0000 0040 40ff a2bf
00000020: 0000 0020 1125 a13f 0000 0040 68a3 a2bf
00000030: d09c a611 3cf3 a33f 7f43 b208 0750 c3bf
00000040: 0000 0060 e0c1 9cbf 0000 0000 a3eb c23f
00000050: 0000 0040 7d10 92bf 19ff 5230 e7ec 993f
00000060: 0000 0060 6221 b3bf 0000 0060 a62d b53f
00000070: 8037 9056 bbf3 b6bf 97a2 60ff 0605 a83f

lin2.weight f8 [1, 16]
-0.11277773976325989 0.066099454464465 -0.07135149836540222 0.13208845257759094 -0.09716054797172546 -0.11084330081939697 0.20090415762428634 0.09895478610191517
-0.11790111660957336 -0.1746748983860016 -0.1745745837688446 0.034122931893178735 -0.1446896195411682 -0.1463170051574707 0.18119856646209215 -0.060328660719442304
00000000: 0000 0080 00df bcbf 5a54 35d3 e4eb b03f
00000010: 0000 0080 1744 b2bf 0000 0040 46e8 c03f
00000020: 0000 0080 83df b8bf 0000 0000 3a60 bcbf
00000030: fb38 5039 3ab7 c93f 8524 17d2 1955 b93f
00000040: 0000 0080 c42e bebf 0000 0040 bf5b c6bf
00000050: 0000 00c0 7558 c6bf 92b7 0c99 8f78 a13f
00000060: 0000 0080 3085 c2bf 0000 0000 84ba c2bf
00000070: d2b4 84be 8331 c73f 2e5c 9af1 65e3 aebf

lin2.bias f8 [1]
-0.14470476582769173
00000000: 3b13 678e af85 c2bf
