Q1/models/lastmodel.pth (torch, 14767 bytes, 16 tensors)

batch_norm0.weight f8 [1]
-1.0896612160716593e-99
00000000: a3b9 d73e 2011 63ab

batch_norm0.bias f8 [1]
-5.44616699513851e-100
00000000: f745 86a5 350f 53ab

batch_norm0.running_mean f8 [1]
0.7444116762173026
00000000: b5a4 836f 38d2 e73f

batch_norm0.running_var f8 [1]
2.0455168315265073
00000000: 5497 b6ed 375d 0040

conv1.bias f8 [16]
4.5016814691310047e-07 1.2649748189943126e-06 2.567826058637425e-09 -1.6431742112746152e-09 -4.121549949680628e-09 -3.574670336340413e-11 9.329685217723471e-11 -9.342075850381277e-11
-2.8945126228910116e-12 -5.708908953200951e-12 -1.1094879844215547e-05 -1.615166331191937e-05 -1.4722221676036259e-07 6.804340791521887e-12 1.9324723983769354e-08 -5.2272930457946e-09
00000000: 3048 ac72 d435 9e3e 264b b785 0639 b53e
00000010: 48f9 628f b50e 263e 089c ffb0 c13a 1cbe
00000020: dfc4 142d b1b3 31be 2e36 36b8 e6a6 c3bd
00000030: 18c1 bfac 2ea5 d93d 8caa d2c5 e6ad d9bd
00000040: 40ab 94ec dc75 89bd 0467 99f9 a81b 99bd
00000050: 5642 b8ac 8444 e7be 4af9 e8d9 adef f0be
00000060: d074 4550 84c2 83be 689f afb4 01ed 9d3d
00000070: e4ea ed8e f0bf 543e 000e 3630 7873 36be

conv1.lin.weight f8 [16, 1]
-8.37021382443929e-114 -2.5772610248502552e-114 9.59015763562795e-115 -5.5535289373407315e-114 -9.766900913750916e-115 4.5877067634185285e-115 4.492111504025278e-115 4.0055608023031916e-114
-7.977336930728925e-114 3.948275057868008e-114 1.9871054487792292e-114 -6.143682209445921e-115 2.5151184088851884e-114 1.9561065052409713e-114 -2.171536089175206e-72 9.165399732718442e-114
00000000: d423 0bfa d99c 74a8 1fe5 e6fd 2663 59a8
00000010: 4d64 552b c1e4 4228 521c 7ced 3e5a 6ba8
00000020: fce8 47ef e43d 43a8 32d7 e685 9413 3228
00000030: 7081 3870 27b3 3128 7edf 96dc 77ba 6328
00000040: 70bf 1155 2ba5 73a8 eabc 2d19 3d72 6328
00000050: 1efe 61b3 f092 5328 5e8f 7d43 1435 38a8
00000060: 2e19 1a0d 72c6 5828 2c41 38f2 c444 5328
00000070: 8491 de9a b5b1 0eb1 dc97 7a85 2992 7628

batch_norm1.weight f8 [16]
-2.275316137608985e-36 -1.3834483068270628e-28 5.4150547041870226e-39 7.017629123349062e-112 2.3472478384132027e-112 2.285454677866341e-112 -5.330194360135717e-112 5.978528137801322e-39
4.0169052268219397e-112 -3.184863731127494e-112 8.928537715461845e-35 3.272521310251463e-29 -6.839188969936932e-42 -1.0930569273370883e-112 -2.3466412946772877e-27 -3.1393540510447243e-71
00000000: a987 72eb ff31 88b8 bcf9 07dc eeeb 25ba
00000010: eb7d 4615 7c7b fd37 89a7 b476 b700 db28
00000020: 20a7 3a4e 5010 c228 3028 2a31 9396 c128
00000030: f37e 6a3f 8282 d4a8 d6cd b10f 6d46 0038
00000040: 00c5 9ccb b4e9 ce28 4445 1243 8082 c8a8
00000050: 844f 7853 8fab dd38 5520 642b f8bd 043a
00000060: 0a1f 15bc 9b10 63b7 025f bc13 ddd2 b0a8
00000070: 7e66 1e47 713d 67ba 0c25 77d2 d9bb 4bb1

batch_norm1.bias f8 [16]
1.7379603038910797e-20 -7.562264962755881e-10 -1.5762262341270595e-22 6.111406822955317e-115 -5.278674979905367e-114 -2.061099315892479e-114 5.6596765693968324e-114 -4.4886581939536e-24
1.2736299593896598e-114 -2.869651580304431e-114 1.1698600922710311e-17 -1.0921910548437461e-11 -1.0398887923782594e-25 -3.547511803743811e-114 3.679430096901698e-12 -3.0078061179107136e-48
00000000: b803 80a7 a984 d43b 456e f4ae d6fb 09be
00000010: f679 5bda bad1 67bb 4850 cdf3 8514 3828
00000020: 62a5 583a b1ff 69a8 fd92 425d 884d 54a8
00000030: 31e8 3364 15e0 6b28 f001 3e90 b0b4 15bb
00000040: 84a1 5767 7f17 4928 208d 605c 7b44 5ca8
00000050: 7dc0 ae96 a2f9 6a3c d8ae 5d31 7d04 a8bd
00000060: 869b 7e85 6c17 c0ba a6ff 863d ee78 61a8
00000070: 7bae 5685 ab2e 903d acc6 a95d 6a95 11b6

batch_norm1.running_mean f8 [16]
-5.438398014716332e-08 -8.00666708267019e-08 -1.645039865391946e-10 1.0757988213571182e-10 2.113644038560585e-10 -5.937365587442974e-13 -4.1620634670408e-12 3.6127735633894023e-13
1.785975595049261e-13 2.8368309714875304e-13 4.84799142552521e-07 7.71051728072565e-07 2.450783577101485e-08 -4.3791925190122424e-13 -9.649775208923035e-10 -2.2814078273524766e-08
00000000: 888d 7331 7a32 6dbe de61 e6c4 237e 75be
00000010: 3864 592f f89b e6bd 2730 4fde 4292 dd3d
00000020: 6032 074d b90c ed3d d063 154b e7e3 64bd
00000030: 9e51 611e 114e 92bd a010 a6bb 316c 593d
00000040: 28d5 76bc a722 493d dbd7 6e5f 61f6 533d
00000050: 61f8 b796 6444 a03e 3264 67ae 48df a93e
00000060: 921a 2fa0 a950 5a3e 9e6d 5817 dad0 5ebd
00000070: d421 d319 0494 10be 7c52 a509 167f 58be

batch_norm1.running_var f8 [16]
3.3689045503769594e-40 4.311028017956038e-40 2.8650980728899735e-45 1.6835206825666454e-45 5.47666077121469e-45 1.529132233092997e-47 5.000279178458775e-48 6.055139453948604e-47
4.799305432110265e-51 3.125789665578884e-51 2.2670081004019617e-38 4.937763541759539e-38 1.5201316645068774e-40 4.33747166223299e-50 1.0714469730014193e-43 2.605461208033788e-40
00000000: d484 a37f e858 bd37 cf52 57f5 f4c6 c237
00000010: b08e 4d74 585b b036 eba4 5fbc ef38 a336
00000020: e38b 2b10 2644 bf36 6ed6 93b4 2959 3636
00000030: fa15 d262 4e3b 1d36 0df9 7fd8 bd1f 5636
00000040: 7207 4e07 eaba 7c35 5486 bf3b 42b6 7235
00000050: 0b32 e7cc 5edb 1e38 1358 e210 66cd 3038
00000060: e3ba 5387 037c aa37 ee5f fbf4 783a b035
00000070: 4cf2 4b34 811d 0337 b383 2766 5fb2 b637

conv2.bias f8 [32]
-4.541724945552212e-54 5.256232710989396e-19 4.87265433164097e-09 7.724984228231434e-24 -4.670146401903536e-16 6.9056799304928855e-18 -2.1373938021538642e-113 -6.661172174635312e-22
-5.574252578439064e-11 4.1991047618782287e-07 -5.105813800442599e-06 6.16333535547256e-14 -9.142708670184847e-09 2.0180356109572256e-25 7.70730919803127e-22 -1.3035467487917232e-10
-2.0930451305641625e-11 -1.1982784095804741e-09 6.22580894841945e-05 4.014728014748031e-06 -1.455726043239647e-15 9.870235770326445e-39 4.9912124420945944e-08 -1.2570001026157865e-11
-7.0616940831263944e-15 1.0294264542766243e-111 2.3237523190829e-10 1.8060335480659462e-28 3.95747560098296e-104 -1.6886840157690462e-05 7.46451605030672e-14 -4.879384358542372e-21
00000000: d216 80a6 37d7 dbb4 e0cf 6f16 5f64 233c
00000010: e96e b743 8aed 343e 4ff4 989c 88ad 223b
00000020: 0303 5524 73d3 c0bc 6025 47b1 c9d8 5f3c
00000030: 1487 cd86 6851 8aa8 d41e 4559 4a2a 89bb
00000040: 075a 9525 10a5 cebd 1ca9 05ce 012e 9c3e
00000050: bd62 2469 536a d5be afbe 0db3 2659 313d
00000060: 50b1 e1da 41a2 43be 58c3 283e 433a cf3a
00000070: 7a2b 8d54 0d1e 8d3b bdd8 c987 72ea e1bd
00000080: e318 95f6 6503 b7bd b454 ba8c 1596 14be
00000090: 4f74 3ed5 1152 103f 3dda 9c08 c8d6 d03e
000000a0: 704d fdf7 5939 dabc a664 59e7 8cde 0a38
000000b0: d40a e3c1 decb 6a3e 4121 df0f 48a4 abbd
000000c0: 4efb 3437 94cd ffbc 9fc4 01f6 2ece e328
000000d0: a198 0204 faef ef3d 6fe6 ae76 249e 2c3a
000000e0: b001 bdfe efb0 762a d0a3 c1d1 06b5 f1be
000000f0: a26f 112c c002 353d 889b ed50 d00a b7bb

conv2.lin.weight f8 [32, 16]
1.9802807940512742e-74 -2.9850821575201753e-63 -2.4489671664978725e-76 -4.919436756842649e-115 -1.4786416030095845e-114 -1.2914332216311232e-114 -1.2731302418815398e-114 1.2402123294028696e-78
1.0215568388484964e-114 -1.1972379942144082e-114 2.570619767818947e-74 -1.5099822879388678e-65 -1.2316580762905195e-80 4.894465123982567e-115 -1.5977791613663213e-66 8.328467306052771e-107
-3.205878596481901e-30 1.214503167019578e-27 6.8051173668949545e-09 -9.313784448765534e-116 3.2873576309532917e-115 2.751279045487678e-115 -1.8005726186133902e-115 -6.012239034707747e-35
-8.966057362296079e-116 -4.744721426991107e-116 4.674981897207651e-19 5.892708162934909e-31 -1.617064025770987e-37 1.2114409549106005e-115 3.9485334342105297e-26 -8.36167366992362e-72
-1.574884811705036e-24 2.187092436127136e-16 2.3441773717969898e-26 -2.0864768492056463e-114 4.489404930407882e-116 1.359628007974855e-114 -1.3477622296378031e-114 2.2774464475005233e-27
-1.0590887257381594e-114 6.8289051911909785e-115 -5.1560293735985527e-23 6.466185789461155e-20 -8.47802757980497e-30 -2.438547732595964e-114 5.263819750275516e-16 3.804594739963063e-62
-4.10576039298146e-35 1.9272877181082513e-33 2.7427530702271394e-41 2.142941137269372e-114 -2.194438360232371e-114 2.4622106256217173e-114 -3.484381801660461e-114 1.5174822258868436e-41
-1.419064502384935e-114 2.4593529705420085e-114 -6.600048025317959e-34 -4.912534299997837e-38 8.814796150098767e-43 1.4289822220229025e-114 3.2978145825025896e-31 2.4437452410345834e-77
-1.3914165192589528e-07 -1.7523249043554037e-06 1.894764695612266e-33 6.627493654016291e-115 4.337939981369076e-116 3.6518872974431435e-115 -3.716173558779919e-114 1.1218813482778861e-33
6.050559931666663e-115 1.2386878727815597e-115 -2.8112673753989984e-27 6.2842135613752196e-27 2.8433040875370004e-35 -1.13689248562527e-115 -3.597014243088625e-24 2.0277629837974747e-68
1.2501958386438746e-32 -1.957686449296848e-26 -1.1509374883088497e-33 -1.4009995290472836e-115 2.6665581971286534e-115 2.190810106734717e-115 -3.249044245911673e-116 -7.520403422294262e-11
3.0257601866594416e-115 -4.751918511205626e-116 1.2132933459430513e-30 -8.753985763679554e-30 9.209511651888531e-38 5.796201462971718e-116 -3.00125736091987e-24 2.124753292881332e-70
2.2724239538340716e-114 2.673969102547539e-114 -1.5008720362541882e-114 2.8396848776194908e-114 3.1138267105106352e-114 -1.1405565112357112e-114 1.6969087715646695e-115 -9.136609500483635e-115
6.181774310955555e-115 1.03162315671864e-114 9.165734979600005e-118 -1.5369350568649413e-114 -5.892583337030769e-115 -1.383743504464244e-114 -1.1357995411415066e-114 -1.1106003318878859e-114
-2.7190457398718213e-37 8.305008984751341e-30 -3.080592204203466e-38 -6.154993322867376e-115 -1.9318283111682344e-115 1.6071922455214304e-115 3.5952242584976784e-115 6.148098962349621e-39
3.3507440114713838e-115 -1.8944894109795945e-115 9.311036516662933e-33 -2.8338361333233302e-33 2.916791951620749e-42 3.6778897840233783e-115 6.637298882796342e-30 -2.5285870055289715e-75
8.884013649893643e-27 3.89626405224456e-20 -2.3172138052303463e-28 -1.3089559492007181e-114 -1.964875817654562e-114 9.72582503339041e-115 -1.955537659748787e-114 -1.1173492779523499e-29
2.179212651265419e-114 -6.736654861297958e-115 -1.3293652250660765e-23 1.5914304983895663e-24 -3.517646123068743e-31 7.097336220706968e-115 -7.930358174178848e-19 1.0571385519789618e-65
-2.7285377009007607e-24 4.568333374546501e-14 4.8557124230080236e-27 -9.456678075167873e-117 8.149017205732026e-116 -8.740730447841813e-116 -2.721569099782202e-115 3.252324826853902e-28
1.280741214527315e-115 3.0250874042927035e-115 4.9042769270488296e-23 8.698661529465572e-18 1.461361858857831e-30 3.3149444589507645e-116 3.696604487473946e-16 3.9372343622466645e-62
6.0376856902656646e-24 -8.599677447501039e-15 2.875844941963061e-26 2.742242965495467e-115 1.356790978039622e-117 -5.074216463920065e-115 -6.3562170102000985e-115 2.9111793007311524e-27
-2.683104355213981e-115 -2.4392502007855474e-115 3.63732110689484e-24 -1.905306705285798e-18 3.175255766268498e-30 4.3987461740927185e-115 -6.327164970778001e-17 -1.161582294977086e-60
2.2028224226691605e-29 -6.066639737296947e-24 -4.926932248420436e-31 -1.02836305017756e-114 -3.867859273602222e-115 7.809679455082227e-116 9.624813418538052e-115 -5.7615821605325315e-33
-5.406469326112099e-115 7.2438757936475825e-115 -4.165608586925386e-26 -4.427546477305867e-27 -4.412150557070209e-34 -4.280851579297437e-115 1.7777101355148223e-20 1.1315635844185814e-68
-1.0544396010958555e-15 1.9119957514564614e-17 -2.4158813559850762e-28 -4.671478670621208e-115 -4.8775989808445143e-116 1.347277459131921e-115 1.7237704496025478e-115 5.156563885954391e-28
-1.5699457274456266e-115 7.64591446616652e-116 1.0770725014364846e-22 -1.108285140655932e-20 -2.5085236433119437e-30 1.1631334930667687e-116 1.9414047065276442e-17 -5.288706413329962e-62
1.5051165800694395e-43 -4.7031984178672916e-34 -1.2385734298355043e-46 1.0317022098657497e-114 2.6149527969733422e-114 -1.5898865301373753e-115 -2.2761462762133338e-114 -9.034806291546091e-47
1.83002172253182e-114 -6.945918343220435e-115 -7.636102583781538e-42 1.0203410780769632e-41 -4.062312064085426e-34 -1.9996380997480207e-114 1.63954586113374e-36 8.938312963649175e-55
-4.21866573776185e-35 -2.2717650305527824e-31 1.689441443977429e-38 4.1638657816855675e-117 1.8084473422658212e-115 -2.5509436731629037e-115 -3.639845210445305e-115 -3.247838931168444e-38
3.62351294816124e-116 -4.187323287204224e-115 1.1846363603113235e-32 -1.4719394486272168e-33 1.7040521358651562e-41 -4.473966024325732e-115 3.9194121713870953e-29 -6.90952025736021e-76
1.2191121585524476e-27 -8.016805305271558e-20 -2.514913815920042e-28 -5.628028288164524e-116 2.5860641602379964e-115 2.0238509391766063e-116 -7.227354773086407e-116 6.130922598228889e-28
1.6038321893605674e-116 1.8665683027535954e-115 4.585726026991002e-25 -7.421532725513503e-23 -2.663748331825205e-31 -3.481468835426737e-115 -1.6006588137340817e-18 4.967245467615127e-65
00000000: 7082 a95a 04ea a130 8830 027e daa5 f3b2
00000010: 1667 3e11 6b5b 3cb0 80a4 1e7f 3162 33a8
00000020: 207f af0c 7721 4da8 e204 baa3 4971 49a8
00000030: a0b9 b834 fa14 49a8 ef39 bff4 b461 c22f
00000040: febf e382 2d20 4428 b2a6 11d5 3796 47a8
00000050: dca5 4d0f 2641 a730 7bdd ba5b 7271 79b2
00000060: 58de 9d73 c25d 57af f8a7 6c32 0149 3328
00000070: 063a f1b5 bb89 45b2 f7db 7f8c 1f73 e829
00000080: 76cf 37e5 7741 d0b9 7699 a43e 430e 583a
00000090: deaa 9a40 4e3a 3d3e 6b8c 2680 c95b 0da8
000000a0: 18ae b2c4 dbe7 2928 a626 f7fe 61ae 2528
000000b0: e5b9 b55e e360 1ca8 59d5 f6b6 a5fa d3b8
000000c0: f071 de0a 3043 0ca8 c627 2103 89e9 fda7
000000d0: 6fa4 ac43 653f 213c 9366 4088 56e7 a739
000000e0: f2a8 f2a3 4e83 4bb8 c4da a14d e117 1328
000000f0: 6ae8 ec72 b370 a83a 217f d853 2f8c 2db1
00000100: a2ec 45ad 7376 feba ceff 2e67 f284 af3c
00000110: 611f 23a0 fe04 9d3a 7d3e ba25 878d 54a8
00000120: 400a 1774 7a4d fc27 4cca 00a1 39c9 4a28
00000130: 76c0 346d 618d 4aa8 2665 1d41 038e 663a
00000140: 7457 d0dd 77dd 44a8 c6a6 b1f5 41e8 3a28
00000150: cc3e 6baa 912a 4fbb 10fa 9b3b b615 f33b
00000160: 3caa 75f3 8d7e e5b9 d2ff 73e5 5a05 58a8
00000170: 2597 4b4c 04f7 c23c 1880 f36c 694d 2f33
00000180: e0b9 d9dd 9649 cbb8 4a94 8b0d 9c03 2439
00000190: 9608 3c28 3c1d 8337 9db7 635f ea1b 5528
000001a0: 1721 0b0c c79d 55a8 c31a 9fc5 0641 5828
000001b0: 3e04 710f 5529 61a8 509c 3db9 8e26 7537
000001c0: c030 b391 fdf4 4ba8 147c 22fa d139 5828
000001d0: 788b 98f8 5f6a 0bb9 1de9 ccc1 6bb7 30b8
000001e0: 106d 8ee6 5ba8 3337 07ea 9495 0227 4c28
000001f0: 8f5b b8fc 4ac1 9a39 2f96 d2b4 26a3 0630
00000200: 54f1 e1e9 deac 82be b397 a49b 2d66 bdbe
00000210: 890a e007 26ad 2339 cc89 cf77 181d 3a28
00000220: a0c6 b532 0759 fb27 c897 101b 41c7 2c28
00000230: 61f1 0217 974d 62a8 6eb7 2bc3 f14c 1739
00000240: ea31 bcc3 25d7 3728 9048 b5a4 d085 1328
00000250: 578c 60d8 68d7 6bba b856 54e5 2f1e 7f3a
00000260: e0f8 e397 a1e5 c238 f0ec 6531 18eb 11a8
00000270: f5f9 e950 e364 11bb 8c0a 7710 6f7e e131
00000280: a0a6 6aff 7c3a 5039 2bf7 06f0 273c 98ba
00000290: 93d9 48ee 6ee7 17b9 5c2e 6158 b414 16a8
000002a0: acba 77ea 7703 2528 6e33 82d3 b343 2128
000002b0: 48e6 a80e a77b f4a7 62c0 2771 03ac d4bd
000002c0: 6bc7 4dc6 1dd8 2728 daba 348f 26f5 fda7
000002d0: a8e4 867b c79b b839 c806 755e a931 e6b9
000002e0: fa87 3eba 9d56 3f38 8466 df3d 4345 0228
000002f0: f511 f6d8 c006 0dbb 2c72 a224 9576 7731
00000300: e873 939e 6f62 5628 6362 e618 0657 5a28
00000310: f164 fa50 9591 4da8 815c 75fb e9f8 5b28
00000320: 6abd 30a9 39ac 5e28 7e5a bff4 5878 46a8
00000330: 202e c6fc a0be 1a28 f271 3d70 0200 42a8
00000340: 24de 9898 805b 3828 9a42 a562 f252 4428
00000350: 0020 69c3 a47d a227 f4e4 7d2e 7747 4ea8
00000360: 6d60 a742 cc37 37a8 384e 73bf d942 4ba8
00000370: 2eaa 021d 5b60 46a8 98de 2ac9 43e1 45a8
00000380: d001 dca7 8e21 57b8 e52f 544e 420e e539
00000390: f7d7 3f09 26f7 24b8 ea01 6513 7d40 38a8
000003a0: be6f 4f5e 7972 1ea8 5015 c2ca a454 1928
000003b0: 893b 0b7b f154 2c28 3892 df81 99bc 0038
000003c0: fbf8 bba9 bb67 2a28 78d9 2c05 d2db 1da8
000003d0: 3828 aec5 3e2c 4839 0444 0fef a06d 2db9
000003e0: 3f91 a20d fc42 5037 4834 db16 b6fb 2c28
000003f0: a696 b96f dad3 e039 63d6 4e5d a54c 72b0
00000400: e0fd 52a1 e9fe 853a 8282 e925 deff e63b
00000410: d090 3632 de5b 32ba 5023 8dab a9c9 49a8
00000420: 7c4c cc15 e25a 53a8 f692 7c86 2d29 4328
00000430: 7bf2 8ab8 5543 53a8 e849 39ed 0254 ecb9
00000440: 6b76 98e6 6177 5528 4cf7 929e 348b 3aa8
00000450: 728f 13a4 2f12 30bb a6d5 95d3 61c8 fe3a
00000460: 0ece 7f7b dd89 9cb9 04f7 1e8f 05f7 3b28
00000470: 8508 7cf3 0242 2dbc d4d8 9e57 10d0 7132
00000480: 343f 263a 8863 0abb 0cee 3588 a9b7 293d
00000490: 3549 c2c5 580b 783a b91a 235f e0d8 d7a7
000004a0: d802 17e5 dfaf 0928 9108 bb02 5c8d 0ba8
000004b0: 10c5 934b 7272 25a8 fac1 1f99 7fc4 393a
000004c0: 124f bc89 7d2f 1428 90a8 f150 c2d6 2728
000004d0: 9c80 383f 00a5 4d3b 7b22 9c90 c80e 643c
000004e0: 9097 4218 d3a3 bd39 44de 5363 02e6 f427
000004f0: 7626 fb1c 08a3 ba3c 17cd c248 6432 3033
00000500: 628c e9f8 4a32 1d3b 1222 5564 605d 03bd
00000510: fcdf 274d f5cc a13a faf2 0a50 279c 2528
00000520: 0098 828c 255f ab27 9472 0a7c 51fe 33a8
00000530: 5b15 5a0f 760b 39a8 4001 6964 b7d4 6c3a
00000540: 4cbf c72d d924 25a8 a0a0 ebb4 e638 23a8
00000550: 0040 3312 c996 113b 4cf3 323c c792 41bc
00000560: b869 eeb6 b719 d039 f193 5b2d fa54 3128
00000570: 67e6 ecab 9f3c 92bc dcac 8d4b 8edd 7db3
00000580: ccc7 6e45 91ec fb39 6651 47e0 2256 1dbb
00000590: 8c29 6e41 6bfc a3b9 c79c 332e 8142 44a8
000005a0: 38e1 d9d3 f37a 2ea8 901c 7381 0b9e 0828
000005b0: bbdb f0a9 3bf6 4228 806f 96d0 74ea 3db9
000005c0: 418f cf79 754d 35a8 e77c 0ebd d58a 3c28
000005d0: 2077 9897 abc8 a9ba a861 a4fa 94ec 75ba
000005e0: 459f b8a0 cd53 02b9 0dcb ccd8 0ede 30a8
000005f0: d6af cc98 ccfc d43b a09a dcde 3f86 d331
00000600: a04a bf8e befe d2bc 14dc f224 370b 763c
00000610: 107a 4951 fd23 33ba 863c d485 1468 32a8
00000620: 65f7 24b3 fcbf fea7 d3e9 63d2 f23b 1528
00000630: 7948 d069 022b 1b28 6294 f685 606d 443a
00000640: 6999 85dd 5cbe 18a8 ccd8 93ef e419 0828
00000650: 4e49 96f0 b846 603b 201f 2e30 2c2b cabb
00000660: b062 69ed 7f70 c9b9 20ef 60d8 c054 dd27
00000670: c7b4 2aec 0362 763c a6aa ac6d a8c1 35b3
00000680: 94fc e346 28da 0a37 1ffe 4b64 4c89 03b9
00000690: b0cd a613 91a0 66b6 9a44 ec73 5853 4428
000006a0: 9ed0 a262 33c2 5928 80b9 2db8 d10e 19a8
000006b0: e0c0 6e9c d26b 56a8 df6e 1627 6781 60b6
000006c0: 9c82 ac57 d106 5228 1099 f3ad 495e 3ba8
000006d0: 668f ba0d 4e49 65b7 cca0 ffb1 6571 6c37
000006e0: 0878 0e88 cadf 00b9 8090 504f 8bb2 53a8
000006f0: 8870 ecb3 446f 8138 4b44 e983 abea b534
00000700: a05d 7a14 b009 ccb8 e583 ac78 456e 92b9
00000710: 6ce8 7520 d8fe 1638 8044 032a 1200 c527
00000720: 1867 f02b a980 1c28 8d08 3dcc 3a1a 24a8
00000730: 0d14 5ef8 f5ae 2ca8 6ccb a991 881a 26b8
00000740: 98b4 fa89 02d8 f627 18e0 3981 b77f 30a8
00000750: 7416 b952 42c1 4e39 3f01 7e28 2c92 1eb9
00000760: 75c3 dddd 42c0 7737 1a5c 74d2 d9a0 31a8
00000770: 8477 d11e 9cd7 083a eabb 9a0f 6f00 54b0
00000780: 9094 c90e a225 583a 4867 fbaa 53a9 f7bb
00000790: 1858 1ce9 d9ec 33ba 8896 6407 8ebd 01a8
000007a0: a68d c2c5 1461 2428 a0dc d96d 9c84 e927
000007b0: 20b3 e7e0 22c8 06a8 45b8 e081 7e49 483a
000007c0: 6845 598d de38 e427 6073 134f 2a6b 1d28
000007d0: 1ef3 8cab 7bbd e13a 327e 9000 226e 56bb
000007e0: f6e1 e48a 639c 95b9 2062 c37e 746f 2ba8
000007f0: d469 b0c4 e586 3dbc cfc5 faba aaec 9432

lin1.weight f8 [16, 32]
-3.328617877175421e-71 -3.2432167156075763e-07 6.714878726256647e-26 1.858270081086474e-40 4.7888209158386767e-35 1.6233105743273587e-34 -1.0242244816658345e-113 -2.3417097464069015e-39
-1.1756751414218212e-28 5.758829304683546e-24 1.069654711520281e-23 -9.088558974333442e-32 -1.3107612528889147e-25 -1.296909803319169e-22 -7.694714268994936e-33 -7.693540509305425e-28
1.3655927980989463e-29 8.743020104167661e-19 6.760556901019631e-23 1.5512026279810987e-22 0.0034884587185265385 7.048080553494468e-21 3.176457031823265e-25 8.194083766842551e-30
-0.0007236800989355897 3.2049319494684327e-112 1.618603854037076e-27 -1.2483073526690997e-43 5.521485897579004e-113 2.0041754828005728e-23 -1.4483485058384632e-30 -0.00041984049635316424
1.5280482975535559e-59 1.6308731717783765e-21 2.1446437865956512e-14 -4.238609388053986e-27 4.6231628434910474e-20 4.39381686163014e-23 1.3249501336778745e-114 1.1305268098319581e-26
-1.4788264667539903e-16 2.756431168575047e-11 -2.240173546871229e-11 2.2530937716912763e-21 -1.0896303105789315e-13 -9.501368990540828e-36 3.084134678895372e-26 2.724728758804945e-15
1.1817292401680607e-16 2.134560689388615e-14 -4.690183533205133e-10 -6.387147153247548e-11 1.0726345207948726e-19 -1.725698648884554e-42 5.174917264146625e-13 -2.129655661077391e-16
1.131961162660632e-18 -7.305582234583187e-114 -4.871254959431581e-14 1.2263172332501028e-32 2.5986989743168372e-111 2.2582748581360958e-10 -1.622652067531785e-18 -1.4185144241268557e-25
-4.7415325171043287e-66 -1.1323715119064282e-21 8.409020934932053e-19 -2.747765961278851e-28 6.357250238202471e-07 -5.550585175385163e-26 -5.763308930319909e-114 5.1316364533344875e-25
-6.251449554647212e-22 2.202346561981685e-19 2.5533067713811e-17 6.348055780227334e-24 1.6399040143817767e-06 1.3362660638137357e-11 1.050335626141988e-23 -5.224253247498396e-21
5.192977585073921e-22 4.889440703807247e-16 1.8906656717405063e-17 2.263447795231579e-17 -4.878717141233141e-25 -1.8360062993454455e-39 -9.134254755521978e-17 3.220786003439212e-22
-6.68311834029763e-27 -5.206163306257909e-112 4.56216077705792e-23 -3.7640796591100603e-29 -4.8220787920973746e-113 -9.89129082386918e-18 -9.913702428000116e-24 1.0031579806681312e-33
5.543947586514807e-60 1.5550665568906982e-18 -4.398125750576968e-11 4.105691031682224e-25 -1.38783186511614e-16 -2.6502210316224887e-18 9.019076978945636e-115 -5.515072719214301e-24
-5.129756162883333e-13 1.8181219355468673e-10 -1.1755862658968037e-09 -7.140529103170121e-16 1.2870351121632047e-11 2.2070851081584568e-34 5.715710366390016e-23 -1.9014065686943688e-12
-5.355453091539335e-14 -2.840351146115861e-11 1.6479974762503993e-08 1.950952988768072e-09 -3.2043520836397355e-17 7.820571523990794e-40 3.3004153562752e-10 1.356334781036865e-14
-8.258195048744987e-18 2.293533168738409e-111 5.188247736692043e-13 -3.0611260876528892e-30 -4.349479311983763e-110 -3.8721022080767604e-09 -1.118111761789841e-16 -3.297678254015157e-26
-1.13521037897978e-47 9.106618815402983e-19 -2.7459306988230672e-08 6.43440526804919e-25 1.4066627338461622e-14 1.9571089116405212e-16 3.894444822993358e-114 -2.806551174858401e-22
-4.846938142185309e-12 3.3262020899531796e-06 -1.3026749174202598e-06 2.1991451343508267e-14 -1.986882846437592e-09 7.219378166546317e-31 -4.2116080604900695e-22 -7.455886473530159e-12
5.4258970757499516e-12 -1.0287065111196107e-09 -0.0010114430097126685 6.863742230628259e-06 -4.172450268489539e-15 -5.271853880851598e-40 -2.513606229069962e-08 -3.183945316142341e-11
3.7109479822459405e-14 4.885267972785803e-112 2.569153191594741e-11 -5.365394253120767e-30 -1.0507958194305029e-106 1.074757470420685e-05 7.822524663415693e-15 -2.3574897965912157e-22
1.1649070688287283e-58 1.139481557216149e-18 8.526932539425795e-10 -3.80652562020445e-24 -5.395832073603146e-16 -2.592606187486382e-17 1.6585022382906344e-113 3.866006597401251e-17
-5.285810516130872e-12 -1.2084216533577459e-06 -4.95996617871056e-07 -4.805658430785192e-15 1.640437026449379e-08 -1.6985849874123842e-31 1.255982207912242e-22 1.0099757213281486e-11
-8.77724663422076e-13 5.04900398555064e-10 -1.0203592101047454e-06 -3.5458501446803676e-08 1.657383447966174e-15 -5.1828249718876985e-40 1.5802580871896e-08 6.817182225011823e-13
-2.0903763254020246e-15 1.9785044250712656e-111 3.246121842873875e-12 7.077033572693499e-29 -9.32948896225717e-108 -0.00020159268288917544 -2.674288069398992e-15 1.6360824657152326e-24
-1.004838017722023e-111 1.6552629446626448e-69 -2.146054664580255e-67 9.249471457799128e-76 -5.825040133670869e-71 8.247406329984319e-75 -7.70406075601777e-114 -9.980539423740256e-73
3.693823711001352e-69 -2.356130321564997e-67 2.823549847946121e-65 6.291665861599192e-72 -4.41054023649479e-68 -3.717950856033867e-88 -5.098749241946858e-72 -1.8532268607830636e-68
7.830962517474779e-70 3.388638457568306e-67 -3.160254168965146e-64 -1.245299789944529e-64 -3.912493317529799e-73 -6.647020588118575e-89 4.687379888389178e-67 -3.854463745536597e-70
-1.0658143420883026e-72 -4.319208693035156e-111 -2.753224451216266e-69 1.3260641209877488e-73 7.485263379878474e-114 9.626919688586865e-65 6.044162046528293e-73 8.500668665362958e-82
-4.6515468067344435e-66 2.560301257103498e-30 1.1856770293489443e-19 -4.3492437260735626e-35 1.6228679734284896e-26 -7.527764893445654e-27 1.3857680970643343e-114 4.953713573112704e-33
3.308067576984306e-22 -1.1285550866801898e-17 1.6998579278361275e-17 6.627709304687009e-25 -6.955787643049905e-20 -2.4773577727242846e-37 -2.0083638981852677e-32 -1.4219730345300501e-21
6.618788347689544e-22 -9.560080217694647e-20 1.1282634264801813e-16 -1.5380756942749766e-16 -2.0904693093622196e-25 -1.612683082298441e-49 -1.4767489931857209e-18 9.171952658977579e-23
5.510459923569637e-25 1.0937858749965326e-113 -1.2633355299546512e-20 2.771864026187267e-39 4.292650633488198e-114 -1.0671711617706031e-16 2.662121537134187e-25 1.566671578982398e-32
00000000: aafb 6217 e267 4db1 ed1b cccb cdc3 95be
00000010: af68 2835 13c8 b43a 7870 9cac 1430 b037
00000020: 8041 3aaf c1d3 cf38 0ab2 b3af ccf8 ea38
00000030: c9ce dd36 0a39 79a8 a0e0 90ea bb7f e9b7
00000040: 12a0 62de 1aa1 22ba cd2f 2edb 15d9 1b3b
00000050: e9df de8b d7dc 293b a0c4 8cb9 7a7e 7db9
00000060: bc80 c8d4 7548 c4ba dbb6 1f42 2d99 63bb
00000070: 4c2d c8ca 03fa 43b9 ba6d 954f 2d7a 4eba
00000080: acf7 7d1c 9a4f f139 fbd8 4746 c620 303c
00000090: 84c6 8940 ba6e 543b 21b7 7cac ec70 673b
000000a0: f42a 8103 d493 6c3f dec0 c0a3 4da4 c03b
000000b0: fcae b010 9f93 d83a 78bf 5db1 43c6 e439
000000c0: 20ee c82d abb6 47bf 3d22 ca94 09aa c828
000000d0: dde2 9bf6 a507 603a 5fc6 8397 4245 06b7
000000e0: 37b7 b705 27ff a028 b7fa 9868 9f3a 383b
000000f0: 1c70 b161 4160 bdb9 7932 8d33 c183 3bbf
00000100: 1399 11ae 068e b833 6176 c632 6bce 9e3b
00000110: aca9 6bcd 8325 183d 22c5 5c63 13fd 74ba
00000120: e215 5e7f 534a eb3b 0019 8e2e 1a8f 4a3b
00000130: 1acd 1b29 541a 4a28 b61f 41a0 90fd 8b3a
00000140: 187c ad1b e84f a5bc fd28 3cfb a94e be3d
00000150: 1d8f ff28 87a1 b8bd 00c2 017f a547 a53b
00000160: 975b bd25 9dab 3ebd fa60 caf1 4b42 a9b8
00000170: 502d 17a8 0117 a33a fee7 7ef8 cb8a e83c
00000180: a5ea 0bb6 cf07 a13c b473 35ca 7308 183d
00000190: 0a9c cc70 871d 00be 9821 3e24 8e8e d1bd
000001a0: 2c1d 53e8 98a8 ff3b f22e 50b3 ff3d 43b7
000001b0: 5474 ffad 2635 623d 84ec 1ce7 0ab1 aebc
000001c0: b71c 8b13 89e1 343c 288c 5a6d acfd 71a8
000001d0: 2da7 ffde 376c 2bbd 5063 54a7 46d6 4f39
000001e0: e0d3 d93f 9fff f828 209d 7329 9909 ef3d
000001f0: ea83 0efb c1ee 3dbc ecb4 6887 50f3 c5ba
00000200: 948b ddb3 36f5 5fb2 52f8 af08 d063 95bb
00000210: c4ba 5381 1806 2f3c 22e0 28a8 21c5 35ba
00000220: 0362 8c1c d654 a53e 5b1b b16b a02d b1ba
00000230: 03d8 0bf9 bf62 6ca8 5e88 f267 20da e33a
00000240: ef22 03f1 079e 87bb a02a f272 1d40 103c
00000250: 8ad8 020d 0870 7d3c b8e9 152e 83b2 1e3b
00000260: 8b7d 4188 5583 bb3e b200 df59 8262 ad3d
00000270: 307c d03b 4365 293b 4bf8 4e11 bcab b8bb
00000280: e070 a2f9 569e 833b faee 838b b69d c13c
00000290: 9dff 7d97 42cc 753c bcf9 f5cc 8418 7a3c
000002a0: 1889 13be a5df e2ba 4395 94e0 09fe e3b7
000002b0: 7cef acf0 e353 9abc 95f0 0bfb e755 783b
000002c0: b189 e8f2 ed8b 80ba d276 12fc 5408 d4a8
000002d0: 443e ca13 9a93 4b3b 7579 e684 91db 07ba
000002e0: b3b6 ebae fbaf 9da8 7dab b89b c9ce 66bc
000002f0: 4cb5 aada 48f8 27bb 9002 63e3 b3d5 1439
00000300: ca0d 84a6 4bd1 a133 6fd5 a11c 98af 3c3c
00000310: 56da 9fcc cf2d c8bd 6ce0 25ae 28c4 df3a
00000320: 3a2b 0123 3200 a4bc cd0d 0051 a871 48bc
00000330: 80db 7e85 bbc4 4128 2a45 8a4f 54ab 1abb
00000340: 2c76 1c3d 790c 62bd 2875 7fa7 f2fc e83d
00000350: cb43 9e77 4832 14be d435 edc3 f9b9 c9bc
00000360: 2b1e 8f12 5d4d ac3d fc9e 6d6e f355 f238
00000370: 2c41 1113 5146 513b d67b d242 96b9 80bd
00000380: 14f0 9973 0526 2ebd b0fa b7b2 e03a bfbd
00000390: a046 cc20 fbb1 513e 6849 e7e4 30c2 203e
000003a0: 711a 86fd c978 82bc 20ed 2d44 1d08 d137
000003b0: a7a3 d6ef 26ae f63d 16f2 c2d8 bc8a 0e3d
000003c0: c08e f826 c70a 63bc 01cf 15ee 1c10 f628
000003d0: 5a0d 357a 2841 623d 0065 463f 230b cfb9
000003e0: b41d a71b 7626 3aa9 3da3 fbe0 6ba1 30be
000003f0: 30c7 9bb3 1a1d a0bc b58f c638 6169 a4ba
00000400: c03a ff86 5397 30b6 7238 5aa9 7acc 303c
00000410: 3054 e1f2 f47b 5dbe 2c76 3f8a 53e4 e83a
00000420: f8e7 c2cb dbac 0f3d 0b1a 041b 7534 ac3c
00000430: 3ca6 6bb5 5d2e 6328 3557 23d4 a834 75bb
00000440: 22cb cccd 2a51 95bd 12fa e6ef f6e6 cb3e
00000450: 42dc 0a38 f2da b5be 27dd efb2 9ac2 183d
00000460: 0b5b 199b 3311 21be ebbc 0aea 0749 ad39
00000470: 13a4 944c 6fd2 7fbb 265c 3d7b 4a65 a0bd
00000480: 8516 e85a 04dd 973d 1454 a690 4cac 11be
00000490: dec1 80a9 4c92 50bf f4e5 2019 e3c9 dc3e
000004a0: f128 caf4 81ca f2bc 8483 ee41 50f6 c6b7
000004b0: df56 1023 59fd 5abe b233 f531 0181 c1bd
000004c0: b6ad 6b27 0ae4 243d 50bf ade5 3bcc d228
000004d0: 2072 1dfa 853f bc3d b09e fa0f ae34 dbb9
000004e0: 1eb5 5a7c 15d9 eea9 4d01 726b 0f8a e63e
000004f0: 5c67 41e2 609d 013d 916d 9167 0cd0 71bb
00000500: 60fd 98e9 2f66 e733 c820 edac 0c05 353c
00000510: f0db a682 5e4c 0d3e 2ee1 2e1f 4068 12bb
00000520: 80ab 9ad3 c670 c3bc 5689 9fd9 05e4 7dbc
00000530: bfeb 3580 dd6b 8428 f449 8dff 3749 863c
00000540: 90b4 4027 4b3f 97bd 4c4b bca8 2146 b4be
00000550: c479 ed18 94a4 a0be 5c99 d304 8ca4 f5bc
00000560: 3cdf 3def 329d 513e 574a f25f a58f 8bb9
00000570: c97a f287 d8fa 623b 2b3e 0a69 a835 a63d
00000580: 4070 7747 d7e1 6ebd addf 969f 2659 013e
00000590: ac96 e6d0 681e b1be 504e ce1b 6109 63be
000005a0: f4e2 cf02 55db dd3c 1be4 1eff 0a93 c6b7
000005b0: a9fd 4dc5 c7f7 503e 0a6f 9632 5ffc 673d
000005c0: 4aab 0f63 14d4 e2bc 78f4 a6b2 5008 f328
000005d0: 00ca f0d6 9d8d 8c3d b7cd 135e 926d 163a
000005e0: bd69 e6c5 23e9 b5a9 e489 d2f5 536c 2abf
000005f0: b2e1 050b 7d16 e8bc 0898 70eb 7ca5 ff3a
00000600: 2850 1848 1455 e3a8 bdfe 3265 31d9 a631
00000610: b9b1 6b27 9c24 17b2 b4d0 c3ff 7fc6 5a30
00000620: 0032 dcea d9ba 59b1 e672 3612 e0d7 8d30
00000630: 1f03 2b1f e3f8 72a8 5254 bf04 ec36 fcb0
00000640: 406c c5ec 6b7e b931 a0c2 f3c6 9068 19b2
00000650: 074f e3fc d1c9 8732 ae4e 1145 9a3b 2631
00000660: 28d6 e702 7806 f3b1 a018 6f35 e1aa c7ad
00000670: 5bab 89a7 7504 22b1 071a 1acd ebf9 dfb1
00000680: 2648 41fc 719e 9531 a459 b62e 8145 2232
00000690: a396 1ea2 03a4 c0b2 9afd b9a7 a43a aab2
000006a0: c993 2d7b f21e e6b0 be0c 13d4 deec a0ad
000006b0: b81c f1ad 3846 2932 acf6 fcc7 3248 85b1
000006c0: a2ef 19e9 4d21 feb0 f32c c8e6 4bc6 04a9
000006d0: e678 58cb 8600 b3b1 4efa 2602 63fd cd30
000006e0: 92c5 3347 f36e 7228 888a e427 d346 a432
000006f0: 1003 79d7 2916 f130 b928 5b05 98cd 192f
00000700: aa3c 9ef4 f259 5fb2 601f e60d ecf6 c939
00000710: f88c a875 5c7f 013c 5816 b5d0 dae7 ccb8
00000720: 53c1 35eb 1217 943a 4470 10b0 49a3 82ba
00000730: af34 f6bf 0f4d 4b28 367d 3461 9db8 3939
00000740: 73ba f4b8 bbfe 783b 483f 9b3a d005 6abc
00000750: d099 2e56 1899 733c 496d 86ef c3a3 e93a
00000760: 1fb9 1f01 a587 f4bb 4746 831c 3513 55b8
00000770: b564 620d ef11 5ab9 76be ae5a 3ddc 9abb
00000780: 462c 169f 4c01 893b 0be8 3573 6437 fcbb
00000790: 820e 85ad 8e42 a03c 8fbb dd6b 7f2a a6bc
000007a0: e455 b2de 992c d0ba 2ee9 b9b4 372b ceb5
000007b0: 00e5 a8fc bf3d 3bbc 3e99 bc63 74b8 5b3b
000007c0: 9fbe e090 4b51 e53a 0830 c7c6 93ef 7a28
000007d0: d6ee 620b 65d4 cdbb f866 9744 d42e ee37
000007e0: 0e5b 6612 7324 6528 0ca7 9054 55c2 9ebc
000007f0: b484 5bfc df98 d43a 4eaa 5fc8 2856 5439

lin1.bias f8 [16]
8.478577339980686e-19 -3.61671386778853e-06 3.3717834359572126e-13 -9.49016257565153e-05 -0.11342051729280976 -0.027060834499192422 -5.958176247358437e-60 6.565504142028159e-13
-0.010802894343648374 -0.0013881458668993354 -1.5435353427970706e-12 1.230896358049709e-42 -0.02209118346190665 -3.90793179818254e-11 2.4803719952088456e-45 -1.1619669581582696e-08
00000000: 8a59 4436 ca47 2f3c 9c39 da79 d556 cebe
00000010: aaf0 22a7 10ba 573d 6179 0e84 bde0 18bf
00000020: 2fd0 7784 2009 bdbf 6abc b4dc d5b5 9bbf
00000030: 167b b963 1a26 a3b3 d50e cb2e ae19 673d
00000040: d4d0 43ef d31f 86bf f71e 6d46 4ebe 56bf
00000050: 8a31 ff16 7727 7bbd deb3 ec0a 2d73 3b37
00000060: 03cc fe39 129f 96bf 7e63 b1d0 ec7b c5bd
00000070: f013 cbad 2252 ac36 0a43 c81c fbf3 48be

lin2.weight f8 [1, 16]
-3.7173683799156086e-18 -1.9725798520008294e-06 -5.982625155463316e-13 -9.492041586660484e-05 -0.11345728715805622 -0.027066526821824137 -6.761486035088358e-60 6.800988150264756e-13
-0.010802659325041078 -0.00144353436218324 -3.685750584665445e-12 3.4612556626694e-43 -0.02209069150600921 -3.90646070675909e-11 2.1232825511657277e-45 -1.1619854195676194e-08
00000000: d955 64a7 b124 51bc 956f f33d 158c c0be
00000010: e1f1 6b70 ab0c 65bd 6cac d553 00e2 18bf
00000020: 1634 d669 890b bdbf 2e6d 10de 53b7 9bbf
00000030: cd17 cb2d 07bb a5b3 3eda 2319 c9ed 673d
00000040: b548 1664 b41f 86bf c923 1438 9fa6 57bf
00000050: 16f7 0447 c935 90bd 0bf1 c853 1ce0 1e37
00000060: eae0 4136 f19e 96bf 623b 75cc da79 c5bd
00000070: 4c1d 35a2 5c3e a836 bdba 3418 15f4 48be

lin2.bias f8 [1]
0.8317489921135344
00000000: 9679 f30f b09d ea3f
