Q1/models/lastmodel.pth (torch, 14959 bytes, 16 tensors)

batch_norm0.weight f8 [1]
00000000: d092 688b 7aa4 d43f
0.3225389825259244

batch_norm0.bias f8 [1]
00000000: 3377 22c8 9353 e4bf
-0.6352023037795561

batch_norm0.running_mean f8 [1]
00000000: bf42 7097 b6fe 5040
67.9798945041939

batch_norm0.running_var f8 [1]
00000000: 85b7 1bd6 6e6e 0340
2.4289223410805243

conv1.bias f8 [16]
00000000: 558a de28 a392 bc3e daf0 927d 78d6 423f
00000010: 3138 e9e1 b758 dcbe 2d94 0b5d c1ac 01bf
00000020: 52cd baad 27d4 373f 50cb 1442 7c79 573f
00000030: 8fb5 fe6c b119 94be ba44 b091 4826 ae3e
00000040: 76f4 d42b bfd3 373f 3006 141d 1efe b93e
00000050: fe9c b384 c159 96be b746 e601 2b32 9b3e
00000060: dba8 3461 90b0 95be a1c4 2838 2e97 333f
00000070: 3cd5 1947 f9bd 443f 2ea0 da67 e033 ee3e
1.7030717205177065e-06 0.0005748833019860969 -6.758345561920204e-06 -3.371205423777948e-05 0.00036359757153122286 0.0014327729662226459 -2.995187573473127e-07 8.985264544643966e-07
0.00036357323900288536 1.5492824910204896e-06 -3.330500290680176e-07 4.0525151403471373e-07 -3.2320176153684124e-07 0.0002989280548347327 0.0006329981972174391 1.4401742414918506e-05

conv1.lin.weight f8 [16, 1]
00000000: 4fc5 7cc5 746b a93f b249 e5c8 0017 b03f
00000010: 4466 8f79 3929 bbbf 66ff 18fd 2ff6 bcbf
00000020: b298 1c9e a637 ac3f b8e7 0cbb beb3 b0bf
00000030: 2b96 6e5c aed6 95bf d38b 2267 4905 b73f
00000040: 20c7 1210 b150 b13f 19ee b622 405a 633f
00000050: 93be a5e6 1372 bf3f eeff b993 b416 a0bf
00000060: 5420 bfd2 abcc a13f 9b7b 7f98 eb2e a63f
00000070: 5d80 ff92 ea7c b83f 45ba 2f82 286b b13f
0.049647950274798285 0.06285099892310234 -0.10609778611924364 -0.11313152245656752 0.05511208229136012 -0.06524269167576235 -0.021326755897140764 0.08992441909735698
0.06763750688949388 0.002362370743609576 0.12283443814316745 -0.031423228295352476 0.03476464221563505 0.04332672344730001 0.0956560715562786 0.0680413549268702

batch_norm1.weight f8 [16]
00000000: ca7e 444f b506 ed3f ca8f b32d c27d e93f
00000010: 5ca4 698f 9825 eb3f cfce 9f78 23d7 e83f
00000020: 9c78 69c3 9067 ed3f 44b0 8455 9905 e93f
00000030: cf6a 6e70 8fac ee3f 4613 4289 756e e73f
00000040: bc82 7489 a526 f03f 0a69 0c24 faeb e83f
00000050: 44e3 0135 2be8 ec3f 3171 09ca bc72 ed3f
00000060: f8e5 fef0 773d ed3f a436 bc9f f6be ed3f
00000070: 2057 313c 63eb ec3f aac1 d6a4 a22d ed3f
0.9070688770479702 0.7966013805967063 0.8483393479374501 0.7762620311682101 0.9188922707214888 0.7819334669379789 0.9585644908832708 0.7322337799856562
1.0094352120724315 0.778805799872573 0.9033409152317309 0.920256037333763 0.9137534815737913 0.9295609588459297 0.9037338424338692 0.9118207187184926

batch_norm1.bias f8 [16]
00000000: 910a 5619 1a67 e93f 3f81 01cd 4229 ec3f
00000010: ba6c 5b33 f317 e53f 6a7c 7798 562c e13f
00000020: a946 c41a a80e e63f ebb6 ad3d 853d e43f
00000030: a1b8 e46f ea65 e73f 2012 3958 9f90 e23f
00000040: feda 4fd7 25e2 e43f 6016 5391 10fb e93f
00000050: 0377 f27f 7389 eb3f 6595 ef09 ef1e ec3f
00000060: 7881 3d19 fa5e e53f 2dc6 412a 382d e83f
00000070: a6a3 18b3 7c8c e73f 8dd4 8e7d 4b2d ea3f
0.7938356871457747 0.8800367359181464 0.6591735842770483 0.5366623857370432 0.689289142874448 0.6325098232898346 0.7311908898752969 0.5801541064361722
0.6526059346495854 0.8118975485201183 0.8605287074057916 0.8787760919628168 0.6678438656781926 0.7555199456530254 0.735899305150373 0.8180291607192359

batch_norm1.running_mean f8 [16]
00000000: 79a0 8883 bddf a3bf 539d 28b3 50fd a8bf
00000010: 37bf d061 082c b53f a1f2 ffd8 d282 b63f
00000020: a930 f5df f718 a6bf 3776 c5a6 b7fc a93f
00000030: 9d5e 5dc3 e396 913f 50a8 50c1 f706 b2bf
00000040: 5baf 0942 0bde aabf 2577 78bf b540 66bf
00000050: c254 fc79 dc83 b8bf 560c b407 bae0 973f
00000060: 8c90 43d4 2b77 9bbf 8e0c 3ece 2f1f a1bf
00000070: 67b4 a08c e714 b3bf afda eb08 8338 abbf
-0.03881637793193788 -0.04880764185900923 0.08270313633033487 0.08793371007773 -0.04315924271449607 0.05075620566161059 0.017177161025158417 -0.07041882009130629
-0.052475311099299225 -0.002716402985028748 -0.09576204279103975 0.0233182017518739 -0.026821789579927244 -0.033441060949393905 -0.0745377271966433 -0.05316552623655945

batch_norm1.running_var f8 [16]
00000000: 709d 90ce 52c2 293f 3718 3e61 0756 343f
00000010: 0dde aaaa 253b 4d3f b644 d4f2 b485 503f
00000020: fe30 adda 84d3 2f3f 0410 a6dd 9817 363f
00000030: f171 bd18 882d 043f 1c26 926c 8a31 453f
00000040: 45d5 b248 d183 373f 12b2 70e7 f136 b43e
00000050: 8436 c439 8d98 533f 2680 5138 a99d 123f
00000060: fd76 9270 b998 183f ef58 4bf8 931a 233f
00000070: 4519 6212 5db8 473f 6391 8013 ca28 383f
0.0001965261538156948 0.00031030349895677954 0.0008920606536184109 0.0010084406924913253 0.00024281498675760704 0.0003370998580509712 3.848620971666831e-05 0.0006467748545599425
0.0003588090846265611 1.204885760729074e-06 0.001196039119409604 7.101388298869134e-05 9.382850488967236e-05 0.00014575058243932552 0.0007238821460909059 0.00036864217281819804

conv2.bias f8 [32]
00000000: 1e6f 99f8 a5ea f03f 3402 df7d 451b b9bf
00000010: 728a 8176 9275 f03f 1267 7f6e 7c05 f13f
00000020: 1a8c 3280 f9df 0740 9fa8 236a a389 ef3f
00000030: 5d70 e020 446e aebf 19a4 8487 39b4 f03f
00000040: 50f1 57ea e19b ee3f 7607 532d 5595 eb3f
00000050: 06e7 ebf8 bc0e f03f e04f 5f67 6a8a f03f
00000060: 6d46 3061 b01f f03f 639b 7274 3c40 f13f
00000070: e1f3 3e18 2190 f03f 74dc 0ddb adfd ec3f
00000080: 91a1 7d29 b7c3 f03f 7b36 4aa8 ca11 f03f
00000090: 5a1c 4030 9d71 f03f 4eb3 64a2 40fb f03f
000000a0: 9487 1c67 c2a1 f03f f243 14af fb7a 35bf
000000b0: 1421 8ada f144 f03f 2607 e58e 41be ec3f
000000c0: a797 d9de 357e ef3f e814 8019 7e1d f03f
000000d0: 4d53 32f6 b432 ef3f 9584 4875 8b3c f03f
000000e0: a6f2 be13 dc31 0bc0 539b 2c7d 1e9d abbf
000000f0: afbb 5916 0130 f03f 6cb5 ad73 dfb4 c1bf
1.0572871886169604 -0.0980723793318326 1.0287041310445173 1.0638393703761193 2.984362603705006 0.9855515549691239 -0.059435013783713166 1.0440001767804061
0.9565286232969274 0.8619790921440955 1.0035981868263106 1.0337928808194121 1.0077365681103416 1.07818265426041 1.0351878115754902 0.9059666899110099
1.047782098839978 1.0043436597656228 1.0277377972395443 1.0613409369936622 1.039492037562444 -0.0003277649367002248 1.0168322121335835 0.8982246199522919
0.9841565468348009 1.0072003360849582 0.9749398048903487 1.0147814351442197 -3.399345545067564 -0.053933098583277904 1.011719786936492 -0.1383323016010921

conv2.lin.weight f8 [32, 16]
00000000: e077 0b76 0d55 a9bf 943d 7c26 4e4d c33f
00000010: a4e8 c975 b035 bf3f 6a0d c31b 3b17 993f
00000020: c4e9 073d 42ac d83f 0b74 bb43 ab52 c4bf
00000030: a204 e604 db11 d33f e568 0285 c8c8 c3bf
00000040: 7dfe a0be 3dbe b5bf 9f75 480e 10b4 c03f
00000050: c76d 466c 565e d63f 84ff 6b80 b806 6b3f
00000060: 9e35 ab12 fa12 be3f 826d db2c 70e4 a93f
00000070: 17d9 35e2 581e bbbf 3770 eab9 46c6 b03f
00000080: 1d3f 0223 9214 c33f ae36 8924 cc30 c4bf
00000090: 9c75 fd22 1175 b2bf c5bf 9b78 0e49 a6bf
000000a0: 5264 547d 5b69 bf3f c937 4d12 23d9 d4bf
000000b0: b4b5 3150 e63a c7bf 9608 785b a85f d4bf
000000c0: 2843 3e4e c374 c7bf 0645 2a36 c05b 92bf
000000d0: da16 1b7a 098e bbbf fd57 c906 8cfb 8c3f
000000e0: 4b6a e108 1b14 d8bf b8e6 59a4 ccaa babf
000000f0: 0955 9989 0ac3 c83f 2ade 697a de12 d0bf
00000100: 6536 03e7 bfbe de3f 85d2 b334 f70d c1bf
00000110: 6a95 98a3 0560 b7bf f9c8 79bf fe9b 903f
00000120: 5586 f40e 78da 96bf 820f d9a1 638d bcbf
00000130: 10c1 ecce c4a7 d33f 7a17 f3c4 c0a7 b4bf
00000140: 9a0a 245e c5da d13f 5fa8 ca25 c233 e23f
00000150: 7029 5be1 1067 d93f 5176 a225 61f2 d53f
00000160: 3b15 89d7 4f80 db3f b696 cea9 4345 e13f
00000170: 2228 85da f928 d93f 1b3c 37bf 1293 dc3f
00000180: f88a 127d 7f89 c53f c9aa 1c4f ce0c c7bf
00000190: 3dde a759 b310 c2bf 3d71 9c86 44bd c83f
000001a0: 721b 1eb7 add6 d73f 9348 6f66 1df2 973f
000001b0: f9d1 0466 9e36 7e3f 00cd 7f22 ce09 d1bf
000001c0: e945 bf91 3de5 a23f 1a56 e40a 0548 d73f
000001d0: cc31 42da 454b c63f c175 4f91 4e12 d03f
000001e0: 8bb6 2726 9cfe dd3f 000e 8cfd 5f06 ca3f
000001f0: 361a c08b a99c c33f de42 d2cf 29d0 babf
00000200: 0aea fe90 fe29 cf3f 73b7 52b8 123c e33f
00000210: f1e3 b42b 18a3 d03f 9bd4 af79 3fb9 e33f
00000220: 4a1d 01f1 1127 e2bf 800b 6c6f a92b d13f
00000230: 3105 f0fd 52b0 debf 0458 5c91 eafb dbbf
00000240: 1cce a931 7e56 de3f 506e 6ef5 8ecd c8bf
00000250: 632e f0b1 f537 dbbf 97e2 1b09 4ac3 d6bf
00000260: 2025 e08c df51 ac3f ba76 0313 5c59 d13f
00000270: 060c 5e52 c3ee e0bf e8bb 9541 bccc d6bf
00000280: bef7 90b1 d6f1 c0bf d117 86b0 b8e0 d63f
00000290: 0fe6 72bd e3ca b73f acd2 b503 e566 b63f
000002a0: 33db 5b82 8300 db3f 63e2 e280 f38e d03f
000002b0: 62ba ab9a 2b55 a1bf d802 19e3 d85f aebf
000002c0: f97f 2175 cd06 db3f 2d25 1501 5a82 c73f
000002d0: c430 145f 5dc9 c7bf 15f0 bf22 de60 cbbf
000002e0: 72d5 20d2 4df9 df3f 1702 0406 62b1 de3f
000002f0: 3d3f 4c84 78b9 853f f9a1 47eb ea8b c13f
00000300: d34b 886d e4a1 b8bf e409 83da 7735 823f
00000310: 94f2 40de f54e d0bf fd51 8f47 0a02 d4bf
00000320: 7ac2 e8d6 1ad6 d0bf b765 d690 29a7 d6bf
00000330: 096f ba5b 5aab c9bf 8a00 ca90 9520 d13f
00000340: 1e80 6e50 17fa d3bf a1f1 196c add6 d5bf
00000350: 7ef9 62d9 99bb 773f 26e7 9788 ee20 ba3f
00000360: 8d00 2f75 bbf0 c63f 2d76 0e7f 7d65 a23f
00000370: d259 d691 fbde d3bf 4132 6a5e f4cc cf3f
00000380: dcad e2b6 7e10 903f f90e 0935 e481 d13f
00000390: cf2f 4156 3dbc c63f da4d 7c50 2a44 d83f
000003a0: c57e fcda b275 b43f f86a 2376 e60a cdbf
000003b0: 1d32 9024 5e67 c03f d867 8910 1b88 c1bf
000003c0: beeb c49e 0aea c33f be91 6f96 2651 d53f
000003d0: 285f 1dcd 5fe2 d23f 80d3 093a 0258 d73f
000003e0: 75fd e550 9317 a33f 9d01 68b0 67c6 c43f
000003f0: 56b9 6140 373a e23f d69d 27e3 af10 db3f
00000400: 7f01 0f7a e998 ae3f e135 e4ec 6345 dd3f
00000410: 63c1 9afd d897 d73f adc0 c7ae 0883 d73f
00000420: 5d29 33d4 4c91 d13f 290d 499b 0400 b73f
00000430: e702 640a 7f1f aa3f ce11 9c6c ada8 c7bf
00000440: 9e56 91b7 bd69 c13f 130c 09ba fac0 d33f
00000450: 4115 dfe9 f0fc d83f 4fbd b305 ca66 e13f
00000460: ec80 2b8c 7b7e de3f 38c7 67eb c214 de3f
00000470: 93e8 e7d9 901a d13f 283c 851e 8d2b a83f
00000480: d181 e343 10de c03f 254c 0939 d945 91bf
00000490: 1ba2 53a2 2ae4 cd3f 5b00 505c 8985 8b3f
000004a0: d6c7 b3b9 035d c73f 1c69 4c07 9bc2 a23f
000004b0: f2c5 9fe9 8e16 a53f c2a9 edc3 0e6b d03f
000004c0: 4d97 0d90 701f a9bf 5c2c 1de0 2bbe d73f
000004d0: 0bca 6693 35ca c83f d451 7cb5 64d5 cf3f
000004e0: 6cc2 e2b4 82cb b43f 4439 e9ac 67cf c4bf
000004f0: 2c93 3f1a b4b0 a8bf 7ab9 1e43 45cd c0bf
00000500: fcae 3395 9e99 b2bf 04d4 adc3 eb96 b9bf
00000510: 429b c2c9 4314 c33f 5e83 e860 c7ae b0bf
00000520: 9281 0c0b e0fa e13f 4078 5b20 9c65 d13f
00000530: e9af 1beb 6acb db3f 8b8b 5bc6 8386 d43f
00000540: 906f 4428 2699 e03f 57b8 c51c 9e18 be3f
00000550: b3d9 f050 75aa c43f 1584 5b6b 7b4a e03f
00000560: b3f2 539f 8124 e23f d9c9 4edd 6c91 e23f
00000570: a3d5 67d4 9f9c cb3f b8ef 5cd4 6dd5 ce3f
00000580: 450e 1ede f00d c1bf 50e6 2497 6c94 95bf
00000590: 6cf9 068b 5145 bfbf df2f f7b8 703d dd3f
000005a0: ba8d 3e12 e14e cf3f 36ec 167f 59c8 dd3f
000005b0: 19c2 bf61 c10b b33f 6e41 6354 2a42 9bbf
000005c0: 340d 63f9 2d93 bc3f 0522 5000 ae5f d53f
000005d0: 35c5 20c3 89ac d43f 6b46 e3b4 9c7f bcbf
000005e0: f43b f1df 1d04 d13f f054 2356 1832 d13f
000005f0: 9cda 44de f025 dd3f 3b1b c565 189e d63f
00000600: 4a2b 45af 4b1e c93f 6a3f a6d8 80b3 df3f
00000610: a2d3 b3a1 6fc8 bebf cfcd 9ebf cee1 c7bf
00000620: a0c9 c493 6800 d43f 5674 9bba 2404 c5bf
00000630: 8ce3 26bf 83db e23f 47aa 967d e1f1 aabf
00000640: 7584 f0b9 5e81 bf3f 60c1 fbe2 c394 e13f
00000650: f9d6 fae5 d53f d73f 47d3 d4bf a0c7 df3f
00000660: 5b16 0531 9666 c93f aa46 6f6e e4a6 a2bf
00000670: 534b df3c 6402 b1bf 00e5 b5b4 8892 dd3f
00000680: 85ce 47a0 1b9a 5d3f 6bdd c810 258c c0bf
00000690: b6aa c05a 0f37 cbbf 9856 d9f5 6245 9a3f
000006a0: 4eb7 abd9 6e04 bdbf c7a5 aaba 2580 c33f
000006b0: 87ba 2e4a a2a3 acbf 64af 3d13 c8a7 c3bf
000006c0: a87a 17d9 421e bc3f deb3 9f6a 9ede b3bf
000006d0: 0a06 af3b f155 d73f d237 e159 5853 c03f
000006e0: 62ca 0fad b0f5 b93f 79e2 5946 f5b9 d23f
000006f0: 3277 6cf0 4efd 61bf f012 5902 a944 b13f
00000700: 9972 519f 3a67 8fbf 5609 2a6d 653c c4bf
00000710: 4780 6f81 7edf 9dbf 5f81 9a96 cd97 cbbf
00000720: e6e1 9b47 c7c2 c53f 6d6a e2cd b579 d23f
00000730: ad13 8e60 0a0c dc3f bb28 7029 f078 c1bf
00000740: 2ec0 6615 98f5 d13f 34ef ed11 ec53 d93f
00000750: 2108 4607 ad47 b33f e86a ff14 6313 bd3f
00000760: 8ca4 004a 91fd d63f 76a4 ca4e 317e c63f
00000770: 0253 cba9 166e d33f 7f2b a96c 0233 c0bf
00000780: 4671 2110 af04 c13f 75f3 f90d ac4b c83f
00000790: dd9f 2445 09d3 c93f 9adb de2d 6a77 b63f
000007a0: cb8b c28a 8323 d83f 6b05 9cd8 74cc d23f
000007b0: 64b0 8911 bc5c b4bf 6e26 9df6 ba1a c0bf
000007c0: e0ca a231 424e 993f 8411 4a98 a3b4 d53f
000007d0: 5967 2f1b 7afd aebf 210c a86f b97a 9e3f
000007e0: dfdf bebb 479f cdbf 6bb4 8dfb f8f2 cabf
000007f0: fdd1 20f7 51d1 94bf 1c96 da2f de96 d33f
-0.04947702470757043 0.1507966697613311 0.12191298366261322 0.024502681321576437 0.3855138393406856 -0.158772857735045 0.2979648158871645 -0.15456491942024467
-0.08493410018945187 0.13049507806219382 0.34950790952435934 0.0032991031215487427 0.11747706371098451 0.05057097003529078 -0.10593181154931518 0.06552545584639878
0.1490652724210059 -0.15773917945846477 -0.07209879974603556 -0.04352612707395979 0.12270137605482148 -0.325752990601242 -0.18148497501117122 -0.3183384793520728
-0.18325082130879733 -0.017928126626945783 -0.10763606291865405 0.014151662785632619 -0.3762271486972721 -0.10416869175414945 0.19345218390177646 -0.25115167574355957
0.48039243278331006 -0.13323869775162592 -0.09130892986339281 0.01622007411646906 -0.022317768013755252 -0.11153242780079434 0.30711479384901086 -0.08068470772113115
0.2789777201980229 0.5688181627385908 0.39691564567023985 0.34291866946464206 0.42970653580080737 0.5397051159422606 0.39312597598893906 0.44647663758672856
0.1682586060242881 -0.18007830489053436 -0.1411346614620345 0.1932759911804939 0.3724779403932451 0.02338453233444022 0.007376307243522445 -0.266223462763449
0.036905216256524494 0.363770733486804 0.17417214543492177 0.25111736479251695 0.46866515852057294 0.203319548418321 0.15321845363378522 -0.10473882030261047
0.24346906738158253 0.6010831451473976 0.2599544932195946 0.616363275212865 -0.5672692973247788 0.2682899082284891 -0.4795119743212864 -0.4372507495439779
0.47402911043102036 -0.19377314552262925 -0.4252905118634997 -0.35566950692695215 0.055312143274998116 0.2710790811232574 -0.5291458710420336 -0.3562460556485676
-0.1323803298018315 0.35746590841915543 0.09293959975448039 0.0875075468118875 0.4219063542399681 0.2587250479369116 -0.03385292304107136 -0.05932500621975628
0.42229019583282895 0.18366551449643378 -0.1858326639416018 -0.2138936681438969 0.49959130783403005 0.479576593279519 0.010607663667115847 0.13708244789383153
-0.09622028040057211 0.008891044956162504 -0.25481936172926933 -0.3126245211435899 -0.26306792247036237 -0.35395278114591683 -0.2005417774097327 0.26761378421361626
-0.31213934759762363 -0.34122787052890585 0.005794144604975291 0.10206499895857898 0.17922156545501303 0.03593055892927697 -0.3104847835724317 0.24844221696948135
0.01568792334789558 0.2735529439853362 0.17761961661960732 0.37916047916334394 0.07992093893380588 -0.22689514893030327 0.12815453324618967 -0.13696611697633787
0.15557987930682587 0.3330780476665288 0.2950667861054961 0.36474662463961494 0.03728924143342286 0.16230484117114666 0.5696064240890262 0.42289349730569137
0.059760376119359464 0.4573602498429335 0.36864304319444424 0.36737267559420667 0.27449341509477226 0.08984402457376874 0.051021547335045096 -0.18483512690740017
0.1360394617392346 0.30865352790368766 0.39043829764371557 0.5437975036019597 0.4764698857161551 0.4700171755676936 0.2672464492785675 0.047207269645348326
0.13177684130552206 -0.016868013483257855 0.23352559019191763 0.013438294534353348 0.18252607886785083 0.036640972748687356 0.04118773080689299 0.25653428205137285
-0.049067990860562995 0.37098214040878985 0.19367093751277795 0.2486997495804092 0.08123032489926069 -0.16257949774667158 -0.048223140911238666 -0.13126436021179783
-0.07265654699920882 -0.09995912101096854 0.14905593253680577 -0.06516691318439657 0.5618744102285282 0.27182677421467716 0.43429062804966506 0.3207101285062712
0.5186949526282536 0.1175631351704579 0.16145197345913473 0.5090920540643561 0.5669563400147893 0.5802521059434255 0.21571729537360537 0.24088833684242927
-0.13323794217659404 -0.021074005818468244 -0.12215146679134187 0.45687501967472416 0.24459470167958647 0.4653533688648993 0.07439812313510465 -0.026619588280313015
0.11162078226611954 0.3339648249680354 0.32303089194745677 -0.11132220665174379 0.26587626332633296 0.26868256008067615 0.4554407282443351 0.35339937151404727
0.19623704965700944 0.49533101231735677 -0.12024591157735512 -0.18657860142194102 0.31252493315255414 -0.16418894874269324 0.5892962201534018 -0.052626654224998286
0.12306777991808977 0.5494098122854147 0.36327121218651787 0.49655932172327194 0.1984431971888395 -0.036429537277979776 -0.06644274221552608 0.4620687260390497
0.0018067617212381992 -0.12927687949716513 -0.21261779719619306 0.025655313735419044 -0.11334889234759979 0.15234824766711894 -0.05593592792080409 -0.1535577863645542
0.10983674812403399 -0.07761564353104641 0.3646205027435775 0.12754349125537928 0.10140518403185575 0.2925999819777086 -0.002195982149159636 0.06745392138789064
-0.015333612429622877 -0.15809314565928884 -0.02917287507068547 -0.2155701623314696 0.17000666615037047 0.2886785994138908 0.4382348959846308 -0.1365032389006212
0.2806148728368524 0.395747201451502 0.07531243732049166 0.11357707274093409 0.3592265341454286 0.17572609278912282 0.30359427052944465 -0.1265566855020914
0.1329554394495835 0.1898093288654327 0.2017528140652293 0.08775962467085066 0.37716759253288207 0.2937290301634536 -0.07954001835031616 -0.12581574479763752
0.024712595252547653 0.33915033218388424 -0.060527625864507946 0.029765031280487023 -0.23142334620729252 -0.21053993494880116 -0.020329743107327037 0.3060832469294341

lin1.weight f8 [16, 32]
00000000: db92 acf9 9c2d 36bf 1598 b5e9 3713 b2bf
00000010: 68be b283 ad21 c7bf 8b58 19d7 060b c0bf
00000020: f327 1e57 2695 d4b1 9eae 14df 5606 d1bf
00000030: 4617 017d c5d7 c1bf 271d 7512 9162 a33f
00000040: 831b 64a3 adae a83f 0fb4 f002 1994 543f
00000050: a06a 8e3f e9ae a93f c269 eb04 4e69 adbf
00000060: 57d0 3ccb eea3 aabf 1b72 53fe e8ba 7dbf
00000070: 069c 2412 2d9b c4bf 2088 f984 eb07 a63f
00000080: 7932 358f 6871 9bbf 311c d017 5a49 bdbf
00000090: d853 8543 9929 c9bf 37a0 e118 e09a b3bf
000000a0: f23a 3aa6 9fd4 b3bf 71e7 c6bb 6f41 b031
000000b0: 5ebd e33f a344 a1bf 112e 966c c824 9c3f
000000c0: 2613 107e 69f6 b8bf 8247 5918 4d51 cabf
000000d0: e471 a2ca bd63 c3bf 89f8 f841 f78a cdbf
000000e0: 28b3 be5e 7958 0332 56b2 044c 39ab d931
000000f0: 36ee 6f7b f446 9cbf 7424 fcd9 39a9 c0bf
00000100: c1c6 7b69 b6a7 d13f 933b bed9 1683 c13f
00000110: 17fe 79b9 9d69 d33f e959 0d76 87ca e03f
00000120: 8fd2 9c24 5311 0540 9280 d5e6 8d2f dd3f
00000130: 8821 f4a6 0799 af3f 6318 7289 48db df3f
00000140: 350f 2b98 ff40 dc3f baba 97b0 0421 c63f
00000150: d4e7 ddd4 02a6 d83f 32ca 2ad2 3aa1 c73f
00000160: db44 2f3b 0d24 d63f b317 8998 9065 d23f
00000170: 6139 572e 1f6b de3f f8e4 5795 50b8 ca3f
00000180: 3b0c af3f 31cc d83f c16e a7fe 8f43 d73f
00000190: 9139 15bd 9979 d23f cd64 afdc 4b14 db3f
000001a0: 3065 597c c21c e23f 155f 1c96 ec05 143f
000001b0: 5046 c206 c8a4 ca3f da9d b28c fcf5 d13f
000001c0: 1878 e50a 2db9 c43f 96bd f710 674d de3f
000001d0: 274d 6880 ce52 d33f e46c 3b86 ad75 be3f
000001e0: bd59 b985 609c fcbf 8168 2a04 3b80 aa3f
000001f0: 500b 874f 0b14 e03f f322 d2d8 36e8 b13f
00000200: 47e5 47c9 f7ed 1ebf 960a f7b7 2924 b0bf
00000210: 6de6 ba38 e134 c7bf be21 813b 8980 c1bf
00000220: a7e0 00eb 2630 a4bd 0fe5 87eb 4abd ac3f
00000230: 4aba bf88 b42c c9bf eff1 cbb1 e78a cdbf
00000240: 0a2e 7c6c 5314 c3bf f9c9 456c b8dc cbbf
00000250: 3300 faf8 5798 c5bf 7780 3d3d dff6 b53f
00000260: 4a36 1ece f319 b8bf 2076 8c14 1170 75bf
00000270: 2035 b6b3 6abf 9a3f 0da8 75a7 102e b63f
00000280: 4321 3a81 3572 a6bf 6cb9 f997 e59d b8bf
00000290: 2e02 88d5 f0e4 ab3f 043a f339 29db 973f
000002a0: ab26 545f 7f34 a43f b4ac 6fa7 3c84 fc31
000002b0: 78aa 73b3 3eec c2bf 6f3c 13bc a8e9 c9bf
000002c0: 0a99 df37 599b 8b3f 76d9 77a8 9cea c4bf
000002d0: 28cd b6f3 7f4c ccbf 13c6 e5c3 bf77 c0bf
000002e0: e4dd 8e75 e7c9 f6b1 93f9 aa99 1ff5 e231
000002f0: fa2f 2c2a 7459 ccbf 0cd2 53f5 6197 c0bf
00000300: 5f50 fba1 7577 cc3f b44d 7720 f93f deb1
00000310: 40f5 dfd1 08ee cb3f 4638 a543 2c7b cd3f
00000320: 8a10 73ac 136b 0540 fab8 fef3 fe76 d13f
00000330: c9d3 d1e7 b76c e231 3a8b 76ee e1c6 c73f
00000340: 2450 09ce 8031 be3f 6b12 e170 29fb be3f
00000350: e66b 3933 cd61 c53f 2eac 76de 9ad2 ca3f
00000360: 9667 42ad 8836 c73f 2508 1102 1388 d33f
00000370: bcf1 b20b 6ead cb3f 5fcb 85fe 138a c53f
00000380: 969a 828b d97f c33f c8c7 1f3a 16d5 ca3f
00000390: 9e24 485b a826 bd3f 2bef fa97 8178 d53f
000003a0: ddf7 4bea 3cf7 d63f 5fb7 a908 1c4b f33c
000003b0: 3306 c788 93ba bf3f f993 b5cd 3fd1 b73f
000003c0: a373 906c 68dd c93f ee8c 069e 1f93 c43f
000003d0: 155e b090 9a8d c63f 8b94 a572 7a7a b73f
000003e0: 3fdb cf78 1513 ffbf b4a2 07a1 b95c b23f
000003f0: 28f5 9edc 0752 c83f 7e26 300b 840a 8c3e
00000400: dd44 9b17 77d7 e4b1 1a25 e42e fec9 783f
00000410: 3976 e387 22c0 a5bf 18da f4c7 ab41 a83b
00000420: 797c 5ec0 465e e031 4050 fec6 a09c f7be
00000430: eb3a 4ee3 7194 343f 0bc2 539c 7862 bbbf
00000440: 736b ddc2 9aa8 c1bf 8e64 89b3 e78a b8bf
00000450: 76bc 9fae 152e bfbf 2960 d14f 03fc 733f
00000460: 4cdb 56d0 81ce 9f3f f80f 4c4c 3bb7 fab1
00000470: aba5 0b84 474f 693f 922d ca9a 4190 9f3f
00000480: 119c 7ebd 021c 653f 3627 3a6d 7e0a b9bf
00000490: d099 515b cd35 b7bf 76da 810d 6853 ed31
000004a0: 223f 6235 4d4b c1bf 3622 510c b82b ceb1
000004b0: 6a92 db08 0fc8 c4bf fdff 2104 86bd 91bf
000004c0: f038 0fdc 2dc1 8dbf 0f87 ad9a a324 a63f
000004d0: e878 d550 9ed6 8dbf 9877 a177 0ada c4bf
000004e0: 6bae 7b6a df7f f9b1 b20e a372 ff98 03b2
000004f0: 31a2 8cfe 90d8 c2bf 1667 701b 05ef babf
00000500: effb 5ed0 6117 01b2 6435 595d db33 e831
00000510: 9322 a559 6762 c6bf 7f52 cc08 fda2 d0b1
00000520: b769 0605 3985 a5b1 c30e b98a 2a10 cb31
00000530: 2a0d cda0 7ee0 b53f 9a98 fa66 303c a9bf
00000540: 2443 883e d8b8 acbf 77d2 7e78 fb9a abbf
00000550: 5664 3f68 da3c c5bf d8ed dcff 355d f8b1
00000560: 2dbe c7b9 d815 b3bf b288 286b d1fe f9b1
00000570: 09b5 1274 d185 0232 0f25 18dd e63c a33f
00000580: babd e0d5 88d8 b43f 3862 3d69 7a3a c0bf
00000590: ffd9 a8af 4e9f b83f a966 62f7 6c1c f031
000005a0: 15fa 0a64 effa b33f c388 f7f6 5bc2 e831
000005b0: 5020 01d4 963f c8bf baa3 dac3 f442 bfbf
000005c0: 2f5b c8ad 73b2 d3b1 5baa f43a 8605 af3f
000005d0: 9407 fbcd 6de9 b6bf fd26 31f8 085e b0bf
000005e0: b874 c52a 2dd9 e131 1bb6 5ae1 9e40 353f
000005f0: c0ce 5fbd 9548 deb1 d968 ae20 6e92 c4bf
00000600: 3191 ae8d d3c5 db3f 41db 8e62 3be2 b0bf
00000610: 1d69 0891 b6f1 da3f 8303 bb8f 4256 d23f
00000620: cb06 6f72 6665 0440 18cf 03d1 85af c93f
00000630: 7a77 eacf 71be 663f db17 bdcf 2e90 e03f
00000640: 7477 968f bf7c df3f f118 9e2c c477 d13f
00000650: adc4 81b3 8c7a da3f 9f30 8432 311a db3f
00000660: 442a d6df 0a5c e03f 47c7 ac2d 42fc de3f
00000670: 182e 445f c967 db3f 5a03 6d0f 8178 dc3f
00000680: 9295 de46 a7d4 da3f 255c 9e71 2d5f d53f
00000690: fba5 6dde 08ba d53f e6c3 92a1 e646 d33f
000006a0: 29db edc7 2e48 d13f 4aef 1d09 d13f 3f3f
000006b0: 5078 20c3 c681 cb3f 0d99 7795 dfe1 d63f
000006c0: 0cba 8930 48d0 c63f 80a9 cf12 4ce9 db3f
000006d0: bd16 0960 0956 c93f 9c79 fb8f 112b d63f
000006e0: c948 b43e 34a7 fbbf 7ec1 7ff4 4252 b03f
000006f0: 3234 e503 8050 e13f c47c 717a 0da7 9cbf
00000700: 5d32 05e1 13a0 ce3f bff3 1c55 c364 b73f
00000710: b53b 3dea ad0e da3f bada fa55 348b e13f
00000720: 0bdf 79de 2756 0440 41d8 1102 c0fb d73f
00000730: 3c4c f329 cc6b cd3f b1fb 47b0 4a49 cf3f
00000740: 5219 8ac7 8fb0 dd3f 3ed5 b006 ba4f d33f
00000750: 56bf f455 ff43 d83f 9f0f 3bd5 8f1d d23f
00000760: 6f78 cece d34b d53f aa53 db41 c248 d63f
00000770: 045c 3d65 9f46 e03f 0801 a94f a098 dd3f
00000780: ee22 ba09 afc7 c53f cc56 4b8a 573b dd3f
00000790: b360 6091 c527 d33f 95c2 65d6 6ee9 db3f
000007a0: a8f2 c51c 49d1 d63f 04a2 9925 3e73 253f
000007b0: 0bbb 9e9e f6fb dc3f c6cb 057c c0f9 de3f
000007c0: bc3d 59d8 4a9e de3f 8280 8b36 24db cd3f
000007d0: deea 499e 5304 db3f 86c7 1fb4 0698 d83f
000007e0: 93d2 69d3 1032 fcbf db12 d1f3 bd95 9b3f
000007f0: 5f35 7e94 019e c83f c1c6 122d 809c a6bf
-0.0003384121170475881 -0.07060574966234896 -0.18071526461197895 -0.12533650877839295 -1.1928932326631222e-68 -0.2660119226954779 -0.13939732173656177 0.037861379149541734
0.048207689471431635 0.0012560123684679546 0.050162590988482636 -0.05744403657964227 -0.05203195792128728 -0.007258329516130614 -0.1609855974759002 0.043029174787776236
-0.02679980634757093 -0.11440051156397214 -0.19658199116625386 -0.07658196074919564 -0.07746312912261624 2.3552895674765886e-69 -0.0337267890444035 0.027484065654375615
-0.09750994994835746 -0.20560611428168946 -0.15148136514916566 -0.23080340119662804 8.969603222678846e-68 1.487672350865781e-68 -0.027614421876917393 -0.13016436713977309
0.2758613615143127 0.13681302673327575 0.3033212958616515 0.5247227960306279 2.63345936397156 0.45602748434431206 0.061714400415499304 0.4977589933627142
0.44146718845535143 0.17288263914766394 0.3851325110223318 0.18460784208362352 0.3459504201865237 0.28744902511641185 0.47528819585286014 0.20874984066157487
0.3874629136955183 0.36349868649061184 0.28867190804603476 0.4231137900474778 0.5660107067771261 7.638222225769501e-05 0.20815372781776142 0.2806388257981475
0.16190112144516955 0.4734742799473336 0.30192911662853067 0.11898312117721194 -1.78817798839519 0.051759571321967186 0.5024467995902828 0.06994955819585495
-0.00011798691622990242 -0.06305180302937638 -0.18130126256965032 -0.1367351093815738 -9.18048219376952e-12 0.05613168835766135 -0.19667679478830485 -0.23080154592015797
-0.14905779645083356 -0.21767335211514174 -0.16871165902193894 0.08579821820376475 -0.09414600164583323 -0.005233828277395186 0.02612082216142142 0.08664039696091681
-0.043840095543659995 -0.09615931473101619 0.05448105436881111 0.023296970521920826 0.039463024508291276 6.610860283633903e-68 -0.1478346229772176 -0.20244321044308175
0.013479897515889867 -0.16340978837952108 -0.22108458900547956 -0.1286544519930862 -5.282996364623637e-68 2.1974164194655306e-68 -0.22147991236886339 -0.1296198318374454
0.2223956147123571 -1.7531733914080721e-68 0.2182017349986527 0.23032143881795458 2.677283618222707 0.2728879339946527 2.1356543981936874e-68 0.18575691360191532
0.11794285803017651 0.12101992612685712 0.16704716683565762 0.20955215322951076 0.18135174236232093 0.30518031312760946 0.2162301594852475 0.16827630927908907
0.15233916580219348 0.20962789381115798 0.11387111881789955 0.33548011628930635 0.3588402069143493 4.283994606268063e-15 0.12394067849438599 0.09303663990210954
0.20206933308591343 0.16073985305874977 0.17619640412225182 0.09171262072557533 -1.9421591490951895 0.07172737294571158 0.19000337860590233 2.0892230664952265e-07
-2.4158130311640207e-68 0.006052010443690104 -0.04248149784846728 2.5682597389733972e-21 1.897289904192089e-68 -2.2517994181806217e-05 0.0003140237852727173 -0.1069713002832559
-0.1379579020966407 -0.09586952336521135 -0.12179694665222648 0.0048790101401082 0.031061199513455137 -6.193388681377002e-68 0.003089561156561079 0.030823731491677338
0.0025768331069744373 -0.09781637350729686 -0.09066470603429555 3.399233179039534e-68 -0.13511052233342818 -8.742939999631713e-69 -0.16235530788903257 -0.01732453727936444
-0.014528616216832962 0.04324828398854496 -0.014569508401731615 -0.16290407983154576 -5.911432040664969e-68 -9.086464481022122e-68 -0.14723408154647324 -0.1052096549978184
-7.924411203141091e-68 2.805384582128176e-68 -0.17487804295730722 -9.642008072799606e-69 -1.559054782598631e-69 7.842406190500916e-69 0.08545676637463787 -0.04928733117167035
-0.0560977531751006 -0.05391679616824246 -0.1659195908567052 -5.6482180578017995e-68 -0.07455210242891815 -6.026389651051009e-68 8.588076732908324e-68 0.03757401894479006
0.08142905446651741 -0.1267846120706666 0.09618083752216221 3.734947506894386e-68 0.0780477160687741 2.8699073569047447e-68 -0.1894405875375491 -0.12211541921227723
-1.141570647733485e-68 0.06058902234720583 -0.08949934271643506 -0.06393486079573658 2.0688497719915756e-68 0.00032428625977840166 -1.755123026869135e-68 -0.16071869464651092
0.43394936405299506 -0.06595202594949702 0.4210029999100174 0.2865148929232008 2.5495118084080324 0.20066902833752276 0.0027763579267476276 0.5176004464526572
0.4919890310501309 0.2729349551886023 0.41372983484240927 0.42347364361990886 0.5112356540497065 0.4841466375393008 0.4282096319518316 0.44485498911313004
0.419229335030047 0.3339341744953706 0.3394796535636428 0.30120244768755666 0.27003068470314645 0.0004768262234546751 0.2148979618804696 0.3575362167015477
0.17823126192111294 0.4361143287375384 0.197938129322372 0.34637869892858375 -1.7283213090309337 0.06375521153655048 0.5410766674118632 -0.027981005285593566
0.2392601822597439 0.09138127162891772 0.4071459567539322 0.5482427291197702 2.5420682316724927 0.37474060251350144 0.22985221908911224 0.24442418677787495
0.46390146719240477 0.30174112943071296 0.3791502322592256 0.28305431197463266 0.3327531356425259 0.34819084578821935 0.508620927556763 0.4624405649119727
0.1701563642020782 0.456746945431729 0.29930247494622647 0.4361226171231832 0.3565237790096867 0.00016365178707934702 0.45287862291563447 0.48399364577852244
0.47841139915268704 0.23325016654326097 0.42213907678494234 0.3842789420151508 -1.7622230776152363 0.02693840790404321 0.19232196570048196 -0.04416275549136862

lin1.bias f8 [16]
00000000: d35b a7e4 858f 9fbf d5cd 28ba 6001 ea3f
00000010: 0c8c 0633 d313 8a3f c6be a7ad fb3f ee3f
00000020: f73c 3493 e1c4 acbf 2d0c bf57 be97 b1bf
00000030: b0e2 3dec 6f3c e93f 7eaf c956 901d e53f
00000040: 3c58 af54 fb25 b6bf 4f4c 8c0e beb7 a23f
00000050: 29d1 bbf5 59e9 a8bf d2d0 eb79 eea6 ec3f
00000060: dcc0 c34a 8de0 b8bf 0c43 b999 481f 81bf
00000070: 555b 2a71 a081 e53f d297 ca47 fdf6 a8bf
-0.030820934372822805 0.8126681934285737 0.012733125681569056 0.9453104392723268 -0.0561895839874697 -0.06872167246096757 0.788627587709092 0.6598588652682194
-0.08651705567840023 0.0365580933340871 -0.0486553299396369 0.8953773862145005 -0.0971763904124176 -0.008360449973368066 0.6720735750449004 -0.04875937939986809

lin2.weight f8 [1, 16]
00000000: 6f65 7ce2 a5ed a0bf f885 21f6 6890 dd3f
00000010: 23ad 30a2 ccd0 833f e4df e809 e5f1 d13f
00000020: 5178 06a2 9af5 84bf 6fa3 69de fb07 a1bf
00000030: 06b0 96f3 612a e33f b658 770c 8144 df3f
00000040: 455a 1fb7 c981 a4bf c93c b6cb 71f2 b4bf
00000050: ae20 a22a 2f09 943f 0ee3 c31d 6808 dc3f
00000060: fb4e 44b3 1fdc afbf 153e a956 2af5 b1bf
00000070: 37f2 6f50 513b e23f 3788 a00a 68d9 933f
-0.033063110253531806 0.46193908725953703 0.009675596904421163 0.2803890797399602 -0.010234077520007075 -0.033264037036878295 0.5989236600485135 0.48855615823175513
-0.04005270347959259 -0.08182440970834927 0.019566285111552055 0.43801310450321373 -0.06222628653827474 -0.07014717689275358 0.5697409220734418 0.019384027145982165

lin2.bias f8 [1]
00000000: 4b96 f509 b705 dc3f
0.43784881565656936
