Q1/models/lastmodel.pth (torch, 14767 bytes, 16 tensors)

batch_norm0.weight f8 [1]
000000 c5 fd 14 12 b8 98 a2 bf
       -0.03632140370109086

batch_norm0.bias f8 [1]
000000 80 d9 92 6b 42 32 e7 3f
       0.7248851872489439

batch_norm0.running_mean f8 [1]
000000 59 62 7b 02 db 01 51 40
       68.02899229096637

batch_norm0.running_var f8 [1]
000000 c6 a9 c4 08 f2 83 05 40
       2.689426487447437

conv1.bias f8 [16]
000000 f9 0a 41 43 f3 13 32 3e 89 f4 02 e8 3c 7d 41 3f
       4.209096227865051e-09 0.0005337283510226258
000010 20 b3 0a f9 d1 43 9a be 7c c0 ba 96 fb 2c 17 3f
       -3.913778466129576e-07 8.84083325967139e-05
000020 00 e3 05 66 4f 52 fd 3e 0b 6a c5 78 fb ce a3 be
       2.7963184380894006e-05 -5.903400377802891e-07
000030 40 96 22 4d 68 d6 53 3e 5e be c9 9c a3 19 f8 bd
       1.8475138593160586e-08 -3.5070338021489253e-10
000040 98 c8 b9 f1 e3 e6 2f 3e aa bd 81 8f e3 27 e3 bd
       3.7138717776505144e-09 -1.393769056360837e-10
000050 bc 59 07 87 12 07 1c bf 6f 30 13 ce 90 c4 c0 be
       -0.00010691691000572814 -1.9988816438495703e-06
000060 7c a5 bf 6c fd 31 4c 3e fe 41 7f a1 e8 a1 d3 3e
       1.3129447216892433e-08 4.68074224353786e-06
000070 a9 c6 58 b6 57 d9 23 3f 66 ef 84 5a 32 39 32 3f
       0.00015143581110659457 0.00027806739173618364

conv1.lin.weight f8 [16, 1]
000000 bc fa 1b 18 92 72 7f bf 53 df 01 d1 02 57 79 3f
       -0.0076776224902903 0.006186495782564655
000010 21 5f 66 12 a9 63 78 3f bf 3a a8 34 98 73 a3 bf
       0.0059544185991382845 -0.037991291454195324
000020 cf 6b af fd 93 60 84 bf 80 8b 91 af a8 6e be bf
       -0.009949833087309927 -0.11887602125493224
000030 dd 92 09 ee 83 a2 87 bf 40 36 07 47 83 da 45 3f
       -0.011540442182373873 0.000666917896575199
000040 58 50 92 3a 3d ed b3 3f de 71 e8 7c d6 62 53 3f
       0.0778387325283928 0.0011832327469455321
000050 4e 1f 32 78 25 93 8e 3f da 05 b0 f5 8a ca 78 bf
       0.014929096918663422 -0.006052534877200222
000060 9f 27 1c 8c 4a 45 91 3f 7a 5d 06 98 4b d5 5e 3f
       0.01686588745273065 0.0018819082471049618
000070 ea dd cb a2 38 69 74 3f 20 7b 36 ac 09 b4 6e 3f
       0.004983159288478126 0.003747958080296057

batch_norm1.weight f8 [16]
000000 0b 77 48 0a 92 be f1 3f 5a ef 9e 93 cb 87 f1 3f
       1.109025993507603 1.0956531301917125
000010 d7 17 04 a9 a4 a1 f0 3f 0a 97 22 b7 85 26 f1 3f
       1.0394636728465139 1.0719048646655573
000020 32 9b 78 02 6e 79 f3 3f 58 8b d7 fe c8 c6 ee 3f
       1.217145929005437 0.9617657639867998
000030 bf 1d ef 87 8a 85 f2 3f 2f 75 e2 21 f9 1d ed 3f
       1.157602816574453 0.9099088346298795
000040 22 71 5a 11 17 d8 f2 3f 87 4f bf 44 ba c0 f2 3f
       1.1777563741553156 1.1720526395265283
000050 fa 7b a8 42 04 83 f2 3f 23 e5 81 b1 f3 ba f2 3f
       1.1569864848931943 1.1706425603754915
000060 d5 72 a9 82 20 9f f1 3f 1a ff 54 3f d7 96 f3 3f
       1.101349363706665 1.2243263696581779
000070 3d 37 6b f0 67 b7 f3 3f 22 23 4e 51 6d 78 f2 3f
       1.2322768584594563 1.154401128386049

batch_norm1.bias f8 [16]
000000 4d 77 d1 88 51 fd dd 3f 94 06 e8 6f 0a ef de 3f
       0.4685863338580603 0.48333989075045136
000010 55 5d 6f e1 4d 82 dc 3f e7 18 72 cd 98 4a 82 bf
       0.4454531384958121 -0.00893134476633546
000020 f0 2d f4 b5 24 cc b7 3f 9c 9a ee 3a ac 9d d8 3f
       0.09295873110038833 0.3846235824116009
000030 ba b9 7d f1 32 73 b2 3f b4 d3 3b 05 91 5f d5 3f
       0.07207029720095806 0.33395791541198183
000040 a5 df d3 94 c2 26 a3 3f f9 d2 ec 5a 2c 2e b8 3f
       0.03740509096854731 0.09445454807139332
000050 ac 83 61 41 1d f2 e0 3f d9 3d 6c 47 d1 78 e0 3f
       0.5295549656840328 0.5147482295014313
000060 83 9b 5b 75 ae 32 df 3f b7 cd 77 db d6 8f bd 3f
       0.48746835194327093 0.11547606332879111
000070 64 60 1d e4 ad 7c ba 3f 28 9b ee 41 42 1c e0 3f
       0.10346495455940069 0.5034495628104638

batch_norm1.running_mean f8 [16]
000000 5a 3a 78 04 94 f7 77 bf 08 27 73 dc a6 48 73 3f
       -0.005851343339158344 0.004707958031937805
000010 2b 2b bb 18 24 d1 72 3f c6 13 fd 9c 6e b4 9d bf
       0.004593983652464921 -0.029008606273482028
000020 68 c1 59 64 51 19 7f bf 13 29 f6 f9 d5 3b b7 bf
       -0.007592504441717864 -0.09075677254273655
000030 3e ff f0 bc 25 0a 82 bf 23 23 f3 78 28 91 46 3f
       -0.008808417156728528 0.0006886909121926781
000040 c8 77 3a 30 92 6c ae 3f 34 0a 46 21 34 9a 4d 3f
       0.05942208136296717 0.0009033922711270737
000050 c2 c0 58 d0 74 68 87 3f e0 6f 8a 47 a1 fd 72 bf
       0.011429703338848522 -0.004636411664844048
000060 8e 60 5b 0b 6b 6f 8a 3f 93 c4 3b c8 b2 a6 57 3f
       0.012907825740896575 0.0014435525817442548
000070 1a e4 fa 93 0b 05 6f 3f b1 38 63 a7 38 65 67 3f
       0.003786585439084178 0.0028558832665118374

batch_norm1.running_var f8 [16]
000000 6c b3 fd 44 67 3b aa 3e 64 2f 9c 11 6a 4f a1 3e
       7.817758475976771e-07 5.158845255161604e-07
000010 ee ff 9b a7 ac 2b a0 3e e7 17 14 ee b1 21 f4 3e
       4.819215313200934e-07 1.9199010130164977e-05
000020 00 53 4c 50 8f 12 b6 3e 0b e2 40 ea ba a6 28 3f
       1.3156234796630225e-06 0.00018807441404235267
000030 5a f8 c3 b3 02 b9 bd 3e 60 2d 29 56 65 01 48 3e
       1.7716108252070778e-06 1.1178409924396355e-08
000040 06 b2 08 8c 9e 22 15 3f 4b 5e 6e e0 49 02 54 3e
       8.062451070917778e-05 1.8634777300748156e-08
000050 5a 5c ad da 93 f2 c8 3e 8f 1a b4 aa 6f 78 a0 3e
       2.9739819259844355e-06 4.90857777008689e-07
000060 1a 65 48 ac c6 e9 cf 3e eb 59 36 62 eb 8d 69 3e
       3.8043484400616925e-06 4.759872875984667e-08
000070 6e 9c 61 16 94 06 96 3e 7e 68 80 83 c7 2c 89 3e
       3.2820846341267645e-07 1.8756776554233775e-07

conv2.bias f8 [32]
000000 67 45 72 4c 76 c6 f0 3f 10 80 3c 97 4f e9 f3 3f
       1.048452662104262 1.2444606692952256
000010 67 8d ed cf b2 0d f0 3f 08 fa 44 6d b1 1a f0 3f
       1.0033443567452538 1.0065168636643893
000020 03 39 cc 3d 8f 0d 96 bf 75 7b 53 5d 63 aa ee 3f
       -0.021536100527606027 0.9582993338370743
000030 b2 19 ef df 29 ef ee 3f f8 18 ee 16 b4 61 f0 3f
       0.9666947721205388 1.0238533874231148
000040 95 c3 65 99 7c 43 ee 3f f7 34 a9 de 10 f0 ef 3f
       0.9457381244702555 0.9980549191328966
000050 70 d1 3b c1 81 94 ef 3f dd cb 48 21 1c 2d f0 3f
       0.9868782781691561 1.0110131549997654
000060 0c d9 25 15 03 00 f0 3f a4 dd 4e 0a 56 cc 7a bf
       1.000002939804804 -0.006542526335514696
000070 7a e4 cd cc cc e2 ee 3f 44 3e 63 ab 42 fe b1 bf
       0.9651855468829489 -0.07028595623273143
000080 3c 5b 3c 89 29 b9 f0 3f 56 a5 b2 72 f5 ef ef 3f
       1.0452056275150445 0.9980418434326264
000090 7a 2c 95 ee ba 5f f0 3f 96 63 c7 15 56 09 a3 bf
       1.0233716315877062 -0.03718060508589997
0000a0 8a b6 f4 36 24 e0 ed 3f 06 e1 62 36 75 92 fc bd
       0.9336110185010551 -4.15778791939275e-10
0000b0 fd 1f d7 93 44 bb f0 3f 43 79 4d 39 e0 77 ef 3f
       1.0457196974766696 0.9833832854454062
0000c0 91 f6 2b 6b bb 99 ef 3f 6a ad 60 a7 4b 07 f0 3f
       0.987516125983989 1.0017811334790516
0000d0 d7 d1 50 ce 3e 52 96 bf bd 3f 72 9d 35 75 f0 3f
       -0.021798116056929686 1.0286155843968878
0000e0 9e ce be bd 9a 77 15 40 2c d6 06 ae b1 49 47 be
       5.366801228304807 -1.084425832539053e-08
0000f0 14 de c2 6f 45 36 ef 3f ff 77 86 b1 5e b4 c3 bf
       0.9753749068103752 -0.15394195240236283

conv2.lin.weight f8 [32, 16]
000000 8c d1 a9 f3 80 5e a1 bf e2 07 c4 28 8a 80 9c 3f
       -0.03392413114935086 0.02783408998312343
000010 a2 17 e2 c1 95 b4 76 3f 8d 28 12 1c e9 c3 93 3f
       0.005543313016579095 0.01930202707129829
000020 7f db 40 7b d6 b2 c4 3f fc 17 3f 33 ac 9a bc bf
       0.16170769708852714 -0.11173511744627257
000030 0d 55 5d fe 5d 99 84 3f f3 e8 40 b2 0a 3d b7 bf
       0.010058149647799408 -0.09077517368215009
000040 ef 80 a9 bd 83 28 c1 bf c3 c3 2f bb 3d 8d 96 bf
       -0.1340489078602398 -0.022023167180978975
000050 bd e6 69 cd a6 c9 c8 3f 6c a5 b8 91 f5 5c 97 bf
       0.1936539175983877 -0.022815548915024506
000060 fa c5 dc 3c 1f 4b a4 3f 2c 7b a8 f1 f1 59 99 bf
       0.03963563554715317 -0.0247571758028428
000070 7b 60 bd 72 a9 1d c3 bf 87 a8 29 34 45 4b a4 3f
       -0.14934270956542037 0.03963676702262924
000080 ae 86 98 b4 e2 80 a9 3f 0c 5f 26 c5 2a 80 d0 bf
       0.049811443848978385 -0.25782269719046336
000090 a4 95 04 27 d6 a2 c8 bf aa 7d c1 45 40 29 d8 3f
       -0.1924693766133433 0.37751776516048585
0000a0 12 44 a6 2f 97 77 e0 3f b4 f5 ce a9 5a bf db bf
       0.5145984583524543 -0.43355433066229954
0000b0 32 02 c0 3c 2a 4d cd 3f 09 b1 97 23 63 21 dd bf
       0.22891738859472494 -0.4551627967437218
0000c0 a1 f9 91 28 28 a4 cd 3f 4f ee ec 14 27 fa d6 3f
       0.2315721700760607 0.359018106875486
0000d0 8c 5f 3b 98 a5 92 c9 bf 37 99 ce b1 4d b8 b5 bf
       -0.19978780682754083 -0.08484349814407187
0000e0 33 49 64 03 17 e5 df bf 11 39 4e 00 68 ab d2 3f
       -0.49835753756737516 0.29171180753554987
0000f0 a8 64 ec fb 38 c8 e1 3f b4 ef 16 0c a9 94 d6 bf
       0.5556912346247787 -0.352823507124181
000100 11 46 d8 16 98 db e1 3f 1a 80 f2 59 d5 34 a8 bf
       0.5580559202373384 -0.047278086881533635
000110 99 9c fc 27 8b c8 54 bf b7 5f b4 a8 c9 73 b9 3f
       -0.0012685164401291858 0.09942303055538458
000120 a9 32 e0 f6 bd 43 66 bf dc de a0 e2 4b dd 80 bf
       -0.0027178488007904744 -0.008234589437150878
000130 32 52 0e 0d 84 26 d1 3f a2 fb 65 07 0d e0 a9 3f
       0.26797581934923465 0.050537497666474765
000140 3d b8 80 d1 7c 84 d1 3f 2a 5a de b5 77 e1 e1 3f
       0.27371139964350616 0.5587729026909234
000150 c1 85 91 a7 f8 65 dd 3f 19 3f 17 89 b7 81 d8 3f
       0.45934883464914483 0.3829172934319885
000160 01 dd d5 e5 41 9d dd 3f d5 29 02 60 64 a4 e0 3f
       0.46272323078979133 0.5200673937954955
000170 3f ce cd de a9 29 d9 3f 17 e3 bc fb b6 47 e1 3f
       0.3931679416484463 0.5400042454485597
000180 12 8b 3e 37 76 23 c9 3f c0 4c d6 fa 3b 5b a7 bf
       0.1963947076556783 -0.04561793744064735
000190 d7 7f 58 52 9d 1e 6e bf 57 9d fc eb c1 a6 d1 3f
       -0.003676707524178351 0.27580307050307823
0001a0 e1 3f d1 df eb de d8 3f f3 f4 b8 6a 56 16 c5 3f
       0.38860604149976835 0.16474418841418234
0001b0 fb d9 6c fb 7b 25 a1 bf c7 59 4a 48 2e d4 b5 bf
       -0.03348910755305564 -0.08526887192633757
0001c0 f9 81 e8 56 f2 68 a0 3f 76 39 47 ac 7c ab d6 3f
       0.03205067931071776 0.3542167360691545
0001d0 9d c2 9e d1 9d fe c7 3f 9b a7 ea dc fd 2d ce 3f
       0.18745777831420166 0.23577855383819898
0001e0 06 5d 62 25 ac c0 dd 3f be 24 b4 1f 4b 9b c7 3f
       0.4648847928123846 0.18442668006927038
0001f0 8c 1d 42 23 af b9 c3 3f e3 c3 6f 8f 52 30 a4 3f
       0.1541041299972047 0.03943117142615173
000200 a6 d4 8c 13 ee 4c 9e bf a5 49 8e 68 f4 de 9c bf
       -0.029590339606518377 -0.028194254762249255
000210 73 f7 b7 64 bb de 9b bf 7a a4 8e 28 bf 5b a9 bf
       -0.027216842672707253 -0.049528096867398966
000220 c0 36 0f 62 04 6d 92 bf 86 38 b6 73 87 25 99 bf
       -0.017993992314407903 -0.02455722469090251
000230 d5 4b f7 27 08 fe a4 bf c5 4a 97 f9 43 2b 95 bf
       -0.04100060928217145 -0.020672857388329264
000240 0e 2c 35 8f 7e f5 a2 bf 92 90 8d 58 a5 1d 9c bf
       -0.03702922342434799 -0.027456840066762363
000250 06 c9 57 06 f5 80 9e bf 1c dd cd a6 6d 85 97 bf
       -0.029788807403698513 -0.022969926172177954
000260 2d 56 26 7b c1 48 a1 bf 78 7e 24 bd ff 63 74 3f
       -0.03375820759098889 0.0049781789587367495
000270 e4 9d 77 d3 43 c5 9a bf 13 67 67 d5 08 ad a3 bf
       -0.026143131048142268 -0.038429523515970974
000280 17 f8 c0 57 3e ef 7b bf 26 c2 98 22 f7 34 df 3f
       -0.006819957281605247 0.4876077497347374
000290 d7 30 dd 5d 15 92 cd 3f 76 5c eb 28 46 68 c6 3f
       0.23102061351017397 0.17505719182983953
0002a0 83 c4 63 74 01 41 dc 3f ee a9 67 0a e7 35 da 3f
       0.44146763197120026 0.40953994766337487
0002b0 1c 6e bb 71 f3 4e b1 bf 03 5f 81 f9 33 91 be 3f
       -0.06761094595588485 0.11940312234343868
0002c0 26 1a 18 58 cf c7 da 3f 97 65 2b a7 f1 da c6 3f
       0.4184454307836937 0.1785566393144051
0002d0 28 6f b9 3d 0d aa b3 bf a8 96 f2 b2 a6 4a c0 bf
       -0.07681353337232777 -0.12727817285229048
0002e0 96 ec 4c 5a 9f 79 e0 3f 0c 06 12 2c 72 a4 dd 3f
       0.5148464931184147 0.4631619863867804
0002f0 4b cc 25 43 cd 33 90 3f 0b 47 25 ca 2d b4 d1 3f
       0.01582260820709917 0.27662224522383444
000300 b2 3e f6 fa 74 ae 98 bf b3 4c e2 ca bd c7 b4 3f
       -0.024103000466822073 0.08117281153890836
000310 70 e2 c7 cd ff 74 c8 bf f3 82 ad ae 78 d2 b6 bf
       -0.19107053325548717 -0.08914903893083785
000320 4c 0b b5 0f 14 fe a8 bf 47 2a 37 0c ac fd d2 bf
       -0.04881346408594442 -0.296732913903416
000330 82 ae 57 98 16 df 79 bf 17 2d 98 0f a6 89 d2 3f
       -0.006316269170820401 0.289651408413833
000340 df 78 24 69 3e 75 b6 bf ca 0b c9 b1 a1 cc c0 bf
       -0.08772649828867739 -0.13124486142086617
000350 47 7b a2 45 c8 9f b6 3f 01 ee 48 b3 cc 2e c8 3f
       0.0883755846029831 0.18892821077484714
000360 94 25 b4 0b bd 52 d2 3f 15 ea a7 8a cb 4b a3 bf
       0.2862999548238687 -0.037687645602961485
000370 59 2b d7 df 41 2f b7 bf 8d 44 ca d2 f2 d1 d4 3f
       -0.0905648395047768 0.32531424126597913
000380 63 54 27 b5 e0 50 b8 3f 71 fb 2c 0c de ec d6 3f
       0.09498409674354628 0.3582072371390757
000390 16 df 25 ac c2 f8 d0 3f 14 f4 f9 f2 fe 24 dd 3f
       0.265183132279604 0.45538305023348014
0003a0 72 f6 e1 a5 cd 46 b8 3f 17 ee 3a 11 48 b3 bf bf
       0.09483037280912202 -0.12382936878832883
0003b0 4d b9 b5 38 e9 67 b5 3f 90 88 bd 68 8c 16 7a bf
       0.08361680635946307 -0.006369160149775635
0003c0 b4 b5 48 71 95 c1 c2 3f dd d5 a2 3c b7 76 d4 3f
       0.14653270751425185 0.3197458355092218
0003d0 24 99 d5 a7 44 ef d6 3f eb 50 73 c4 bf ce d9 3f
       0.3583537711150646 0.4032439630948505
0003e0 c0 de 0e cb c4 69 b0 3f e6 02 64 d2 ab fc c1 3f
       0.06411390264008343 0.14052341244680305
0003f0 3f 5b 05 7f 90 0a e2 3f eb f1 dc bc 27 8c e0 3f
       0.5637896042706884 0.5171087921840444
000400 81 9a 6c de a6 35 c2 3f de 5a e2 08 09 75 e1 3f
       0.14226232395704488 0.545536534645034
000410 c2 75 bc 71 5c 53 dd 3f 5c 12 58 1c 93 55 dc 3f
       0.45821295840309173 0.44272306220981306
000420 16 3f 88 b1 35 cf d2 3f 29 5b 18 b3 e7 c9 c8 3f
       0.2938970788681997 0.19366165394668514
000430 e8 d1 d4 57 0a da 8c 3f 56 9a ec c2 72 ee a7 bf
       0.01408775406398717 -0.04674109105535666
000440 eb 50 fe 8a d1 39 c1 3f 4f 66 c5 98 5e 6b d3 3f
       0.13457698141849703 0.3034283153443526
000450 95 b8 c3 ef 0a 52 dd 3f 18 a2 e6 61 10 bf e2 3f
       0.4581324902964153 0.585823241436688
000460 2a 8a bf 38 ef 4d e0 3f 9b 8f 79 2e 8a 18 dd 3f
       0.5095134838450737 0.45462278879699064
000470 49 d7 b1 11 2a 54 d1 3f 71 07 10 b4 7e b9 c2 3f
       0.27076198318478767 0.14628585617179682
000480 b7 af dd 13 12 37 c9 3f e7 4a 2b 73 c2 cf ac 3f
       0.19699312181489656 0.05627257972596116
000490 23 51 75 2b 2b 9a d3 3f c2 05 aa 07 ad 74 b0 bf
       0.3062847065350686 -0.0642803329192452
0004a0 bf 28 9d 13 c9 42 9d 3f d7 05 43 17 46 1a bf 3f
       0.028575078794610628 0.12149465625682097
0004b0 d1 6f 9e 85 61 4f c5 bf 92 0d f9 c5 f4 fe d6 3f
       -0.16648501419410747 0.35931128819739755
0004c0 c3 31 91 1d 89 35 cc bf 09 2f 53 7d 50 38 c8 3f
       -0.22038377708157783 0.1892185794771353
0004d0 54 ac 7f f6 91 a6 cf 3f ce a3 2e c4 8f e2 d1 3f
       0.24727081810064766 0.279453221878211
0004e0 2c c9 14 bf 6c 1c c4 3f d9 bc f1 a9 36 46 d6 bf
       0.15711745576988656 -0.3480354938137232
0004f0 33 86 36 96 93 e0 cb bf f5 38 9c 9d 5b c3 a8 bf
       -0.21779103121393603 -0.04836546229317832
000500 b4 2a 65 5f e5 47 7e 3f 65 03 56 31 6a 74 8b bf
       0.0073927841061258055 -0.013405637388815792
000510 79 2a ee 42 ba 57 ce 3f f6 95 12 9e b3 68 90 3f
       0.23705223339159767 0.01602440502451504
000520 98 62 5c 6e c3 81 e2 3f a8 be e1 9b 47 d0 d7 3f
       0.5783402591215063 0.3720873853953699
000530 19 38 a2 10 5c 3b d9 3f 17 45 25 d3 72 d8 dc 3f
       0.3942480242193383 0.45071097011266786
000540 c4 0f c6 fa 1c 6b e0 3f 92 e3 f6 79 9f 8b bc 3f
       0.5130753419803047 0.11150547721525886
000550 48 69 e4 3c b6 ed cc 3f d5 bc b4 8a 66 8e e1 3f
       0.22600439046147813 0.5486328801252066
000560 56 4a 15 ba e4 32 e3 3f da db f1 7d cc f9 e1 3f
       0.5999625811039759 0.5617430171831714
000570 04 ce 14 8d 3c da cb 3f 3d e1 98 54 0d 7d d5 3f
       0.21759755028470817 0.3357575727600482
000580 2c 26 bb 2d c1 bf aa bf 26 d7 ed 22 23 bb b0 3f
       -0.05224422152748462 0.06535548784981113
000590 05 13 71 cb 3c 12 a0 bf 2c fe 01 63 c7 04 e1 3f
       -0.03138914092463633 0.5318333562608522
0005a0 1f c0 9b f8 bf 89 d0 3f 9d 8a 0b 2f 82 18 e2 3f
       0.2584075858894738 0.5654917639588636
0005b0 6e 73 ed b4 26 22 a1 3f 5d 08 f3 9a 96 8a ba 3f
       0.03346367796505133 0.10367718966429736
0005c0 7c d7 a3 40 88 b0 ba 3f 5a 15 09 2c eb 95 d4 3f
       0.10425616815686384 0.3216503076585774
0005d0 b0 ff a6 5c f2 bf d8 3f 67 08 6b 08 86 79 b1 bf
       0.38671549842910746 -0.06826055245895334
0005e0 97 b8 0c 66 bc 3e d2 3f 5e b6 a7 d3 63 a8 cf 3f
       0.28507909742155263 0.24732635340426418
0005f0 b4 51 4a 5c da e0 dc 3f e2 62 e9 76 13 ac dc 3f
       0.4512239362022925 0.448002687573121
000600 25 bb a0 6c ce 94 d1 3f 7f 30 e5 a7 59 8b e2 3f
       0.2747074185198691 0.5795105246738926
000610 26 f9 17 4b c9 c7 9f bf 7a eb 61 0b 22 3b bd bf
       -0.03103556176028479 -0.11418354776280451
000620 4e 5b f9 2e 01 fd d1 3f d9 a6 55 c8 41 78 af bf
       0.2810671766978218 -0.06146436281671947
000630 89 41 dd cf 9f d7 df 3f 60 60 18 7d c9 60 b4 3f
       0.4975356607365247 0.07960185340960058
000640 2f 25 6b 1d 4c 21 bc 3f 13 47 81 ce ca 6a df 3f
       0.10988307684160213 0.4908930794382382
000650 3c 9c b9 dc a2 51 db 3f 34 f6 24 40 ab 1b e1 3f
       0.42685767703227717 0.5346275570697743
000660 b1 ff 99 f0 b5 21 cd 3f 7a 56 27 ec b8 36 af bf
       0.22759126899836482 -0.06096437342391155
000670 22 81 98 80 19 6f b2 bf 77 3a 6a 0d 01 ce e1 3f
       -0.07200774564308124 0.5563969861994583
000680 26 33 22 68 6d b7 95 be ee b9 e1 89 55 46 aa be
       -3.2360126323779866e-07 -7.830483530599667e-07
000690 c6 34 c8 b2 73 c7 88 be df 3e 50 a5 4a 38 80 bf
       -1.8461874996858152e-07 -0.007919867677656565
0006a0 de da 37 84 1e b2 83 bf d7 d1 27 10 f2 67 16 be
       -0.009617079172114126 -1.304203023895312e-09
0006b0 68 52 fe 34 24 82 82 bf f8 ac 3e e1 08 93 83 bd
       -0.00903728758547935 -2.2253464346647875e-12
0006c0 79 57 36 08 f9 97 85 bf 74 65 ee ef a5 48 7f bf
       -0.0105437713271319 -0.007637642090139497
0006d0 60 f8 76 90 91 05 b6 3e 3b 99 a1 71 9c 47 ca be
       1.3125987282504333e-06 -3.1327880494646675e-06
0006e0 29 c8 45 18 3a 2d a3 be 73 be 1b 04 ac 7e 8f bf
       -5.715092333115476e-07 -0.015378326297166489
0006f0 04 0d 4a 3c 39 21 7e bf 2a 4f 09 bd da 9d b8 be
       -0.007355903221312635 -1.467264827100096e-06
000700 b6 e5 26 56 1e 84 bd 3f a0 ea a3 5d 6c a7 94 bf
       0.11529721835440551 -0.020169919219351073
000710 d1 8e 11 f2 78 b6 bc 3f 5e 54 d3 57 f4 ee bb bf
       0.1121593085277326 -0.10911490577866931
000720 43 41 dc 99 c8 85 ca 3f 93 b6 7d cf 99 48 dc 3f
       0.2072077513953535 0.44193120253371737
000730 fd 3f 56 88 d3 7b da 3f a4 1e 4c b4 d1 89 a8 3f
       0.4138077575125861 0.047926476725533435
000740 91 75 6d cc a2 c0 d2 3f f3 17 37 e5 81 f5 d9 3f
       0.2930075641978301 0.40560958275125286
000750 51 0a 19 ab 02 e4 c7 3f ab 6f 9b c3 41 80 c9 3f
       0.18664582590470727 0.19922658969050863
000760 7b 00 55 75 98 1f d8 3f 2d e8 e6 b2 4b 8f c6 3f
       0.3769284387417497 0.17624803767631772
000770 85 71 b8 b0 11 9e d4 3f c0 6d 87 5e 0f 28 95 3f
       0.32214777238711917 0.020660629410355957
000780 5e 66 cb 71 2e 5d 96 bf 54 bd c6 92 d4 cd 9c 3f
       -0.0218398339228315 0.02812893052913286
000790 71 67 de 8a dd af a9 3f 61 d1 4d fb 6d de 8d 3f
       0.050169871522668504 0.014584407073677754
0007a0 18 77 58 86 b9 29 bc 3f 6a b8 5d 47 06 1f c2 3f
       0.11001166849061084 0.14157179341004006
0007b0 7f dd 79 94 84 63 bd bf e5 8c 96 fe 5d bb c3 bf
       -0.11479977250006888 -0.15415549212511973
0007c0 76 99 c2 34 90 9f ab bf 72 08 8e fb e2 1c b5 3f
       -0.0539517464069829 0.08247202531313905
0007d0 d0 3e 8f 28 d6 54 c9 bf 56 30 ce 3a 70 c9 c2 bf
       -0.19790150623747715 -0.14677241202696462
0007e0 a3 14 85 de 81 ad b1 bf df 27 ff cd dc c0 c4 bf
       -0.06905376131642753 -0.16213569696839067
0007f0 32 53 88 d7 4f 16 b2 bf 7a b9 e7 15 83 35 bf 3f
       -0.07065295230888749 0.12191027912897381

lin1.weight f8 [16, 32]
000000 8a 9a 37 dc ae a9 68 ba 45 31 d1 9e 55 94 99 bf
       -2.4903088621624552e-27 -0.02497991353838926
000010 4c 14 cf 34 03 c9 b4 bf 3c cc 14 23 dc 84 65 3a
       -0.08119220771102781 2.17286210778642e-27
000020 7f af 8b 25 1f 09 88 ba a8 cc bf 21 40 0c bb bf
       -9.707914255778818e-27 -0.10565567802386744
000030 ef f3 37 48 75 15 b6 bf 97 e5 a1 c6 ff 79 9e 3f
       -0.0862649251284464 0.029762264727172996
000040 60 1d f7 06 58 c6 a7 3f 17 49 74 ca 85 37 7f 3f
       0.046435118532424324 0.007621309872108981
000050 dc b1 f3 e6 7e 21 ad 3f 69 00 97 7b 09 f7 90 bf
       0.05689617699849567 -0.0165673715289362
000060 e5 59 41 6c dc 7d 9a bf 50 14 16 a3 ce c4 3d ba
       -0.02587074671495228 -3.757348029608173e-28
000070 03 65 0a db 68 4f a9 bf 0c b3 ed 81 eb 6d a2 3f
       -0.04943397210917946 0.03599487267533705
000080 f1 1d 86 f8 d6 93 71 bf 7d 37 28 98 e8 15 b1 bf
       -0.004291381578134233 -0.06674054827473515
000090 02 dc 3f 77 c2 73 c4 bf 2e 2a cc a3 7e 5c 45 ba
       -0.15978270361640062 -5.392352086082741e-28
0000a0 18 79 41 07 10 f9 ab bf 12 67 20 02 1a 87 54 ba
       -0.05463457192012039 -1.036386050304948e-27
0000b0 f1 25 dd 33 55 09 94 bf f6 52 ad 93 0c bb 9c 3f
       -0.01956685189296609 0.028057285798541685
0000c0 ed b9 4a 07 75 3f 91 bf 06 27 22 28 ac 3c 53 bf
       -0.01684363228803847 -0.0011741334169834152
0000d0 e8 f1 1a 77 77 7c a6 bf 3e 79 b7 46 bb 28 ca bf
       -0.043918355263915576 -0.20436802819217265
0000e0 70 35 23 6f 04 e8 8a ba 3b a4 00 95 a8 44 75 ba
       -1.0867375157766759e-26 -4.295078251544665e-27
0000f0 db f7 3e 26 db f9 74 bf 83 a1 30 de 1c c3 ba bf
       -0.005121093799912625 -0.10453968452987365
000100 94 04 41 53 44 59 d3 3f 99 86 3a 5d 85 5c e7 3f
       0.3023234189059363 0.7300440617438709
000110 38 f8 cf d0 8a 87 d4 3f 93 58 8c 57 ee d0 df 3f
       0.32077284232935055 0.4971271376574659
000120 c4 d8 86 6c 9f 24 63 bf b5 de c3 1e ca fc dd 3f
       -0.0023367990254100374 0.4685540485802265
000130 ef e3 f4 f6 bc 6b d3 3f 28 51 a7 7a 81 a4 e0 3f
       0.3034508144078804 0.5200812717035079
000140 84 32 2a 7c 7b 30 de 3f 02 56 75 23 b2 e1 d0 3f
       0.4717091286227417 0.26377538168648595
000150 04 e8 13 3c 01 49 da 3f 43 78 8b c7 07 13 cb 3f
       0.4107058607766023 0.21151826136969207
000160 e5 45 9c 89 a1 6b d7 3f 4c a8 fc 30 3b eb 87 ba
       0.36594427526969603 -9.660755440227766e-27
000170 cd d4 94 c2 96 be dc 3f 89 7c 54 56 3a 69 06 bf
       0.44913262369238965 -4.2745678721306064e-05
000180 ad d5 98 12 0f 81 d9 3f 17 18 91 79 71 e3 d8 3f
       0.39850212875475216 0.38888203498606927
000190 f3 b8 9e 38 26 3d d4 3f 9e 56 dd a5 ab 80 91 3f
       0.316232257168749 0.017092401503154712
0001a0 08 77 12 ce 5f 2c e1 3f 63 85 af 70 69 68 e0 3d
       0.5366667771192803 1.1938288581905693e-10
0001b0 9a 3c 2a af b3 d8 ce 3f 34 0b 7d 53 3c e1 d5 3f
       0.24098821690538302 0.34187229302567634
0001c0 76 98 6d ed 1e 59 c8 3f 99 d4 12 f7 9f 22 de 3f
       0.19021975129288976 0.4708633339717579
0001d0 ec f1 f4 c5 3e 30 d2 3a 50 24 16 cf 06 19 c5 3f
       2.350803078257931e-25 0.16482625114102456
0001e0 30 b0 97 37 cf 88 06 40 e1 b9 9d b1 96 d2 e3 bd
       2.8168014853636336 -1.442284840239515e-10
0001f0 fd 34 33 7a 3d 20 e0 3f af d0 d0 e8 7d 03 ae 3f
       0.5039355646819385 0.05862039057720502
000200 4c e6 4d 62 85 87 51 3a bf ba 11 2e 30 f1 71 bf
       8.850074757284395e-28 -0.004380405619584137
000210 0d e3 85 e1 52 06 be bf 75 9d e5 74 a8 d5 76 bf
       -0.11728399282391085 -0.005574853929238945
000220 f8 77 f5 90 8d 8c 4d ba 4f 12 a6 1b 5e 63 aa 3f
       -7.4592251522075205e-28 0.051539364695632466
000230 22 f4 30 5c 67 35 83 bf 7c a9 e7 f3 3b 18 6f bf
       -0.009379203320458333 -0.0037957354500026113
000240 0c 6e 1e 25 ca a8 b9 bf 9f af 6d 68 e7 5a c0 bf
       -0.10023177534315425 -0.12777416800542782
000250 78 1d f8 d2 90 b9 bf bf e4 49 16 74 22 4a ae 3f
       -0.1239252581655047 0.05915935198858671
000260 e8 2b b9 44 2a cd 76 bf 76 21 41 cd 6c d6 51 3a
       -0.005566754447111834 9.005685411484256e-28
000270 5f e7 0a 5a ff 95 99 3f ce f5 75 b0 f6 c0 91 3f
       0.024986257429851274 0.017337660332023046
000280 42 a5 02 ec 64 c4 33 bf d7 50 24 dc fe 6e 70 bf
       -0.0003016230002779904 -0.00401210360202616
000290 7f 42 5b f3 1d b7 a9 3f b4 44 35 70 7d b9 73 3f
       0.05022519679699133 0.004815568917664926
0002a0 93 a5 c7 f7 47 c1 9e 3f 03 f9 3f d2 3d 85 88 3a
       0.030034183977397055 9.903740807251795e-27
0002b0 ef c4 27 ba 9f 74 9e bf 13 64 29 bc 38 6d a4 bf
       -0.029741760003109737 -0.03989579483886287
0002c0 17 37 f3 4b 15 c1 84 3f f7 7a 78 d4 fd d5 d3 be
       0.010133901958762999 -4.72924813935018e-06
0002d0 c2 fc d9 02 81 5d 90 be b4 01 01 90 ce be b8 bf
       -2.438612253032995e-07 -0.09666148200722696
0002e0 26 ab 9e 25 22 0a 83 3a 3d f8 39 85 dd 97 74 3a
       7.69002655093609e-27 4.158768443903276e-27
0002f0 5d 89 84 1f a2 88 9a bf ea 49 54 2e 78 90 b3 bf
       -0.02591183965081122 -0.0764231789692428
000300 a0 3c 23 1a c3 7f 03 bf 31 19 83 74 37 b5 52 bf
       -3.719152597769196e-05 -0.0011418382219275487
000310 e2 89 f1 69 1d 08 93 bf 78 04 d7 2e 62 3b 9a bf
       -0.018585643378523538 -0.025617155178910583
000320 3f 2d 4a 20 5e c9 63 ba 8d aa b3 00 a5 75 8c bf
       -1.9979352667409116e-27 -0.013896264156263239
000330 8e 92 7e 57 21 1b 54 bf 53 ea 9a 2d c7 a8 a3 bf
       -0.0012271714785835638 -0.03839704925254197
000340 3e fd 95 88 da 12 a4 bf 0c 06 5c 40 0c f6 81 bf
       -0.03920634190853399 -0.008770080293746062
000350 f4 4a 0c 06 af c5 a0 bf 29 0e 68 ad 60 c5 98 bf
       -0.03275820683315614 -0.02419043596638751
000360 1c 74 97 e1 10 28 a4 bf d8 36 3a e5 e4 ea 72 ba
       -0.039368178880728716 -3.8203698415483046e-27
000370 56 69 86 93 ca 81 98 bf 59 2f 90 a8 7a 46 91 3a
       -0.023932614568914566 1.3954883573673776e-26
000380 15 37 84 58 ac f4 93 bf 21 f0 26 d5 c4 ba 96 bf
       -0.01948804178487425 -0.022196841726085496
000390 d6 43 07 be 3d a5 a3 bf fa 15 83 da 09 bc 76 ba
       -0.03837006516153678 -4.591200832020664e-27
0003a0 67 85 02 46 e1 9b 58 bf 81 62 35 be b8 dc 82 ba
       -0.0015020084320343742 -7.618379467469244e-27
0003b0 9d 52 ee 8a 22 16 a1 bf 35 46 56 79 55 f5 94 bf
       -0.033372001132339714 -0.020467124491523065
0003c0 77 46 f7 9b ae 22 a0 bf 76 6c a5 6b c5 83 8b bf
       -0.03151460317498061 -0.013434927318192385
0003d0 32 38 da 35 ed cd 69 3a 3b 77 59 61 57 e8 a2 bf
       2.6055786199223104e-27 -0.03692887366626826
0003e0 aa d4 af f3 7a 43 8a 3a f0 c5 18 a1 89 d9 81 3a
       1.0607781481199261e-26 7.209459157860898e-27
0003f0 e2 94 c1 ea 8b ac 92 bf 68 5c 67 4f 2e 33 92 3a
       -0.018236337855701452 1.470178264662608e-26
000400 fe ae 09 8f 6a 53 72 3a 26 fe a9 94 9e 47 71 3a
       3.700874865865541e-27 3.4896204483606964e-27
000410 14 a8 f9 c5 21 be 82 bf 78 51 c8 1d 36 1b 50 bd
       -0.009151710371231338 -2.288842111366918e-13
000420 12 90 eb 79 33 31 53 3a 44 b8 02 8c cb 52 3f bf
       9.689580626987305e-28 -0.00047795743376866464
000430 c5 c6 f3 67 72 29 a1 be 0c eb fd 58 32 f6 74 bf
       -5.11464534640019e-07 -0.0051176039413529766
000440 42 7b fe dc 2c 00 89 bf ee 04 99 ea 2c d2 3e bf
       -0.01220736550732016 -0.0004702911051915466
000450 c4 df 5a 86 50 06 80 bf bd c5 68 d5 84 2e 38 bf
       -0.007824544048489097 -0.00036898367889922815
000460 61 c4 eb 51 8f 83 6d bf 13 bd d9 87 ae 5b 89 3a
       -0.0036027716845344203 1.0242067899855028e-26
000470 8e f5 82 5a 7d ce b4 be 98 cd d3 93 d8 4e 79 3a
       -1.2401700164998863e-06 5.110908324817565e-27
000480 4e 9b 9a 05 c4 53 69 bf c9 65 e8 d0 bf 90 7a bf
       -0.0030917004158540822 -0.006485699922018148
000490 5d 85 c9 fb b6 3d 8a bf 8f 38 9a 21 a3 aa 60 ba
       -0.012813024100241927 -1.6828916543384085e-27
0004a0 16 3e 4f b0 fe c5 6d 3c f2 07 f1 73 70 c7 81 3a
       1.2912161570549573e-17 7.180905003804463e-27
0004b0 76 ca ea 08 05 db 99 bf dd 55 fa 5a 5c a9 74 bf
       -0.025249556226024393 -0.0050443275100824055
0004c0 e8 09 33 e6 c0 77 33 bf 23 20 76 48 da 65 56 3f
       -0.0002970548577644603 0.001367057005923663
0004d0 7c d2 79 79 7b 74 30 ba 8c b6 53 8c a8 7f 93 bf
       -2.0769141362603313e-28 -0.01904166561592162
0004e0 48 c0 e8 e2 17 ed 90 ba 9c b7 04 31 fc fd 5a ba
       -1.3672831631458192e-26 -1.362754279790849e-27
0004f0 e1 fd 68 80 0a 28 5b 3c dd 45 17 f5 cc db 7f 3a
       5.88860779619835e-18 6.433792255785713e-27
000500 77 f4 6f 51 b0 67 71 ba 28 5e a3 94 a5 3c 86 bf
       -3.5149186548980774e-27 -0.010857862089706918
000510 ba 75 62 fd 60 ba ba bf 0b d6 67 e1 7d 4a 85 bf
       -0.10440641580722501 -0.010395987931569392
000520 42 ab c1 cf ee 1e 7d 3a d8 7c 1d 4d ff 2b a7 bf
       5.880905082418382e-27 -0.04525754753444183
000530 95 f1 d6 0c e8 c6 7a 3a f6 ea 70 b9 51 d8 96 bf
       5.4075677041315205e-27 -0.02230956739752351
000540 8c 2d 86 69 3e 6b a0 bf fa 8a 67 7e d1 32 61 3a
       -0.03206820524345763 1.7366056286473455e-27
000550 16 37 e1 fc 0e 8d bb bf da 73 cd 5a e3 33 a7 3f
       -0.10762113260099357 0.04531774981908372
000560 bf fa 1d e4 9c ae 6f ba 72 77 a0 cc 09 81 77 3a
       -3.199072699658162e-27 4.746606263211809e-27
000570 17 92 98 fb 2f 78 9e 3f 20 f0 9f ea e8 73 2b 3a
       0.029755353671264553 1.732513534492562e-28
000580 ac 60 0c e8 29 4d 8b ba 3e e2 59 4d d7 c2 50 bf
       -1.1026956001548832e-26 -0.0010230162201009386
000590 51 e8 92 24 c0 e9 a3 3f a0 fe 61 6e 0c 6f 3f 3a
       0.03889275022943706 3.967501256783085e-28
0005a0 28 c8 92 15 54 cc 62 3a f7 6f 41 4e 2e 2b 93 ba
       1.8981288902939948e-27 -1.548433260932444e-26
0005b0 55 c0 d1 80 ed f4 8b 3a 5e 5e 52 b9 72 b8 83 ba
       1.1291641002005772e-26 -7.965046739813952e-27
0005c0 fa 5c c7 8d 55 93 96 3f 1a d5 53 b5 73 d8 81 ba
       0.022046410349358482 -7.207746337618761e-27
0005d0 72 80 29 18 a2 00 76 ba 58 97 5f 1b 6d 08 a1 bf
       -4.443364110087218e-27 -0.03326741179607379
0005e0 a7 58 9c 9a e9 01 87 ba 1d 39 ce e0 64 24 5b 3a
       -9.29264343717749e-27 1.3703291060662944e-27
0005f0 35 64 04 f1 88 41 9a bf 2b 3f 4a aa ec aa 86 ba
       -0.025640620909232765 -9.155400506061885e-27
000600 a3 01 c4 65 69 cb d4 3f f9 f8 21 77 58 b5 e0 3f
       0.3249152654462028 0.5221369101343775
000610 af a1 bf cd 37 44 dc 3f fe f0 76 71 f9 c0 d0 3f
       0.44166369526513 0.2617782218983534
000620 8a 96 14 df 8a 2c 76 bf 66 63 6b ec 4a 99 cb 3f
       -0.0054135727562304534 0.2156156210319537
000630 3c 5f b6 d6 57 64 cf 3f bd 1e 08 ba fe 50 e1 3f
       0.24524972900393915 0.5411370881492626
000640 8d ad a4 8f 14 c6 e0 3f 5c 5f ca bc f3 da d6 3f
       0.5241797261746101 0.35711377560209256
000650 e2 e0 e4 65 71 4e dc 3f ff 6c 7e 65 c5 e7 dc 3f
       0.44228777838317346 0.4516461840773473
000660 0c 4c 46 e9 27 21 e1 3f 1d 4d cd 7f fc bf 23 bb
       0.5352973514694681 -8.168386455973688e-24
000670 d3 ca d8 11 7f fa d9 3f 5e d0 fa 78 64 a3 c4 3f
       0.4059140848432154 0.16123634249891244
000680 99 81 d3 4e a6 ee dc 3f e4 f0 c8 4c b4 18 d7 3f
       0.4520660180842469 0.360882830605773
000690 31 86 80 fb 28 97 d7 3f e2 b6 91 c2 12 94 8e bf
       0.36860107956644855 -0.014930864870815911
0006a0 91 2e 9d 26 87 c0 cf 3f 84 40 d9 db 45 78 d4 3d
       0.24806298623513048 7.446875664916822e-11
0006b0 45 a3 f8 23 a9 e2 cf 3f 45 d5 cd 66 ac 07 db 3f
       0.2491046357765986 0.4223433498330745
0006c0 ce 2f b4 1c 4b ae ca 3f a8 c8 6a 0f 69 e1 dc 3f
       0.20844401265674012 0.45125795846537153
0006d0 55 89 35 a5 c3 cd 52 bf b6 7b 96 ac 77 18 d9 3f
       -0.0011476908301451723 0.3921183762958508
0006e0 5b ec 1c 74 05 ba 05 40 73 46 ca dd df 97 71 3e
       2.715830714352291 6.553999960304534e-08
0006f0 d2 fd bc 88 46 70 e1 3f 6d 07 a3 2a 45 a0 90 bf
       0.5449555082959086 -0.01623638222441264
000700 e0 96 b7 d9 20 a6 d1 3f 0a 9d 90 01 b0 ae e5 3f
       0.2757646680969241 0.6775741606296901
000710 8a f5 13 47 00 7c db 3f ae c6 0e 3f 9b ba e0 3f
       0.4294434255715137 0.5227791053386761
000720 92 72 39 38 ec 29 51 bf a9 f1 4e 16 14 ee d8 3f
       -0.0010475928146639652 0.3895311563353752
000730 a1 5f bd 64 90 cd dd 3f 11 28 24 9c ee 47 d1 3f
       0.46567163312783505 0.2700153851334344
000740 ab 8f d8 8e 9e f1 df 3f c3 04 31 40 26 f6 d8 3f
       0.4991222758273987 0.39002376812647926
000750 56 52 e4 4e 0d 35 da 3f ae 37 79 4d 91 08 d4 3f
       0.4094880361965684 0.31302292409679466
000760 f4 87 18 80 da 00 d7 3f fe d5 af 16 3a 94 d9 ba
       0.3594270945487772 -3.30600973233226e-25
000770 aa 9d 87 5c 74 13 df 3f 5c 72 bc 17 3c a0 c6 3f
       0.4855624106989703 0.17676497611036524
000780 1f 01 a9 68 e4 61 ca 3f d7 1f 7a 54 a0 1d df 3f
       0.20611243353233363 0.4861832451792884
000790 51 5e 43 9e 69 35 d5 3f ab 9e 88 83 f4 8d a2 3f
       0.33138504462610735 0.0362392817081035
0007a0 55 7b db b4 98 2b d5 3f da 0d d1 89 af bb cc 3d
       0.3307859197793069 5.2265290382995725e-11
0007b0 f0 d4 1f dc d3 61 df 3f f5 31 8e 57 c4 bd e1 3f
       0.4903459214832102 0.5544149122302416
0007c0 81 7f 72 03 41 4a e0 3f 66 fe 74 df 2d 14 d0 3f
       0.5090642039613017 0.25123164007161447
0007d0 2c 98 4e 70 89 c3 9c 3f 42 47 88 48 0a bd db 3f
       0.028089663963008757 0.43341309626804414
0007e0 1d 27 20 8b eb 09 06 40 46 cf af 4e 58 c8 e3 3d
       2.754843794745183 1.4393734064312353e-10
0007f0 fb f1 5c 82 ad 35 c9 3f cb 5d 07 48 9e a6 9c bf
       0.19695061555275103 -0.027979348322188884

lin1.bias f8 [16]
000000 c4 4e d9 18 94 39 8b bf ca 44 a9 9e c8 c0 e8 3f
       -0.013293416031195611 0.7735331629611661
000010 15 2a 67 5d 98 4c a1 3f 7b 90 df aa d3 e9 95 bf
       0.03378749981091659 -0.021399791054037536
000020 29 cb f0 01 52 8e 85 bf 91 d6 85 d0 8f fb a1 bf
       -0.010525360759947215 -0.035122389034694675
000030 d6 72 c1 57 30 20 e8 3f b0 59 87 61 f1 ec e3 3f
       0.7539293016412454 0.6226736931665098
000040 b2 f1 e7 08 da 94 ab bf ee 85 e2 69 7d 23 a7 3f
       -0.05387002333370407 0.04519264142551181
000050 72 a6 e8 ab 40 9c 3e bf 91 d3 28 78 81 80 eb 3f
       -0.00046707705397128825 0.8594367358078775
000060 6b f4 ca 35 19 69 b6 bf 18 0a 30 f7 0b b8 41 bf
       -0.08754117549229228 -0.0005407389093082275
000070 66 91 70 16 78 49 e4 3f 52 9d bb 04 f1 46 a0 bf
       0.6339683950687174 -0.031791240527861434

lin2.weight f8 [1, 16]
000000 c1 1d f5 3b 7f a1 a4 bf 91 fb ce f2 2b 16 e0 3f
       -0.04029462439444443 0.5027065031389261
000010 90 55 cc e0 5a d8 76 bf e4 53 73 b1 51 e8 a3 3f
       -0.005577425949714679 0.03888182917732033
000020 7e 87 0a 33 3e 36 9f 3f d5 40 74 78 d5 74 81 bf
       0.030480357995322553 -0.008523624170749514
000030 9e 44 b8 8d 0d 7a e4 3f cb f9 0c df 3c 23 e1 3f
       0.6398990409817491 0.5355514866312715
000040 b5 6f 0b 9e 75 ed 0f bf 15 bf 11 a4 58 4d b6 bf
       -6.089701833442101e-05 -0.08711771016691856
000050 0d 0c 53 5f a8 68 a1 3f 11 bc cb 7c 31 e3 de 3f
       0.03400159991863214 0.4826167792043075
000060 c3 6e 5f e3 3d 0e 88 bf b4 6d a0 9c da 6a b1 bf
       -0.011745913983694739 -0.06803671192067534
000070 f6 b9 1d 11 a6 a2 e3 3f 1e 0a 54 cc a7 aa 80 3f
       0.6136045774745174 0.008137999461273412

lin2.bias f8 [1]
000000 f3 d9 a5 df 38 dd d9 3f
       0.4041273292599776
