Q1/models/lastmodel.pth (torch, 14767 bytes, 16 tensors)

batch_norm0.weight f8 [1]
00000000: fd7b acb6 5950 b3bf
-0.07544480047043574

batch_norm0.bias f8 [1]
00000000: 1a9f 5a14 3452 e53f
0.6662845990694877

batch_norm0.running_mean f8 [1]
00000000: c0dc 767a e101 5140
68.02938710792205

batch_norm0.running_var f8 [1]
00000000: 03e9 91a7 0ca5 0340
2.455590542927099

conv1.bias f8 [16]
00000000: cabe 40d4 8d0b cc3d 6494 fa2c 2b85 b6bd
00000010: 987f a3d5 4cb7 9bbd b138 7d7d af5e a53d
00000020: ea63 bc16 a694 acbd 6034 afed c2e5 79bd
00000030: 760c 8c52 f5f3 b1bd 88a4 1d95 dc78 8cbd
00000040: 80b5 4af4 f78d b23d 0ef2 adba e90f c4bd
00000050: e207 2901 c267 b53d e0e0 af71 e605 8e3d
00000060: 8ce5 7a8c 07e0 75bd a66c 2ae1 eec8 903d
00000070: 9828 7c47 bf9b c1bd e8f9 84bb c252 a2bd
5.101379954888614e-11 -2.048199354146771e-11 -6.301892461084555e-12 9.71788961934268e-12 -1.2996979109698074e-11 -1.4721027595312497e-12 -1.6328123886986584e-11 -3.23690481099988e-12
1.6875278317298856e-11 -3.649285677022879e-11 1.9468010599881377e-11 3.413225334470453e-12 -1.2434563350773156e-12 3.8164432709708425e-12 -3.2029470166068925e-11 -8.332464804929091e-12

conv1.lin.weight f8 [16, 1]
00000000: fab2 2dc7 3d24 943f 45ba 6f13 16ba 7d3f
00000010: ac80 c648 2060 823f 6521 502e 7f31 8ebf
00000020: 6026 2391 6a2a 93bf 3852 1ac4 cf9e afbf
00000030: f062 fcc9 7594 843f cb7d 500e f6a3 87bf
00000040: 8791 a479 a61c 71bf 49cb 72d1 a838 8abf
00000050: c55d f82e cf56 f63e 9748 db29 56d1 97bf
00000060: b154 a824 c4b3 7b3f b44f d287 6e89 823f
00000070: c7a6 f091 cf87 783f e79f 0db7 ad75 753f
0.019669499666110625 0.007257543787075498 0.00897240850537203 -0.0147428451546296 -0.018716492756345793 -0.06175851124604431 0.010048790194149032 -0.011543199836579717
-0.0041777136741852966 -0.012803381816728925 2.1304224843003158e-05 -0.0232594931647517 0.006763235267972665 0.009051192779487717 0.005988894291513786 0.005239180159016122

batch_norm1.weight f8 [16]
00000000: 5f2d e1bd b2dc f13f 60ea c167 3ca1 f13f
00000010: 0a6a 97db c2a2 f03f 802c edec 1739 f13f
00000020: 3635 22f0 a57f f33f 7199 bca4 17f5 ee3f
00000030: ca1f 2147 5e99 f23f 99d5 f618 ee64 ed3f
00000040: 9f97 bbaf 6deb f23f f78e 65db 0b1a f33f
00000050: 2701 fcfb 7087 f23f ac2c 786f cbc2 f23f
00000060: 013a 9374 8da6 f13f 46d4 d7a5 7e8c f33f
00000070: 6b8b 856b 642e f33f 28a8 48b3 4a7e f23f
1.1163813988849467 1.1018642476107274 1.039736612109325 1.0764388327541212 1.2186641102046685 0.9674185006631842 1.1624434259883736 0.9185705649930923
1.1824776520311173 1.1938589639839259 1.1580667346134506 1.1725572923922227 1.1031622461047166 1.2218004682774946 1.1988262367310323 1.155832958533674

batch_norm1.bias f8 [16]
00000000: fbc4 4ab7 20d3 dd3f 9b8f 3dac 0e96 de3f
00000010: 95f6 661a b5f9 db3f 10a7 1c3d 590e 8a3f
00000020: 340c d1b2 6364 b53f 8e6b d2d4 4867 d83f
00000030: 915d eada b7ae b13f cd4a 15e2 76a9 d43f
00000040: f7ce 0e5b 0725 b33f 8d35 7ec8 a3aa a53f
00000050: a5eb 3995 5af6 e03f 7221 204e 9388 e03f
00000060: b57d 99b6 db39 df3f 333d 6bab 8052 bd3f
00000070: a762 95cc 97e1 c23f 2e5b f893 7d26 e03f
0.4660112180673221 0.4779087717090477 0.4371159322580323 0.012722680261123581 0.08356307140006508 0.3813039854373351 0.06907223791710339 0.3228432853549464
0.07478376362888271 0.04231750318931935 0.5300724901747925 0.5166718030823587 0.487906387634179 0.11454014000922967 0.14750955094748017 0.5046985521356413

batch_norm1.running_mean f8 [16]
00000000: 6036 b5b5 0575 8c3f 929f 1491 cf29 7a3f
00000010: 6d55 fcb4 cee1 793f e8c7 f0d1 60b9 83bf
00000020: b32e f650 a561 8abf b800 00de e07c a6bf
00000030: 62cc 1eed 21a7 7c3f 48d6 60da a519 7ebf
00000040: b912 1094 fe9b 64bf 84ae 08e2 dded 80bf
00000050: e49e c8e1 89cf 3dbf dab0 743e 558c 90bf
00000060: 5897 ce02 9038 733f d848 9d36 c639 7a3f
00000070: ea95 18dd 0833 703f c48a a016 5a84 6c3f
0.013895077331336825 0.006387530143264446 0.00631886238968114 -0.0096309246128818 -0.012881557019475442 -0.043921496486292566 0.006995327495974287 -0.0073486784586314705
-0.002515790198687942 -0.008266194782741161 -0.0004548751474282421 -0.016160327851296376 0.004692614119368908 0.006402754088258265 0.003954920409829902 0.0034810790575801904

batch_norm1.running_var f8 [16]
00000000: 6cdf 955a ab86 d43e 84f3 3a95 28b9 b23e
00000010: 7f8a a3a2 16a8 b13e abf6 8055 08a3 c33e
00000020: 2452 1fb9 bd82 d13e 4118 be84 5451 093f
00000030: fa21 3972 cfb2 b43e 0078 8a88 4e14 b93e
00000040: dd94 91f8 4cf7 893e 4e5f 7a8f a5fb bc3e
00000050: ff7b 67cb 640a 553e 1dd9 4b92 2571 db3e
00000060: 12ce b9fd cbaa a23e 3dc5 a8f0 19b8 b13e
00000070: efd8 2f3a 92fe 9a3e 6895 7b4c 1ba4 943e
4.89379218870227e-06 1.1159941849935189e-06 1.052415096008133e-06 2.3408944507520165e-06 4.1748779881678945e-06 4.82896726615033e-05 1.2337254212837035e-06 1.4948441579352816e-06
1.9346191163224345e-07 1.727521121630164e-06 1.959558623167078e-08 6.542677770884803e-06 5.563251721088858e-07 1.0561433919749405e-06 4.0224818514902684e-07 3.0757548728632545e-07

conv2.bias f8 [32]
00000000: c638 1f0c 1186 f03f f24d b4fa 3f18 f33f
00000010: 2322 a623 0eec ef3f bba8 36a4 03f4 ef3f
00000020: 2039 12a8 005e a7bf 2790 b65c b577 ee3f
00000030: b425 e9e9 62a1 ee3f 46f4 9330 2343 f03f
00000040: b956 2392 1814 ee3f a9a3 7570 d8b0 ef3f
00000050: 40c0 af91 2862 ef3f b83e 2cee 6712 f03f
00000060: bff7 c53c 7cd7 ef3f 8b84 f668 d61f 89bf
00000070: f3f6 9e36 54af ee3f 4fbd 7ed7 30cf b3bf
00000080: f53c 69a4 d994 f03f 0721 8152 fcba ef3f
00000090: 77a3 d1e2 b244 f03f 3a69 dd90 4ec5 a9bf
000000a0: 1987 a686 d47f ed3f 6303 8371 95eb 71be
000000b0: 913a 6195 b3a0 f03f ca4c 5d23 e423 ef3f
000000c0: 4545 e997 e15b ef3f 80f8 3482 bcd8 ef3f
000000d0: e828 d559 08fc a7bf 671d 1a07 7e62 f03f
000000e0: 73b3 3471 2c58 1540 a6c1 e2eb f8ca ec3d
000000f0: d648 a076 9d07 ef3f 3527 a33c a25f c4bf
1.032731101371199 1.1934203904282836 0.9975653358715743 0.9985368926329764 -0.045639057651998494 0.9521128474048098 0.9572004860466934 1.0163909814430254
0.939953122545112 0.9903375812983671 0.9807322354736314 1.0044936469675303 0.9950543581942312 -0.01226775653668912 0.9589024607482471 -0.077380230532744
1.0363403723056852 0.9915753947653067 1.01677216149457 -0.05033345716829492 0.9218542699711377 -6.675813002660523e-08 1.039233764185756 0.9731312456809971
0.9799659697547801 0.9952070754150242 -0.046844731298351594 1.0240459706709204 5.336107033578503 2.094956343322328e-10 0.9696795765796888 -0.15916851006323332

conv2.lin.weight f8 [32, 16]
00000000: c60a 2daf 56a6 83bf 9899 51ef 4a26 b63f
00000010: 2378 8ede 1767 b13f ece2 b9fc 87ef a93f
00000020: 11a8 ee03 037d cb3f 80cc 11f4 2492 b6bf
00000030: 0b9d 2ce1 cb78 ae3f 1d86 216b 5663 adbf
00000040: e028 f573 b350 c0bf 7852 ed12 4c92 a43f
00000050: 338f 1ef4 eca0 d03f 5808 f9ea 953a 673f
00000060: 3435 c4ae 56cc b43f 7eae 09ea 70d9 83bf
00000070: 371d 368a 1c19 c6bf 9a78 b3bc 6029 b63f
00000080: 6716 94cc b7be a83f da03 baeb 1ba3 d0bf
00000090: f8fd 598f cdb9 c6bf 2a4c 6b6c 62a1 d63f
000000a0: 7de9 ba6d f6a7 df3f f98c bc1e ed1e dbbf
000000b0: 8e73 3b47 6339 cb3f 27c4 d7c1 845b dcbf
000000c0: 7bed 01c8 4a9c ca3f 627a 7a2b 0254 d53f
000000d0: 10c1 bbc2 2dea c8bf b768 62f0 4319 b5bf
000000e0: c9cb 9f3b b91f e0bf cf7e 5d8f 5efb d23f
000000f0: 6576 444d 7538 e13f ee65 0782 79b9 d6bf
00000100: 1f52 63f0 4bff e13f f613 1940 e197 a6bf
00000110: dbe9 4980 ffcc 763f 2c3b 1ced d8fc b93f
00000120: 1477 86a3 42aa 5fbf 999e 708d a554 6dbf
00000130: 06d1 619b 2e65 d13f 0eb3 2439 79ff ae3f
00000140: 7675 558e fa74 d13f b161 d085 40c9 e23f
00000150: c053 f68e d3c6 dd3f b8b6 4579 3ac8 d83f
00000160: e20d 8998 9bd5 dd3f 87ae ac00 389b e03f
00000170: 6ab6 42df 6972 d73f 16b2 b76d b168 e13f
00000180: 833f 32de 3284 c93f e93e 83b1 a1e1 a5bf
00000190: 7197 d7eb a46e 6b3f 7854 e775 71d6 d13f
000001a0: 6c02 e6d4 ce07 d93f 3f38 b68f d1c4 c53f
000001b0: 9579 fc29 81cd 9fbf 27f5 e927 d24b b3bf
000001c0: ca5b 4a78 3037 9e3f 8018 5ac8 167b d83f
000001d0: fdeb e33d 2ea0 c83f dbfa e137 faa2 ce3f
000001e0: 1131 9f8b 51f4 dd3f fbc1 3c6e 464a c73f
000001f0: 8278 f0db b803 c03f b1eb 12ed 424c a53f
00000200: 3cc0 311c 70c2 b0bf 80e3 48ac 381e b0bf
00000210: 59cf 6c3c 1872 b0bf 52f6 6af3 cb43 b7bf
00000220: 875b 804e 577a 9ebf e82e cc19 0f64 b0bf
00000230: 1aa7 2549 7610 b2bf c14f 6b79 4305 aebf
00000240: 4a40 e7a6 2721 b0bf 96f2 6068 390a a8bf
00000250: 26f2 76bb 2f11 b0bf 8bb1 83c9 9cd2 a8bf
00000260: 0ca5 2fe5 5343 b3bf e9da acc8 3716 833f
00000270: a40e 40f3 3241 a6bf 9e73 fec9 b613 b5bf
00000280: e0ff 4eda 032f 71bf 5ec5 ba3b 0486 df3f
00000290: 88e0 1286 fa92 ce3f 79de 57f2 a1bb c63f
000002a0: ee1d 4d72 a870 dc3f c9ac 3485 0ba0 da3f
000002b0: 9f15 2e3f 3db8 b0bf b4ad 9c86 83a5 c03f
000002c0: 031f a408 c4c2 da3f 3d7c 95ae 984b ca3f
000002d0: cab6 0ab1 e18b b2bf 7f9a ffd9 09df bfbf
000002e0: 480c 3d94 fd98 e03f 8ce7 971e c192 dd3f
000002f0: 5b11 543e 2f3f 8abf 75be 61d0 e8e9 d13f
00000300: c85a 91eb a7d1 93bf 877e 6fd8 ef5e b63f
00000310: 5ff3 78dc 8b31 c7bf a752 a2a7 57a7 b6bf
00000320: 526c cc50 18c4 a8bf 0b22 0f1b ce9b d2bf
00000330: d533 90ef bff5 6bbf 497b 20e2 bda1 d33f
00000340: ce0f 63d3 0fc0 b7bf b5d5 9e12 e77b b9bf
00000350: f01a a0d8 aca9 b83f bbae 1937 ea05 c93f
00000360: fcce 9613 33a1 d23f 8995 118c 1b46 a5bf
00000370: 229b fcc0 9768 c0bf b930 11be 2537 d53f
00000380: ce5c 7e8f 4002 b93f 907a 2110 b632 d73f
00000390: e7b8 f659 b177 d13f dcca 7f39 4668 dd3f
000003a0: 4491 7d3d c69e b83f f563 e51a 94ad bebf
000003b0: e01b 7188 a636 b63f 8d68 bbfc e3c9 6c3f
000003c0: 56ec eb4e 7d8d c23f 1bf3 e491 9f44 d63f
000003d0: 81a1 6af2 3849 d73f 0045 ec71 0613 da3f
000003e0: 793c 6b86 1cfe b03f 854b d21e 69a6 c13f
000003f0: 330b 8623 b42f e13f a3a0 9b00 0eab e03f
00000400: f7df 9317 be89 c23f e00a 2595 1697 e13f
00000410: 01be e430 0acb dd3f 35bb a325 058b dc3f
00000420: 416d b122 c8eb d23f aff0 8130 8663 c93f
00000430: 0f58 f024 7d02 913f 869c 0270 3881 a3bf
00000440: 233c 7d0c 340a c13f 2e36 de9b d407 d53f
00000450: e7c8 a15a cda4 dd3f ed28 e123 3ee0 e23f
00000460: 7ca2 c0a5 d765 e03f 68c6 8054 83fd dc3f
00000470: 3093 8c35 545f cf3f 7120 6b27 2507 c33f
00000480: ed7e 20b2 29a6 c93f 2208 be96 709c ae3f
00000490: 26de 8e05 ed2e d43f d5c0 0902 dc2b b0bf
000004a0: d00b 68ea 11fd 9d3f e52c a2ab ad49 c03f
000004b0: 75ec adb7 b513 c5bf 6aee 7054 4dda d73f
000004c0: 1cfb 4fa3 daec ccbf 737c becd 36c2 cc3f
000004d0: ded4 ccfa 9f30 d03f c57b 2bd4 ca26 d23f
000004e0: 5dca 7a73 964f c43f 7fa9 9579 5cb5 d6bf
000004f0: 2deb ac96 3d8d d0bf 77a0 e31b 77b9 a7bf
00000500: 17a8 b352 c9f7 833f 51f2 e999 b874 85bf
00000510: 2708 b715 3c41 cf3f 24ed 6f33 df1b 923f
00000520: 069f ddea 359b e23f 5335 904b 672c d83f
00000530: 9e00 dc19 6e80 d93f 170c ed76 1d8c dd3f
00000540: 9085 0ce3 a46b e03f 1573 3ba2 cf89 c13f
00000550: 98b5 3637 0e8b cd3f 05a6 fabb b4b1 e13f
00000560: 1735 ea29 1850 e33f 9a8e bcd0 6ef1 e13f
00000570: 23c6 a8d7 816f c83f c86c 81dd d0ae d53f
00000580: 4cfb 1cc1 dc4d a9bf a2f9 e36b 5abb b13f
00000590: d717 e92a f6aa 98bf f570 f4d1 0e2a e13f
000005a0: 5569 9f8a a5ab d03f 6b98 cd7c 9456 e23f
000005b0: 4ae3 e240 4e91 a23f 2c5e 070d 305e bd3f
000005c0: 037c 9278 0237 ba3f 640f e27b b25d d63f
000005d0: c79c 062e 6526 d93f 0f63 0480 9b9e b0bf
000005e0: fab8 a929 ef73 d23f 7b47 87a8 ed63 cf3f
000005f0: 971e 4b67 ee29 db3f a28e b498 b0f1 dc3f
00000600: dbb7 a947 4bc3 d13f ff2f 921d 5eaf e23f
00000610: 4fb5 a65d bb6c 99bf f1aa f120 8ff9 bcbf
00000620: 7918 3cf3 ac1a d23f 86b6 73c9 ea75 adbf
00000630: 1044 97ef bd11 e03f 0e8d c53e 06d5 b63f
00000640: 32dc d232 14a8 bb3f 28a6 5a4e 359a e03f
00000650: 9494 16ca 27a6 db3f fb34 cbe8 ea3c e13f
00000660: 6d30 6e8c f96d cd3f d30a aa7c 1b8e b0bf
00000670: c8a0 3499 a6ea b9bf 112c ccff 95e9 e13f
00000680: a962 7cdb c762 e3be 2569 c9bf e773 f8be
00000690: f57a f5a8 567c e0be c059 2e4b aca0 87bf
000006a0: 1813 c4fd a040 8bbf 5115 6bae 6d8b 73be
000006b0: 0a64 2a38 19f2 89bf a55b fd9f a8c9 f33d
000006c0: 784e 099f 712c 8ebf 4d61 870a 7af7 85bf
000006d0: 2d58 42ce f519 003f 4913 0513 3c28 10bf
000006e0: 31bd cc67 cc50 f0be 679b b228 e3b9 95bf
000006f0: d8c2 8295 b4ee 84bf b1bc 712b c052 01bf
00000700: 292e da1c 8d57 be3f 7182 2d2a 5a18 91bf
00000710: d202 8891 16ad be3f d73d 2a0f 75ae bbbf
00000720: cab7 59cd f9be ca3f e6a8 ce19 b3b7 dc3f
00000730: 246a b35b 13c6 da3f c516 9d87 c0fd ad3f
00000740: 445d ab7d 85af d23f d5a3 c5d7 f1bc db3f
00000750: 5104 70f2 8495 c83f 573d 8765 fe03 ca3f
00000760: 2732 376e 3959 d83f 8fb0 782f fd3f c63f
00000770: 1dcc 8714 48e0 d23f 5df5 42d5 5eeb 973f
00000780: a75c cbd6 855c 9abf 2b51 ecc6 5148 a03f
00000790: 00f4 d37b 2e48 ad3f 1ebb d19d 1d2a 993f
000007a0: 1225 66c2 5fc7 c73f baac a4c0 08cc c43f
000007b0: 100d e37d 46c3 c8bf 7154 7fa6 d0ce c6bf
000007c0: 923e 8248 579a b7bf cb6e 6a09 0b4f c23f
000007d0: 2b0f 02ff 6d38 cdbf 6e8f 4d6d b2b0 c5bf
000007e0: 6fda e578 a803 cabf 3d3b f6ff 0e7d d1bf
000007f0: 1cb1 5c97 12c0 bebf df35 5c1f 03e4 c13f
-0.009594609471269232 0.08652180044882696 0.06797932799824528 0.05065560302768354 0.21475255672459118 -0.0881674857972019 0.05951535342892996 -0.05739851053000342
-0.12746279870982047 0.040178658781461374 0.2598221191385505 0.0028355529864550304 0.08124295965918266 -0.009692079679744166 -0.17264134167292308 0.08656887633284996
0.0483300626020025 -0.25995538730790957 -0.1775452566107416 0.3536001261501861 0.49462662425835174 -0.42376258851636767 0.21268883684288337 -0.44308585100140124
0.2078946568106906 0.3332524704546015 -0.19464656837909233 -0.08241676920661943 -0.5038725056205006 0.2965923690844478 0.5381418713693163 -0.35507047365317035
0.5624141402318549 -0.04412750155874072 0.005566595126419628 0.1015143946535601 -0.0019326830643886005 -0.0035804017493495485 0.2718006627467421 0.060542858338839975
0.2727648153284784 0.5870668996386056 0.46526040040162897 0.38722097247123655 0.46616258522064247 0.5189476025747845 0.36635824969093866 0.544029917041885
0.19934688424518407 -0.042737057608631286 0.003348657714684338 0.2787135745432532 0.3911015585982003 0.17006892697503592 -0.03105737513316738 -0.07537568544826866
0.029507405607173166 0.3825127560197714 0.19238832494724525 0.23934867600106355 0.468037020062881 0.18195419676477784 0.12511358966088798 0.041597453536687985
-0.06546688736284606 -0.06296114164514499 -0.0642409465334003 -0.09087824528520486 -0.02976356903681279 -0.06402677898239129 -0.07056369100396545 -0.058633907863309805
-0.06300590348041726 -0.046953004828968734 -0.06276224447987797 -0.04848184547322195 -0.07524608941425387 0.009319721042272149 -0.043466179078703676 -0.0823320620679184
-0.004195227670550111 0.4925547202393171 0.2388604311615874 0.17760109265485705 0.44437609827261226 0.41601837166190286 -0.06531126778107542 0.13005107949116523
0.41813755840165373 0.2054320194683629 -0.07244692394553023 -0.12449704715946018 0.51867560341669 0.4620821760905691 -0.012815827455150133 0.2799016985872876
-0.019354461434285125 0.08738612207479877 -0.18119953408486375 -0.08849094240788223 -0.048371085990048926 -0.2907595886468079 -0.003413081049535619 0.30674693186476937
-0.09277438078703357 -0.0995468540630416 0.09633903778749775 0.19549300852246695 0.29108883774755134 -0.041550503586033356 -0.12819191859417695 0.33149093209500397
0.09769061568509871 0.3624701650168527 0.2729304674675305 0.45948939910083 0.09617270470841272 -0.1198360982574654 0.08677140074824718 0.0035142376781154895
0.14494291642754104 0.34793843505376437 0.3638441436146636 0.4074112045792191 0.06637743264876574 0.13789094929651582 0.5370732015438534 0.5208807002900538
0.14482856894733206 0.5496933854086272 0.4655175664401839 0.4459851138662317 0.2956409777450127 0.1983497368672764 0.016611056689804168 -0.03809524886428854
0.13312388048004306 0.32860293599591983 0.4631837258413171 0.5898733807346425 0.5124319302895652 0.4529732060646894 0.24509670843794984 0.14865555214624096
0.20038338849644025 0.05978729095569714 0.31536412756710985 -0.0631692414260699 0.029285697872193428 0.1272484863332927 -0.16466399639816456 0.3726991009350288
-0.2259782121108963 0.2246769432649419 0.2529678296298935 0.2836176940890563 0.15867882383971024 -0.3548194110250264 -0.2586206408920358 -0.04633686271137177
0.009749958835943357 -0.010476534077718787 0.24417830524731807 0.01768444777915791 0.581446608278356 0.3777101743624673 0.39846375012712965 0.46167694677223053
0.5131401476430018 0.13701816007132864 0.23080613800031524 0.5529426261393274 0.603527147164331 0.5607217862020264 0.1909029295944019 0.33879491454508726
-0.049422167371167974 0.06926503309293833 -0.024089666718530935 0.5363840199165951 0.26047647988675254 0.5730688512383159 0.036264844341934735 0.11471844022832361
0.1024018806806311 0.3494688234134087 0.3929684590788835 -0.06492015719812748 0.2883260638108279 0.24523707131316627 0.4244342812275845 0.45225157654406634
0.2775448036035166 0.5839071824607344 -0.02482884177304828 -0.1131829696111415 0.2828781485881176 -0.05754026135569483 0.5021657638081951 0.08918799431335264
0.10803343048870387 0.518824246440265 0.432016322471392 0.5386862322572193 0.2299186645217363 -0.0646683863979363 -0.10123673668261113 0.5597639080091331
-9.243899384213149e-06 -2.331996437230604e-05 -7.860993064210431e-06 -0.011536928219169407 -0.013306863540955713 -7.280946654881637e-08 -0.012668797518289327 2.879493587925466e-10
-0.014733207384018274 -0.01072593063956675 3.0710996527336415e-05 -6.163469948201635e-05 -1.555978677741688e-05 -0.021216916426648604 -0.010220919430453376 -3.304146724125138e-05
0.11852342562104269 -0.016694458793951875 0.11982861569414219 -0.10813075657119185 0.208953118580608 0.44871213455429737 0.4183395762935638 0.058576599649808915
0.2919629790535121 0.43340726920592704 0.19206296766063471 0.20324687917171033 0.38044582141154354 0.1738277894777451 0.29493906025817457 0.02335880448003046
-0.025743571505554865 0.03180175355206168 0.05719132672854954 0.024574721105120927 0.18577191345347238 0.16247662931832513 -0.19345933100530788 -0.1781864941573619
-0.09219880600198341 0.14303720435861175 -0.22828459693493505 -0.16945486390170167 -0.20323663619247465 -0.27325797077439856 -0.12011829562533588 0.13977088004359836

lin1.weight f8 [16, 32]
00000000: b1b4 824c a44f c1bc 6480 0817 9218 a3bf
00000010: 9aff d0d8 b314 bdbf 9848 0940 672b d13c
00000020: 437d 91b8 b01f eebc 849b c983 9f9f c5bf
00000030: 7866 0265 9ba8 bfbf 86c6 caf4 0b9d a63f
00000040: 38b9 3bb4 be74 a63f 4994 c85d ed0b 6b3f
00000050: 14c6 6256 401d af3f 99ec 2a2d e9ab 97bf
00000060: 3548 d2ec 0abd a5bf 7aa3 3f3f 805b bdbc
00000070: e551 11fa ecfd b4bf 662f 21da 6e02 a53f
00000080: fd0d 42da 8a91 8dbf 5429 aba3 9fc2 b7bf
00000090: a33d ce88 dd87 c7bf b26f 5f55 3ef4 b83c
000000a0: 5e4a 3974 0c43 b2bf 730f d666 bd1b c4bc
000000b0: 9932 d078 a8e0 9fbf 56b1 42f4 f219 9c3f
000000c0: 7064 fe7e e762 a2bf e019 256f d63c a9bf
000000d0: d254 afc6 ba16 b7bf 7ca8 46d7 00db ccbf
000000e0: fe18 8088 8c5a f03c fbea 8709 8c79 e5bc
000000f0: ec52 626e 25e8 7cbf cfa3 f2cf c601 bfbf
00000100: bf61 dde3 20da d23f f91e 08c2 756d e63f
00000110: 3990 46f4 6388 d43f 0afd bfcd 44ce df3f
00000120: 1b5b fbf5 444b 92bf 4038 7da8 cf01 de3f
00000130: 813b 39d1 8b42 d33f c652 77ac 9c9a e03f
00000140: 9e04 f924 183c de3f 5a8a fc9c 1c1a d13f
00000150: 91b4 87fa 6c4a da3f d847 14da 23e3 ca3f
00000160: 8db6 8c7a c299 d73f 548f c605 78bc 213d
00000170: 5717 6fdc f9ba dc3f d5a0 4654 65b1 6abf
00000180: fa2d aef1 dc62 d93f d14e b6fa 29db d83f
00000190: 0ac4 d7da 4c30 d43f 714c 4f8a 9c9c aa3f
000001a0: e126 e1d3 8f2f e13f c7bb 6416 2b87 8b3e
000001b0: 6b61 ebfe 59d5 ce3f 6a1b 45cd 8cad d53f
000001c0: 54a1 4ccd 42fa c73f fe96 e426 2419 de3f
000001d0: 8006 7a49 56f3 333d 3744 1bac 944e c53f
000001e0: 7df6 b4dd 8604 0640 7e05 0297 de09 063f
000001f0: 4b44 5321 fd24 e03f 309a 00e0 fb7f b23f
00000200: 74fc bdb9 ccfe db3c 5702 af15 e8b8 91bf
00000210: 513f 65d8 b612 c2bf 71cb 528c 49ee a4bf
00000220: d103 7f89 dc0a a5bc ef87 219a 1449 af3f
00000230: 5115 cbaa e701 b1bf b222 0c1a dc67 a8bf
00000240: c5b0 f4e0 6edf bebf 42ae 7628 e2bd c6bf
00000250: 3568 74e6 94bd c1bf b8ed 65ed 77b1 b63f
00000260: ecba 7325 7e50 9ebf c027 a56a 57f7 8b3c
00000270: 82f4 4052 c344 a13f 3fd3 5ae8 b69d a63f
00000280: 48a3 b04d d059 71bf e793 3d5c f657 9bbf
00000290: 3fb6 3c74 acde af3f efb1 9b4c e06f 8a3f
000002a0: 2c21 9527 add0 a23f 4270 f309 5f6f e53c
000002b0: d408 afde 93bb b4bf 2e0c 686a 0121 bcbf
000002c0: 1f09 2063 ec1d 9a3f 9c3c b052 d1ea 76bf
000002d0: 98a0 3093 51b5 38bf 3f8e 2d6d 0749 bbbf
000002e0: 9c29 5a50 f04f e13c 4c95 266e 536b d1bc
000002f0: 89c1 3184 ec42 b7bf e291 9439 6984 bbbf
00000300: 86a9 7029 c666 94bf a230 52d5 ca1e 92bf
00000310: 6f16 70ca 9dd1 99bf db7d a264 0397 aabf
00000320: 66b1 0eaa e90f c33c f460 7a79 6640 97bf
00000330: b572 cf30 91b9 8fbf ed3c 6204 44db acbf
00000340: a131 5f55 f7be aabf d4d2 27bf 2777 9bbf
00000350: b300 0266 b22d a6bf 7f30 6387 a857 a3bf
00000360: 52c0 0738 cf12 adbf 2336 1901 33fd db3c
00000370: 0721 d00a 652c a5bf b89a 1a7d 9a29 e6bc
00000380: 3e44 f1f6 8aae a0bf 5629 a1f1 2d72 a0bf
00000390: a2e3 5d4e 28d8 aabf 780f 48bd 007f b9bc
000003a0: aab6 ca61 d3df 89bf a0c1 d759 fb99 de3c
000003b0: b873 5938 f3e7 a8bf 5a53 3cf5 5cca a5bf
000003c0: 92c9 41b2 6152 aabf 17fd aac6 393c 97bf
000003d0: 4178 a4ac 3f4b e63c d238 99bf ae19 a8bf
000003e0: f069 6430 eb96 99bc f2ba 3254 6905 e2bc
000003f0: 796e 03b3 1ec4 9fbf da44 f697 9f07 f13c
00000400: 22fd e39c f10a d73c 7f99 fe13 dd08 cbbc
00000410: 146c 9e34 a754 9bbf acfa f02a 3af4 e1be
00000420: 575f da64 c472 d5bc 2923 a696 4a88 87bf
00000430: f212 588f 7a76 52bf ad95 06ed 68ad 99bf
00000440: fd56 688e c0cd 9bbf 17e1 7613 9952 7bbf
00000450: c2e4 da08 35de 95bf 2d16 a646 64f3 83bf
00000460: 5969 7cc3 a59a 82bf 78b8 60a2 9e73 df3c
00000470: 8a58 7c08 756e 52bf 9041 646c a670 e3bc
00000480: f738 3275 ea82 90bf ae2a 9189 ad9b 93bf
00000490: 840f 47bb 199a a0bf b18e d545 22e2 cb3c
000004a0: ae10 516f bda7 aebe 3c13 e811 6ce2 b43c
000004b0: 724f 05ab 80da aebf 67a2 54e7 c27b 9abf
000004c0: f8c6 c449 a512 82bf da51 f75b 9c14 803f
000004d0: 0803 af62 ea71 adbc 6783 4154 b852 a3bf
000004e0: c024 392c 4476 e8bc 9a62 d033 9649 f0bc
000004f0: 0e21 455b 5e87 bdbe 802c 5700 5708 d8bc
00000500: d82a 7947 06bb b6bc 7a3d 20cc 90de a1bf
00000510: 84e8 16ab de55 c1bf ea79 894d f7d4 aabf
00000520: 7cc0 038d 92a8 dabc 0dbc 0185 ca97 b3bf
00000530: 36a3 0762 bc7f edbc d1e2 afd7 4ad9 a0bf
00000540: 29f7 3b79 86ce a8bf 8eb6 b58e e65a ab3c
00000550: 211f 37a8 50b4 c0bf 41e5 96f5 3288 af3f
00000560: b94c c0bd c466 c93c c8e0 3d80 54d3 e9bc
00000570: a5be 0b90 105f a83f 58f5 dba5 eae5 a0bc
00000580: cb18 c5de 0f2a f03c 1c0a 4fc0 2e05 94bf
00000590: f3a2 d403 c6f2 ae3f 725e 4b81 31ff ebbc
000005a0: 6895 7637 c369 b53c 0f58 ec5f d107 f23c
000005b0: 6ed0 2f4b f4e0 e3bc 781b 51b0 2e51 bcbc
000005c0: 9542 15e3 4da1 a23f 9b07 dd36 f944 e53c
000005d0: 8878 6f87 4009 9fbc b476 3262 49ca a4bf
000005e0: b438 d0c9 3a70 c13c e05e 4336 641b 773c
000005f0: adf2 e819 b294 a1bf ed22 de85 7687 e7bc
00000600: 6862 3f9b 651b d63f 778d c006 058b df3f
00000610: 61f2 d5eb ed44 dc3f 681e a3f9 b1b7 d03f
00000620: 79a3 68e1 d520 98bf ac29 2451 a295 cb3f
00000630: 99e6 8d4b 3af9 ce3f 24c7 aeaf db46 e13f
00000640: 36cf ef8b 26c9 e03f 11e4 9f76 1902 d73f
00000650: c14c 8f81 964d dc3f 1028 821c 17d5 dc3f
00000660: 62f4 47cd 2232 e13f 4cbc a45f 584f 31bd
00000670: 3ff3 27a8 22f5 d93f 4be6 c947 2f66 c63f
00000680: 0e5e 8950 11c8 dc3f 2145 2d97 df06 d73f
00000690: 9ec5 1192 6686 d73f 46b4 6c1a b39d 95bf
000006a0: 0934 6ac4 0cae cf3f 058b 40f1 ff05 913e
000006b0: 9dae 2d0f 02c8 cf3f 7f49 28a0 92c3 da3f
000006c0: 8e45 0e56 c055 ca3f 7ca5 1456 d2d2 dc3f
000006d0: 202e 7fcc 708b 86bf 48f7 63cb f12f d93f
000006e0: 1065 e3f8 2136 0540 2863 b685 c954 413f
000006f0: 7e3a 97b1 1574 e13f daae 59b4 7548 91bf
00000700: 8ee4 292b 7fdf d03f 9992 78b3 7fc0 e43f
00000710: 861a 34f0 cb7d db3f 8645 542a 83b9 e03f
00000720: b659 2e55 9604 7cbf 5fa4 839c 9ff0 d83f
00000730: 5354 f51b 2ca7 dd3f 65a3 1702 b12e d13f
00000740: 55d1 f02c defa df3f 672e 3d9e 9a2a d93f
00000750: 93b7 5c2e f734 da3f 6e98 8433 55f3 d33f
00000760: 4161 1af2 e627 d73f 6668 2ff0 2acc 20bd
00000770: fde1 97d8 d810 df3f 04e1 b2d3 8ff6 c93f
00000780: fee7 5506 be16 ca3f 9543 1ceb a114 df3f
00000790: 8bc9 2f1f e727 d53f 6c00 aaaa 23da b23f
000007a0: fd5f 43ae 9420 d53f 5a29 6484 e16c 893e
000007b0: 48c7 52dd c55f df3f 2347 7157 0da4 e13f
000007c0: 0091 793c f436 e03f 4c65 11a0 3e03 d03f
000007d0: f9fb f07d 5d87 b33f 6382 f44c 58d9 db3f
000007e0: 8a28 9006 cf87 0540 08bb c6b5 d256 143f
000007f0: 217a 19b2 c037 c93f eda8 8835 3a20 9ebf
-4.804795659061216e-16 -0.03729683428923705 -0.1135971454941668 9.531011658865497e-16 -3.3444125577823954e-15 -0.1689338105672641 -0.12366648880051823 0.044166921264502654
0.0438594431887957 0.003301585775505465 0.06077004484667384 -0.023116725332084618 -0.04245790615927129 -4.0741612368374636e-16 -0.08199959855239276 0.041034187438156164
-0.014437756334024771 -0.09281347032370962 -0.18383378200495057 3.4630737352127597e-16 -0.07133558118338487 -5.581190729199822e-16 -0.03113044011483854 0.027442737730482968
-0.03591082978454885 -0.049292279307838305 -0.09019057608323358 -0.22543344985507818 3.6312523802374246e-15 -2.3841809691567576e-15 -0.007057329383447036 -0.12112085892535095
0.29456350567263806 0.7008618154222567 0.3208246121887473 0.49696464627045656 -0.01786525489191169 0.46886054471986327 0.3009366553496236 0.5188735359648369
0.47241786585443346 0.26721873598777324 0.41079258409337976 0.21005676411056018 0.36875974624386104 3.1505831541774305e-14 0.44891211058381003 -0.0032584170423498406
0.3966591224823045 0.388376707874369 0.3154480111252843 0.05197610081054272 0.537055887057445 2.0509959170733183e-07 0.2408859724735167 0.33871765180486213
0.18732485794431375 0.4702844981969604 7.087853996313844e-14 0.16646059421194234 2.7522103615618208 4.203520336521891e-05 0.5045152331241608 0.07226537913138809
1.5540519628966315e-15 -0.017306925128425323 -0.14119611326395412 -0.040880487803767525 -1.4601117279829828e-16 0.061104434790436694 -0.06643531722791819 -0.04766738717996101
-0.12059681884847169 -0.1776697824073939 -0.1385980725543178 0.08864545389035683 -0.02960393050755787 4.8513584852822437e-17 0.033727744856585154 0.044172016013737984
-0.004236043630080406 -0.026702737216869023 0.06224574011717409 0.012908699357887491 0.0367483244722869 2.3797679302809055e-15 -0.08098720728506531 -0.10987862441838622
0.025504773664587362 -0.0055950333289863895 -0.00037701837135496177 -0.10658308425404871 1.922047038054229e-15 -9.669621656153405e-16 -0.09086492755318977 -0.1074891820504216
-0.019923301963140648 -0.017695588369449518 -0.02521368549425634 -0.05193338969661073 5.290812006303921e-16 -0.022706605114394443 -0.015490660001824844 -0.05636036447060087
-0.05223820607315877 -0.026821728746613996 -0.04331738944256482 -0.037778154875554464 -0.056784129705079636 1.553704915486611e-15 -0.04135432965273549 -2.4605332838201804e-15
-0.032581656116811505 -0.03212112021045026 -0.05243040043473647 -3.5382953556061993e-16 -0.012633944913740553 1.6987240259504356e-15 -0.048644638660995054 -0.04255953305815892
-0.05140977192867803 -0.022690680266120724 2.4751245879532296e-15 -0.047070942772380456 -8.878150367594446e-17 -2.000748282765894e-15 -0.03102157561884986 3.781370540046071e-15
1.2791295367115777e-15 -7.503615335788153e-16 -0.026690113627051273 -8.561140331872961e-06 -1.1906203375413881e-15 -0.01149042389148887 -0.0011268803476706638 -0.025075568644430102
-0.027152069751614317 -0.00667056842160487 -0.02135546556994395 -0.009741576581983125 -0.009084029224642508 1.7459167066049466e-15 -0.0011249678518132932 -2.1582779363292452e-15
-0.016124404337966216 -0.019148551484515046 -0.032425693617852 7.739180258112632e-16 -9.135971753633867e-07 2.898301254068968e-16 -0.06026079261451302 -0.025862737054156783
-0.00882462626813972 0.00785181193979494 -2.0431561087888525e-16 -0.037740478787560865 -2.71582509076722e-15 -3.616539991194647e-15 -1.7600526521378712e-06 -1.3340760460192711e-15
-3.1544995175541474e-16 -0.0349011658837481 -0.1354330382726553 -0.05240605184075149 -1.4798432583968731e-15 -0.07653489825473532 -3.2750433748704113e-15 -0.032907809094415826
-0.04845066289816053 1.8981400151421796e-16 -0.13050277913702593 0.06158599136274257 7.050315756958851e-16 -2.867207375088264e-15 0.04760028608677417 -1.172542042114648e-16
3.589196642108053e-15 -0.019551020133585437 0.060445964782337123 -3.1082746529089083e-15 2.9716694410392916e-16 4.003583809893615e-15 -2.2069821110650938e-15 -3.9297896414212414e-16
0.036386903734301125 2.3613808362676758e-15 -1.0767824439414677e-16 -0.04060582469649657 4.840127476252057e-16 2.0042125826356784e-17 -0.03433758322032552 -2.612260659589893e-15
0.3454221740808294 0.4928600851000832 0.441707115467386 0.2612118661749947 -0.02356275738035005 0.2155039688298762 0.2419808262746315 0.5398996764472241
0.5245545132770306 0.359503141254721 0.44223559048004907 0.450505998459108 0.5373701104541733 -6.149726851928333e-14 0.4055868761204699 0.17499342923456349
0.4497111593713904 0.35979451907503984 0.3675781656703182 -0.02110938881667248 0.24749908056801953 2.5366897316214334e-07 0.24829126111159364 0.41818681373947436
0.20574192239704953 0.450367530882964 -0.011008149376627918 0.3935513006434701 2.65143198436693 0.0005289062495875451 0.5454205006188457 -0.0168779746367552
0.2636411592025717 0.648498392609855 0.42955301720977734 0.5226455523244773 -0.006840312230357906 0.38968649181930987 0.4633283875494431 0.2684748192246416
0.49968675984134353 0.39322534039522455 0.4094827606921793 0.3117268565278043 0.3618104328429759 -2.983840762967802e-14 0.48540326263130834 0.20283696972706633
0.20381903943399488 0.4856343074798642 0.3305604748303714 0.07364104191401716 0.33011357324494367 1.8943336694443856e-07 0.4902205144272682 0.5512758930073897
0.5067082577848225 0.2501980364955514 0.07628425907840598 0.43514068141124634 2.691312838816036 7.75877101151062e-05 0.1970139379145204 -0.029419812695928128

lin1.bias f8 [16]
00000000: 008d 35bb 90f9 98bf 7356 ef64 8ea7 e83f
00000010: 4d8d d643 46a1 a23f c08c c658 a5fe a4bf
00000020: c07c 3f40 9ee9 a0bf ab76 5ad1 9a9f a6bf
00000030: c9e4 1d38 d809 e83f f668 969a ffd1 e33f
00000040: dc51 f3f0 711c aebf 2735 d67e 7874 a73f
00000050: 622e f431 45aa 83bf 04d9 ead3 9a6a eb3f
00000060: da35 e767 b8a0 b9bf e5aa f462 201e 42bf
00000070: 8a40 01f9 0630 e43f 0cea ef5a 9742 a1bf
-0.024389516283361168 0.7704536410698907 0.036386676579491885 -0.04100529392896979 -0.033032365172169786 -0.044186437660056775 0.7512017341643055 0.6193845767295716
-0.058810768759631066 0.045810475810052424 -0.009602108561487192 0.8567632807742318 -0.10010864769647956 -0.0005529077660971464 0.6308626998307016 -0.033711175776222374

lin2.weight f8 [1, 16]
00000000: 12d6 6123 5115 a6bf aadb e592 84b8 df3f
00000010: 02ae 42a0 d6f6 83bf 7ab3 7aac 83b7 a63f
00000020: 92cc 58a6 ce5c a43f 2e96 0d67 3253 8dbf
00000030: 1c9c 8f65 374a e43f ac39 4fba d1ef e03f
00000040: 610f 54b8 b8ba 6fbf 0c0f f5a1 f9af b6bf
00000050: a57e 7415 0bcd a73f 7c82 85e4 517c de3f
00000060: c820 b8cc a490 a2bf 560f ce1f f197 b1bf
00000070: 327f fd32 646f e33f 8547 584c c656 7f3f
-0.043131385392296676 0.49563707681175606 -0.009748150602113096 0.044368853382684884 0.039770562940611445 -0.014318841714792443 0.6340596183407601 0.529274810682002
-0.0038732154667985717 -0.08862266735109986 0.04648623120214993 0.4763378841071597 -0.03625979422582898 -0.06872469927298872 0.6073475833800102 0.007651114084653692

lin2.bias f8 [1]
00000000: 424a 1caa 5cbd d93f
0.4021827374682837
