Q1/models/lastmodel.pth (torch, 14767 bytes, 16 tensors)

batch_norm0.weight f8 [1]
000000 3c d9 fe e5 48 8f f0 3f
       1.0349816307257944

batch_norm0.bias f8 [1]
000000 53 eb 61 19 23 90 ce bf
       -0.2387737153947805

batch_norm0.running_mean f8 [1]
000000 10 56 7f 7f ce eb 50 40
       67.6844786399381

batch_norm0.running_var f8 [1]
000000 e2 95 60 b6 49 8a 03 40
       2.4425234077668714

conv1.bias f8 [16]
000000 5d e0 a7 f1 b4 81 32 bf 6e 63 29 68 9d 52 33 3f
       -0.00028238933160152306 0.0002948412222046258
000010 e0 c1 99 b8 f4 1b 3b bf dc b0 48 4e 30 19 2c bf
       -0.00041365360866676797 -0.00021437372846955835
000020 1b 46 db 40 3c ea 36 bf c3 f3 98 4b 4d cd 2f 3f
       -0.00034965487507773876 0.0002426297049157572
000030 5c 7c 7d 52 6d e3 1a 3f 88 f4 95 2d 5b 78 3b 3f
       0.00010257105588838813 0.00041916109110912885
000040 dc 7a c7 6a b6 4a 2e 3f 41 16 d8 ca 7c 79 33 3f
       0.00023110844394032867 0.0002971582096907601
000050 2a 90 ca 01 02 db 33 bf 44 3e c0 dc af 7a 3c 3f
       -0.0003029708766837414 0.0004345588065470566
000060 e1 8a 8c 1e a6 b8 38 3f 89 eb 51 74 4e ae 38 bf
       0.0003772168698096667 -0.0003766004122735469
000070 b3 c7 60 bf 46 8d 34 bf 38 b5 2c 40 16 5f 39 bf
       -0.0003135965083657058 -0.0003871373484568177

conv1.lin.weight f8 [16, 1]
000000 2e 9f b7 16 fe 07 e0 bf a1 99 46 87 41 39 de bf
       -0.5009756511399013 -0.4722446270992809
000010 3f 6b 5a 56 54 bb db bf e7 a2 64 b9 e5 91 dd 3f
       -0.4333086818020781 0.4620298681716534
000020 18 7d d1 3b b6 b4 d2 3f 82 b5 98 3b f0 76 e1 bf
       0.29227977601654365 -0.5457688488001369
000030 9a 22 d1 f8 7b b6 e7 3f 85 89 86 b3 10 3e d0 bf
       0.7410259113031146 -0.2537881615809499
000040 c1 cf 26 bf 37 86 e7 3f b1 0f c4 bd 06 ae c8 3f
       0.7351340039663158 0.19281086221610402
000050 2e 91 43 97 ef e9 e8 bf 8d 3c fb 4a 27 75 e7 bf
       -0.7785566286443435 -0.7330509628753973
000060 92 6a ed 05 cf a0 b7 3f d3 7d ce 8e bb e4 e9 3f
       0.09229749579155058 0.8091714657966186
000070 d6 c4 57 39 2c 46 c7 3f 65 f3 1f a8 e0 2b d8 bf
       0.1818290023798343 -0.3776780740588975

batch_norm1.weight f8 [16]
000000 46 23 9a 62 28 1c f2 3f a1 40 7f 26 13 5d f1 3f
       1.1318744517941055 1.08522334134981
000010 f3 b2 a6 b6 0d 53 f0 3f 2b 6f 00 55 5f 4f f1 3f
       1.0202767500697376 1.0818780250910531
000020 f9 91 6d 5d 9a fd f3 3f 79 3c a3 98 58 eb ee 3f
       1.2494147920161807 0.9662287694171844
000030 63 5d a7 4c d6 cd f3 3f 35 f3 e3 a1 e7 ce ec 3f
       1.2377531999862519 0.9002569353029687
000040 46 a2 ac 6e 88 e4 f3 3f e8 7e 5b 28 d4 85 f3 3f
       1.2432941745011177 1.2201730324231281
000050 7c e6 c6 b5 dc 43 f2 3f ac f8 c0 f9 4b 54 f2 3f
       1.1415679073965341 1.1455802684791179
000060 11 ca 97 ef 43 44 f3 3f 35 2b 9a 82 ca ff f3 3f
       1.204166351232406 1.2499489881181038
000070 db 71 c9 08 41 06 f4 3f c3 50 0e 50 9c 3d f2 3f
       1.2515268653142957 1.1400416495499008

batch_norm1.bias f8 [16]
000000 5e f5 8b 70 5f 1d df 3f b2 74 1d b1 70 c3 de 3f
       0.48616777411355894 0.4806787233008648
000010 ae 4e 7c 91 4a c3 da 3f 44 fa aa 15 df 3b d3 3f
       0.4181696339376043 0.3005292617416766
000020 f2 49 69 6e 5d 12 dd 3f 26 1d ac 6d 35 de d6 3f
       0.45424590856887825 0.3573125430124996
000030 74 6c 95 81 eb 24 e0 3f 8c c6 f9 e7 1b d4 d1 3f
       0.5045068293506021 0.2785711064708287
000040 fb ed 0a 27 b7 72 de 3f 7e 49 1f a7 cc 62 de 3f
       0.4757516747738177 0.4747802383473284
000050 7a e8 81 68 4b a5 e1 3f 6e 76 82 74 36 84 e1 3f
       0.5514275590096667 0.5473892474726207
000060 f6 13 6d 8c a6 d5 dc 3f c1 82 0a bc f5 6d e0 3f
       0.45054019654736466 0.5134228394200236
000070 16 6b 29 bb 7f 12 e0 3f 1f 6f be af 4a a8 e0 3f
       0.5022581725600925 0.5205434257981983

batch_norm1.running_mean f8 [16]
000000 c3 2e 3e 87 6f ab c5 3f 93 9b fc 6b fe 66 c4 3f
       0.16929430106789853 0.1593931224135444
000010 1e 04 cd c4 c0 d6 c2 3f be 9d 80 0b 36 cd c3 bf
       0.14717874154487814 -0.15470004617348637
000020 ac a9 b1 c1 c3 67 b8 bf 78 ff 7f cf cd 91 c7 3f
       -0.09533332327706628 0.18413708335719625
000030 3b a7 88 f9 23 a2 cf bf bc 7c 97 2f 5d 29 b6 3f
       -0.24713563617961562 0.08656866466434371
000040 fc 76 7c bd 48 54 cf bf d9 d1 a9 9c 84 10 b0 bf
       -0.24475964786773108 -0.0627520449141409
000050 3a f1 ed 3d f3 a8 d0 3f 91 e5 84 69 ff 51 cf 3f
       0.26031189964102774 0.24468987133313339
000060 a6 72 79 40 7e b6 9e bf 57 2d 5b fc 3f 39 d1 bf
       -0.029993031201558516 -0.2691192593017226
000070 ba bc 96 f0 0b 6d ae bf 1f 90 66 9d ef 3f c0 3f
       -0.0594257098376771 0.1269511717374607

batch_norm1.running_var f8 [16]
000000 bf a7 da ae c0 47 c5 3f b7 41 bc cc 02 e4 c2 3f
       0.16625221765326434 0.14758334156841865
000010 b4 94 dd 2d 5a 49 c0 3f 7a 60 28 fb 5b 7e c1 3f
       0.12723853339699576 0.13666867984352732
000020 a4 1e 41 cb 1e 80 ab 3f cf 96 6e 87 cc 0b c9 3f
       0.05371185523159497 0.19567257511987754
000030 b8 42 a3 b7 dd d6 d5 3f a4 2f 10 58 b1 33 a8 3f
       0.3412393849694513 0.04726938438406528
000040 34 28 61 1a f8 66 d5 3f fc 5e 0b a8 56 75 9a 3f
       0.3344097383129594 0.025838235861413303
000050 65 6c 9f 4d 91 84 d8 3f 64 dd 3a a8 b4 aa d5 3f
       0.383091283610787 0.33854404858307974
000060 eb 85 0c 54 1b 68 83 3f 06 58 a4 02 c8 d2 d9 3f
       0.009475911619634089 0.4034900689888449
000070 46 7f 15 7f 4e 54 98 3f bd d8 11 f2 aa 51 b8 3f
       0.023759104258146445 0.0949961510649215

conv2.bias f8 [32]
000000 79 a2 bd 41 8b 75 db 3f 9d b2 c0 85 69 f9 b8 bf
       0.42904931468959934 -0.09755572810599707
000010 f6 08 e4 5c 30 96 df 3f 7b 9a e3 f5 33 a7 de 3f
       0.49354180404056025 0.47895525944333145
000020 9a 39 84 7b 6d ec a9 bf f4 44 50 f5 0c 88 db 3f
       -0.050631924941728815 0.4301788707389982
000030 fa db cb 13 08 45 ae bf 1c 2f e8 6e 61 b6 df 3f
       -0.059120418945830935 0.4955066283298366
000040 1c 28 06 b9 f2 6d de 3f c0 27 cb 10 17 9b d5 3f
       0.47546070164446674 0.3375909484863051
000050 b8 b6 fe b2 b9 7f df 3f eb d4 7d 5a 81 64 df 3f
       0.4921707389829453 0.4905093558985089
000060 bd ed e8 41 4d 3b df 3f ce 6a 23 f3 a4 32 db 3f
       0.4879944938326977 0.42496608489970533
000070 3c e0 b2 13 43 f0 dc 3f eb a4 da 78 23 fe d7 3f
       0.4521644298906755 0.3748863868919005
000080 91 70 59 18 51 a1 df 3f 76 d0 8a cb 99 05 df 3f
       0.4942209947382788 0.48471684338733867
000090 05 51 a9 73 d2 6e df 3f 24 6f b2 54 3e e6 da 3f
       0.4911390428071772 0.4203029467696402
0000a0 67 f8 14 ca fb d8 d4 3f 9a f9 44 26 6c 7e a6 bf
       0.32574362501680415 -0.0439332768169038
0000b0 cf c3 91 3e 89 e3 de 3f ff 3b 59 fe 60 50 d9 3f
       0.4826377020863761 0.3955309375641604
0000c0 ee d3 37 a7 ff 79 dc 3f 6d f7 cb ef ae d2 de 3f
       0.4449462063778914 0.48160909097338483
0000d0 99 2a 3a 73 34 02 da 3f ed 19 67 ee ff b9 df 3f
       0.4063845753923175 0.4957275226737739
0000e0 3c c0 94 80 6a 43 a7 bf d4 03 74 62 8e 9a a9 bf
       -0.045436218448572124 -0.050007295149050585
0000f0 8e 04 de 20 2c 0f df 3f d5 1b 4b 3a 9d 99 c1 bf
       0.4853010483712489 -0.1375004324565611

conv2.lin.weight f8 [32, 16]
000000 5e 07 9f e1 da 1c 75 3f d4 3d 79 ac 55 20 cb 3f
       0.0051544714023651055 0.21192427560389027
000010 61 c7 89 73 a2 d1 c7 3f e1 ad 4f fd 8a 6a c9 3f
       0.1860850395346985 0.19856393212044934
000020 91 22 dc 3f 5a 94 e0 3f 7f 1e 86 f2 90 73 b5 bf
       0.5181094405425758 -0.08379465027803155
000030 9e 3a 2f 7d 63 32 d8 3f 50 b4 c6 21 fa 6d a6 bf
       0.3780754778389709 -0.04380780851656907
000040 d3 75 8c a5 c5 ee 97 3f ab c7 74 d4 08 04 d0 3f
       0.023371780614174952 0.2502462458388616
000050 00 bc 7e df d0 01 d9 3f 2a a0 4b 67 b2 b0 8a 3f
       0.39073583436669423 0.01303233506901343
000060 dd 41 06 66 a4 4e ce 3f 70 41 8c b8 d7 22 c4 3f
       0.23677496892606956 0.15731331359030376
000070 34 68 88 60 82 e3 92 3f 04 2d 65 92 6d 8f c1 3f
       0.018446004049202894 0.13718957565502177
000080 83 24 62 b4 79 94 c4 3f 91 c8 46 b5 d3 a5 c5 bf
       0.16078110988408775 -0.16912313796416759
000090 23 f5 66 23 55 b6 b3 bf 95 32 4c 68 58 01 a6 bf
       -0.0770009242468928 -0.04297901414074549
0000a0 0e 07 bb b7 7e a2 bf 3f 04 22 06 68 fd 63 d6 bf
       0.12357322679147506 -0.3498528972491217
0000b0 ac b4 e7 eb 2f 31 c7 bf 35 98 31 48 61 e1 d5 bf
       -0.1811885740166067 -0.3418811039940722
0000c0 f1 e2 10 75 6a 6b c7 bf b4 fe df 03 8b be 91 bf
       -0.18296557155715434 -0.01732842646742823
0000d0 c8 db eb 8f d0 58 bd bf 3a 30 ac 88 ff 15 90 3f
       -0.1146364547129074 0.015708916394075546
0000e0 dd c1 f6 e4 ee 1f d8 bf ea 79 46 06 d5 8d ba bf
       -0.37694904670482093 -0.10372668650823128
0000f0 d4 87 10 87 3f e4 c8 3f c3 91 10 ad d8 3d d1 bf
       0.19446558089208443 -0.2693998041234204
000100 8f 80 4c fc c2 b7 e0 3f f6 e4 39 bb 24 38 b6 bf
       0.5224318435393956 -0.08679418154669691
000110 a0 09 3c c1 df b7 a4 bf ba 4c 2c 37 a8 67 c6 3f
       -0.04046534761257026 0.17503836339947104
000120 7c 5b 4f 26 5b fe b8 3f 9b c0 bc 41 6a 25 a9 bf
       0.09763116536428912 -0.0491135792966599
000130 e4 a3 46 0e 5c 39 d8 3f 18 ab fb 90 90 a6 94 3f
       0.37850095171103093 0.02016664395243159
000140 d7 52 4f d9 21 1e d8 3f 93 11 35 f0 ea 9a e5 3f
       0.3768391248861866 0.6751608554409806
000150 41 dd fc c7 74 26 db 3f 76 f4 46 36 b3 fa d5 3f
       0.424222178745783 0.3434265165377107
000160 be 59 c0 5f f1 2f e1 3f 2d 57 53 c3 81 4a e4 3f
       0.5371024007934506 0.6340950789405945
000170 88 97 1e 8b c6 20 e0 3f 14 9f c4 95 58 1b e0 3f
       0.5040009228875855 0.5033381390721581
000180 0d 7d 0b 74 95 42 cb 3f 1f ee 52 18 9c 98 c0 bf
       0.21296947637799982 -0.1296572798508899
000190 00 87 f5 16 b1 74 b6 bf 62 da 09 e9 2d ff d6 3f
       -0.08771807489895522 0.35932491071381467
0001a0 06 72 8b 6e cc ef df 3f 6a a2 92 e3 ca ae b6 3f
       0.49901114268666935 0.08860462242103898
0001b0 30 ac b8 5f 6e db b4 3f a5 78 25 36 39 94 c4 bf
       0.0814732536024827 -0.16077342170587375
0001c0 a9 7c 7f 26 f1 eb c1 3f 9e 9f cd 97 02 85 de 3f
       0.14001287822518307 0.4768682939961709
0001d0 5c ce e7 d5 60 2b ca 3f a9 d5 b2 fd fc 09 d0 3f
       0.2044487995586789 0.2506096341633915
0001e0 67 f6 eb 3d 08 a0 e2 3f 5b e0 88 ee 97 6d d3 3f
       0.5820351800354729 0.3035640553894205
0001f0 9b 48 f0 22 21 53 d1 3f be d7 a9 3c 29 42 a6 bf
       0.2706988183209746 -0.04347351899643524
000200 5d d8 ea f9 67 9d 76 3f 46 d3 6f 54 fa 96 46 3f
       0.005521207959352817 0.0006893846810941205
000210 07 74 1c 4b f8 35 91 3f 9a ae aa a8 61 ce 8e 3f
       0.016807441315098284 0.015042078933525094
000220 61 1b 37 dd 03 6f c0 bf 43 0f be 0f d9 5b 67 3f
       -0.1283879118111271 0.002851413677435051
000230 32 75 8e 45 e7 74 d1 bf 38 e1 4f 9b 6b be 91 3f
       -0.27276021759628855 0.017327958445066488
000240 7a e8 d6 f2 7c bc 94 3f 38 e9 59 ac 65 0c aa bf
       0.020250274965043925 -0.050875832833258305
000250 a0 3e d5 f1 a8 c8 a4 bf f6 7e 4a 5a 44 60 c5 bf
       -0.04059341384947612 -0.16700033577671264
000260 e5 87 fb bf fc 82 b9 3f 39 a8 97 20 2b ef cc 3f
       0.0996549576480273 0.22604884234834957
000270 27 f3 7e 2d e8 aa b8 bf ed 28 e8 c8 21 76 b2 3f
       -0.09635783301105204 0.07211505083992949
000280 61 8c fb ea c8 57 b7 bf 78 e5 0c 82 ae dc d9 3f
       -0.09118324028854509 0.40409434032661506
000290 6e 24 3d f5 b5 6e c2 3f 20 ca d1 66 a9 ae cf 3f
       0.14400362467339128 0.24751775284274036
0002a0 00 97 7c 52 1a 5e e1 3f 1f a0 ff e2 21 8f d4 3f
       0.5427371607845259 0.32123610656572227
0002b0 19 20 ba 94 4b fb a3 3f 67 f2 30 8d 5a 93 a4 3f
       0.03902660551563048 0.040186719641927486
0002c0 63 fc bc 56 06 ae e0 3f c4 7f df 93 cc a0 d2 3f
       0.5212432569604853 0.2910644001076401
0002d0 de 61 68 b4 a5 46 c4 bf 42 b8 03 39 f4 4f cb bf
       -0.15840598401042788 -0.21337750228798497
0002e0 9c 61 20 c1 16 76 e3 3f e9 07 9e 2a de 69 e2 3f
       0.6081651470185991 0.5754233200425435
0002f0 bc ff 2f d8 4e 5f bf 3f 41 86 83 28 2d cd c8 3f
       0.12254803445830381 0.19376148679934782
000300 a8 6b 3e 65 bd a3 b8 bf a2 1d 17 96 0b 6e 82 3f
       -0.0962484714677162 0.008998957174198467
000310 49 cb 00 2a 8b 52 d0 bf 16 cb c4 8a c1 f8 d4 bf
       -0.2550380621134321 -0.32768286277421177
000320 87 d5 d6 09 71 84 d1 bf 0a dd 4c df 40 ac d6 bf
       -0.2737085910879035 -0.3542635136286242
000330 41 44 fd 9c ee 85 ca bf 18 17 00 b3 18 2b d1 3f
       -0.2072122828053882 0.2682554004717175
000340 1b 5a 34 7b 53 c1 d4 bf 74 9e 12 68 57 bc d6 bf
       -0.3242996886414475 -0.35524544871666497
000350 d1 f3 2e 85 95 2b 78 3f 03 16 13 97 e2 2f ba 3f
       0.0059009400019336 0.10229316891044253
000360 b5 de 4f aa 7e 30 c8 3f 90 52 25 ce 47 a0 a3 3f
       0.18897994342818483 0.038332218088418135
000370 d3 5a 01 31 1e 93 d4 bf 7d 9a 8b d5 95 da cf 3f
       -0.32147936616585787 0.2488581936551845
000380 47 8b c5 ae 06 b8 ae 3f 26 6e 99 38 9c b4 d4 3f
       0.05999775775378296 0.3235235741355801
000390 75 01 58 ec 4c 7c cd 3f 07 1c 28 6c 1c 41 e1 3f
       0.23035584964965108 0.5391981232104407
0003a0 9c 8c 0d fa c3 e5 c9 3f 0f bf 85 69 8f d4 c4 bf
       0.20232438764205518 -0.16273682262862407
0003b0 8d 57 ec 7a 3c 98 c9 3f 85 52 68 f6 ea 29 a1 bf
       0.19995838167295368 -0.03352293260482945
0003c0 40 78 e7 a1 b2 5b d0 3f 56 dd e7 54 3d 48 dc 3f
       0.25559678851084655 0.44190915385793994
0003d0 a9 f6 35 77 32 da d4 3f 9a 68 dd a6 70 78 d7 3f
       0.3258176960151596 0.36672607703588656
0003e0 7b a3 70 4d 52 d0 c2 3f 49 e0 3b d3 d7 94 d0 3f
       0.1469824674725507 0.2590846598463981
0003f0 3a 81 37 ef fc db e5 3f 20 6f f1 25 27 ee de 3f
       0.6831040069774084 0.4832857008493523
000400 08 de 4b 47 68 06 b9 3f ba 15 1f 7d 3e 0d e0 3f
       0.09775401821740826 0.5016167110231244
000410 9e 75 d4 91 ae 75 da 3f 5f 52 c8 96 df 69 e0 3f
       0.41343273392870994 0.5129239983530843
000420 2c 49 f7 39 e7 c6 d8 3f b7 09 4f 41 79 af c2 3f
       0.3871400896142798 0.1459800309076635
000430 6d 82 3c 84 0c 0e bd 3f be b3 ef 71 f2 57 b6 bf
       0.11349561909129031 -0.08727946550034368
000440 ae 2a a1 15 54 28 cd 3f e8 f2 c4 73 f7 1d da 3f
       0.22779322677736985 0.4080790167388799
000450 d0 23 26 8d 8a a6 da 3f 7e b6 e8 18 64 4e e1 3f
       0.41641486915665116 0.5408192144875128
000460 9c 41 3d 15 f8 77 e2 3f 16 0c 4a 5c cf db e1 3f
       0.5771446623639807 0.5580822756313661
000470 a2 d7 32 0a b3 bd d7 3f 69 4a c8 64 dd ee b9 3f
       0.3709533309550982 0.10130103788859803
000480 3e 46 52 2e ac 02 c7 3f 12 76 92 e2 3a d5 a2 3f
       0.17976906072412818 0.03678306594632032
000490 cb b8 84 8a fa 76 d2 3f a5 0b b5 7b 8b f8 c4 3f
       0.28851188208762996 0.16383498707190572
0004a0 69 27 7f 6d 59 08 d3 3f ac 37 be 0e 11 fb b9 3f
       0.29738460248028403 0.10148722276627947
0004b0 07 91 47 97 10 da bb 3f 67 d7 15 9e f1 ad d6 3f
       0.10879615491245796 0.35436668813723887
0004c0 8f cb 7a 3a 03 0d a7 3f 8b 45 d9 7e cf 67 de 3f
       0.04502115334380285 0.4750860918766981
0004d0 ac 34 cb 66 19 72 cd 3f fc e2 d0 83 34 7d d0 3f
       0.23004453200556918 0.2576419150605458
0004e0 f2 b9 b8 53 32 a3 c7 3f 3a f7 56 7c 0e 10 b2 bf
       0.18466786468475466 -0.07055750404012154
0004f0 60 24 e4 e2 70 2e ae 3f 74 47 b6 ba d1 ab b1 bf
       0.058948066422154666 -0.06902800377272716
000500 f5 73 5e 43 92 48 a1 bf 44 e3 1b 82 53 7e ac bf
       -0.0337568003880974 -0.0556512924503694
000510 d5 f8 a0 d3 af 12 c9 3f 65 23 1d 67 d7 56 b6 3f
       0.19588277657925937 0.0872625948660591
000520 d9 b8 72 ac 70 b7 e5 3f 16 3e 2b 11 80 21 d5 3f
       0.6786425941588973 0.33016969372417415
000530 dc 1b c7 8a 74 0f e0 3f 4d 34 6f b7 88 cf da 3f
       0.5018866262915895 0.41891687310709785
000540 a6 55 6a 71 e0 a6 e3 3f a9 25 39 1b c2 43 cc 3f
       0.6141206946510251 0.2208178170133526
000550 1a 87 cb 56 41 f2 c7 3f ae e2 a3 8c b3 3a e0 3f
       0.1870805429271563 0.507165693939063
000560 0a b9 c0 eb 33 7d e5 3f 1d 1a a6 8c f3 80 e5 3f
       0.6715335468814214 0.6719911334083154
000570 b0 54 82 0c a0 b2 d4 3f cb f6 6a 53 6d e5 d2 3f
       0.32340241643516787 0.29525311609527866
000580 79 3b 4f 86 70 61 b7 bf 81 dc 5d 31 f0 a9 9a 3f
       -0.09133055953064496 0.026038887990094132
000590 5f 7d 3d ba 1d 35 b2 bf db c0 52 21 b1 b8 e3 3f
       -0.07112298771743529 0.6162953997464017
0005a0 b6 30 71 0d 0e 66 d7 3f ed a5 47 bc 32 e4 e0 3f
       0.3656039363165847 0.5278562238065071
0005b0 b1 ea 10 0a 0e ca c2 3f e9 86 91 fe 5a e0 b2 3f
       0.146791224398688 0.0737358924393693
0005c0 d1 0a d2 0d b2 f7 ca 3f b1 8e 8d f0 5e 41 dc 3f
       0.2106840674860764 0.44148992053508623
0005d0 bd 6a 41 ee 18 78 d6 3f 58 ff 55 41 2d 44 bc bf
       0.35108016268865666 -0.11041529507747094
0005e0 cb fc 0e 2d a2 f7 d7 3f e2 71 35 a6 8a 53 d7 3f
       0.3744893493676044 0.36447397452664465
0005f0 e3 f3 91 0d 11 29 e2 3f b8 13 7f d5 10 48 da 3f
       0.5675130143205219 0.41064854478127755
000600 cd 88 ca bb c0 9f ce 3f 3a 19 24 96 5f 6b e1 3f
       0.23925027055253736 0.5443571026269531
000610 86 98 9c 0d d3 c2 b1 bf f7 bb bd 78 42 62 a0 bf
       -0.06937903482739402 -0.03199966167345985
000620 b8 f1 f1 f5 fd 93 db 3f 92 92 a7 41 8a 1b ba bf
       0.4309077169234814 -0.10198272803206468
000630 63 34 55 a2 e5 05 e5 3f 67 f6 a4 54 1a 6f a9 3f
       0.656969849640188 0.04967577250725413
000640 d3 f4 72 92 16 17 cc 3f ff f2 02 42 30 f1 e4 3f
       0.21945459509689744 0.6544419564521319
000650 7b 8d 63 03 22 2e d9 3f 3e 63 c9 83 ef d8 df 3f
       0.39344072657532764 0.4976156985263066
000660 c0 09 93 ac c5 79 d3 3f 0e f9 3c 09 16 02 ad 3f
       0.3043073830887373 0.05665654051562018
000670 51 f3 e2 e8 60 0b a6 3f d0 43 82 2f 81 af e0 3f
       0.04305556147435275 0.521423905173032
000680 97 ed 3e 04 0c fd af 3f 09 c6 dd a8 47 18 b0 bf
       0.06247746993855257 -0.06287048218452908
000690 fe 80 c6 37 97 17 c2 bf 20 d1 3b 18 9c 69 ca 3f
       -0.14134493087204442 0.20634795363697211
0006a0 7f 31 87 3d 13 e6 95 3f 22 e7 a7 f3 93 f5 cd 3f
       0.021385479574563156 0.2340569438672953
0006b0 91 01 1b 73 72 41 9b 3f e9 ec 7b 3f 5c 34 a4 bf
       0.02661684825466321 -0.039461977719804704
0006c0 7c f5 bc 29 ec 08 cc 3f a0 cd a3 9d dd c4 a6 3f
       0.21902229345316104 0.04447071599306729
0006d0 01 47 4a c2 65 4a da 3f cb b5 04 7a ed 2b c2 3f
       0.4107908627857882 0.14196556528024326
0006e0 b9 c0 86 93 52 78 cc 3f b2 84 70 e7 1e ad d9 3f
       0.22242195323406636 0.4011914501334771
0006f0 4b 49 9d ca 03 f0 bf 3f 2f 4a 4b 0f ac 7d c2 3f
       0.1247560853637754 0.14446020838529836
000700 c6 04 6c a6 d2 39 9d 3f 79 4b d6 6f 3c e3 bb bf
       0.02854088917502364 -0.10893609743497547
000710 df a2 50 7a 38 0d 98 3f 91 a1 38 1c 9c d7 a9 bf
       0.023487932649149165 -0.05047309727189309
000720 5a d5 90 50 4c e9 d2 3f 7c 55 28 59 71 99 d6 3f
       0.29548938625096854 0.3531154032401316
000730 ec 35 8b 97 f9 64 e0 3f 62 3f 1a 67 7c a3 a0 bf
       0.5123260459747008 -0.032497298799283994
000740 57 be 79 ab 70 82 d8 3f ae d0 86 2f ee 40 e0 3f
       0.38296143289241996 0.5079260757688837
000750 8c a2 28 30 85 bf ba 3f a0 3c c5 8d c7 e8 bc 3f
       0.10448486734152079 0.1129269333953169
000760 f5 97 11 a1 3c 30 de 3f 78 4e d9 61 74 9b d1 3f
       0.4716941426216857 0.27511319690277203
000770 fb 71 0c 7a 9d e1 da 3f 48 38 68 8e 67 10 b1 bf
       0.42002045553979855 -0.06665656306015066
000780 5a ae 2c 49 58 12 c7 3f 95 c6 91 46 81 fe ce 3f
       0.18024734089827882 0.24214187570355664
000790 40 8e d8 08 be 6f d0 3f 56 58 c8 f9 77 10 cf 3f
       0.2568202101121848 0.24269008346954263
0007a0 8f 24 aa db 27 9f df 3f fc d3 c5 2d 22 f9 d6 3f
       0.49408909274695473 0.3589559027671496
0007b0 ef 2b 4a 66 2a 39 85 bf 35 36 31 1c ab 10 9c bf
       -0.010362941023478426 -0.02740733489581811
0007c0 8f e6 47 a1 fe ba be 3f 0b 04 24 9d 8e 73 dc 3f
       0.12004081189652481 0.4445530447556513
0007d0 4a fe ac 29 14 7b 9a bf 08 51 dd 75 0b 42 a3 3f
       -0.025860133212743976 0.03761325658584452
0007e0 8f 85 4a 37 8c 31 c0 bf 21 31 1c b5 87 12 be bf
       -0.12651207637558712 -0.11747024699815657
0007f0 21 7a 2d 96 bf ae b6 3f 70 1c b5 b4 a3 83 d7 3f
       0.0886039487499848 0.36740963599408527

lin1.weight f8 [16, 32]
000000 af 4d aa f4 93 46 a3 bf 2e cc cd 6b 7e 28 b2 bf
       -0.03764784204136206 -0.07093038684779238
000010 19 53 b8 91 3b 1c c7 bf 03 02 dd 55 fb 45 c1 bf
       -0.18054909339175465 -0.13494817440552262
000020 71 70 7f 28 16 02 6d 3f e9 ab e8 99 85 15 d1 bf
       0.0035410340096700345 -0.2669385912910785
000030 be fc 12 f4 0c d2 c1 bf f3 98 43 d1 c0 cd a3 3f
       -0.13922273557361636 0.038679147286346714
000040 f5 48 9d 88 e0 f8 a8 3f 38 2f 78 1b 25 23 5c 3f
       0.048773781467973544 0.001717363584137167
000050 da a7 97 90 d3 10 aa 3f e8 f1 9f f2 62 45 ad bf
       0.05090962543529516 -0.05717000209549267
000060 45 85 e2 a1 bb 67 aa bf c0 f9 80 1a 51 8c ae bf
       -0.0515726695168817 -0.05966428230793808
000070 08 92 72 98 18 c1 c4 bf 17 25 e8 63 0a 49 a6 3f
       -0.1621428245899923 0.04352600545468926
000080 c9 56 03 cd 20 ed 9a bf 47 98 df a5 dc 33 bd bf
       -0.026295197022441017 -0.1140725998844526
000090 f2 de 3e 57 89 1c c9 bf a6 89 4f 5a 65 35 b5 bf
       -0.19618336448706192 -0.08284600691653185
0000a0 f9 40 1c 41 77 bd b3 bf 05 bc e1 6f 10 d7 57 bf
       -0.07710976924522929 -0.0014550838964415569
0000b0 29 de 25 4e fa 07 a1 bf 5f 47 d4 75 c4 a0 9c 3f
       -0.033263990439931064 0.02795702904865693
0000c0 38 1b 06 dc f4 0a b9 bf 5e 7f b7 ba 29 88 ca bf
       -0.09782343265224547 -0.20728036515265108
0000d0 88 de 77 a0 7d 7a c3 bf 07 9e a1 46 62 7c cd bf
       -0.15217562041629074 -0.23035839508814623
0000e0 62 cc 85 5b 0e f3 72 3f 26 a8 cc 0a 9e 9e 50 bf
       0.00462632759478074 -0.0010143798237529727
0000f0 09 7f d8 f8 80 e1 9b bf f0 c4 16 3b 1b 9e c0 bf
       -0.027227416218123888 -0.12982502351000091
000100 2b ee 9a fb 05 a8 c3 3f 48 a9 ca 17 16 7d c1 3f
       0.15356516633424752 0.1366298309488434
000110 14 4d 50 1c b8 79 d1 3f 48 9c a9 03 d1 40 dc 3f
       0.2730541492939704 0.44145608289403926
000120 41 7b 64 d6 27 25 b8 3f dc aa f3 04 00 d9 da 3f
       0.09431694969360384 0.4194946335179972
000130 5a e2 46 71 ac d6 ae 3f f5 fc 4c 74 4c a4 dc 3f
       0.060231579616303946 0.4475279937505115
000140 84 1b 3e d3 91 b1 da 3f 4e 4c 18 82 3d c6 b4 3f
       0.4170879900852287 0.08114990640778894
000150 76 e4 9d 1a 7a be d7 3f 61 dd 12 3e 4d 10 c3 3f
       0.37100079154294663 0.14893498927061002
000160 71 cb 8b 88 77 74 d2 3f a4 df f5 ec 79 a2 ba 3f
       0.28835857710435336 0.10404169116179546
000170 2c 46 60 f0 4a ea d9 3f 32 6a 6b 98 90 90 ba 3f
       0.4049250934050146 0.1037683841817987
000180 87 ab af 09 49 5a d4 3f cd 96 f7 1f 98 da d3 3f
       0.3180105776397614 0.310216933458247
000190 38 a5 59 36 f3 65 cf 3f d5 0a 6b cb 07 61 d4 3f
       0.24529876855675936 0.318422268534204
0001a0 e5 05 c2 0b 74 f8 db 3f d3 7e 28 0b 1a ea a9 3f
       0.43703938625557576 0.0506141794796783
0001b0 b9 b3 04 de 1f 39 c2 3f 41 ff a9 a5 18 0e ca 3f
       0.14236830082645982 0.20355518426003452
0001c0 a6 c5 b0 e0 4f 5c bf 3f 9d de 97 d8 e3 50 d9 3f
       0.12250231967552469 0.3955621352356305
0001d0 fc 1a b5 c3 95 48 c7 3f d5 91 32 61 0a 69 bc 3f
       0.1819026189425229 0.11097779152857552
0001e0 34 13 ba 4a ce 69 a0 bf 08 09 84 27 10 7c a8 3f
       -0.03205723440354405 0.04782152635927345
0001f0 64 cb 12 94 a9 47 dc 3f c7 a2 b2 4a 48 a8 b1 3f
       0.4418739267377332 0.06897403548885982
000200 fe e5 67 1e 05 e2 90 bf e7 6d c0 04 fd 11 b0 bf
       -0.01648719785769081 -0.06277448049552668
000210 dc 3b e0 27 a4 29 c7 bf 21 7d 82 32 99 a0 c1 bf
       -0.18095828959528049 -0.13771357504172335
000220 10 15 fd b1 e3 6c 27 bf 8a fc 57 92 8b 01 ad 3f
       -0.00017872123225452135 0.056652413953991745
000230 af 50 a9 39 8e 95 c9 bf de 0d 13 58 e5 9c cd bf
       -0.1998765737104171 -0.23135058212765974
000240 7c 44 27 c6 5b 09 c3 bf 40 ce ee ff c8 e4 cb bf
       -0.1487230985208362 -0.2179194688484234
000250 d2 6f a0 e6 a8 8a c5 bf 68 83 c3 28 41 28 b6 3f
       -0.16829406033582345 0.08655173535545446
000260 20 86 6e 6e f6 34 b8 bf ab 60 4f 0e 59 7c a9 bf
       -0.09455814548575647 -0.04977682399447877
000270 04 8d 75 83 6d 47 9b 3f 1f 27 f5 ec 6a 7d b6 3f
       0.02663966288436105 0.08785122189615578
000280 36 04 2f eb c6 84 a6 bf 3d 7a c3 5f da c1 b8 bf
       -0.043981758316939 -0.09670796239832043
000290 41 6e 12 cf 81 41 ac 3f 6c 21 37 59 cd 58 98 3f
       0.05518727925047218 0.023776253290436797
0002a0 90 4e 9a 3e f2 74 a4 3f 28 a5 b5 c6 8e a5 79 bf
       0.03995472921556342 -0.006261403770033959
0002b0 34 40 09 ce 5c fb c2 bf 0c 56 a3 82 7f 06 ca bf
       -0.14829597530706595 -0.20332330588159697
0002c0 18 34 9e 49 9c f3 8c 3f 32 1f 5a 83 b9 8e c5 bf
       0.014136525150911836 -0.16841811097787623
0002d0 f7 7d 5a 4a 8b 43 ce bf 59 d5 a6 41 be 68 c0 bf
       -0.2364362824491619 -0.1281965084614665
0002e0 ee 5c 29 d4 10 b7 47 3f 69 20 e4 27 d3 da 69 3f
       0.0007237274333630453 0.003156101621360864
0002f0 23 d9 b6 f9 c0 5d cc bf e0 64 20 38 77 96 c0 bf
       -0.2216111392314782 -0.12959184876016305
000300 90 8c 47 b0 88 28 a3 3f b3 b3 b2 91 5b 54 73 bf
       0.03741862441872812 -0.004719121639181023
000310 1b a5 d6 33 04 bc b9 3f 20 eb 6b 52 39 91 b4 3f
       0.10052515283191037 0.08034094106907874
000320 54 92 87 04 ff 1b 66 3f 94 57 d9 f3 b6 34 bc 3f
       0.002698896485741545 0.11017936185211702
000330 8f 61 a0 ed ba b1 67 3f 5e 40 d2 01 72 eb af 3f
       0.0028923655454599693 0.06234318039162255
000340 11 24 86 9a 4f 53 a6 3f 63 47 a3 af d6 18 9c 3f
       0.04360436211852215 0.027438501806336456
000350 e9 d0 91 27 a3 c5 b4 3f 10 cc 8a 93 fc 15 b5 3f
       0.08114070621542492 0.08236673929313576
000360 a9 2e d5 24 5b d5 a9 3f c3 c6 97 9e df 3e b0 3f
       0.05045590233438919 0.06345937368294145
000370 e0 30 76 04 4c fd b6 3f 08 07 97 5a 55 1e ac 3f
       0.08980250462463202 0.05491892557939876
000380 eb ee 62 70 25 bf b0 3f 78 0d 3b 25 ad 33 b3 3f
       0.06541666024980557 0.0750072685141755
000390 24 49 71 b0 2a 24 aa 3f eb 21 79 05 fe ec ba 3f
       0.0510571804412783 0.10517871507284553
0003a0 41 d7 a6 6e d3 c4 bd 3f b1 68 a5 42 59 34 a9 3f
       0.11628457499940927 0.04922751368094803
0003b0 6d 56 7f 30 86 46 91 3f cf 4b 4d b4 e9 5b 62 bf
       0.016870590887114668 -0.002241093114585514
0003c0 12 65 96 f5 ec 98 ac 3f 0a e8 a0 b5 02 29 b4 3f
       0.05585422990697898 0.07875077184954207
0003d0 a5 8b 2f 44 54 95 94 3f 15 92 8e 04 7f ad a7 3f
       0.020100895559049942 0.04624554567934439
0003e0 75 fb 9a b8 ad b1 95 bf 8c ff e4 ca 1c f4 b1 3f
       -0.021185602562350653 0.0701311107013664
0003f0 d8 6a 66 5b 25 46 b7 3f b7 92 77 cf 4e 14 6c bf
       0.0909140918869683 -0.0034276522890074007
000400 06 fa 96 29 c5 da 4c 3f 7b 5c 3d f5 21 4c 98 3f
       0.0008805716235469891 0.023727923005335754
000410 19 b6 9c 9f 56 cd ab bf 37 7d a5 42 20 66 a0 3f
       -0.05430098245993182 0.032029159675170886
000420 b6 ee d6 8b cc 53 64 bf ca 8f 5d c3 3c 85 8a bf
       -0.002481364731208159 -0.012949442588883548
000430 26 3d 55 84 72 83 50 3f 5a 3a a3 4a 4b 56 c4 bf
       0.0010079019860603305 -0.15888348717131145
000440 16 5f 65 ba 1a 85 c5 bf eb d8 b0 1c db 21 bd bf
       -0.16812452412954632 -0.11379785013636805
000450 e8 1a 52 52 c8 c7 c2 bf b6 ac cb 48 59 32 80 3f
       -0.14672187823835903 0.007908532651944671
000460 48 23 c8 43 a9 70 a9 3f 00 1b 84 c3 a6 a1 63 bf
       0.049687661670822225 -0.0023964173416318735
000470 85 6d 1f 65 5c e2 9f 3f 74 d0 4c 36 c0 c0 a6 3f
       0.031136935874980693 0.0444393221172569
000480 6e 30 81 79 4a 7b 76 3f 33 e6 9c ff 1b 10 c4 bf
       0.005488673130525352 -0.15674161892984415
000490 59 0b 5f d5 d4 d8 bb bf 54 d1 35 33 9d d4 33 bf
       -0.10877733430156179 -0.0003025897778663651
0004a0 15 81 7d 65 83 33 ca bf eb 14 7c 43 c2 87 72 3f
       -0.20469706016138703 0.004524000971064294
0004b0 da 75 e7 87 4d 1a cb bf b8 48 8c d5 c1 5f 96 bf
       -0.21174019943184313 -0.021849659594473464
0004c0 6c ea 44 08 85 d5 c2 bf 01 51 af ce eb 10 b6 3f
       -0.1471411028267825 0.08619569583908417
0004d0 0c a7 47 7a 40 41 b2 bf d5 91 78 cc db 90 c7 bf
       -0.07130816445683424 -0.18410823329862916
0004e0 4e 41 91 8c 13 13 80 3f 61 f6 99 99 cb fd 79 3f
       0.007848885276104636 0.006345553696176149
0004f0 4b 65 1b ac c2 23 cc bf c7 39 62 d6 d2 0f c1 bf
       -0.2198413219801217 -0.13329539745286764
000500 0d cc 12 d1 b3 78 7f 3f e6 c2 e8 91 d4 3f 67 bf
       0.007683470162350947 -0.0028380538708677626
000510 ab f0 3a 7d 3d ef c6 bf 6c 67 2c 32 a6 5c 79 bf
       -0.17917603125340995 -0.006191872790418756
000520 57 e6 33 31 2e 47 5f 3f b0 79 ef f3 76 86 6e 3f
       0.0019090605827031448 0.003726227121190827
000530 3b 06 1a 11 4c 2b b6 3f 01 58 52 11 1e bf a9 bf
       0.08659816186448037 -0.05028623544164646
000540 2f 8c 12 aa dd a3 ac bf c5 e8 fc 06 95 7e ab bf
       -0.05593769742088061 -0.05370012007047501
000550 33 47 cb 93 18 6f c5 bf c3 2b db 0f 21 ce 74 3f
       -0.1674528810167942 0.005079392574496691
000560 c8 2c 91 ce 89 15 b3 bf 5c 4c c7 68 f0 13 81 bf
       -0.07454739850179515 -0.008338812062822658
000570 8d 15 6f e1 24 47 7e 3f 2c 1b 93 30 a4 b3 a3 3f
       0.0073920670174109195 0.03847992985679691
000580 9f 3d 10 db 79 24 b5 3f ad a7 3f 7b ca 46 c0 bf
       0.08258782957294962 -0.12716036813736534
000590 de 24 2b 73 12 d5 b8 3f 65 b9 e1 4d 40 1b 81 bf
       0.09700122176868173 -0.008352758766900956
0005a0 03 b5 86 76 ba 65 b4 3f 27 b6 50 fd 21 05 74 3f
       0.07967725175577205 0.004887707492384353
0005b0 fd ff fc b2 7f 4a c8 bf 47 91 2a e4 07 5b bf bf
       -0.18977352370893633 -0.12248277016130259
0005c0 0c 26 bd 25 a2 66 81 3f 14 fe ae 5d aa be af 3f
       0.008496538902949012 0.06200153726194571
0005d0 26 c9 43 47 08 49 b7 bf aa 94 66 41 50 4c b0 bf
       -0.09095813503134717 -0.06366445156762049
0005e0 10 6e 07 2b 4b ec 7b bf cd 35 69 27 e4 40 37 3f
       -0.006817144036598957 0.000354819966933953
0005f0 70 13 e5 5b 64 30 44 3f d7 fc 91 8b 7e a7 c4 bf
       0.0006161203416828864 -0.16136152090982733
000600 b5 e7 41 c3 f5 2c d4 3f ba 33 95 a7 a0 0c b1 bf
       0.3152441412745433 -0.06659893123033003
000610 91 c6 7e 75 9a 06 d9 3f 99 cc 71 a2 9c 5b ca 3f
       0.39102803682463 0.20592077190267302
000620 99 3e 74 0c 46 e2 95 3f d2 f1 8e 47 24 0b c5 3f
       0.021370977888237695 0.16440251821576496
000630 1c 2c fc 7b 9f 98 53 3f 4d bb 69 58 83 01 de 3f
       0.0011960561241177786 0.46884235033114835
000640 66 82 1d 45 41 e8 dd 3f 94 d8 fb 13 3f 6f c7 3f
       0.4673007178262537 0.18308247066278638
000650 d5 98 80 d2 e8 85 d9 3f 2c 5b 08 bd 0c d9 d8 3f
       0.3987981849371754 0.3882476659795653
000660 5a 56 ae 9f 9e 27 dd 3f f3 de 08 e2 89 89 d3 3f
       0.45554318994377285 0.3052696902627609
000670 f5 1a 51 9a 8e 0c d7 3f a3 04 32 5f 9f e0 d5 3f
       0.3601414210319683 0.34183487221168657
000680 4f aa e6 02 55 8d d6 3f 98 71 4a 13 51 0d d2 3f
       0.35237622531227414 0.28206278690211084
000690 b2 0d a8 2b 23 08 d3 3f 75 0b 39 13 d8 8d c9 3f
       0.2973716665585143 0.19964123667349623
0006a0 ba 18 d3 f9 ec 7a c2 3f 8d a1 87 10 7b 4f a0 3f
       0.14437639425722698 0.03185638977794545
0006b0 8d d5 74 5c 9f 5e c3 3f bf ea 9b c4 99 10 d2 3f
       0.15132514967414715 0.2822632236490498
0006c0 9b bf fb 74 34 d6 c1 3f 71 30 27 ea 6a 1e d7 3f
       0.13934951507644375 0.3612315451289368
0006d0 f8 fa 55 e4 25 aa b4 3f 73 52 35 f2 ce 91 d5 3f
       0.08072125267606711 0.33702443745759253
0006e0 da 47 4c 5f 21 53 99 bf 19 66 e0 bf 6e 93 ae 3f
       -0.024731179658438275 0.059718571588927634
0006f0 03 dd c5 1d 45 e1 de 3f b8 94 89 01 e8 c3 9d bf
       0.48249938876638526 -0.02906763562568379
000700 3e 38 a2 02 1a c4 be 3f 0a 6c d9 81 80 4b b7 3f
       0.1201797729902134 0.09099581880711596
000710 c9 21 2b 40 5e 29 d8 3f e9 71 c4 0d 55 e7 dd 3f
       0.3775249125142435 0.4672443994948297
000720 b6 f3 57 fd 3a c8 80 bf 03 d8 cb cf f2 b2 d5 3f
       -0.008194409233505211 0.33904714863399493
000730 9c 0f 24 00 9e 3b cd 3f 32 23 e8 18 52 08 c9 3f
       0.22838187224271855 0.19556642738486968
000740 09 73 68 d0 e6 26 dc 3f 9a c1 d5 f1 c4 2b cb 3f
       0.4398743663057734 0.21227323349331756
000750 58 d6 5c a0 a6 5d d7 3f d4 94 f4 ca 5c c6 cf 3f
       0.36509099636473286 0.2482410422318596
000760 cf b1 e4 e8 44 b6 d1 3f 56 2e c5 a7 a3 a7 c5 3f
       0.2767498277997022 0.1691784447851769
000770 41 17 6d fd a3 2c dc 3f 59 79 e3 f0 60 08 d7 3f
       0.4402246451248751 0.3598863937785573
000780 e0 cc 7f 88 d3 51 ba 3f f3 05 8c 12 7b e8 d9 3f
       0.10281107027531133 0.4048144990084374
000790 39 48 ff 59 75 74 d0 3f 2e 4c 91 95 62 63 d5 3f
       0.25710805691517497 0.3341909847851551
0007a0 dd 7c a8 5f 64 8a cd 3f d4 06 74 78 7a 43 ab 3f
       0.2307858912545048 0.05324919433952649
0007b0 5e 84 66 c2 18 e5 d8 3f 9b 21 e4 13 11 2b da 3f
       0.3889829538766828 0.4088785833596604
0007c0 f8 f2 c1 27 aa 28 dc 3f ea f7 22 8a 48 2e c4 3f
       0.4399819744356104 0.15766245598746248
0007d0 3e fa cc 45 04 85 d3 3f 79 0f 4c 08 7c 11 d8 3f
       0.3049936944625279 0.37606716928734546
0007e0 8f f6 40 18 09 34 a0 bf 0a 2a 16 62 cc 39 97 3f
       -0.03164699956003602 0.0226814207904145
0007f0 b6 e6 ec 0d a3 15 c1 3f 25 86 d0 f7 96 2b a7 bf
       0.1334728067393393 -0.04525443816261213

lin1.bias f8 [16]
000000 ca fb 13 91 19 e2 9e bf e4 f9 0e 0e 02 c6 da 3f
       -0.030159377555715662 0.4183354508676571
000010 7c d2 39 b2 05 77 8b 3f 0c b2 58 a9 4d f2 d4 3f
       0.013410610677263117 0.32728902375927826
000020 92 f2 82 b4 7a c1 ac bf cd 07 6e 9a b0 d3 b1 bf
       -0.056163630042168525 -0.06963638086565922
000030 06 9e 13 7b 9f b6 dd 3f 31 4c 5c 8c 39 c9 d2 3f
       0.46427142161562107 0.29353178698619603
000040 94 61 52 77 04 78 b6 bf f2 99 4c 80 d5 1f a3 3f
       -0.08776882088785093 0.03735224906113278
000050 46 00 97 24 9d 29 a9 bf 57 2a d1 49 fd 0a df 3f
       -0.04914561340001504 0.4850457402104999
000060 cd 2d 3a 77 c3 c5 b8 bf 44 a3 3e 46 3e c4 7f bf
       -0.0967676321108037 -0.00775551153120874
000070 01 b3 20 78 38 a7 d5 3f 1e e2 5f 6f ca a4 a8 bf
       0.33833133441184776 -0.0481322537379507

lin2.weight f8 [1, 16]
000000 24 d8 ff 8f 9d 33 a1 bf e7 f8 5a 9f 2b d0 d5 3f
       -0.03359691984944416 0.34083071291014594
000010 be d8 0a b6 58 bc 82 3f 59 62 f0 41 f1 0e b1 3f
       0.009148304992191544 0.06663425311888584
000020 0d f7 54 db 6d 6a 8a bf 6e c5 65 ec 12 62 a3 bf
       -0.012898309951761467 -0.03785761962616162
000030 5d 8b 1d cd 59 31 df 3f a6 20 36 e1 ab 3f d8 3f
       0.4873871329383997 0.3788861941652705
000040 f9 43 d1 0b bb c9 ad bf 55 97 d2 2d 00 1c b5 bf
       -0.05817970771079923 -0.08245850676266049
000050 f5 12 c3 a2 ef 58 a7 3f d8 a0 65 5b 15 d0 d4 3f
       0.0456004034217922 0.325200404410237
000060 d0 06 fe d4 08 21 b0 bf 5e 8a b1 90 9a 15 b2 bf
       -0.06300406646735301 -0.07064214737469274
000070 49 c2 a2 fb 8a 6f dd 3f 1a f6 92 33 75 53 93 3f
       0.45993303846174577 0.0188730538109124

lin2.bias f8 [1]
000000 96 ac a5 b6 46 64 cd 3f
       0.2296226875144824
