Q1/models/lastmodel.pth (torch, 14767 bytes, 16 tensors)

batch_norm0.weight f8 [1]
000000 2b a2 43 15 be 7d be bf
       -0.11910617846627562

batch_norm0.bias f8 [1]
000000 2d 54 94 b5 07 1d e5 3f
       0.6597937151406136

batch_norm0.running_mean f8 [1]
000000 6a f3 e5 00 cb 16 51 40
       68.35614035087715

batch_norm0.running_var f8 [1]
000000 f6 f9 4c 7e 20 7c f9 3f
       1.5928044255848568

conv1.bias f8 [16]
000000 48 a2 5a 43 3e 5f 19 3f f3 53 4f ac 45 36 51 be
       9.67866661435525e-05 -1.602992473814095e-08
000010 7c cf ab 13 13 94 05 3e a4 d8 f5 60 af 36 13 bf
       6.280145633931733e-10 -7.329411913823081e-05
000020 76 ea ca 83 b6 df 5a 3e 88 1e 1d af 4d d5 b5 be
       2.5028249905503235e-08 -1.3013611206025186e-06
000030 3c cd 8c 19 f6 81 22 3f 80 a9 f7 67 51 90 4d be
       0.00014120225093847995 -1.3766690231326876e-08
000040 06 00 e0 84 d8 ac 29 be 38 f9 77 60 cc a5 55 bf
       -2.9889842051086826e-09 -0.001321267687557871
000050 05 1a a4 ca b1 8c fb be 20 29 57 50 38 d7 f8 3d
       -2.6273334392557332e-05 3.6147980471800476e-10
000060 68 a1 47 94 a0 20 de be 29 bf b4 e6 60 b5 74 be
       -7.182943879226494e-06 -7.714521082081524e-08
000070 2c 0f e3 cc 8a 57 2b 3f 62 3b ef 1f 86 a3 30 be
       0.00020860261287768947 -3.8740144416640734e-09

conv1.lin.weight f8 [16, 1]
000000 f5 ff a7 96 7e 62 76 bf fa d2 38 d4 31 1c 86 3f
       -0.005465025411922388 0.010795964516640211
000010 d6 51 cf ba a5 7c 85 3f 9a 78 c5 a9 65 0d b5 3f
       0.010491652263149225 0.08223567385491251
000020 b2 4b 33 45 f4 3e 76 bf 6c 89 f7 fb 93 09 83 3f
       -0.005431131535447985 0.009295612456246181
000030 b5 eb 80 9d e3 f2 7a bf a5 ad fd 4e 68 e6 90 bf
       -0.006579293367447049 -0.01650393468973523
000040 51 ee 3d 49 b8 d5 8e 3f 45 43 f3 be 73 ff 78 bf
       0.01505607579723925 -0.006102993137759698
000050 ae 89 96 63 44 0a 78 bf ed c5 9c 06 7f 21 77 bf
       -0.005869166512101049 -0.005647178835532324
000060 27 bc b0 8a e7 0d 7f 3f d0 ce 60 b8 d7 07 7b bf
       0.007581619701382747 -0.006599276215684305
000070 31 4f 7c 12 ae f0 78 bf 60 33 34 00 6c 0f 76 bf
       -0.0060889053054500744 -0.005385801199065593

batch_norm1.weight f8 [16]
000000 e6 d8 6a 24 3c 0f eb 3f 9d bf 16 50 fb c6 e9 3f
       0.8456097327496337 0.805539757178838
000010 fc cf 7e 01 7c 4a e7 3f 9c 6b a4 b8 23 74 e5 3f
       0.7278423337179443 0.6704271894735601
000020 cc 69 0e 31 5d 2d eb 3f dd a7 7d 40 1a a0 e6 3f
       0.8492876012926955 0.7070437678896685
000030 6b 0a 64 d3 90 9c e9 3f 29 e2 5e 50 0e 27 e4 3f
       0.8003620270467996 0.6297675676096947
000040 b8 ff 67 67 fc 71 e7 3f 64 82 93 a7 66 92 ea 3f
       0.7326643008855092 0.8303712151501483
000050 7b 4c a0 e7 81 72 eb 3f 3e d6 dd 4f f3 9c ec 3f
       0.8577279590557646 0.8941589889424859
000060 ef ec 65 8a 4a 39 e8 3f 31 d3 55 24 3e 1d ea 3f
       0.7569935515488434 0.8160696706459928
000070 fa 8f 19 aa 9a 71 eb 3f d9 83 b1 1f d4 01 ec 3f
       0.8576176950705297 0.8752232188236305

batch_norm1.bias f8 [16]
000000 5b 9d 27 5d 91 82 e4 3f 96 13 91 53 19 eb e3 3f
       0.640938455527173 0.622448600021573
000010 33 5b 72 1f 4e 8d e1 3f 98 2f 32 ec 5b aa dc 3f
       0.5484991659348907 0.44789789262790114
000020 84 22 72 69 b7 c5 e4 3f fd 12 4b ff c9 8f de 3f
       0.649135309170632 0.4775261872385242
000030 8b bd db 30 d2 63 e7 3f 21 02 9d ab 47 e9 dd 3f
       0.7309351877465117 0.4673632789527194
000040 2c d4 47 92 0e c0 e6 3f 42 1d d5 fb b0 57 e6 3f
       0.7109444481890299 0.6982045096018867
000050 35 7e 6e a9 91 56 e6 3f ad 70 56 98 b1 6f e6 3f
       0.698067503853912 0.7011344886154994
000060 3d ea 30 93 e9 5c e4 3f a7 34 9b 26 cf b1 e7 3f
       0.6363418459726017 0.7404552225140336
000070 2f 66 65 ba 05 31 e7 3f 4d da 4a 1e 28 4a e5 3f
       0.7247341766880647 0.665302333035308

batch_norm1.running_mean f8 [16]
000000 d6 54 f0 02 96 66 70 bf 25 d5 de 52 4d 00 80 3f
       -0.004004083616583295 0.007813076106553194
000010 d8 c5 a3 08 44 19 7f 3f 02 ef cc 07 85 ad ae 3f
       0.007592454678375181 0.05991759987088409
000020 68 61 93 0a 2c 78 70 bf 57 54 b8 cb 10 7f 7b 3f
       -0.004020854984638646 0.006712976082345077
000030 41 f6 4e 9b 57 cf 73 bf 02 da ef a2 ac 71 88 bf
       -0.004836408818787386 -0.011935566637458987
000040 3c 66 62 e2 30 a4 85 3f 43 89 65 cf d2 bf 71 bf
       0.010567075642302297 -0.0043333277484143866
000050 c2 57 93 db a2 7b 71 bf 18 64 b4 2a b6 c7 70 bf
       -0.004268299258191223 -0.004096709813233644
000060 38 5b 98 e8 8d 6d 76 3f 60 3b c2 2d 2b bb 73 bf
       0.005475572901125152 -0.004817169825527795
000070 8c 55 b3 7a 13 29 72 bf 20 c5 70 00 ad 3a 70 bf
       -0.004433704463015952 -0.00396220759198343

batch_norm1.running_var f8 [16]
000000 8f cd 2b 40 9b a9 a1 3e 37 42 89 3a 73 dc c0 3e
       5.263842698097415e-07 2.01000371572609e-06
000010 24 b8 3c ff 47 d8 bf 3e c3 36 be 69 d0 fd 1e 3f
       1.8981008879748087e-06 0.00011822304298744327
000020 6f 95 a7 ac 91 dd a1 3e 68 a8 5f cf df e4 b8 3e
       5.324335117766735e-07 1.4838004154202033e-06
000030 c8 a1 5a 63 fc bb a9 3e ea 75 4d ff fb ad d3 3e
       7.669424976946557e-07 4.691988569086625e-06
000040 f2 01 dc b4 3a dc ce 3e 14 34 00 b7 e5 52 a5 3e
       3.6788309561999077e-06 6.354992887494764e-07
000050 53 56 45 1b 66 23 a4 3e 9b 9f 62 a4 3b 8b a2 3e
       6.001674166903976e-07 5.526506548130212e-07
000060 70 5c 71 ca 12 91 b0 3e 22 2e 3b 33 75 a3 a9 3e
       9.874518498620572e-07 7.640870535950709e-07
000070 70 07 98 f2 4c a9 a5 3e a6 a5 66 8f cb 58 a1 3e
       6.455579512622895e-07 5.169765973551057e-07

conv2.bias f8 [32]
000000 32 ff 73 1d 23 1f df 3f e6 a2 c2 5e 65 2e 42 bd
       0.4862754619243673 -1.2918543948962637e-13
000010 9d ea f9 6a a8 9b e3 3f 5f d5 2c c4 0c 28 e4 3f
       0.6127512063388455 0.6298888999505542
000020 c7 ef 43 29 bd 08 0c c0 18 da b1 a0 a6 3c e2 3f
       -3.504267046342622 0.5699036730355287
000030 84 5e a8 ee f0 87 d2 3f b8 f8 2c f5 45 bc e3 3f
       0.2895471888200307 0.6167325771891887
000040 7f 4c b9 bc e8 81 e4 3f db 8b 30 4d dd c2 df 3f
       0.6408580480587175 0.49626858270693014
000050 54 e6 90 ce 8b b4 e3 3f 63 f9 36 f9 83 39 e3 3f
       0.6157893213741752 0.6007709376788565
000060 6f 7b 40 f2 40 25 e4 3f f2 18 a2 f6 f7 17 e0 3f
       0.6295475703699206 0.502925855355697
000070 b8 11 49 3d 5c 32 e3 3f be 37 46 0c cb fc e1 3f
       0.5998974987965573 0.5621085395557583
000080 34 f8 76 8e 11 dc e2 3f 40 8f 8f 87 77 32 e4 3f
       0.589363840342918 0.6311605117484547
000090 3d 9f 8c ef 95 0f e3 3f 3c 9b 6d 6f d0 4d 02 be
       0.5956525496194228 -5.327153985784475e-10
0000a0 17 fb b7 66 68 cc df 3f 06 c5 65 3c 06 dc f0 3f
       0.4968510630714475 1.0537168845442593
0000b0 49 b1 2c 36 8e c0 e2 3f 0f 1d c5 49 f5 53 e2 3f
       0.5860053117844838 0.5727487984485452
0000c0 ca 61 84 24 e2 6d e2 3f 5e c7 0c 89 09 3f e4 3f
       0.575913497278685 0.6326949764972871
0000d0 5c 07 d9 0d 7b 10 e2 3f 02 9a 32 f5 24 36 e2 3f
       0.5645118017639379 0.5691094197289319
0000e0 f6 b0 c5 65 7b 7b 75 bf d5 26 d7 a6 a6 ba c5 3c
       -0.005244714757605564 6.031038280854082e-16
0000f0 1c 78 0a a7 de ab e4 3f ce 5b 9f 71 52 06 b1 be
       0.6459801924245343 -1.0147509272773e-06

conv2.lin.weight f8 [32, 16]
000000 d1 ab 2d 5e 9a c1 a6 3f a6 83 63 2b c3 c6 a7 3f
       0.044445823665988045 0.04643831162116578
000010 22 93 47 ba b7 d4 a2 3f 94 d0 98 2d bc 7c 97 3f
       0.03677915715142023 0.022936764033332738
000020 6e 60 0c cd 87 16 b5 3f 5c b8 51 cd 79 95 8c 3f
       0.08237503772795815 0.01395697744211704
000030 d0 75 81 e9 ef 27 b3 3f 4a e8 ba 62 fb 52 75 bf
       0.07482814265082216 -0.005206090903522373
000040 0e 8f 70 50 e0 f8 95 3f f8 64 72 7c 90 eb ad 3f
       0.021457199964188205 0.05843783873678804
000050 46 88 0e d9 80 bb b7 3f b4 9c 8d 36 d5 5c a9 3f
       0.09270482348668549 0.049536383542368695
000060 9d 38 4d 1f 60 51 a7 3f 6b aa a0 0d af 7f af 3f
       0.04554272062397156 0.06152102509834808
000070 c3 80 8c ca 1e f8 a1 3f f6 44 f2 17 77 20 b0 3f
       0.035096132493209996 0.06299537977817579
000080 40 24 20 11 9b 1a 3e bd 26 86 0e ba ba f4 44 bd
       -1.069506390403319e-13 -1.489011525607338e-13
000090 0c b0 fa 71 d2 88 43 bd 12 de cc 0c 3c f7 42 bd
       -1.3880069459585627e-13 -1.3475983024803576e-13
0000a0 83 a8 0d 4a 3e d9 3b bd 86 70 cd ac 3d 2c 42 bd
       -9.893812599005133e-14 -1.2912562458186255e-13
0000b0 31 b2 fa 6b ea 2b 3f bd a2 45 12 85 46 77 37 bd
       -1.1074357694947189e-13 -8.336769424810488e-14
0000c0 c3 94 80 87 c0 97 45 bd cf 8c 03 93 c5 06 3f bd
       -1.5342594049673625e-13 -1.1022810129245873e-13
0000d0 af 99 c9 a7 3a 24 40 bd ca 91 57 ec 26 2d 40 bd
       -1.1469239787714995e-13 -1.1494005868733412e-13
0000e0 65 29 7a 83 b2 dc 4f bd de 9f eb 51 24 87 3f bd
       -2.2639382920249728e-13 -1.1200959430810214e-13
0000f0 03 6f 12 dc 31 1d 3f bd 36 ff 4f 55 fb fa 3e bd
       -1.1053928278662479e-13 -1.1006448211885536e-13
000100 19 21 e7 d2 ab a9 d1 3f c7 f3 82 77 26 b1 9c 3f
       0.2759809074018605 0.028019524616627735
000110 aa 18 f5 ba 47 7b a4 3f 66 96 bf 34 77 aa ad 3f
       0.04000305325694005 0.057941174687397276
000120 04 6c 74 b1 fa f6 ae 3f c7 72 82 c7 f6 59 9b 3f
       0.060478052293738954 0.026710372855279354
000130 b8 e9 4e 67 aa cc c8 3f 55 79 02 06 f7 4d 97 3f
       0.19374589962337807 0.022758350126076483
000140 a9 2b bc 37 9d 96 c4 3f 11 5d 38 9f 90 51 d2 3f
       0.1608463785308605 0.28622832821697936
000150 0f e9 3b a9 ab c6 cf 3f 02 86 3b fc a6 89 cb 3f
       0.2482504440629971 0.2151383144001074
000160 3c 7c 37 09 dc cb ca 3f cc 8a 67 4d a5 d1 d2 3f
       0.2093462986949549 0.29404575881032424
000170 55 d2 0b 31 ed 82 cd 3f 47 7a 82 61 20 73 d1 3f
       0.23055806059678 0.2726517631762459
000180 24 7f 95 58 6d bf c0 3f 54 48 fb 30 9e fe 98 3f
       0.13084189248456213 0.024408790340040135
000190 74 b7 00 05 9a 8e a1 3f 84 19 05 78 43 07 ba 3f
       0.03429108916348769 0.10167333297895281
0001a0 92 42 f8 79 c1 77 c9 3f 77 9c 1a d8 9a 80 b3 3f
       0.19896715598635645 0.07618110443091718
0001b0 c9 7d 22 4e 72 84 b2 3f de 82 ac 4a fc b7 94 bf
       0.0723334732779143 -0.020233099038821638
0001c0 70 68 42 f9 e0 fe af 3f 7d df 8d 0e 08 c2 c9 3f
       0.06249144594876632 0.20123387060788991
0001d0 39 1a 1f 7f af 81 c1 3f 48 63 d0 93 d6 8f c3 3f
       0.13677018839935487 0.15282709329110333
0001e0 0d 1c bf fc 59 1f cb 3f b4 b1 bb 31 c8 fa c3 3f
       0.2118942722429157 0.1560907595479769
0001f0 02 64 7f cb 1b ce c0 3f a7 9c 37 0e d1 e1 b0 3f
       0.13128993450553145 0.06594568822002832
000200 c7 6b a8 e5 72 dc d9 3f 86 53 af 93 a4 82 da 3f
       0.4040801279785992 0.41422380850172436
000210 07 ca 43 d9 39 08 d8 3f 35 b0 fc 70 b1 16 ca 3f
       0.37550207345262304 0.20381753937670202
000220 da 9a e8 b7 7c 8b d9 3f 32 9c ab 07 08 77 d5 3f
       0.3991386219008014 0.3353900980859549
000230 8f 93 4b d3 5e f9 db 3f 8c ba 6a 07 70 ab e0 3f
       0.43709536203669414 0.5209274430142883
000240 1c ab 7d 8f 39 95 db 3f 63 28 18 f0 36 b4 da 3f
       0.4309829617765659 0.4172494263335748
000250 44 69 24 5f e8 4d db 3f dd da 7c d2 6e e5 da 3f
       0.4266301087497093 0.42025347285691145
000260 9a cb 3d 68 02 31 da 3f 1e 7f 18 81 7a 83 dc 3f
       0.409241296575766 0.44552481276513045
000270 1f 65 e2 a9 30 68 db 3f 45 d1 e6 47 da 15 da 3f
       0.4282342585589322 0.40758378049510596
000280 55 c7 71 6d 5c 3d a0 3f 5f 1b 34 10 b8 d1 c8 3f
       0.03171814762107653 0.19390011588276487
000290 b4 a6 ed 7e 1f da b7 3f cd 0a 3b 42 45 e1 b1 3f
       0.09317204331241663 0.06984360568007304
0002a0 6b c9 0e a8 1b 8e ca 3f c0 cd 2f 2a 66 56 c0 3f
       0.20746179300256115 0.1276366907110127
0002b0 b7 4c f2 62 8f 8c ad 3f 39 71 2a 38 68 ee 95 3f
       0.05771301348536311 0.021417263439262178
0002c0 f9 30 f5 dd a7 50 c9 3f e3 ec 88 db d8 bf c0 3f
       0.19777391755849985 0.13085470885730563
0002d0 12 3b b1 09 51 91 84 3f c6 8d 75 ae 4e a4 84 bf
       0.01004279433086944 -0.01007901639849863
0002e0 00 db ab ca 9e 7d ca 3f ea 58 c6 9b ce e9 cf 3f
       0.20695862670955734 0.24932272535506367
0002f0 2a ac 9b 87 59 6d b3 3f 88 ee 41 75 6d 53 c1 3f
       0.07588729439491773 0.13535850739923583
000300 59 df 3a 45 b1 a3 a5 3f f0 be ef 60 0e 98 c8 bf
       0.04226449937908567 -0.19214038594463245
000310 96 7e 87 60 64 54 c6 bf 5c 5b 7d 8b 08 40 d4 bf
       -0.17445044244140168 -0.31640828725851633
000320 90 80 6f 7e 60 0d a7 3f 06 79 86 87 b9 88 c3 bf
       0.04502393287089135 -0.15261000745244518
000330 3c ed 6e fa 7d 9c aa 3f 9a f6 e6 96 bd 3a b9 3f
       0.05197518999144754 0.09855256017814398
000340 da f9 94 75 75 13 cb bf fe ab d6 d1 4c 17 a9 3f
       -0.2115313362246088 0.04900589047914393
000350 f4 6b aa 35 42 07 a9 3f 8e e2 26 7b 91 fb a8 3f
       0.04888350396250721 0.04879431370085739
000360 08 a2 0c 31 19 f0 c4 bf 4e ca a4 54 b4 a8 aa 3f
       -0.16357722182262102 0.05206836255310475
000370 9b 87 50 8d 40 fe a9 3f 17 33 05 8e 1b d0 a7 3f
       0.05076791501075136 0.04650961025854466
000380 63 b9 96 bf 0e 7e b6 3f e6 39 15 f6 53 4a c6 3f
       0.08786098649463762 0.17414330974356956
000390 cb 7b a3 c0 07 1a c0 3f 3e 48 94 19 df b1 c3 3f
       0.1257943812006189 0.15386570691095075
0003a0 9c 09 0d 5d 65 47 b8 3f fe 29 ed bb e9 ad 82 bf
       0.09483941575766724 -0.00912077526813437
0003b0 15 8d e9 e9 ab 8b be 3f 53 e6 13 a2 36 9b 72 3f
       0.11931871853589755 0.00454255429326052
0003c0 3f c7 c9 c8 e2 ce bb 3f c4 c0 86 26 49 2f c8 3f
       0.10862557794623927 0.1889430463902554
0003d0 c0 8c 58 90 66 46 c9 3f 06 f6 36 26 b5 55 cb 3f
       0.1974609570325807 0.21355308881713614
0003e0 6d 66 04 8f 4a 39 b1 3f 07 bf e3 69 bc 19 c2 3f
       0.06728044501905979 0.14141040010826364
0003f0 2c 43 26 e7 c2 38 d2 3f 25 83 6d f3 0a 10 d0 3f
       0.2847144372290582 0.25097917339558
000400 6e b4 81 1f 0b 0f bf 3f f6 ca 9f b3 76 6a d3 3f
       0.12132329482274581 0.3033730272428977
000410 7c e0 4c fb 1b d1 ce 3f 75 fd e6 38 e8 4e c9 3f
       0.24075650949976424 0.19772055414612635
000420 84 14 6a ac 62 75 c9 3f c6 de cc 80 61 39 bb 3f
       0.19889481943770104 0.10634431261575647
000430 b8 8b 34 e5 e0 c0 b9 3f e1 89 fd 56 80 4b 85 bf
       0.10059934230643719 -0.010397913603530764
000440 7f 9a 8a b0 1d a8 be 3f 35 ec ae 86 05 1f cc 3f
       0.11975274620145092 0.21969670368511776
000450 8a 6c cc e1 fc 58 d2 3f 1e d0 fc 7c 6e 54 d6 3f
       0.286681385523203 0.3489032955724286
000460 3c 84 5f c9 0c 57 d1 3f 95 35 90 b1 f5 08 d4 3f
       0.27093810716002387 0.313046859170606
000470 87 13 60 e9 45 c4 ca 3f 9a 09 5e 6a a6 e3 bf 3f
       0.20911477942732068 0.12456741425379506
000480 31 66 5a 6b b3 c4 bc 3f 19 f4 96 46 37 85 ad 3f
       0.11237641688276125 0.05765698181810581
000490 93 7b e2 46 43 80 be 3f ec 92 1d 7d 56 9a a2 3f
       0.11914463501532983 0.03633375432290173
0004a0 41 b7 a7 1d db fc b9 3f 97 b0 11 e1 93 d4 ac 3f
       0.10151452516558114 0.056309338783507794
0004b0 ff fe b2 a2 16 7f b1 3f b2 ca 34 a3 0c a0 b4 3f
       0.06834546539448282 0.08056715950514606
0004c0 bd b6 74 e3 95 3c 99 3f 82 a6 cf 6f de 68 c4 3f
       0.02464517784863206 0.15945034465339708
0004d0 cd 81 33 24 f9 67 c1 3f 2a 42 44 e2 ae 97 c2 3f
       0.13598551051747024 0.14525400207686917
0004e0 ba 63 f6 30 90 c1 b0 3f 0e 36 87 cc 3f e4 8f 3f
       0.06545354075787105 0.015572069577411998
0004f0 b2 fb 63 17 b3 b5 a6 3f f6 ab b9 4b 2e 54 a1 3f
       0.04435500774888314 0.033845373863037695
000500 4d bd 27 30 38 4c ac 3f 77 97 7e 02 c3 98 a4 3f
       0.05526900852043557 0.040227979712013466
000510 f8 af de 4a 63 9f c0 3f 15 2a ec e7 a8 04 a1 3f
       0.12986413150554177 0.0332386763676206
000520 c5 93 4a 17 b7 d4 d2 3f 24 b2 5c d2 ca 36 c4 3f
       0.29423310541670517 0.15792212745272238
000530 31 53 74 a5 ba 4b d0 3f 68 3c df 7f 3a b0 c2 3f
       0.25462213666587546 0.14600306743384128
000540 00 b6 8a 50 86 15 d1 3f 49 2f 8d b6 bb 05 bf 3f
       0.26693876138128303 0.12118123251746939
000550 de 43 e7 42 4f 18 c4 3f 22 ff 60 94 46 12 d3 3f
       0.15699187056318825 0.2979904603016498
000560 58 a7 97 d3 4f 7d d1 3f a9 63 5e f1 ec ec d4 3f
       0.27327342665977516 0.3269607884517947
000570 b8 66 38 4f 64 89 c5 3f b6 d0 22 df 9c 5f c9 3f
       0.16825536602191504 0.1982303704768406
000580 cd b8 88 24 48 b5 9f 3f b6 f1 17 9a c0 61 b0 3f
       0.03096497271524683 0.0639915825085556
000590 87 b4 f0 0c ad fe 9a 3f 01 af 3a 34 0f 05 c5 3f
       0.02636213675957724 0.16421690035110006
0005a0 9c 68 f3 e3 20 8c c2 3f 5b c9 65 9e c3 a6 c7 3f
       0.14490138178263556 0.18477673753984444
0005b0 20 84 38 42 8d 66 b8 3f b8 34 0d c6 bf 44 9e 3f
       0.09531481615751192 0.029559132063970067
0005c0 cd 93 d0 14 64 8d b6 3f 22 6b eb 97 32 03 c7 3f
       0.0880949545686029 0.17978508394193066
0005d0 41 ff a7 9e 79 70 c9 3f 9f 4b d5 3c 85 5f 9c 3f
       0.19874496695410396 0.02770813163563057
0005e0 c6 60 74 d7 b1 21 c1 3f a2 45 45 47 e6 fc c5 3f
       0.13384078045124265 0.17178038101205312
0005f0 1c 09 4e 54 c5 93 cd 3f bd cf 3b e6 7e 57 cb 3f
       0.23107210747191054 0.21360765687825092
000600 2d b1 ba 46 77 11 c6 3f c7 9d 6a 7d 00 6e d2 3f
       0.1724080176694626 0.28796398399068973
000610 43 84 47 fd ab 26 9e 3f 3e c9 15 c7 c5 6c 7d bf
       0.029444396337457112 -0.007183811730430199
000620 5d 75 f7 c2 ea f5 c8 3f 72 5b 9c f9 00 a1 80 3f
       0.19500479240279392 0.008119590394512353
000630 39 bd f9 01 f7 6f d4 3f f0 4b 4b e0 88 e7 a0 3f
       0.3193337935726564 0.03301646936383651
000640 33 17 64 d7 90 c4 ba 3f 4d 5d 50 2d c8 f2 d2 3f
       0.10456185587471793 0.29606823373020036
000650 2d a5 93 78 0f e1 cf 3f 8a 28 2b 8c d7 e5 d2 3f
       0.24905579936538783 0.29527844131792647
000660 78 07 f3 c1 68 76 c1 3f ed fc be fd 16 e3 b1 3f
       0.13642606229955923 0.06987136549922797
000670 c2 49 02 49 f6 1a aa 3f 52 bd e6 3b 2d 08 d3 3f
       0.05098695412847888 0.297374065873517
000680 9f 8e ef 68 ce d5 a8 3f 46 e1 7b 8e da 06 92 3f
       0.04850621252969955 0.017604269930388904
000690 25 ae 01 6e a4 84 7c 3f e9 90 2c fe 00 c3 89 3f
       0.006962435058180759 0.012578971630837947
0006a0 69 1d 08 2c a9 6c 9d 3f df 5b 5c 73 2b c6 9c 3f
       0.02873482066391145 0.028099707523406067
0006b0 ba d6 9a 2a de e1 a3 3f 2f ff ae 4d b6 69 82 bf
       0.03883260984495736 -0.008990692373003732
0006c0 0d f9 11 6c 36 ab a3 3f 83 e7 ca 78 e8 30 a2 3f
       0.03841562337128055 0.03552938913840278
0006d0 c3 22 d0 4c 1b ab b5 3f 21 4d 0f 50 07 fe ae 3f
       0.08464213013952375 0.06053183414737818
0006e0 44 68 c4 70 9f 07 a1 3f 1d ef c7 11 38 b8 b0 3f
       0.03326128245881013 0.06531095918756731
0006f0 26 2d 91 40 31 21 a8 3f 52 2f 96 20 82 76 ab 3f
       0.04712823784992741 0.05363852165018436
000700 23 81 a2 8b 1e 3f b8 3f ae 9a 3f a1 d3 cc a1 3f
       0.09471312436153716 0.03476582854618947
000710 ca f0 ca 17 d5 18 b3 3f 6d 9e a1 98 bc e3 85 bf
       0.07459766226651535 -0.010688279540956825
000720 b9 45 6d 4f 3c cf c0 3f 7b 10 19 05 d4 ab c2 3f
       0.131324328215255 0.14586878060265804
000730 2c ca 33 aa 0b c6 ce 3f 52 7c 43 41 d1 74 91 3f
       0.24041887102755888 0.01704718552434443
000740 6f a8 e0 a8 60 5d c4 3f 6c 09 76 cc 1a 0f cc 3f
       0.15909965749716856 0.21921095832301363
000750 e5 18 8b 57 35 a2 c0 3f 13 a3 13 4e 4a 17 c1 3f
       0.1299502065141446 0.13352326214160168
000760 ff 9f db 54 3c 7e c6 3f e0 7b 2b 86 97 5b c3 3f
       0.1757274069161667 0.1512326626898064
000770 62 e8 8e 74 ee d3 c8 3f 38 cd c4 a4 cb 44 ae 3f
       0.1939676350719451 0.059118617881177504
000780 69 49 0c 91 67 b3 c0 3f 9f 7b d6 d6 16 0a c2 3f
       0.13047499258443487 0.14093289842727771
000790 56 41 4a 65 9a c6 c0 3f 85 42 a7 fe e9 50 b1 3f
       0.1310608858662003 0.0676409002983381
0007a0 44 ea 40 3f 2c 11 c8 3f 72 45 fa ee ca 4b c2 3f
       0.18802407349160621 0.14293800991849143
0007b0 e1 43 35 6e a2 84 a5 3f df f0 29 8a 5b 00 6f 3f
       0.042027545884259394 0.003784350193482763
0007c0 b8 eb ba d9 a8 a1 ad 3f 41 13 1f 7c 0c 31 c7 3f
       0.05787398965681895 0.18118434963812471
0007d0 2f 71 cf 3d 75 82 ad 3f 82 ca 40 fa a0 1c b5 3f
       0.05763594035645025 0.08246809110350209
0007e0 31 3d 32 4d 4b e2 88 bf f0 37 7d d2 62 31 72 3f
       -0.012150371831266856 0.0044416294329732015
0007f0 24 f3 c6 77 d5 a8 b0 3f 30 a1 83 b3 ca 10 ca 3f
       0.06507620023962751 0.2036374451192926

lin1.weight f8 [16, 32]
000000 7b c7 4b fa ab 8d 73 31 ed bb 86 0d 1d 71 db b1
       1.7706936439741888e-70 -1.5904293309112626e-68
000010 bd 14 45 64 eb f0 45 b5 6c f5 a5 74 0f 24 8b 31
       -4.581513737694785e-52 4.915578512827407e-70
000020 89 9e bd 14 c9 a1 83 b1 9d 72 a7 49 6b 7e 70 b3
       -3.5556172156292113e-70 -6.41508264719749e-61
000030 34 d3 35 62 2f 20 4e b6 6d 06 cb 16 02 f5 e1 b2
       -4.1225712304901624e-47 -1.3641000754339993e-63
000040 37 76 85 fa a6 94 27 3d 10 56 fc 7e 26 c8 7a 3d
       4.1887689567977944e-14 1.5223712013563052e-12
000050 b8 ff cd b1 9a 82 90 b9 e7 8b 58 a1 03 45 72 b2
       -2.0350359343556614e-31 -1.0842506103673815e-65
000060 18 8f 52 ad 32 43 d2 b7 d0 6d 32 a5 3c a2 3c 31
       -8.385725078818353e-40 1.6206121313302843e-71
000070 98 07 b1 58 f8 a4 fc 31 25 53 cd 9c 00 90 57 ba
       6.640502395034402e-68 -1.189602716932291e-27
000080 ab 87 9a eb 64 49 87 b4 27 78 b5 b3 67 ef 4a 37
       -1.1871311138744233e-55 2.4156301394386778e-42
000090 01 9f 0c ce 30 ca 33 bd 83 a0 83 8b a5 ed 7e 31
       -7.030751875223872e-14 2.8007682505122376e-70
0000a0 e0 33 ab 1f cf 9d 9e 3a dc cc 14 c2 dc b1 6d b1
       2.4731764653653946e-26 -1.344531752348917e-70
0000b0 12 52 eb 01 dd 1f e3 bb ed 56 ad b0 39 7d 54 3c
       -3.239810569747381e-20 4.442878689026563e-18
0000c0 13 9b 2c 49 68 07 d5 b1 fc 84 ef 24 a9 d7 b5 b1
       -1.2187602365517817e-68 -3.164767812286142e-69
0000d0 7e ab d0 93 6d 54 8c b2 ae 6c c2 1f c8 3e 53 be
       -3.362593835156957e-65 -1.7923527537681606e-08
0000e0 3d 0e 50 0b cc 40 8f b1 7c 53 92 2c 52 15 86 b1
       -5.660363315473138e-70 -3.999582862395005e-70
0000f0 5a 6a 80 a0 74 0a 62 b2 9a 77 f4 75 09 79 f5 bc
       -5.353376194369208e-66 -4.76791952802912e-15
000100 e5 5b ac 8d dc 30 c5 3f e4 3a ac a5 62 04 b6 3c
       0.1655536357654618 3.0554906155492923e-16
000110 11 98 6c 02 b2 fe d2 3f 53 fc 53 7d 19 38 d6 3f
       0.29679537045228793 0.34717404593533735
000120 75 d8 28 09 a7 29 d7 bf d8 54 50 f2 ef e4 d5 3f
       -0.3619172658394583 0.34209822333771234
000130 62 a2 3f c6 a6 fa b6 3f b7 d0 48 ef 32 37 da 3f
       0.08976213779500022 0.4096190773737009
000140 05 d8 02 e6 93 e3 d9 3f a2 e9 5b 7b 8b 8e c4 3f
       0.40451524221441587 0.160600123628524
000150 3b 3c 09 a8 fb 41 d7 3f a2 f4 16 e0 49 d3 c8 3f
       0.36340228471539476 0.19394801561239655
000160 be 02 52 ee 1d 43 d4 3f 86 43 bc 25 3d 22 c2 3f
       0.31659649156066993 0.14166988699483002
000170 45 3e 41 79 f4 f3 d5 3f 37 00 22 53 c4 a5 c7 3f
       0.34301483002943584 0.18474630412311097
000180 a3 b7 fd 4a 7d 62 d4 3f 1e de 25 3d a2 3c d5 3f
       0.3185113174757765 0.3318257901332532
000190 e5 9b bd c7 39 2f d2 3f fb 70 63 73 9a 7f fb bd
       0.2841324282257445 -4.0015512031390627e-10
0001a0 61 f7 da 47 9b c3 cd 3f ca e5 2f 51 6e 30 c1 3f
       0.2325319386345042 0.1342904945775401
0001b0 7b 63 c9 38 71 f8 ca 3f 72 70 b5 c4 ed e5 ce 3f
       0.21070685646807505 0.2413918695918969
0001c0 f9 38 9e c5 0d 62 c6 3f 3e 0c 69 78 96 cb d7 3f
       0.1748673644000929 0.37180101164648593
0001d0 55 e4 71 e9 4d 9e ce 3f 44 25 38 30 a2 11 c6 3f
       0.23920606516529355 0.1724131331869022
0001e0 97 2c fa e9 2a 8d 3d 3f af 67 35 ee 45 c5 d0 be
       0.0004509191294139263 -3.998422218509935e-06
0001f0 bc 88 3a fb 9e e7 d8 3f 30 65 b9 d5 c0 b9 7e 37
       0.38913702520416016 2.2044535931277862e-41
000200 5c d4 10 53 cc 61 4f 3b b4 0a 55 e8 e5 ff 15 33
       5.191720366114173e-23 1.33695174303178e-62
000210 b4 8f 3c 3a 27 e1 39 3c ed a0 06 b5 ef 15 0d bb
       1.4029307671063236e-18 -3.0073897441285592e-24
000220 4d de fd ef cf 73 63 3b ac f9 6b c4 3e 25 69 bc
       1.287251297529917e-22 -1.0905117521919658e-17
000230 e6 c8 17 6f 17 0e da ba a5 19 cc 8c 93 60 35 bb
       -3.3675356475381473e-25 -1.768284793601123e-23
000240 5a 05 28 8d b4 1d 68 3b 03 fb 95 9d 2a f2 31 3b
       1.5958654107191957e-22 1.4844552470316642e-23
000250 e5 e1 28 a9 83 e4 b6 bd ed 09 5f 67 f8 fd 44 bb
       -2.0820729318139302e-11 -3.4728469274956043e-23
000260 36 d9 da 64 57 35 31 bb 00 98 eb fd cf c2 5b 3b
       -1.42344257165035e-23 9.18533982937478e-23
000270 dc 05 bc 49 5a a7 3c bb 58 8a 3d 68 a9 a7 18 3b
       -2.3701802849298203e-23 5.098519755832164e-24
000280 26 a1 74 32 ce 12 21 bb 89 4e 19 34 52 11 3b 3b
       -7.061417061708782e-24 2.2389844055663597e-23
000290 f9 2b 87 ab f5 fe 47 3b 1a 32 6a 63 48 30 00 38
       3.969794628893924e-23 5.946754126903975e-39
0002a0 7c 46 59 ec 4a 85 32 3b b4 3a 80 5e 1f e2 07 3b
       1.5319942867773875e-23 2.4694744259377476e-24
0002b0 ee 32 71 93 60 ef 0c bb ce 88 54 a2 9a 37 10 bb
       -2.9918158451620954e-24 -3.3536390355861236e-24
0002c0 1b 78 8b 73 02 0c 2d bb 84 b0 79 d9 45 ba 42 bb
       -1.2013521397799366e-23 -3.098226212912899e-23
0002d0 94 92 92 d9 2c 5b 60 3b 5a 82 3b c2 b3 37 d8 bd
       1.0823594195559244e-22 -8.810306699305815e-11
0002e0 f6 62 64 e9 88 6d d7 b9 b4 21 8c 90 80 00 6d 31
       -4.620332754220646e-30 1.313162290900758e-70
0002f0 57 e9 4d a1 cf 5f 3c 3b 71 9c 84 5e de 90 df 33
       2.3470639367160532e-23 7.857401397062682e-59
000300 2a 50 68 a3 e1 4b a8 3f 4d 52 b9 f8 3c 4d f2 3c
       0.047453929135514564 4.0637963222165786e-15
000310 a2 99 25 91 f2 c0 ba 3f 9f e4 22 3a 12 86 b3 3f
       0.10450664561867609 0.07626451415389333
000320 24 62 d7 f5 99 73 c4 bf 66 95 40 28 bb 75 b4 3f
       -0.1597778749844717 0.07992143376084967
000330 d3 c0 47 3f 38 31 a3 3f 88 03 4c 30 b0 d1 b6 3f
       0.03748489162887982 0.08913708857654801
000340 3d 5c 84 5c 6c b0 b7 3f cd 70 8f 40 c5 e9 ae 3f
       0.09253575571743596 0.06037727749910147
000350 19 9d 10 67 2f cf b8 3f 8d f6 3f a7 d6 71 b5 3f
       0.09691139475090828 0.08376828749893601
000360 f4 2d 86 04 76 2e b8 3f 1d 08 42 3f f4 6a a6 3f
       0.09445893869831662 0.04378474495116811
000370 f0 a5 32 e4 cc 97 b4 3f 76 6a c0 8b aa 8e b2 3f
       0.0804412896274227 0.07248941337494749
000380 27 2b 1d e7 ee fb b5 3f c9 a2 82 fb c0 ef b9 3f
       0.08587544577055138 0.10131460323703857
000390 6b 92 0b 50 bc 7c b7 3f b2 78 81 56 6d a9 13 be
       0.09174706415394389 -1.1444688200806377e-09
0003a0 f2 b8 3d 5a 11 56 a8 3f 6b 13 b2 02 96 be ac 3f
       0.04753164507461517 0.05614155562310582
0003b0 40 58 73 b6 f6 91 b3 3f c4 d9 58 2c 51 c2 b1 3f
       0.07644597963675981 0.06937129337970932
0003c0 ed 3a d1 89 87 fd b2 3f b2 eb a7 e9 c0 70 b8 3f
       0.0741810523479491 0.09547048286905982
0003d0 5f b5 11 a1 c2 6d b2 3f 05 19 fc cd a8 8c b5 3f
       0.07198730881073832 0.08417754200863577
0003e0 80 8d 89 57 26 18 ca be 9c 90 3c cf ef 09 57 bd
       -3.1106871428030684e-06 -3.2740125921078467e-13
0003f0 ab 45 9c b1 78 79 b7 3f 4a 37 79 ee 5e b0 8f 31
       0.09169725738708816 5.7392989665282425e-70
000400 16 a7 53 93 72 67 d4 3f c8 1d 62 2b 57 bd f7 3c
       0.3188139380205127 5.27125262339393e-15
000410 ba ff 05 39 2d 69 c0 3f 0d 13 07 e6 60 27 d0 3f
       0.12820973667476016 0.2524034735072725
000420 b9 ea 9f 32 dd 1b 06 c0 1b a1 df c7 b7 51 ca 3f
       -2.7636054949810753 0.20561883220148833
000430 20 c2 d4 8a e6 9d e1 3f 57 8d 4b a1 b9 44 c7 3f
       0.5505249702019377 0.18178482413996264
000440 c1 45 cf 92 c4 b2 be 3f 02 dc c2 59 60 e8 cc 3f
       0.11991528114528817 0.22584156401509864
000450 9e a8 9e d7 62 49 ba 3f 8a d9 ad e1 0b b4 c9 3f
       0.10268228305963809 0.20080708045470558
000460 b6 bf 1d 7a 35 5c c2 3f dc 7e 4f fe bd 6e d7 3f
       0.14343899214463612 0.36613416514408725
000470 3f 48 f7 03 11 1e c9 3f 31 53 22 f4 9c 3a d0 3f
       0.19623005574845995 0.25357745972842155
000480 c9 4a a2 fa c5 80 c9 3f 84 44 33 83 78 81 c3 3f
       0.199242350940571 0.15238863378775502
000490 94 1d 4f ca 62 d5 c2 3f 24 8f c5 43 35 f2 fd bd
       0.14713702085849134 -4.3577347613360813e-10
0004a0 e4 16 f3 e4 69 1c d4 3f d3 8d b8 70 a3 ad eb 3f
       0.3142342315517068 0.8649460984783509
0004b0 62 5f 7d 6c bd 96 c8 3f 83 0c 72 78 18 9c c9 3f
       0.19210021779394554 0.2000761592972574
0004c0 55 fe e9 d0 49 77 ca 3f 82 92 3b 71 4c 75 c8 3f
       0.20676539135819164 0.1910796692747177
0004d0 ca 37 78 eb 89 f0 ce 3f f2 d6 08 a8 21 74 bf 3f
       0.2417156600717461 0.12286577560811532
0004e0 27 e3 6b 30 23 be 3d 3f 9a a5 b9 c6 03 f0 97 b1
       0.0004538379584313905 -8.670833589980647e-70
0004f0 be 01 fd ba 3c 06 c8 3f 06 4f d0 82 96 fa 87 31
       0.18769034509933918 4.342897056520782e-70
000500 f0 c7 3a 91 2c b7 18 bf fe 31 96 29 52 83 96 b7
       -9.428224103194527e-05 -6.460906234023996e-41
000510 d4 3c 9f 12 92 a6 5c bf 39 2e fa 9e c3 fd 3f 3f
       -0.0017486978999732743 0.0004881479826301691
000520 45 16 93 61 dd 62 5c 3f e5 a3 a1 d5 a7 37 3f 3f
       0.0017325555730151193 0.00047633979341426955
000530 d1 23 15 90 9b 81 01 bf 50 7f cb 7c 26 7c 55 bf
       -3.3390579128829104e-05 -0.001311338029317672
000540 fe 85 83 c2 b4 2c 42 bf f4 c7 7c d2 ad 52 2e bf
       -0.0005546457878404241 -0.00023134586194256646
000550 39 7f fe f3 2f 1f 50 bf a7 bb 29 35 2f bf 43 3f
       -0.0009839981357586249 0.000602624941462672
000560 6e b4 5b 89 d2 4e 3d bf e2 b9 88 f5 25 37 44 bf
       -0.00044720306446672283 -0.0006169257495168246
000570 bb ba c8 73 39 11 44 3f 32 21 e8 0f e2 78 48 bf
       0.0006124048737257895 -0.0007468322581312469
000580 97 e8 13 35 27 2c 39 bf 04 b3 02 c5 30 4e 3b bf
       -0.0003841014596016683 -0.00041664782203092187
000590 90 f9 5b fc 16 f5 4a bf d2 89 ec 38 14 87 ce b9
       -0.0008226740107771125 -3.0102589303017033e-30
0005a0 96 23 cb be 0d 3e 40 3f 02 34 81 28 98 2d 41 3f
       0.0004956786266002596 0.0005242341003480757
0005b0 7b 52 94 98 b1 a2 41 bf f6 b6 1f c8 d6 51 3a bf
       -0.0005381934326203619 -0.00040160649962116214
0005c0 61 49 6f de 70 54 40 3f d1 05 db 05 99 d7 51 bf
       0.0004983473889928308 -0.0010890001644131462
0005d0 a3 ee be 53 47 21 51 bf 89 a7 2d 3a c2 f3 58 bf
       -0.0010455318979286996 -0.0015229603529527144
0005e0 73 b4 c0 fb a2 e3 d1 3e 25 37 61 bc 07 04 e1 3e
       4.265118999352828e-06 8.1137385558278e-06
0005f0 f2 db bc ce 50 60 4f 3f 35 e7 53 4f 85 bc 90 33
       0.0009575266426286018 2.6037732454964e-60
000600 45 71 af 91 e9 6f cc 3f ef 7a ac cb f7 75 84 bd
       0.22216529477635497 -2.3261250488303637e-12
000610 b1 7f bd dc 93 6b da 3f ed 45 04 96 2b 95 ce 3f
       0.41281601483023694 0.2389273149970416
000620 bb 7d 05 5f aa 0c df bf 1a 8e 2f 79 5b a3 ca 3f
       -0.4851480415290685 0.20811026971124208
000630 87 50 69 72 df b6 bd 3f bb 60 dd e5 a8 f2 dd 3f
       0.11607166808363632 0.4679357762120266
000640 4d 48 85 55 51 98 de 3f 37 f7 19 1f 5c d3 ce 3f
       0.4780467353022047 0.24082519072174488
000650 1a d9 86 20 26 84 da 3f 22 9c 74 c4 54 ca d8 3f
       0.4143157308239026 0.3873493116865935
000660 ae 63 77 cd 51 3a de 3f 55 e8 42 3e 63 d5 c9 3f
       0.47230954232287103 0.20182457485299446
000670 9d b3 2c b5 d5 bd d6 3f 5b 5c 1d af 7c b5 d6 3f
       0.35533659642060816 0.354827090273323
000680 64 36 d2 6b 74 3b d8 3f 4d 3a b4 67 d6 ba d5 3f
       0.37862883119018975 0.3395286572203176
000690 a7 54 32 51 43 19 d6 3f 23 7b ca 0a 1f 58 e0 bd
       0.34529192857128027 -1.1891987862801156e-10
0006a0 5e 6d 20 c9 fe 81 c5 3f 0a 6a aa c9 7c 3b c6 3f
       0.1680296403945744 0.1736904129691797
0006b0 c5 1e da 83 54 c0 cd 3f c6 ea 66 b0 77 cf d4 3f
       0.23243194997870922 0.3251628134418464
0006c0 f8 23 68 4a ba e5 c9 3f b3 81 41 2e 99 16 d9 3f
       0.20232323296684718 0.39200429455925273
0006d0 11 42 56 fe 78 f9 c9 3f 60 f5 cd 12 ed 4d d7 3f
       0.2029258005027406 0.36413122974757606
0006e0 24 19 14 70 3b ef 53 3f 8e 9a 12 43 3b 55 10 bf
       0.0012167053649264148 -6.230520445403063e-05
0006f0 3b 34 eb f9 9a b5 dd 3f f1 b7 fb b4 97 fc 8a be
       0.46420931249742 -2.010665078803322e-07
000700 33 75 cf b8 f8 ab c4 3f 70 ca ef ae 46 ff 7a 3c
       0.16149815582222402 2.341631428019846e-17
000710 8c f4 f6 97 c0 62 d8 3f 83 59 7c a1 63 3c d8 3f
       0.3810273632078143 0.378685863209647
000720 81 d5 e2 be e4 d2 d8 bf 58 4f ab b8 2a 8d d3 3f
       -0.3878719200250416 0.3054911425981479
000730 dc a3 6b 54 e6 8b b8 3f 43 dd 54 c9 1f 93 cf 3f
       0.09588470040365799 0.2466773732246371
000740 af 3d 83 35 20 ba db 3f 4f 4b 0d f6 3e 1a ce 3f
       0.4332352182945795 0.2351759625840608
000750 6b 9e 18 d7 7d 91 d7 3f 5f 9d a3 bc 34 03 d1 3f
       0.368255100302554 0.26582067891873423
000760 87 93 a4 14 8d 5d d4 3f 84 7f 60 cd 41 04 c4 3f
       0.3182099057760798 0.15637991455241373
000770 77 4e 12 58 74 4b d8 3f b9 20 05 ae 89 45 d5 3f
       0.379605375296911 0.3323692511953698
000780 97 76 c6 40 3b e5 c7 3f 22 e8 4c be 76 27 da 3f
       0.18668308890203342 0.40865868171715836
000790 50 fc 09 f0 76 2c d3 3f 0e 53 a3 f7 63 35 d7 bd
       0.2995889038210793 -8.44322371649155e-11
0007a0 64 6e 1c f2 03 dc c6 3f 90 c6 ff b9 31 57 c2 3f
       0.17858933755711626 0.1432859571646543
0007b0 d8 68 08 18 9b 7a d8 3f 62 a4 6d c0 50 30 d8 3f
       0.3824832663245963 0.37794894019913816
0007c0 ee a6 e5 65 62 86 d8 3f 0d 92 d6 94 ca 96 cd 3f
       0.38320217085730135 0.23116428630341126
0007d0 65 5d a6 c3 2a 94 d4 3f 91 0b d5 e3 03 3c d8 3f
       0.321543398918456 0.3786630368160156
0007e0 4b b2 74 aa 8a ff 46 3f c5 69 fd eb 2f a9 ec be
       0.0007018496589004745 -1.3666576137151627e-05
0007f0 4e 88 22 47 13 64 c9 3f 26 b1 03 81 49 45 cc bd
       0.198366555913767 -5.1424017931750033e-11

lin1.bias f8 [16]
000000 19 9f d2 d0 ad c6 b4 be 37 92 89 19 70 13 d6 3f
       -1.2383514474220907e-06 0.3449363946331547
000010 eb 0f 75 f2 0e b0 11 be 2c 38 0b 24 fa db b1 3f
       -1.0295612780974813e-09 0.06976283435798852
000020 9f 45 49 22 9a 5e e6 3f 82 4a db c8 61 82 28 bf
       0.699048106160422 -0.00018699115428562693
000030 9f 27 00 cd 03 72 dd 3f d2 37 a2 cb 43 86 d4 3f
       0.46008391398992815 0.3206948746309283
000040 f9 5f 55 99 1b 8c 18 bd 59 ab ec 42 f4 22 56 3f
       -2.1802378681717398e-14 0.001351107155367534
000050 95 42 e1 cd f8 be 18 b9 fd bf 07 8b a4 76 d6 3f
       -1.1914757873681167e-33 0.3509913785665047
000060 08 06 75 53 40 5b 81 bd 27 b4 d9 78 f9 05 d8 be
       -1.9731999471937555e-12 -5.727610085421093e-06
000070 c6 70 73 59 e1 41 d8 3f 0b 37 5f cd 84 5b 52 be
       0.37902101264422716 -1.7096749647778833e-08

lin2.weight f8 [1, 16]
000000 2a 34 6b cf b9 d9 f9 bd d6 84 9a 86 a6 b0 e0 3f
       -3.76174160760978e-10 0.5215637806869846
000010 b4 db e7 8d 08 b1 8e be dc 3c 7e 92 f2 1e cc 3f
       -2.2866976841204696e-07 0.21969444420799433
000020 13 9d b8 75 a6 a0 09 40 64 db 1c 52 9a d5 51 3f
       3.203442496963939 0.0010885245359994683
000030 d0 78 82 a4 12 85 e5 3f f7 96 61 98 ec ca e1 3f
       0.6724942410544603 0.5560210205264572
000040 d7 69 eb e2 31 5f 59 b9 20 04 b5 a3 7b af 62 bf
       -1.9545766081860522e-32 -0.0022809424241647808
000050 8e 58 df 00 ef 1b e2 b8 36 5a d7 b4 c2 b8 df 3f
       -1.089902753177821e-34 0.49565189037585655
000060 d2 b6 bb e8 a5 74 d3 bb c0 b6 f1 46 7b 9d 55 bf
       -1.6479582127099857e-20 -0.0013192848089391002
000070 78 73 78 f0 a8 8f e4 3f a2 6b 70 86 21 9b 84 3e
       0.6425366112413107 1.535265170278876e-07

lin2.bias f8 [1]
000000 d0 ad 8c 45 9d 05 d6 3f
       0.34409267227121365
