Q2_GMAN/models/A3TGCN/1/d2/bestval.pth (torch, 59576 bytes, 15 tensors)

tgnn._attention f8 [12]
0.46617110188067995 1.0317737311449018 1.055070373596395 0.9036970110687437 0.4471341205214406 0.6039601934211655 0.7711448638355346 -0.333531294861572
-0.09608304242751883 0.1880211705313897 -0.10809257856103438 0.5396679080513677
00000000: 4fbd 3a51 bfd5 dd3f 5e3a 022c 2582 f03f
00000010: 4733 d978 91e1 f03f 0210 81fe 15eb ec3f
00000020: 092e 246e d89d dc3f 3b8d da53 a453 e33f
00000030: 23dd 54fe 37ad e83f fbde e7a4 9358 d5bf
00000040: d626 edf4 e598 b8bf 99a8 31e5 1311 c83f
00000050: e825 dc89 f4ab bbbf e500 f9a1 f544 e13f

tgnn._base_tgcn.conv_z.bias f8 [32]
0.07279803694646443 0.18490430661692864 -0.1728942786196836 -0.3203467027018891 -0.10825402985022982 0.21790629422729954 0.21467854959357777 -0.1895121266760085
-0.12743155996449343 0.19303706332448559 0.32438670031938416 0.19102112013506328 -0.18253396892876075 -0.27558779714897813 0.3004591813811798 -0.30362552639695295
-0.14547001696821935 -0.04266326194730909 0.014420485370979775 0.2219859525253718 0.2628975316787096 0.309436394746582 0.29964567878006426 0.26196774686372254
-0.13786877405887416 -0.2916173204717835 0.23425587277172671 0.015282668751990918 0.08321400380007353 -0.279542054517067 0.288415172432936 -0.17131170777973595
00000000: 8de7 e563 e4a2 b23f fe95 e7be f1aa c73f
00000010: 8e24 2b54 6621 c6bf 6b1b df74 8f80 d4bf
00000020: 19f0 dd3d 89b6 bbbf 3f3f a67b 5ae4 cb3f
00000030: db1c d432 967a cb3f 316a 22f1 ee41 c8bf
00000040: 2d4c 4367 ad4f c0bf 8180 f240 70b5 c83f
00000050: 4d43 486f c0c2 d43f 2ea6 e94b 6173 c83f
00000060: 45a3 7ae9 455d c7bf 679e fbff 3aa3 d1bf
00000070: 962a 7425 b93a d33f c0c3 86c2 996e d3bf
00000080: 23aa b6f2 c29e c2bf e3d6 9b85 f5d7 a5bf
00000090: 1a87 7cc8 7c88 8d3f e849 2223 096a cc3f
000000a0: 6f96 302b 50d3 d03f e23c e84e cecd d33f
000000b0: d3e0 af11 652d d33f 55bc 585e 14c4 d03f
000000c0: 267a dc19 afa5 c1bf cbe6 97b1 dba9 d2bf
000000d0: 16aa 39b0 18fc cd3f 831a e213 854c 8f3f
000000e0: 23fa e350 834d b53f 177a 805b 04e4 d1bf
000000f0: 2042 51e9 6475 d23f f1fd 2ac3 8aed c5bf

tgnn._base_tgcn.conv_z.lin.weight f8 [32, 1]
0.35534805697669897 0.002805257926398873 0.004047084044896222 -0.25388254580580594 -0.301193821085275 -0.0033525639558909187 -0.2328797605051369 -0.18050689351377117
0.14864101117305673 -0.2972910818308913 -0.23636494780505657 -0.3087499238873243 -0.42365480593819604 0.01057794270815421 -0.014540870156831018 0.030419091547977867
0.18963240971226353 -0.20837091689845832 -0.33574878061397034 -0.10031460192813638 -0.3481466746820309 -0.2510657517718519 0.014216992647457804 -0.2927679658342355
-0.20259881652857517 0.25086325825783684 0.07943413493962556 0.38966097401054234 -0.1137268297939494 -0.19332105054491291 -0.3352041981850537 -0.2742516250512325
00000000: 4d5f dac6 05be d63f 3190 9f61 0dfb 663f
00000010: b533 dfd9 ac93 703f d2b6 d093 9c3f d0bf
00000020: d162 d472 c246 d3bf 32ac 8b11 d676 6bbf
00000030: 478b a205 01cf cdbf cd0e 2c92 d91a c7bf
00000040: 4094 ea2c ab06 c33f f7ca 762c d106 d3bf
00000050: dc29 5fe4 3441 cebf 5b44 6f0a 8fc2 d3bf
00000060: ce0e 130c 291d dbbf e182 ec6f e3a9 853f
00000070: 7855 3b8e 9ac7 8dbf 8889 7dad 2e26 9f3f
00000080: 7ae8 fcf2 df45 c83f cc19 c2f0 e5ab cabf
00000090: 1d2b 1a74 e87c d5bf eab4 97be 37ae b9bf
000000a0: 3f1c 7efd 0848 d6bf 575e 4016 7611 d0bf
000000b0: 0616 bf73 cc1d 8d3f 64c4 a4d9 b5bc d2bf
000000c0: 9569 990d c2ee c9bf fa10 7fc4 240e d03f
000000d0: 3672 c0a3 cb55 b43f 3cc7 f994 34f0 d83f
000000e0: a58c a496 331d bdbf 7500 dc82 bebe c8bf
000000f0: 07f3 2b4f fc73 d5bf cf12 1eb0 568d d1bf

tgnn._base_tgcn.linear_z.weight f8 [32, 64]
0.0670082445901485 -0.03521421903228156 -0.02552486094253345 -0.020546557065630876 -0.037831639014297896 0.013287311247865799 -0.06050593307355652 -0.042627951575696287
0.03313694784817263 -0.020171022224168243 -0.03375807604958305 -0.06403811339702273 -0.06691888079118001 -0.03201484339333802 0.007114362898956404 0.02917282332853918
0.01680973280342839 -0.06633721243245747 -0.0290230140300153 -0.059271338747221895 -0.017787053219677162 -0.018201326821617653 0.05485536858211859 -0.044936537911269135
-0.06554148706201496 0.026255999441533024 0.04285481107024231 0.042122758834074604 -0.024770665062737857 -0.05403183061258818 -0.020283291128771346 -0.02521771175364159
-0.004480213822731704 0.009541935958515829 -0.008438397323068126 0.012621094907997756 0.01036747520301446 0.010085996137584607 0.00767590345638553 0.007731155218666744
-0.0001119827274429521 0.001673231834990617 0.005497303266766399 0.004145548432419574 -0.009831583667222378 0.008956389045479496 0.002247362423255925 -0.003040432932000942
0.0015988622133285486 -0.0001248964732593121 0.009560808619906835 -0.005304162249394347 -0.00047289643000221444 0.0014670276209500146 0.0009084558281302645 -0.0028213708130417027
0.003928250539195949 0.003551711716899156 0.006914662125906006 0.01031729000601729 0.0073854508532044845 0.0009575755689028401 -0.0037914585258592114 0.001787224617849869
0.05789173442216882 -0.10778613055813496 0.05803507968064517 0.07382294831314967 0.025094192038882544 -0.07623475314107829 0.02269774030001246 0.039628522372407556
0.06545005325708238 0.05078940758275122 -0.08337300183184554 0.02464794571414472 -0.052788673972284976 0.10261362185713306 0.017737268099915597 0.13427676269066083
0.04955614120425391 -0.005396490949718254 -0.041919419235576585 0.06390822943180109 -0.12118442996470238 -0.11089699239162833 0.002308101120045637 0.0513367695722642
-0.08583141994636188 0.09091766743030391 0.02814601939535883 0.10247292096318905 -0.021723309917697997 0.07873840695522275 -0.12327166154359079 -0.051293140709398645
0.005508555153845242 0.0002175891696897229 -0.00558888422037307 -0.0036778844985327014 -0.001355785188239018 0.003986659345219674 0.005294000166294169 -0.003938777473867468
0.0008950719887481075 0.009754898220143467 0.0014554741691070474 0.005917692352794133 0.004497863234957695 0.010500979104488583 0.0007262179289791323 0.002736593604219573
-0.011040557062725895 0.0026355648283371254 0.0005499333566362188 -0.007146835136100639 0.0064198566930973215 0.002097843401557705 0.0011022264871981993 0.010734704882319045
0.0015649061268793315 0.0036814901087003343 0.0023468493186222686 -0.0019125332334790648 0.01012099544214816 -0.0075131897269446165 -0.0019133658143804058 -0.0010191419964653526
-0.016302399828556937 0.04385821099778414 -0.005276929680097233 0.01922927516993251 0.016526198131022497 0.047408409619925304 0.014991412074751081 0.017136237235620723
-0.033998160356099476 0.046898301332667085 0.027958897124697214 0.04674441429293992 0.020156488808673816 -0.07069602916400679 0.06663037892909873 -0.028231391807595704
-0.015004673245660814 0.007940925338930857 0.010917621194881991 0.01023961927910233 0.02773587097003768 -0.00018452180025087567 -0.011188803888935468 0.01939119495579396
0.0027676748191138942 0.0005012161555010106 -0.007436894574581759 -0.027504491153853672 0.028794091483070917 0.006910174092585146 -0.007809682066148699 0.021816585186605952
0.0011194558459642577 0.0023682918884071463 -0.008008401315628954 0.0026663131537288227 0.0050450781886768395 0.0034329764536960377 0.010722091455524635 0.007106258514893468
-0.0005819890460222091 0.0009434266009344127 -0.0024905013467953654 -0.008339378287476894 -0.0020027400315293475 0.007264633010554333 0.0003412180899266567 0.000949906300659877
-0.008268282635660446 0.008204418558123995 -0.0028017154970105935 -0.0018479241674098556 0.004607129476068628 -0.009997668422329672 0.00928575901427396 0.0054990732472420464
-0.010185365777998103 0.0033460213065776615 -0.005287554240151091 0.007072150430861154 -0.010632017916383256 0.008910847077016223 0.010290755927426653 -0.0008870125333468402
-0.0536580884609012 0.028508030188409122 -0.06458752359334911 0.027270956458999934 0.041325773759993786 -0.022062092199458115 0.04292356991928848 0.05295799746659317
-0.05042857849697574 0.02518011862522764 0.05747859376085306 0.010961695541262145 0.032258086217803496 -0.11956970229124679 0.06519868656600616 -0.06092156397046821
-0.05765450494498948 0.044976753519732834 0.041288715777352464 0.043481267269490254 0.05991302084676997 0.028804600502974242 -0.051537003814191094 0.025731253150214656
0.031721965161094635 -0.059873742880645384 -0.026711624275231268 -0.05924547605232806 0.052469334107075306 0.04709422343056658 0.011796092623671678 0.021026719467060726
-0.01073461009041223 0.0038517005466134394 0.0013482071335172558 -0.010728328850406362 0.0027062701083200745 -0.010481936569571772 -0.00174241520789598 0.0014485677921748338
0.003121026164113085 0.01051791855833116 0.005995025179605796 -0.00036184751520017836 0.0009400135628762631 0.005224164910468059 -0.008476726789874708 0.0003470140658907639
0.0005943418648495252 0.002249814526330256 -0.0014167852807392969 -0.0012965452070897174 0.0019450518506122418 0.0022014196050496385 0.0005259133704079142 -0.0013433400671641104
-0.004052986207807507 -0.0016589808140395487 0.0010782715334846599 0.01072642738034929 0.00124932468596427 0.0009652469006968062 0.005077534727648648 0.0002421711983442584
00000000: fdb9 13cb 7327 b13f c816 321e 9907 a2bf
00000010: 58b9 ee6b 3023 9abf 76b2 911a 280a 95bf
00000020: e416 a428 ab5e a3bf 1b42 17ba 6036 8b3f
00000030: aa9f 8737 a2fa aebf 2b80 d3b3 54d3 a5bf
00000040: 3a25 9876 53f7 a03f 8667 1e63 b6a7 94bf
00000050: e3b9 3711 bd48 a1bf 52dd bc42 cd64 b0bf
00000060: 8fa8 7b84 9821 b1bf 3dce b8e2 3f64 a0bf
00000070: 8bee b93f f323 7d3f 9722 8308 7bdf 9d3f
00000080: 6db5 9412 9236 913f cebb e7bd 79fb b0bf
00000090: 656e 5c80 35b8 9dbf 5fd7 041b d058 aebf
000000a0: 509f 7bef c436 92bf 7847 c55d 5ea3 92bf
000000b0: 90f4 23bc 0016 ac3f fbdf 7201 ec01 a7bf
000000c0: 6c6a 76af 53c7 b0bf 0562 b34b dae2 9a3f
000000d0: 09c0 0bd8 10f1 a53f 7523 383f 1d91 a53f
000000e0: 65e6 6031 7b5d 99bf bc20 d962 0faa abbf
000000f0: 7b99 36a0 24c5 94bf 3621 0cfd abd2 99bf
00000100: a642 903d d859 72bf 830e 0ff7 b88a 833f
00000110: e70e 4484 2648 81bf 2edd f4ae 16d9 893f
00000120: 6426 83f7 8a3b 853f 26d3 777c f7a7 843f
00000130: c6b5 ffa4 c470 7f3f 040b 312d b4aa 7f3f
00000140: b200 bc9b 085b 1dbf c760 a200 0b6a 5b3f
00000150: c487 f31b 5784 763f 2343 0f2f ecfa 703f
00000160: 4782 8cd2 9422 84bf 531f 5330 ba57 823f
00000170: ad4b 8683 0f69 623f dba8 4600 40e8 68bf
00000180: df0c b13a 1d32 5a3f ded0 3b89 d45e 20bf
00000190: 863a c402 9e94 833f 081d 4d36 d1b9 75bf
000001a0: f96c 85b3 e2fd 3ebf d832 e0e9 2809 583f
000001b0: 1ed0 2c09 aec4 4d3f 36a1 e6eb d71c 67bf
000001c0: d39c 8ab9 1117 703f eda4 67b5 7a18 6d3f
000001d0: 2c37 197b 8c52 7c3f 6806 4639 3b21 853f
000001e0: d476 17de 3440 7e3f 5fcf 3de0 b960 4f3f
000001f0: 7834 edcb 430f 6fbf 3080 31d2 2948 5d3f
00000200: e796 1a44 fca3 ad3f c4a6 b531 df97 bbbf
00000210: 548d 7f22 c6b6 ad3f c403 b38c 0fe6 b23f
00000220: c694 81b8 4ab2 993f 9f3f 8feb 1e84 b3bf
00000230: 1a6a 2091 133e 973f 4116 288f 304a a43f
00000240: 75b8 42ae 55c1 b03f d42d 1ab9 1101 aa3f
00000250: 34b4 3cdc ee57 b5bf 98f9 05a3 4f3d 993f
00000260: a7ce 9ef8 1d07 abbf 9720 00e6 e244 ba3f
00000270: 9e59 a3e9 b729 923f 0540 2f20 fb2f c13f
00000280: b392 932b 6c5f a93f 6273 4682 a11a 76bf
00000290: 4a44 5e4d 7676 a5bf 79d7 5a2b 4a5c b03f
000002a0: ba98 7b5b f105 bfbf 61fb 8bcb be63 bcbf
000002b0: e955 725a 70e8 623f c252 ca24 d048 aa3f
000002c0: bf8c a345 0cf9 b5bf f6e3 3d58 6146 b73f
000002d0: 3239 4363 4fd2 9c3f 8832 4354 aa3b ba3f
000002e0: a029 a1a6 a23e 96bf 7ad3 cf42 3328 b43f
000002f0: 1672 da4a bb8e bfbf c544 b633 1843 aabf
00000300: 425f be83 2390 763f bccf 4dbc 1485 2c3f
00000310: 0181 29af 5ee4 76bf 321f 7834 1521 6ebf
00000320: b80e cf42 9336 56bf 6ed0 20b8 5054 703f
00000330: c39d 4459 29af 753f d5d4 fb86 1b22 70bf
00000340: f79d a975 6854 4d3f 9e8d a646 60fa 833f
00000350: 8617 377d b3d8 573f e4f8 f771 263d 783f
00000360: eeb6 eff7 596c 723f 1358 a38e 8981 853f
00000370: 8c21 9b20 f5cb 473f 81c7 0a81 0d6b 663f
00000380: 85bb 1c7c 6e9c 86bf ba73 d017 2e97 653f
00000390: d9cb 0fe4 2c05 423f 350d dff2 ff45 7dbf
000003a0: 1575 ab28 b54b 7a3f de81 a819 7f2f 613f
000003b0: ce7e c7ad 120f 523f 26d4 36b3 13fc 853f
000003c0: 416e b828 b1a3 593f fcdd c1f3 a428 6e3f
000003d0: e7d3 4e22 b339 633f 06f8 2dec be55 5fbf
000003e0: 797a 6a03 51ba 843f 9d67 a782 26c6 7ebf
000003f0: 2a6c 46e6 3c59 5fbf f1fb dd62 97b2 50bf
00000400: 779b 7088 93b1 90bf a808 cb5b 9574 a63f
00000410: 3692 6306 439d 75bf 322e eccf d6b0 933f
00000420: faf4 ff61 3eec 903f 6ef3 be41 ea45 a83f
00000430: 43c3 a744 d1b3 8e3f 7a92 036a 298c 913f
00000440: 7f0c b5f5 3468 a1bf 976b ecdc 0d03 a83f
00000450: 1a97 21d3 41a1 9c3f 0a55 5145 e2ee a73f
00000460: 3e18 f110 e7a3 943f ab6a 378d 2219 b2bf
00000470: 40aa 6b42 b00e b13f 9f01 23a2 b0e8 9cbf
00000480: 0cab 0427 c5ba 8ebf f8a4 0bf5 5443 803f
00000490: 6269 db4f fa5b 863f 80fa 6a6f 82f8 843f
000004a0: 7734 f8ca ca66 9c3f 7572 e831 862f 28bf
000004b0: aa51 46d6 27ea 86bf 9477 a910 49db 933f
000004c0: 1498 b01a 3cac 663f 6453 807f 816c 403f
000004d0: 13c0 b42f 2676 7ebf a0e5 fe27 232a 9cbf
000004e0: 8a87 f3c4 327c 9d3f b80f ccbb d74d 7c3f
000004f0: 536d 0f91 0bfd 7fbf d027 8c3f 1657 963f
00000500: 6bd9 da8f 5657 523f fcad a806 ab66 633f
00000510: f971 f36d b566 80bf 5b24 7af9 a9d7 653f
00000520: 08d4 37dd 25aa 743f 530a 1733 791f 6c3f
00000530: 906a 2bc1 76f5 853f a3b8 b1be 731b 7d3f
00000540: a77a abf5 1312 43bf 141d d732 09ea 4e3f
00000550: a762 b9ba f566 64bf 4607 1c68 3c14 81bf
00000560: 1787 02de 0c68 60bf e613 2a13 85c1 7d3f
00000570: 375c 7b89 b05c 363f abc5 6f3f 6420 4f3f
00000580: 2a2d 1d1c f6ee 80bf 6763 1e6b 7acd 803f
00000590: 1bde d58d 9ff3 66bf d72f 5477 c146 5ebf
000005a0: 4db6 d9e6 ecde 723f d800 4857 a879 84bf
000005b0: 375c 477a 6904 833f 585a 153c 3286 763f
000005c0: 3b7c 50a7 10dc 84bf cbc9 ab82 1d69 6b3f
000005d0: bdad 9808 67a8 75bf 63ce 01ed aff7 7c3f
000005e0: 094a ee49 3dc6 85bf de1a 34a6 d93f 823f
000005f0: b37b 46e1 5113 853f 50ee 32e9 cc10 4dbf
00000600: f8fc 35ae 1279 abbf 8b94 5485 3531 9d3f
00000610: e324 90d5 ce88 b0bf 48f9 7ce8 eaec 9b3f
00000620: 2ee8 8fdd a628 a53f 467b e9f1 7197 96bf
00000630: e1d3 0f02 14fa a53f 9580 5c86 4f1d ab3f
00000640: 7847 db4e c6d1 a9bf 05de 0428 d1c8 993f
00000650: bf8a d890 d56d ad3f 8310 dede 1573 863f
00000660: 258d acc2 2184 a03f c3f0 eeb8 1e9c bebf
00000670: f20b 8b72 dcb0 b03f 8fa8 bf79 1c31 afbf
00000680: a15e 692a e484 adbf 6e1f e56a 3107 a73f
00000690: 5c46 ea67 cb23 a53f 287b d239 2d43 a63f
000006a0: 406b 4862 ebac ae3f b3d9 8904 f47e 9d3f
000006b0: dbe0 d4e3 0e63 aabf a8a2 0f2b 4b59 9a3f
000006c0: b50e dd85 dc3d a03f ee7a 1f6f c5a7 aebf
000006d0: 0f9a bdc2 4a5a 9bbf 8951 294c 6c55 aebf
000006e0: 4dc9 10b4 42dd aa3f 51fa edea bb1c a83f
000006f0: d065 50c0 8c28 883f a911 d041 0788 953f
00000700: 0b66 30fa 06fc 85bf 0bce 36fc 998d 6f3f
00000710: 3bfa fc62 ca16 563f 1e03 6dec bbf8 85bf
00000720: 6604 80b3 752b 663f 4ed6 1eb6 8d77 85bf
00000730: 15b4 5f15 388c 5cbf ef8d c7d2 bbbb 573f
00000740: 8422 c129 4491 693f b816 d721 6b8a 853f
00000750: 6795 5c51 3d8e 783f 69c7 713e cbb6 37bf
00000760: 0226 53c1 67cd 4e3f f9a9 0717 ef65 753f
00000770: 9e94 b702 3f5c 81bf 71df 7210 eebd 363f
00000780: 0f58 a36f b379 433f 5743 01fa 336e 623f
00000790: 0106 8f9c 6d36 57bf 0479 c8d0 1a3e 55bf
000007a0: 5806 9885 23de 5f3f 50b7 ab26 b608 623f
000007b0: f4b1 fb5c ae3b 413f 94e0 f969 6002 56bf
000007c0: a633 6b33 dd99 70bf 41cd d215 452e 5bbf
000007d0: e9d6 3d3e 99aa 513f e082 69b6 bcf7 853f
000007e0: cb75 c52a 0c78 543f 4dd5 7eef 13a1 4f3f
000007f0: 34c7 9759 2ecc 743f 32e2 fbc0 eabd 2f3f

tgnn._base_tgcn.linear_z.bias f8 [32]
0.016741939247407214 -0.21654062732882895 0.015073265788681841 0.14436169225156364 -0.05035233698646286 -0.02018207901464983 -0.1410664979597974 0.01741880363962963
-0.033396400723375706 -0.07823653267175357 0.060803004092741225 0.0164063340028245 0.1111593509447893 0.14059421920548018 0.023728297598105387 0.030390773447454746
0.036051422189855034 -0.30817371611687067 0.04301290721563829 0.05188287808259984 -0.20448716032362227 0.17108321015724703 -0.0980221618647631 0.03641872247276068
-0.37132773337324965 0.05575079528285006 -0.2167430392951049 -0.38728992858893974 -0.353784881955177 0.042829639344353326 0.0425802623108949 -0.11062823180469704
00000000: a72c 2886 cc24 913f 7cfa 5070 9ab7 cbbf
00000010: feb5 d97c bbde 8e3f e201 82a5 717a c23f
00000020: 799f 4411 c8c7 a9bf b834 5565 9caa 94bf
00000030: e337 a68d 770e c2bf f6e0 de1f 3cd6 913f
00000040: d36f d241 5519 a1bf 5078 2d35 4f07 b4bf
00000050: 845c 2744 9221 af3f 1421 f56f d2cc 903f
00000060: 35d4 f370 f074 bc3f b341 bfca fdfe c13f
00000070: eac8 b118 3b4c 983f 9754 3a48 c21e 9f3f
00000080: f236 8ffe 5475 a23f 1f5c 0d40 1eb9 d3bf
00000090: ca16 98ab c905 a63f 309b 2c81 6490 aa3f
000000a0: e15b 05a1 a22c cabf b091 42fc 0de6 c53f
000000b0: 590c 7efb fa17 b9bf 5018 f78b 79a5 a23f
000000c0: 08e6 bb65 d5c3 d7bf 8b81 ee44 5e8b ac3f
000000d0: 3a3d b464 3cbe cbbf dc04 57b2 5bc9 d8bf
000000e0: e844 7458 69a4 d6bf 4c23 9138 c4ed a53f
000000f0: 8829 2984 14cd a53f 2790 9dbd 2152 bcbf

tgnn._base_tgcn.conv_r.bias f8 [32]
0.0 0.0 0.0 0.0 0.0 0.0 0.0 0.0
0.0 0.0 0.0 0.0 0.0 0.0 0.0 0.0
0.0 0.0 0.0 0.0 0.0 0.0 0.0 0.0
0.0 0.0 0.0 0.0 0.0 0.0 0.0 0.0
00000000: 0000 0000 0000 0000 0000 0000 0000 0000
00000010: 0000 0000 0000 0000 0000 0000 0000 0000
00000020: 0000 0000 0000 0000 0000 0000 0000 0000
00000030: 0000 0000 0000 0000 0000 0000 0000 0000
00000040: 0000 0000 0000 0000 0000 0000 0000 0000
00000050: 0000 0000 0000 0000 0000 0000 0000 0000
00000060: 0000 0000 0000 0000 0000 0000 0000 0000
00000070: 0000 0000 0000 0000 0000 0000 0000 0000
00000080: 0000 0000 0000 0000 0000 0000 0000 0000
00000090: 0000 0000 0000 0000 0000 0000 0000 0000
000000a0: 0000 0000 0000 0000 0000 0000 0000 0000
000000b0: 0000 0000 0000 0000 0000 0000 0000 0000
000000c0: 0000 0000 0000 0000 0000 0000 0000 0000
000000d0: 0000 0000 0000 0000 0000 0000 0000 0000
000000e0: 0000 0000 0000 0000 0000 0000 0000 0000
000000f0: 0000 0000 0000 0000 0000 0000 0000 0000

tgnn._base_tgcn.conv_r.lin.weight f8 [32, 1]
0.004615879543213732 0.0057035246471001935 0.009353941412551884 -0.011453449875792561 0.11295596677502115 -0.025854847158649566 -0.0021524439362469268 -0.012568477178621917
-0.006457147640809631 -0.09804144144087235 0.000701922512616338 -0.008214008134557388 0.040715405323764865 0.00916631721197283 0.016758906247656694 -0.013815028416123214
0.019422374307763363 0.0002777336065976034 0.02730891097566753 -0.0026555872934014763 -0.024653111600056482 0.09621951410784871 -0.009254164924897086 -0.0644953108273046
-0.0031509347356800683 0.0029996054319993445 0.009718116686508274 -0.010106701867083064 0.027306281343284274 -0.02559515974829673 -0.016212915619392157 0.0005708914212166896
00000000: 75d4 e2ba 19e8 723f dfb2 4c3d 945c 773f
00000010: 0f17 a5c3 2828 833f 04ab 2405 e874 87bf
00000020: b6d0 2fa7 aeea bc3f d439 f56b b179 9abf
00000030: 1643 018a 00a2 61bf 20a8 8a73 80bd 89bf
00000040: 8862 155f cf72 7abf b028 a470 3e19 b9bf
00000050: 37af 351e 2700 473f 70bd 7482 81d2 80bf
00000060: 452f 9e4c a6d8 a43f 4d94 3345 cac5 823f
00000070: f16c 0029 3f29 913f a9aa ecb9 0d4b 8cbf
00000080: 589d d979 75e3 933f b1d3 e0c1 9833 323f
00000090: 9695 1efe ddf6 9b3f 6d69 7592 2bc1 65bf
000000a0: 687c 4450 aa3e 99bf 5a89 5492 d7a1 b83f
000000b0: d13f a2fd d8f3 82bf 15a6 bfc2 c382 b0bf
000000c0: 04cb 8734 fdcf 69bf 8725 67e7 a092 683f
000000d0: d532 c78a 17e7 833f fe95 ea8f d2b2 84bf
000000e0: 3f0e 6185 2df6 9b3f 5e25 3818 9e35 9abf
000000f0: f4b0 6e59 1e9a 90bf f8a3 e9fd fbb4 423f

tgnn._base_tgcn.linear_r.weight f8 [32, 64]
-0.0009466188473520849 0.0022457771509311825 -0.0032774786446057203 -0.01044588228238194 0.003286167237606748 0.002985630348039134 0.00975585399884768 -0.010559737097045496
-0.009574042084652847 -0.012865084870119142 0.00409773558131254 0.002401428901009956 -0.004106923692148234 0.010516281027794016 -0.009848765909744045 0.005282765981671746
-0.004199902637855904 0.008198503704353802 0.0008727204194325608 -0.005403228101519986 -0.00352278757440967 0.009448537072442998 0.010722881249952706 -0.005379058717532069
0.0010466975090630789 0.0002883756680118459 -0.007386220566269633 0.002363478119343831 -0.005430229313245462 0.003350089404083444 0.01001782117764875 -0.008466678963382412
-0.0016305328375646542 0.0032142144023425234 0.008386268154620007 0.010181015171401445 0.002906065847331739 -0.0026147590999643865 0.002868937944307854 0.0019048386920169113
-0.009866221036039931 -0.0022343176831061645 -0.005379436212068302 0.01039024875842251 0.004000505601646432 -0.00554504587483012 0.0008103320669658726 -0.009880349962135725
0.009465692850894167 -0.00543539981852669 0.007021035050240071 0.009776975468206186 0.00697169166274919 0.008027485147078251 0.0006700649605646589 0.0010851087659624705
0.010018398009492807 0.010673520386329786 0.007510849165625075 -0.006049621041210342 0.005621334608720074 0.00046192764538428334 -0.004358212512127132 -0.0007945427086159521
-7.963778841484381e-05 0.0058215031541351435 0.010590184822016332 0.0016769812439527015 0.002986988610610132 -0.0037162775333681552 0.00730486674047379 0.0042886825459989755
0.004911001074805549 0.00457274851543574 0.0010590425845980866 -0.00022955415413927806 0.001120420862195755 -0.01021635791918182 0.0034718187901444306 -0.0007652948170816532
-0.00348348051069817 -0.009329991945349595 0.0023868192217499293 0.004556223631504611 -0.010733832218736625 -0.004636396025361768 0.010734719993515104 -0.004378817354687569
-0.006795073787477969 0.007933269832889616 0.01025620219341341 -0.0016028713242786487 -0.01070315285592698 0.0005049898787758487 0.0013986557178083238 -0.009183489578232748
-0.0021391136979788013 -0.010709363376856958 0.0019594044596054263 -0.003355438804942152 -0.002903292843343916 0.0033617859378890103 0.00723623863799717 0.00752998268252231
0.01071024383989049 -0.002812256413771773 0.009545446073074084 -0.0011821506601983871 -0.006868742951406855 0.010006319735606074 0.0010868255344719717 -0.002102728317893673
-0.0005421892917211107 0.010302989318723322 0.010115225020462823 0.0014573750592403016 0.006435744970578374 -0.012926007251145151 -0.004255041607406558 0.002659075855391813
-0.004273769951383455 -0.00102207652753706 -0.0014932592125456348 -0.00444168190514535 -0.0002797355669998265 -0.003358319762648288 -0.00487773295229536 0.005962635724641873
-0.001168661516291757 -0.00667041912254002 -0.0010509081195781008 0.006843001536079603 0.001270158182574729 -0.004894427741634398 0.009148555724346872 0.00212729715822649
0.0013879307824481697 0.0018925345738403428 0.009681541193029039 0.012148810636269772 0.004970743449440416 -0.000989194145821383 0.0016217148218227863 -0.004397356134449453
0.010031314980179683 -0.00843314653324202 -0.0074559492601795375 0.009850747382496802 0.002992789275329938 0.009286994984357802 0.00087404592060171 0.0004516815262171802
0.0008404193407368084 0.009792998713328607 0.0048600277188438415 -0.0010906753877439118 0.012114227732469594 -0.010318373339518296 0.0026101629647010426 -0.0036496605783938713
0.004309244750648581 -0.013228005007312965 0.00026458515718013855 0.00504351026122771 0.008866679022076747 -0.006188204420473252 -0.006579100951194333 0.0018902016903278242
0.001918682695423082 0.008603543935208006 -0.0038570821274823753 0.010093757035638395 -0.009178545343607788 0.00504271098740887 0.0032828966708346643 -0.009141309698951649
0.00267464276116133 -0.003749368135407984 0.006105897097042692 0.008142049845902985 -0.010291985300656954 -0.0009249980917626798 0.006459811162781608 -0.004020366990294407
0.010733540034307163 0.004274846264044191 0.00764370603318888 -0.005050640593427538 -0.009378628083004813 0.0037643476791248327 0.006663248694789431 0.010650596494283114
0.010728775313656647 -0.010546009695359907 0.0016411135743415737 -0.005556373980539364 0.0069490725469791275 -0.0021256425286350737 -0.0011227012279492227 -0.0015287636586407904
-0.0007070942406702351 -0.00334544151651848 0.009659130503751287 -0.010580132427017445 0.001602603821987018 -0.00964788272050368 0.005564309839352971 -0.005552504928316433
0.0016180531725084402 -0.0003554762187589266 0.0025626106950434988 0.004802416250929088 -0.010037012377750064 0.008779851715690708 0.002214631982209729 -0.010708460607542469
-0.009972100771736936 -0.0017032090498723654 -0.0026618490770446606 -0.00482780562316587 0.010522354635894031 -0.00032375362198430453 -0.006942101243719167 0.010163580283037137
0.0007264876858720997 -0.0005648806602234843 -0.008580181787442437 0.0056718007044236005 0.009310619269357367 -7.549743681656106e-05 0.0023716236579529966 0.004253736567496434
0.0002004160530515468 -0.0003672093433945644 0.010584387386531198 -0.00827208526952879 0.0020247929941195598 -0.001545051821899879 0.008326097926101587 0.0014073554302915863
0.005945467315895072 0.010734270613936657 -0.0027583847397996773 0.005273518216125304 -0.0015958861459411829 0.008646390681778627 0.011855734298509186 -0.006339364623270198
0.010462465054417258 -3.8271689339928685e-06 0.00183116159340502 -0.010431120644785397 0.0028348303187134636 -0.005376983430646481 0.011314437551973497 0.004629026771438417
00000000: e725 de7e d004 4fbf b2f5 5a6d bc65 623f
00000010: 2902 f1f2 5ed9 6abf b0dd 3e96 a664 85bf
00000020: c415 129a 97eb 6a3f 2d1e 7d16 5275 683f
00000030: b0f1 f48e e0fa 833f 40ac e3eb 57a0 85bf
00000040: 0124 272d 8e9b 83bf 302b 3876 0259 8abf
00000050: fa45 f384 c9c8 703f 5b02 fe52 29ac 633f
00000060: d97d 1eef 6bd2 70bf 4628 b858 8f89 853f
00000070: 430f e8fb 962b 84bf 68ae fab1 61a3 753f
00000080: 3698 9dc7 ea33 71bf b569 4a8a 60ca 803f
00000090: d558 7bd4 e898 4c3f 345b d2ff b121 76bf
000000a0: 9bf1 872d d2db 6cbf 4dfd c42d c159 833f
000000b0: 8bac 4cc2 e0f5 853f 72a9 6614 5a08 76bf
000000c0: 6fa8 7ee4 2a26 513f df8d 2510 24e6 323f
000000d0: 37e8 5e7c 0341 7ebf 65ce 46a7 925c 633f
000000e0: 9b74 f614 023e 76bf 1720 bc8d a571 6b3f
000000f0: 9671 ae32 3984 843f 5315 076a fa56 81bf
00000100: 23de 974d f3b6 5abf 574d b137 b254 6a3f
00000110: dc37 addb d12c 813f 7528 9cb9 c8d9 843f
00000120: b02a c738 76ce 673f 73ce 471a 8c6b 65bf
00000130: db4b a454 9980 673f 0f41 baf8 7835 5f3f
00000140: 31ac 7ac5 bd34 84bf 7710 172c b44d 62bf
00000150: 28c6 a069 bf08 76bf 30f7 ea94 7b47 853f
00000160: 74e4 9f8b d562 703f 3cd5 feea 66b6 76bf
00000170: f18e fedc 8e8d 4a3f 46ea ae1f 263c 84bf
00000180: 451d d4c9 bf62 833f 764e 6107 6e43 76bf
00000190: 6030 ccbe 16c2 7c3f ee2f 1e6f f305 843f
000001a0: 3f63 073b 598e 7c3f e717 68d1 b670 803f
000001b0: 31c8 c08b e9f4 453f 2af4 64aa 46c7 513f
000001c0: 9000 799e 8684 843f 1c97 f0a7 ffdb 853f
000001d0: 1739 8138 b2c3 7e3f 9c2f 67c8 7cc7 78bf
000001e0: 9984 de84 6506 773f a08c 4a21 dc45 3e3f
000001f0: 2f71 56c3 ead9 71bf f9a5 7179 1b09 4abf
00000200: dd6c 7dc9 66e0 14bf 33b3 91da 49d8 773f
00000210: b8d4 c08b 4eb0 853f ca72 52e6 c479 5b3f
00000220: 69cf ac4c 2b78 683f 5764 ff4e 9971 6ebf
00000230: e414 083c b5eb 7d3f 56a7 7274 0291 713f
00000240: 604e 1cd0 8e1d 743f 63df 39d5 dfba 723f
00000250: b8d5 0451 f259 513f 1160 5c2b 8f16 2ebf
00000260: ba2b 7fbd 625b 523f 6e4b 2d59 50ec 84bf
00000270: b070 2985 ee70 6c3f 0b6c 071b c213 49bf
00000280: 5499 d45b 6389 6cbf 15bf 3752 9a1b 83bf
00000290: 70d3 f6cf 858d 633f d064 d9f7 8ba9 723f
000002a0: d8c7 b892 9efb 85bf 4fc1 cd14 9dfd 72bf
000002b0: 9e50 6eba 15fc 853f 662e 56d5 85ef 71bf
000002c0: ced8 0ebb 26d5 7bbf a35f dc73 513f 803f
000002d0: 8cd6 0328 3401 853f b4e0 b7fa ed42 5abf
000002e0: 1ba5 d7db 88eb 85bf 46c6 cf81 298c 403f
000002f0: b914 3f24 63ea 563f eb9c 361b cbce 82bf
00000300: e800 02ec 0b86 61bf 1e76 b76b caee 85bf
00000310: 2c46 5b42 2b0d 603f f563 ca7d dd7c 6bbf
00000320: 2d0e 037a a5c8 67bf a4b0 1915 2d8a 6b3f
00000330: 0a70 bd04 bfa3 7d3f c329 c655 c2d7 7e3f
00000340: fb34 3298 40ef 853f b059 67aa ba09 67bf
00000350: ce3a ad15 908c 833f f8f4 2a9b 4c5e 53bf
00000360: a26b 7425 6622 7cbf c758 2480 317e 843f
00000370: d902 2108 7ace 513f ac7e 72ab bd39 61bf
00000380: bdfb 59a3 36c4 41bf 474e 66d1 bb19 853f
00000390: 8b8e 3c85 4ab7 843f b596 ea8d ace0 573f
000003a0: 4fd4 c822 5e5c 7a3f d1ce 4a53 f378 8abf
000003b0: 223a c008 bc6d 71bf e788 c47a 7cc8 653f
000003c0: c0c5 bf62 5f81 71bf 2340 a050 e6be 50bf
000003d0: 5390 dede 2e77 58bf df6e 59e8 7031 72bf
000003e0: 176b 9e1c 2f55 32bf 9b4b 9a31 e882 6bbf
000003f0: 2cc2 2378 acfa 73bf 26fb f6d6 466c 783f
00000400: 2f37 86bf b825 53bf 44f4 b5ff 7052 7bbf
00000410: 41d2 4c00 d437 51bf d5ef dc3c 6807 7c3f
00000420: 8bc4 b6f6 6dcf 543f 7ec8 53f1 2d0c 74bf
00000430: 6535 225d 7abc 823f 458e 26f7 436d 613f
00000440: 7966 7654 67bd 563f 98f4 7986 dd01 5f3f
00000450: d838 6476 ead3 833f a2d1 f1c2 79e1 883f
00000460: 319e d5c8 335c 743f 0759 5d20 fb34 50bf
00000470: 3ef9 e107 f791 5a3f ecc9 944c f602 72bf
00000480: a6ba 344e 4c8b 843f c74e 80c4 6545 81bf
00000490: e4cd ba23 218a 7ebf beb6 caee a02c 843f
000004a0: a7ac f681 5584 683f bb30 e35d 0f05 833f
000004b0: 82b4 7452 07a4 4c3f 469d 2062 f599 3d3f
000004c0: fc89 acca f289 4b3f 3bcd a009 5a0e 843f
000004d0: 68eb c2c1 1be8 733f 9c06 bdc7 9fde 51bf
000004e0: b203 6b1f 58cf 883f 2146 54a0 cc21 85bf
000004f0: c587 4292 e861 653f db26 6c9a e4e5 6dbf
00000500: 3755 6414 92a6 713f dd8e 2ec7 4817 8bbf
00000510: c743 db98 0057 313f 6370 10fa 80a8 743f
00000520: 513f 6483 b128 823f cbd7 b579 cd58 79bf
00000530: ad67 c2f6 aff2 7abf e2dd 569c 14f8 5e3f
00000540: 7256 68db 896f 5f3f 3cbe a61e bc9e 813f
00000550: 0d86 0e33 e398 6fbf b30a e522 09ac 843f
00000560: 9eed 9a80 33cc 82bf b1b7 626c aaa7 743f
00000570: acd5 cbba bbe4 6a3f 79ca 98d1 adb8 82bf
00000580: b866 01e6 21e9 653f 6b34 b6b0 feb6 6ebf
00000590: 103c 8345 7f02 793f 5804 7c6e c7ac 803f
000005a0: a4c6 37e2 f613 85bf 9926 c846 724f 4ebf
000005b0: 0573 eb5a 9a75 7a3f 8916 dc0b a977 70bf
000005c0: 055c 575b 77fb 853f 9357 644e 8082 713f
000005d0: 0daf ecb6 014f 7f3f 900e c302 fbaf 74bf
000005e0: 79cd 2e27 1a35 83bf 2d0f 86c5 68d6 6e3f
000005f0: a0f2 aa33 ec4a 7b3f 79b7 01dd facf 853f
00000600: ed4a c9d8 f7f8 853f 427e f575 2599 85bf
00000610: 7f55 5f48 54e3 5a3f 3300 7ec8 47c2 76bf
00000620: be99 3a75 a176 7c3f 9857 97a4 cb69 61bf
00000630: 1282 a943 f364 52bf e100 b37a 190c 59bf
00000640: 5b72 c651 892b 47bf d49c ee3c e667 6bbf
00000650: a5a4 f88c 2ac8 833f 2253 1756 09ab 85bf
00000660: 118d 3fc0 ce41 5a3f 4fe7 14e6 44c2 83bf
00000670: 06ac 8e0c 9aca 763f bb7a 3f31 39be 76bf
00000680: a41a 625d 9b82 5a3f 655c ecbb e64b 37bf
00000690: 193b 1524 2ffe 643f 4112 d5cb b2ab 733f
000006a0: 1fbe 4bff 488e 84bf 7168 dcbf 2bfb 813f
000006b0: 09e5 f57d 6b24 623f f397 cc40 51ee 85bf
000006c0: c007 7fb5 406c 84bf f78c b7ca c6e7 5bbf
000006d0: aa0d 7357 4dce 65bf ff02 3534 52c6 73bf
000006e0: 49fc 4d88 be8c 853f cc05 e837 af37 35bf
000006f0: e6ad ea1c 526f 7cbf 1646 68a7 a4d0 843f
00000700: bdb6 066d 38ce 473f 455a 1cfb 8f82 42bf
00000710: 70cc 5d81 7c92 81bf d811 8f68 503b 773f
00000720: 33a1 232a 7211 833f 7c9f 9616 8cca 13bf
00000730: 5618 94c1 a76d 633f 3155 17b7 5d6c 713f
00000740: 6040 72c9 d844 2a3f 99eb e31e c010 38bf
00000750: 7103 636d 44ad 853f 6a69 9e7d f4f0 80bf
00000760: 7bf6 1b76 4c96 603f 9b81 ecc2 6a50 59bf
00000770: af00 5ef2 450d 813f 213c 0163 e00e 573f
00000780: 8238 e63a 465a 783f 99bd dd69 d9fb 853f
00000790: 9444 e987 c098 66bf 71b1 5e44 af99 753f
000007a0: cb69 84b3 a125 5abf fa46 a7e9 32b5 813f
000007b0: ca44 a8b8 d147 883f 5ef5 bf3b 4ef7 79bf
000007c0: 3341 f449 586d 853f 900e a42f 640d d0be
000007d0: 0c48 12ca 7200 5e3f 1a68 3d50 e95c 85bf
000007e0: 1451 46f0 1139 673f d3ac c5ff 2c06 76bf
000007f0: 4b1f 111a 062c 873f 1bba 87e9 e2f5 723f

tgnn._base_tgcn.linear_r.bias f8 [32]
0.008045660319142776 -0.0027712691963370944 0.0010540592378486028 -0.0055022808824584995 0.00486220937520587 -0.010690762280827742 0.0015457844640169012 0.0011613283575991201
0.0008876093935476429 -0.01042548576051059 0.007550314335657317 -0.011045292244755105 -0.0003747726099271804 0.00029778245374257906 -0.00881751484929286 -0.008382191911950436
-0.004721823784802096 0.0020395757863696305 0.0031923797472947417 -0.002967319749832377 -0.0014549162290416107 -0.005711087178044212 -0.0001992068033887777 0.0009303605124097831
0.005851157657809548 0.005059596972346066 -0.009813440335740387 0.0008547447263509653 0.008813706148330947 0.01003067404371068 0.0006529136398486611 -0.003913608017716159
00000000: 7f44 903f 3e7a 803f 253e 22d2 c5b3 66bf
00000010: 9645 187d 0b45 513f e7d7 1847 8f89 76bf
00000020: 7d86 0b64 65ea 733f 3079 ecd2 09e5 85bf
00000030: 7936 0e6e 7d53 593f c028 36d4 f606 533f
00000040: bb7d 90a8 ce15 4d3f f427 1703 f559 85bf
00000050: 68b4 5612 14ed 7e3f a956 ba07 ea9e 86bf
00000060: 7d0b 631a a48f 38bf d108 70e6 f583 333f
00000070: 9214 47cf ea0e 82bf fc83 0bc1 ae2a 81bf
00000080: dd2f bbeb 3057 73bf 4f00 9be9 4cb5 603f
00000090: 6fab 8dd3 e726 6a3f 6aa4 08a9 eb4e 68bf
000000a0: 575c d167 5cd6 57bf 5508 784a 8264 77bf
000000b0: beeb 5069 451c 2abf 6287 b5fc 6d7c 4e3f
000000c0: 1b65 8b2c 62f7 773f a246 6f38 5fb9 743f
000000d0: 800f 6daa 1119 84bf d598 b352 1e02 4c3f
000000e0: 2720 4f9d eb0c 823f 2aed cb47 f68a 843f
000000f0: 5b3c 795d 0965 453f ae94 2027 b707 70bf

tgnn._base_tgcn.conv_h.bias f8 [32]
-0.0034900154205508623 -0.09397142255141992 -0.06939199487345861 -0.13158991600422532 0.12853821159358159 0.028370329211363784 0.08078252015555631 0.05262832170489478
0.05759224289386801 -0.10328520929405792 0.07587104257769611 0.003547380907820017 0.127328839407083 0.02083212161434336 -0.042207911331697184 -0.009525146408373604
0.0773194303397738 -0.06969622170746288 -0.05324316818229565 0.03358166708897601 0.06251146732579589 -0.006643840894297249 0.03501245735936555 -0.14701195100661668
0.014344172616882435 0.024806169041257747 -0.09191966782461522 0.04068890084927823 0.046842955619476365 0.1705463746610723 -0.1174574163020465 0.032367758008800894
00000000: 4c6c 00c3 1797 6cbf 23f0 9dda 820e b8bf
00000010: b9f0 957c acc3 b1bf 405b dc38 f0d7 c0bf
00000020: 6056 8aab f073 c03f 0fe9 8e90 1c0d 9d3f
00000030: 5015 28ca 29ae b43f 57bc 2171 19f2 aa3f
00000040: e203 77ff ba7c ad3f 2f18 1444 e670 babf
00000050: 34aa 95de 486c b33f e18e 899f 650f 6d3f
00000060: c6a7 8bb8 4f4c c03f 67db 2804 0455 953f
00000070: ccad 9a7d 469c a5bf 6434 8282 eb81 83bf
00000080: 0599 a7c8 34cb b33f d568 e390 9cd7 b1bf
00000090: 6b22 2844 b042 abbf 0ddd c8c3 9d31 a13f
000000a0: 550d ca63 c000 b03f f4f9 c575 9236 7bbf
000000b0: 8244 9f1e 27ed a13f c4e7 d8a0 49d1 c2bf
000000c0: e7b4 3842 7a60 8d3f 7bc2 15d3 c966 993f
000000d0: ce78 2a1f 0c88 b7bf 9069 eaf4 2cd5 a43f
000000e0: ce04 dec4 ccfb a73f 1272 cfae 76d4 c53f
000000f0: 5da0 b071 b011 bebf c36e 2fbc 8192 a03f

tgnn._base_tgcn.conv_h.lin.weight f8 [32, 1]
-0.2297418355052722 0.3369417763119435 -0.3801363865604984 -0.0016237536080572722 -0.31400892821790477 0.4327831403389246 -0.19122381991560072 0.36473529562061285
0.3751714911380617 0.19156879926941522 -0.27698664634970693 0.22577657699162232 -0.3378313776631428 -0.01776187938448499 -0.18787128999081482 -0.3476137941562256
0.39431278508067613 0.243724112808157 -0.2613755477994672 0.44711742505316066 0.299762756799576 -0.2869163136153468 -0.18203172860221656 0.02761888600195205
-0.41564298860020976 0.1577413199006228 0.1283499454027935 0.007506089921661728 0.20293580516973744 0.03847540707814884 0.12956589130485624 0.017759098005907747
00000000: ed52 0233 2e68 cdbf d79e 7a3d 7490 d53f
00000010: 4e01 1391 2754 d8bf ebf0 2c29 849a 5abf
00000020: 3344 56e7 b818 d4bf d803 810e b8b2 db3f
00000030: 3279 60aa 057a c8bf 8fcb 98b5 d257 d73f
00000040: 0017 3549 cf02 d83f 7ee7 e58f 5385 c83f
00000050: 9e0b e032 26ba d1bf 43e0 3033 3fe6 cc3f
00000060: 7d0d a87f 079f d5bf 9395 498c 2b30 92bf
00000070: c016 2f9b 2a0c c8bf 9886 62ed 4d3f d6bf
00000080: 4e3c 14b1 6b3c d93f a5fa e00a 5a32 cf3f
00000090: 7f75 7181 60ba d0bf b8cd 8467 929d dc3f
000000a0: acd4 4021 502f d33f c1ac ea3d d65c d2bf
000000b0: ae26 97d0 d04c c7bf dd76 8510 2048 9c3f
000000c0: e05f b60c e599 dabf f8bb 1919 de30 c43f
000000d0: a364 f960 c56d c03f 32fd bfab b4be 7e3f
000000e0: 091b 32eb ccf9 c93f e8ad 336e 0cb3 a33f
000000f0: e66c ea78 9d95 c03f 903c 91e4 702f 923f

tgnn._base_tgcn.linear_h.weight f8 [32, 64]
0.054567826427018684 -0.06834634380481963 0.0644440782833263 -0.05182786259654788 0.06535229671688743 -0.04461632813887025 0.01726846726555187 -0.06615855168549102
-0.04555242533355955 -0.04286892463248395 0.04064796971883037 -0.06844477210821352 0.0369196126826246 0.05577067214009883 0.04933318514492539 0.03888477315191184
-0.03095831791662876 -0.023094409787088058 0.06811773520545417 -0.04644840519087206 -0.03870037622829583 0.01762114856641875 0.016760186600655896 -0.060047703265164086
0.016753319689172933 -0.020569581148207235 -0.02005825216080294 -0.06788905830962844 -0.038691355316961704 -0.03610397690783127 -0.017838283487079984 -0.04676850665329074
-0.0051901331712046325 -0.005628972735143605 0.0047759048600877095 -0.007243184657568915 -0.012975641542435079 0.013357491774035163 -0.009521846890146736 0.007987195432215138
-0.0010150870611161963 0.0021279151651835636 0.006626332767183348 -0.006950720617252308 0.010685206006095587 -0.005522988350876674 0.004141809314526358 0.0006871797887587319
0.0004811442515177316 -0.0033100674459000893 -0.006663696660500812 0.00895762378704705 0.010552096624350043 0.008972648991081465 0.009935314184928882 -0.004890458806068781
-0.008100822995193666 -4.088493438787024e-05 -0.0035287610820455366 0.005931156418101765 -0.001081227423003618 0.005233676651977623 0.0010346610379772822 -0.0008449028889140959
-0.02172836842301595 0.1247966305232372 -0.17053449077567143 -0.014201247425624074 -0.12851653049319975 0.06817894139528537 -0.03446875649434569 -0.019357216254906214
0.17718981741872436 0.12431468012348003 -0.13256531842508973 0.0023285172318296167 -0.11860183452780322 -0.11062224277804196 -0.10232111079078755 0.0534771766673191
-0.02848651715999776 0.10272956950701215 -0.15863776719225467 0.14275389648303188 0.01706130569946789 -0.12270631554015685 -0.10695392871863196 0.0078058521331565685
0.036830887441222954 0.1539251551541642 0.09488796175875833 0.08961878619867245 0.15480814639670984 -0.05568565875870788 0.15532010080238537 -0.10430049386681786
-9.769191372975143e-05 0.0001306253207426042 0.005199386512893852 -0.00120979165015149 -0.002213176437945272 0.005434170807979418 0.007370480785374944 -0.0014420073641334653
-0.002066103588436198 0.006688029745290594 -0.004981984718116959 -0.004804161819353054 -0.001090431791335001 0.002573948818661729 -0.0040797820434619264 -0.005140564092611441
-0.0018262457019840887 -0.0055914487405820555 -0.000918536854796743 -0.0022766711616788973 0.005519961312096112 0.0012030661757629702 -0.0032813653828548082 0.008097940335024532
-0.010731193283778152 -0.0021543617168939522 0.0020454070395078895 -0.010731696925208806 -0.004636495858284608 -0.001124458012674393 0.007080020682325418 -0.003044748343812034
0.020178144133842946 -0.02534076811331833 0.03927598718539731 0.014490989782655436 0.028304377335640032 0.00366271721892288 0.01779784319736722 -0.031842893378912586
-0.020178880373354198 -0.017346198914342977 0.04665691454706879 -0.025901780685600406 -0.0037210148180082253 0.033119232862147664 0.0023154475227453405 0.039435517299934955
-0.025775530851007984 -0.03435333954582307 0.030601211409768406 -0.031120834619510807 -0.017258145810128557 0.032700181772437206 0.026834831628803995 -0.041469000742783514
-0.003696069329012814 -0.019239288696202526 -0.025693103512236717 -0.003913343079186145 -0.05241702867553268 -0.030853985320939654 -0.0443552905539699 -0.03145341054720449
0.004172029463234505 -0.002494688360512344 0.00021652984190749682 -0.0054797371360844295 -0.009930105604252506 -0.004971007232097328 0.010715559402013393 -0.010195306162934655
-0.00980927547348098 -0.00108250545763427 -0.007036002863450025 0.0010055255447863687 0.00026400098909030333 -0.0010940282676254525 -0.001463236440789759 -0.002383829486189083
-0.010655527005089318 -0.011869756855285647 0.008677744109259927 -0.010455161479192331 -0.005733024279307376 -0.0021935861850543637 0.001997407694290815 0.0051935332449741895
-0.0023225923089442786 -0.001343786756091693 0.0018592010088110918 -0.0011521152086307227 -0.0004060380397270561 0.0018817860856282628 0.010518100431012182 0.004609541361719705
0.0039931806326561755 -0.02281791339477413 0.014180897526247868 -0.0009102449306562523 -0.0022879646250365555 -0.04727619658087718 0.024327638173649118 -0.01715772586714467
-0.02116248298600533 -0.006409042073481899 0.00934329968621744 -0.02602516019227852 0.0057974034769576405 0.005642205877085352 0.015771085631778106 0.01953623610565853
-0.024534585784261494 -0.011514337178819297 0.03250254319250376 -0.03481515105144366 -0.012333251827978892 0.01333031495951657 0.0026692181889011245 0.006115018107075023
0.04327385134475531 -0.022961830229150482 -0.014609794234146972 -0.030974631106824014 -0.019883710967225944 -0.10896459810855974 -0.004147741397871336 -0.013169392538228896
-0.00845672096093504 -0.011782786121413416 -0.004549538391468787 0.01073216103248161 0.007079190289612109 -0.005013583573408728 0.0008827254962902321 0.004044480471490718
0.007286802146361828 -0.0107341472532646 -0.0008607923822486945 0.006227461232466264 -0.005205439970846267 0.00039425456939453485 -0.0055494005915794785 0.006270583055345719
0.0008434066262337233 -0.002830612306516335 -0.006873954485780412 0.01019040404685618 -0.0077520063502227055 0.0016868860972633708 -0.007637995406574488 0.0019732922554182557
-0.0012715236082211608 0.002576134810543382 -0.007271745207105792 0.0008340577579801637 -0.0002343914965331729 -0.007275376315988976 0.008491450700171025 8.20659595933558e-05
00000000: 68f0 d56b 50f0 ab3f 1860 715f 257f b1bf
00000010: f6d2 a538 687f b03f ca5c bf7d 2e89 aabf
00000020: c515 1e99 edba b03f fbb6 728c f3d7 a6bf
00000030: c15f a138 d3ae 913f 5104 d74f c4ef b0bf
00000040: 244b 1fc2 a552 a7bf 9356 9f6a eaf2 a5bf
00000050: 75ae 2e89 cfcf a43f 8f75 c9b9 9885 b1bf
00000060: 6610 1ba2 20e7 a23f e6d7 d539 f98d ac3f
00000070: b624 9c01 3342 a93f 0eeb ff79 b4e8 a33f
00000080: a9e0 f68b 89b3 9fbf d41b 069b 0fa6 97bf
00000090: d829 fcf4 2970 b13f a707 7eda 15c8 a7bf
000000a0: 63a2 7c24 89d0 a3bf e82e 3e43 470b 923f
000000b0: 7877 4c15 9529 913f e394 7293 92be aebf
000000c0: 8160 a840 c827 913f 52be 4b39 3110 95bf
000000d0: e4a9 2e84 268a 94bf 0833 3265 2d61 b1bf
000000e0: 06d3 7273 5acf a3bf bd3b 2670 387c a2bf
000000f0: ac6f c6f0 3244 92bf 5806 1ead 0af2 a7bf
00000100: 6f20 b7c3 3f42 75bf 6c97 ebdc 670e 77bf
00000110: f317 ed32 e68f 733f 0f03 9293 07ab 7dbf
00000120: e015 8e20 f992 8abf 9dca 9b32 2c5b 8b3f
00000130: e1f3 eca7 3080 83bf b651 5839 975b 803f
00000140: 0ebe b96e 95a1 50bf 7349 61c1 8f6e 613f
00000150: d57f 70a8 3624 7b3f eb75 c1db 5b78 7cbf
00000160: 8912 c712 20e2 853f c7c3 7de5 459f 76bf
00000170: 8ea4 d578 00f7 703f e472 0e5c 7b84 463f
00000180: 656b 2ed3 4288 3f3f b4ad afed b61d 6bbf
00000190: 7a15 a373 644b 7bbf 18cf b8e9 5f58 823f
000001a0: 291c 3f6f 569c 853f 5f2c cd8f 4060 823f
000001b0: 427f ff4b f758 843f 1fea 268a 0408 74bf
000001c0: 452a ae0e 2a97 80bf ca23 15a6 7b6f 05bf
000001d0: 9347 2b2e 59e8 6cbf 3cc7 7dad 444b 783f
000001e0: 6c37 f71a ffb6 51bf 17e8 ed60 e86f 753f
000001f0: 0905 84d4 aef3 503f 39ee 5923 8faf 4bbf
00000200: dfd3 161f f63f 96bf 8890 bf06 acf2 bf3f
00000210: d95a 5cfe 12d4 c5bf 662e 0b2a 8b15 8dbf
00000220: db59 bbcb 3a73 c0bf 2193 91d3 2c74 b13f
00000230: 7406 c18b e3a5 a1bf 6f93 06cb 60d2 93bf
00000240: 6ab2 7feb 27ae c63f 3105 8b3d 16d3 bf3f
00000250: 6a1b 9c7d e6f7 c0bf 48f3 7b2b 4113 633f
00000260: 7de2 8a98 b05c bebf e51d f142 bd51 bcbf
00000270: 616d 8960 b731 babf 8fb2 bc49 5c61 ab3f
00000280: 4a08 51ce 912b 9dbf f661 5d2d 7c4c ba3f
00000290: 2d27 000b 3e4e c4bf 66b6 627a c245 c23f
000002a0: 6d6c 06d8 8478 913f 0ef4 415c ae69 bfbf
000002b0: 1876 062a 5561 bbbf 1db1 117a 07f9 7f3f
000002c0: 0cde 1582 7fdb a23f 3d9d b5c9 d1b3 c33f
000002d0: 1eb8 89d4 934a b83f 969c d4bb 41f1 b63f
000002e0: ddd0 f6da c0d0 c33f ad21 73a6 d482 acbf
000002f0: 15c8 ad70 87e1 c33f 7a58 1dea 6fb3 babf
00000300: d49a 574c fe9b 19bf 67b1 13f6 0e1f 213f
00000310: efa7 83b0 f34b 753f c0c8 a1e4 3bd2 53bf
00000320: fae6 7a0d 5e21 62bf bc1b 6b1e 2442 763f
00000330: 001c dd5e 8230 7e3f f103 0d9e 37a0 57bf
00000340: 369c f5ea eeec 60bf 83bd 7d50 e864 7b3f
00000350: 0b8d ef56 fd67 74bf fa89 615e 87ad 73bf
00000360: 03a5 7738 9add 51bf 6267 ed3f f615 653f
00000370: f93f 3927 f6b5 70bf 0a77 92aa 450e 75bf
00000380: 0c7a 2064 d4eb 5dbf 9322 a617 0fe7 76bf
00000390: 6fe5 31e0 3e19 4ebf 796c dc85 86a6 62bf
000003a0: 9b5f f854 199c 763f a410 4f78 06b6 533f
000003b0: b8c6 2da0 85e1 6abf 7f2a 3b27 a795 803f
000003c0: 0768 9b61 3cfa 85bf bb21 c523 06a6 61bf
000003d0: 7129 ef8a 87c1 603f bd47 98fa 7ffa 85bf
000003e0: 691b 45e1 b7fd 72bf a968 f898 516c 52bf
000003f0: 28c8 9194 f0ff 7c3f 9f89 f5d1 4cf1 68bf
00000400: d066 9854 94a9 943f a579 3529 eef2 99bf
00000410: 7673 f570 fb1b a43f 581a a0b9 73ad 8d3f
00000420: 97fb f59b d2fb 9c3f 2ac1 6e55 4601 6e3f
00000430: 625b e309 9939 923f a54a 5833 b64d a0bf
00000440: f203 18bd c5a9 94bf 6224 30b4 33c3 91bf
00000450: 824e 3944 6ae3 a73f 93af cf13 ff85 9abf
00000460: e0db 709e 887b 6ebf 9de7 050c 01f5 a03f
00000470: b56f 586c d8f7 623f ba47 3562 e430 a43f
00000480: 1221 2b98 e664 9abf 9d23 b7cb c296 a1bf
00000490: b149 e488 ec55 9f3f edfb a8db 23de 9fbf
000004a0: 2a5c 608f 1eac 91bf f65d 9206 14be a03f
000004b0: eb1f f510 977a 9b3f 55e2 f9c3 6c3b a5bf
000004c0: 421b 8a1c 3847 6ebf c674 fece 76b3 93bf
000004d0: 376d 45fd 4a4f 9abf a2ab b008 7007 70bf
000004e0: b36e d49f 67d6 aabf a569 9ee7 2f98 9fbf
000004f0: 1ef2 aa94 bcb5 a6bf 2cba 4b53 a91a a0bf
00000500: a601 a4a1 b016 713f d0f1 819d bd6f 64bf
00000510: 3e26 e02d 8961 2c3f 1b7e a4bc eb71 76bf
00000520: a15a 8736 3c56 84bf 9131 d797 7a5c 74bf
00000530: f71a 8509 0af2 853f 5110 57d4 46e1 84bf
00000540: be33 d9aa e216 84bf e830 7362 5bbc 51bf
00000550: 47db 16a3 c8d1 7cbf 9f2d 21d5 7a79 503f
00000560: 85c8 3f9d 334d 313f 1cab 57e8 afec 51bf
00000570: c25e 352a 42f9 57bf e967 d6b5 4087 63bf
00000580: 416a 11a0 90d2 85bf 6a15 0acc 2b4f 88bf
00000590: c3f7 3719 a3c5 813f 792e 0505 8469 85bf
000005a0: b4ba 96fc 827b 77bf cddf 9f9d 48f8 61bf
000005b0: 2706 2917 de5c 603f 0b72 0177 d045 753f
000005c0: 118e 4840 d406 63bf d3bf e40a 4004 56bf
000005d0: efe1 e3e1 0d76 5e3f d154 1b49 52e0 52bf
000005e0: 44d0 ff19 309c 3abf b7a9 886c c8d4 5e3f
000005f0: f51b f08a 838a 853f c1cd 5e56 74e1 723f
00000600: 6fa5 9643 275b 703f 418f 2c3f 945d 97bf
00000610: 8b46 d3d8 df0a 8d3f 0cbb b01a b0d3 4dbf
00000620: 045f a5a7 35be 62bf 9965 63ec 9534 a8bf
00000630: 9b04 6129 58e9 983f 7779 e47d cb91 91bf
00000640: 04e6 4e31 9eab 95bf e92e ab21 5e40 7abf
00000650: de55 b674 9422 833f c192 98ef 56a6 9abf
00000660: d92e 5da5 04bf 773f 3795 821b 481c 773f
00000670: 042a 0ba4 4b26 903f 7298 a49c 4e01 943f
00000680: 62da 412e 981f 99bf 6bf6 f12c d494 87bf
00000690: 2ce6 1860 2ca4 a03f 26ae 579e 4ad3 a1bf
000006a0: 1d38 090a 2d42 89bf 163d 5f96 ec4c 8b3f
000006b0: 4f93 789a c1dd 653f e9a2 8cac 0f0c 793f
000006c0: c86a 9880 fd27 a63f ade0 8f57 4e83 97bf
000006d0: f6df 7e63 bdeb 8dbf cd19 704e d0b7 9fbf
000006e0: 5a35 4f41 655c 94bf d84c 4c99 1ae5 bbbf
000006f0: 877a 7fda 38fd 70bf b93b 14f2 8df8 8abf
00000700: a83d abdf c151 81bf dbbb 60c8 9221 88bf
00000710: 98ee a669 89a2 72bf 2b06 3345 befa 853f
00000720: eead 6aac 11ff 7c3f 63a2 bc97 1f89 74bf
00000730: 0119 a791 d6ec 4c3f d878 abf5 f190 703f
00000740: a9a5 930e c4d8 7d3f 3ecb 39db c8fb 85bf
00000750: a814 b190 d934 4cbf 47ef 4965 f781 793f
00000760: bc2a faa6 4c52 75bf 7b65 5a7b 7ed6 393f
00000770: f30e dae0 f7ba 76bf ba9a 64d2 2eaf 793f
00000780: 0760 3ef0 01a3 4b3f 9db2 1769 3930 67bf
00000790: 6ab2 5e1b dd27 7cbf 2508 eae0 b4de 843f
000007a0: b29c 0a5c 91c0 7fbf 262f ab27 50a3 5b3f
000007b0: 6dda a6c7 0449 7fbf 7ca5 7a36 4b2a 603f
000007c0: 6fc6 0e14 28d5 54bf ad26 5dd8 8b1a 653f
000007d0: d6fe 963d fac8 7dbf 7e67 9165 9554 4b3f
000007e0: 88b3 c79f dfb8 2ebf 1604 7ef5 c8cc 7dbf
000007f0: 9532 6c38 f763 813f 1f1c 4573 5a83 153f

tgnn._base_tgcn.linear_h.bias f8 [32]
-0.020899180633723327 0.14608961079288696 -0.06954504363166902 -0.16091712550791465 -0.09932475321790012 -0.0882169231175551 0.03307321647762724 0.054248783011152414
-0.07843434483363056 0.06926926598288162 -0.03673732838839467 -0.16002625367101694 -0.08936170128714299 -0.043179573153108046 0.11363889008800448 -0.03092422544633765
-0.10983970390850369 0.1547243240057595 -0.04542453524474503 -0.06504996378085802 0.066420973774163 -0.06832517532963198 0.08868998405369576 -0.0410892603411771
0.008138254660765287 0.03183926208147129 0.03633008942270909 0.16515679939879407 0.18261090287024156 0.01410346090523046 0.03271485691591411 0.013827628376815
00000000: 4414 5745 9866 95bf 5406 527a 10b3 c23f
00000010: 9835 ff37 b4cd b1bf fe1e b6af ee98 c4bf
00000020: 1710 c1d6 586d b9bf 8d5f be5f 6295 b6bf
00000030: 3935 4afe f8ee a03f 1deb c219 7fc6 ab3f
00000040: b991 f1f1 4514 b4bf d7af 0370 a1bb b13f
00000050: 39ee f02f 3ccf a2bf 835b 0283 bd7b c4bf
00000060: 2c0f 8b90 68e0 b6bf 4f7e 180d a21b a6bf
00000070: dc51 7b34 7017 bd3f dddb c8a3 99aa 9fbf
00000080: 6ddf 1670 741e bcbf 930e c0b3 01ce c33f
00000090: f6d5 9f7a e241 a7bf 0776 0b4b 1da7 b0bf
000000a0: a0e5 2006 f700 b13f a6c3 8839 c27d b1bf
000000b0: 774e fe04 63b4 b63f d0ad c3ca a609 a5bf
000000c0: 6082 ea0c caaa 803f 35c5 bc5a 3c4d a03f
000000d0: 2fd2 dc83 db99 a23f 069f 10a6 db23 c53f
000000e0: 8e40 dc47 cb5f c73f 217b c97a 46e2 8c3f
000000f0: bc26 1871 00c0 a03f ddfc 46dd a851 8c3f
