Q1/models/gcn/100/d1/bestval.pth (torch, 36751 bytes, 8 tensors)

conv1.bias f8 [32]
000000 76 ac f9 ed 13 bf 79 bf 00 00 00 00 00 00 00 00
       -0.006285741662945479 0.0
000010 00 00 00 00 00 00 00 00 b4 76 45 ea e3 c4 93 bf
       0.0 -0.01930576436404037
000020 38 2a a4 11 75 ee 8d 3f 00 00 00 00 00 00 00 00
       0.014614977455967723 0.0
000030 c3 48 f5 26 d8 69 93 bf ce 09 2a 3c 06 0f be 3f
       -0.018958451631370787 0.11741675347187838
000040 7f 72 13 da 5d b9 85 bf a6 c3 0f 32 22 cd 81 bf
       -0.010607464997911762 -0.008692042496450569
000050 cc 47 93 7e 10 fd 23 bf fd ac 0f 98 ca be b1 bf
       -0.000152500403862775 -0.06931749546463446
000060 fc 64 77 09 e8 47 a1 bf cd 79 5b 1c 1d 18 89 bf
       -0.03375172725254491 -0.012253024509331656
000070 b3 b0 cc e5 4c 44 64 bf 00 00 00 00 00 00 00 00
       -0.002473974409801094 0.0
000080 6a 5b e4 94 51 49 72 bf d9 d5 30 a3 ed f5 82 bf
       -0.004464453390275883 -0.009258133452116834
000090 09 55 d4 d4 f5 e8 63 bf 00 00 00 00 00 00 00 00
       -0.002430420054802544 0.0
0000a0 00 00 00 00 00 00 00 00 40 72 75 06 06 ac 8b bf
       0.0 -0.013511702606302411
0000b0 6a 92 a6 d0 36 95 b1 bf 00 00 00 00 00 00 00 00
       -0.06868307680140054 0.0
0000c0 81 f5 86 79 a0 76 a8 bf 00 00 00 00 00 00 00 00
       -0.04778005107389572 0.0
0000d0 bb 01 bd 69 6b a7 47 bf 1d cb ff 6c f0 cd 77 bf
       -0.0007218622663245836 -0.005811633265681929
0000e0 d8 d7 f6 91 d7 23 75 bf 9c 5a ac 4f f0 43 a4 bf
       -0.005161134787547504 -0.03958083126615472
0000f0 00 00 00 00 00 00 00 00 d1 fa 69 67 c0 be b0 bf
       0.0 -0.0654106380916162

conv1.lin.weight f8 [32, 1]
000000 d1 b0 c7 c5 fb 8e d3 3f 0c 14 90 29 08 55 86 be
       0.3056020194478722 -1.6638752667344198e-07
000010 f8 a8 55 68 2d 04 2c bf cd 42 75 ce 77 df 87 bf
       -0.00021374754229992027 -0.011656700122928321
000020 43 cb 90 e3 34 eb b6 3f f7 a3 b3 e9 1c 12 64 be
       0.0895264678554613 -3.738469197564161e-08
000030 02 40 b7 89 bf 2a d9 3f ec 91 41 6c e5 b1 8f bf
       0.39323414276896085 -0.015476028791632644
000040 9d 1d d4 35 8e 17 89 bf 2b c2 40 74 05 b9 81 bf
       -0.012251959817617225 -0.008653681383379816
000050 dd ea 4b 98 dc d5 de 3f d0 31 6e 70 80 91 aa 3f
       0.4818030822058697 0.05189133999292361
000060 ee 89 21 93 28 e6 d1 3f 00 d2 0e 31 f7 1e 89 bf
       0.27967275970709593 -0.012266093430164382
000070 00 10 bf 63 c8 2b c9 3f b7 c2 1b 42 b2 3b 57 bf
       0.19664864416529326 -0.001418041305836377
000080 94 1c e1 74 f6 82 c6 3f a5 16 83 8c 52 e4 82 bf
       0.1758716650676645 -0.009224553025329494
000090 8b f0 45 ba 9a a0 d7 3f f5 52 66 d9 0c b5 a4 bf
       0.3691775149416194 -0.04044380334668133
0000a0 e6 7c b9 49 46 67 36 bf 0d 43 f1 78 10 a2 da 3f
       -0.0003418490029840196 0.4161416226461803
0000b0 58 e6 65 d5 4f a1 7f 3f 9f 2a f2 a7 f9 98 8a bf
       0.00772219834322526 -0.012987089574626963
0000c0 7b 39 e5 33 0e 35 cf 3f fe 09 c9 17 c0 a3 01 bf
       0.24380662473636136 -3.364496203463531e-05
0000d0 be c2 85 b3 1d f1 d4 3f 48 56 37 26 78 8e a7 3f
       0.32721655398840344 0.04600882975107062
0000e0 99 7c d9 28 f9 b3 73 bf ce 0f 82 20 95 6b a4 3f
       -0.004810307769360333 0.039883289545315045
0000f0 06 d0 e4 2f 85 cc 0b bf e7 cb f1 f5 51 95 c6 3f
       -5.302220778205528e-05 0.17643188961991926

conv2.bias f8 [64]
000000 cd 1e 8d 31 21 6a 91 bf b3 64 ab c4 24 a2 81 bf
       -0.017006415032738077 -0.008610045673253052
000010 c5 e3 a2 2e 58 85 bd 3f 7b 25 50 5b 07 8e 31 3f
       0.11531592501240968 0.00026786498648386615
000020 dd 78 1b 19 c3 59 83 3f 74 18 49 dd 58 6c 7b 3f
       0.009448551372255693 0.006695124746846404
000030 b5 dc 7a 07 6c f6 9a bf 46 9c 63 df 46 4d 67 3f
       -0.026330650288141928 0.002844465659211734
000040 00 00 00 00 00 00 00 00 f7 d2 b1 46 c3 95 89 bf
       0.0 -0.012492681116989852
000050 00 00 00 00 00 00 00 00 7e ef 4c b1 80 a6 7d bf
       0.0 -0.007238867478743914
000060 d4 aa d7 9c 22 52 9b bf 42 4a 73 66 90 83 80 3f
       -0.02668050844469401 0.008063438536202065
000070 25 22 57 c3 c6 a7 8e 3f f6 85 f0 2b c1 af 8d 3f
       0.014968445621790736 0.014495381501606435
000080 84 28 2c 16 10 13 76 3f 80 0e e1 b3 6d 95 8d bf
       0.005389273489308736 -0.014445168544745757
000090 3a 07 47 29 0d 99 78 bf 6d 26 76 c1 ee b1 98 3f
       -0.006005336199850048 0.02411625915332254
0000a0 83 3d 1e 64 19 16 7f 3f 47 82 aa 04 5f b3 90 3f
       0.007589434799128883 0.01630924669246017
0000b0 cb c0 e9 fb 4e 89 74 bf 00 00 00 00 00 00 00 00
       -0.005013760119808984 0.0
0000c0 00 00 00 00 00 00 00 00 70 31 59 b8 52 44 93 3f
       0.0 0.01881531953977017
0000d0 d1 92 69 b2 88 e1 7b bf 4b bd 07 57 7d 49 8e bf
       -0.0068068828319140665 -0.014788607805683049
0000e0 00 6b ea 92 56 ff a4 bf 00 00 00 00 00 00 00 00
       -0.04101057570843203 0.0
0000f0 b2 36 2a 00 3f 3e 91 bf e3 c6 43 b7 35 0f 98 bf
       -0.016839012513222236 -0.02349552088794028
000100 70 7d ce be a9 6a 8f 3f 79 77 10 e9 41 d5 92 3f
       0.015340162406401986 0.01839163765918481
000110 f0 41 56 a9 48 6d 73 bf 1e 83 4b 6b 58 1c 9c 3f
       -0.004742893060566619 0.027451879071011757
000120 16 29 00 93 73 f3 86 bf 00 00 00 00 00 00 00 00
       -0.011206534312823407 0.0
000130 00 00 00 00 00 00 00 00 dc 05 45 22 27 d2 c0 3f
       0.0 0.13141335652657815
000140 de 34 6f 20 fe 46 b1 bf 9e f0 52 61 cc d2 b7 3f
       -0.06748951236587028 0.09306027771066502
000150 00 00 00 00 00 00 00 00 01 1c d2 74 0e 1a 80 3f
       0.0 0.007862198772512487
000160 73 1f eb d1 4c b4 97 3f fa 59 e6 19 64 d2 90 3f
       0.02314872771492511 0.016427578049468018
000170 9d 67 2d af a5 78 c7 3f 1e d5 26 8f 06 3e ba 3f
       0.1833693604810919 0.10250893587984364
000180 66 83 82 b5 47 38 8c bf 37 23 71 c6 33 d7 84 3f
       -0.013779220797290836 0.010176090711085812
000190 e0 c4 0f 96 1e c2 7a 3f 7c c7 8b dd 00 50 8a 3f
       0.006532783009775417 0.01284790683846259
0001a0 59 a1 22 08 cc 74 7b bf ac 5c 93 8a 4f 3a a9 bf
       -0.006703183173307836 -0.04927300039860802
0001b0 0d ab 9e 4e 62 59 55 3f 80 02 70 1f bc a0 37 3f
       0.0013030490904195086 0.0003605326923548438
0001c0 8a 43 85 e9 31 52 83 3f f6 12 f1 f2 56 1f aa bf
       0.009434118212682713 -0.05102035251232977
0001d0 e1 49 2c e5 30 07 85 bf 08 2b 69 ce 86 48 92 bf
       -0.010267621988110544 -0.01785479197341558
0001e0 00 00 00 00 00 00 00 00 51 1a 2c 4f e7 14 90 bf
       0.0 -0.015704740721981306
0001f0 3d b0 1a 0f 3a 66 b8 bf a1 a7 91 16 47 45 87 3f
       -0.09530985707050461 0.011362605453729748

conv2.lin.weight f8 [64, 32]
000000 a7 50 eb 0f 07 fe 83 bf 62 3c a0 cb bd 66 9b be
       -0.009761862920108234 -4.083116881278682e-07
000010 73 fb d2 ae 1b a9 eb 3c 68 5b 35 d1 3d d5 ea 3c
       3.07094113001627e-15 2.9790586115659688e-15
000020 d5 90 2f 0b ef 9d 67 bf c2 fc 3f a2 1d 80 66 3d
       -0.0028829258749159905 6.395013137913986e-13
000030 a0 fc eb c2 b1 14 77 bf d4 0f ab 79 c4 6d 77 bf
       -0.0056349700741968045 -0.005719916802892262
000040 8c d5 28 3f 7c c6 2c bd d7 0d be 2e 31 10 e8 3e
       -5.1115260210188425e-14 1.1474251969684664e-05
000050 5e cf b7 fd 36 99 89 bf ec b8 33 85 d9 20 03 3f
       -0.012499265306338433 3.648437327706693e-05
000060 fc a1 ef 4f 5b 3a 7f bf a1 61 50 df d6 b7 8f bd
       -0.0076240126499915704 -3.6059330388309723e-12
000070 d5 d2 c8 e6 99 7f 76 bf 83 a6 48 d1 ff 19 ef bc
       -0.005492783715955259 -3.452966769789894e-15
000080 8e a4 10 c9 25 8b 73 bf 21 5d f1 65 b5 87 e2 bd
       -0.004771373366602506 -1.3482430707580585e-10
000090 78 8e 87 5c 22 b2 81 bf d4 bf 14 1d 98 ef 24 3e
       -0.008640545319344314 2.437261261430485e-09
0000a0 83 cd 95 0a 8b 5e 26 3e 59 56 f3 69 22 31 81 bf
       2.6041303182259217e-09 -0.008394497736314553
0000b0 e1 43 b8 72 5c 31 45 bd 4a cc b2 fd 28 f3 04 3f
       -1.5058402096049284e-13 3.995865673669297e-05
0000c0 af 2a d4 67 6c c0 70 bf 31 6f 76 98 b8 5f e6 3d
       -0.004089759311009785 1.6279162413170452e-10
0000d0 bb 94 8e 4a a3 28 85 bf e0 9d 04 31 81 9c 51 bf
       -0.010331416809842833 -0.001074911273528538
0000e0 ea c4 d9 94 f4 ba 73 bd 17 17 be 34 52 a0 00 3f
       -1.1215373954611334e-12 3.171206353073783e-05
0000f0 9b c0 6f 31 30 aa bc 3c 24 de d4 1b 68 21 60 bf
       3.9780398237324e-16 -0.0019690545438171437
000100 0b 91 b8 01 a8 c6 c0 3f ba 02 a3 f6 ac 41 a2 3c
       0.13106250843078046 1.2668023201555828e-16
000110 68 6c 7e 87 1c bd 25 bf fa 5f a3 28 ef 5e aa 3f
       -0.00016585324533200112 0.05150554057189534
000120 13 33 61 ec 5d f6 bc bf b1 e5 37 af 63 91 e3 bc
       -0.11313426037777345 -2.17247634481328e-15
000130 ec 6b 80 ea ee e1 b3 3f 57 47 12 f5 f1 35 b2 bf
       0.0776662180436884 -0.07113563759983542
000140 6f 12 71 c9 4b 72 8c 3f 09 c1 a4 a4 71 c2 9f bf
       0.013889877400410115 -0.031015182184263277
000150 6f c3 eb 9a 40 6a c8 3f ae 6e 26 95 24 51 9a 3f
       0.19074256481647064 0.025700160601998583
000160 0c a8 a4 24 fe e2 bb 3f 13 14 be d6 60 36 90 bf
       0.10893238443955527 -0.015832436663476623
000170 5a 33 64 ac 81 a4 b5 bf a0 fd 25 03 b9 9c aa 3e
       -0.08454142054342864 7.931053061376781e-07
000180 0a 7e 59 26 9e 53 c1 3f f8 61 0a 6d db d6 99 bf
       0.13536431191003856 -0.025233677416140993
000190 81 1a 06 58 fa 69 d0 3f 9c 22 9d b4 25 64 e6 3e
       0.2564683780296165 1.0676956339176779e-05
0001a0 17 36 18 80 43 f4 13 3f c6 96 a5 b3 5d c4 a1 bf
       7.611906041678943e-05 -0.0347012788577508
0001b0 96 2d f6 57 aa c9 81 bf f6 3b 60 a5 86 3f 63 bd
       -0.008685427483917246 -5.470652776269571e-13
0001c0 6a b7 15 92 13 bd b0 3f 90 40 28 7b 2d ce a2 3c
       0.06538507763408821 1.3048854695559737e-16
0001d0 ff 50 48 25 9c 3d 9b bf 59 cc 99 73 df ff c4 bf
       -0.026602210784475663 -0.16405861992425022
0001e0 15 f4 6e 7f c7 9b ab 3f e0 4a be 58 dc 90 c1 bf
       0.05392287664970056 -0.13723329861803446
0001f0 b3 3b e9 a4 c0 77 6e bf c5 2d 5f 4c fd 21 c0 bf
       -0.003719211824580759 -0.1260372755917684
000200 b9 3f a0 36 9a 54 b5 3f f2 4d b0 66 c2 b3 46 bd
       0.08332218011514571 -1.6130872691491743e-13
000210 2d ac 9c 53 ac 03 61 3f 64 2a 28 33 d9 c8 87 bf
       0.002076946807297661 -0.011613556741413684
000220 15 fe 81 9f d2 f5 cf 3f b6 f5 f5 33 22 3d c1 3c
       0.24968941486803034 4.784729042398569e-16
000230 94 be b6 6a 40 1e 9b bf 8c cf 6d 1b 18 84 9a bf
       -0.02648258830384849 -0.025894524263506066
000240 50 4c 9c c1 b0 45 b6 bf 58 3a 7c 7f 0a 0a 54 3f
       -0.08700089194125948 0.001223097087805455
000250 41 eb c8 63 cf ea cb bf b4 09 63 3a ea 7e b9 3f
       -0.21810333607012392 0.09959281850300422
000260 be 44 a5 ca f0 02 ba 3f ed 3f 1d 18 e8 a7 71 bf
       0.10160736987497196 -0.004310518854097706
000270 7a 3e b7 32 4a 1b 6f 3f bc 62 69 c8 32 f0 44 3f
       0.0037971924955185173 0.0006389854396032439
000280 44 11 00 52 3c d6 ca 3f 12 41 6c ee f8 0b 75 bf
       0.20966295246047129 -0.005138370883983849
000290 f3 fd 88 d7 44 ef c7 3f 20 41 28 01 77 b3 b7 bc
       0.1869894077699282 -3.2891792921090816e-16
0002a0 5c e6 22 86 67 7a 28 3f 5d d4 c4 2b 2a 3f ca bf
       0.0001867534038575866 -0.20505263459350234
0002b0 71 36 e4 71 6f cc b0 bf 25 ca 2e 75 da 33 55 3d
       -0.06561943560174101 3.013063882044253e-13
0002c0 56 be 86 60 2e da 58 3f 8f e5 6b b6 9f 1d bd 3e
       0.0015168621922433587 1.7354320449011295e-06
0002d0 4b a4 a1 99 ea 7c ab bf 93 99 51 e5 0b b0 c0 3f
       -0.05368741155036413 0.1303725118370492
0002e0 39 d9 ea da 31 7d 69 3f 0c bb 31 04 b7 14 74 bf
       0.0031114553197212594 -0.004902567775487265
0002f0 4a 72 e6 14 73 9f 8b 3d 32 67 7a 9a 7d 79 a7 3f
       3.140354437674668e-12 0.04584877501220176
000300 73 62 4b 40 47 56 cf 3f cd be 99 13 f5 b1 00 bf
       0.24482050551775422 -3.184346355744397e-05
000310 db bc 58 ad 54 a8 05 3d 95 13 fb 9e a8 22 7e bf
       9.61788074540311e-15 -0.007357271839002606
000320 c5 37 51 ec d2 21 ca 3f 88 17 cc 43 b1 67 31 bd
       0.20415722407272888 -6.183515422966265e-14
000330 33 59 1c 05 c6 6e d1 3f 4f 5b d8 65 09 6b c3 bf
       0.272386078825906 -0.15170400116832147
000340 26 1d c1 56 e1 d5 81 bf 3f 22 de fa 8f 49 a8 3f
       -0.008708725414307294 0.04743623673772789
000350 65 ef a4 99 5d 73 b8 3f 50 a0 2e 4c f4 1d a5 bf
       0.09551033974724772 -0.04124415807683646
000360 f6 ca fb 77 33 bb c3 bf ed c1 25 76 63 c5 95 bf
       -0.15415042265484374 -0.02126078995337537
000370 da 11 a4 64 5b 55 bf 3f b7 20 9b 30 63 ef 04 bf
       0.12239619452527198 -3.99305482239888e-05
000380 f0 d3 3a 06 c3 71 a9 3f 69 37 85 9c 9a d6 a5 bf
       0.049696058760140605 -0.042652923208705236
000390 2f a6 54 30 6c 61 b7 bf 7b 20 23 3f 1c 9d 64 3f
       -0.0913303010935571 0.0025163222972857647
0003a0 8d 33 ab a8 ae 7f 41 bf a5 f2 35 c9 23 c6 d2 3f
       -0.0005340197397686195 0.2933434929798671
0003b0 18 48 9b 74 9b b8 b0 3f ba c0 32 73 ac ce 93 3d
       0.06531688305702266 4.503662893982827e-12
0003c0 b6 30 4b d3 0d c6 c2 bf 0d 21 9c d4 df 72 50 bf
       -0.1466691285808161 -0.0010039506764219525
0003d0 0d 5d ab 26 41 6e c6 bf 4a 67 74 4c 7a 1c d0 3f
       -0.17523970020440807 0.25173814264563943
0003e0 0f 23 8b e6 73 35 c1 3f 09 8f 4f a7 6e 6c a5 3f
       0.13444374806410805 0.041842897342375514
0003f0 43 8f 17 53 85 68 6f 3e b2 57 85 8c e5 ce cc 3f
       5.850248853045745e-08 0.22506398545618606
000400 4c b5 ef b2 66 95 d1 3f b7 a5 ba 75 c3 23 25 be
       0.27474372362378996 -2.460985122140013e-09
000410 b2 b9 1a 54 7e 2b eb 3e 85 f8 f7 40 2f 00 7e 3f
       1.2955616173951398e-05 0.007324394784062109
000420 8d 6a ee 60 83 6b c6 3f fc 2e 51 cb c7 19 e8 bc
       0.1751560424134663 -2.675715745378098e-15
000430 b8 f4 c6 63 a9 12 af 3f 9a d3 ec f1 40 22 b1 bf
       0.060689252309637565 -0.06692891985296825
000440 9d a6 ed d8 41 e0 b6 3f b6 cb cd b6 50 86 b0 3f
       0.0893593935594716 0.06454948866830432
000450 d7 f8 9a 4b 52 a3 bb 3f 4e ac b5 d3 a7 81 73 bf
       0.1079608378013036 -0.004762321066077281
000460 0b 33 2a db 4a b0 b6 bf e2 35 61 43 7a 04 6c bf
       -0.08862750864700446 -0.003420103831593067
000470 e2 fe 8a f3 4e d2 c1 3f 4a a7 8e f4 65 62 a4 bd
       0.13923060313935937 -9.269737445012078e-12
000480 d0 87 f1 29 50 dc 7c 3f 41 a9 c4 04 4e ad 9a bf
       0.007046044483191197 -0.026051730195072457
000490 13 86 89 c5 13 fd cc 3f 4a 6d a8 9f 93 e5 25 3d
       0.22647330422755427 3.8896501678823463e-14
0004a0 9a 0c 62 c2 b0 ac 13 bd 1a 12 97 79 a3 97 5d bf
       -1.747453038536846e-14 -0.0018061729846162778
0004b0 e3 c7 cf fb e3 59 c4 bf 11 ee 59 cf 89 fa b9 3e
       -0.15899324222078723 1.5484491177321362e-06
0004c0 31 a2 db 8f c1 44 ce 3f 17 51 cb a2 04 39 c6 be
       0.2364732696944585 -2.6491554961737484e-06
0004d0 f3 69 16 5c 16 40 b4 bf d6 ea 48 1e 61 95 be bf
       -0.07910289524298957 -0.11946684827209295
0004e0 57 69 f8 1a 0d 01 c6 bf a4 d4 1d 2d e6 b5 b4 3f
       -0.1719070798579405 0.0809005603931206
0004f0 2b df b3 67 01 90 26 be db 83 f8 dd e4 8e 9a 3f
       -2.626623194658562e-09 0.025935722396869792
000500 a9 ce 57 35 53 36 bd 3f bb d4 3e 5d ab a7 d0 3e
       0.11411018421477571 3.970851555059106e-06
000510 3e b0 1c 2e 91 e4 f7 3c 8e 0a f5 55 1b 4a 82 3f
       5.305276278934572e-15 0.008930409966187793
000520 56 56 a9 59 39 42 b6 bf b6 a6 17 b0 bc 4a 3d bd
       -0.08694799841881581 -1.0406588177242767e-13
000530 ff 35 d0 5b 4a 6c bf 3f 56 3d a0 a4 5e 45 c5 bf
       0.12274613133941868 -0.16617949522376801
000540 c9 99 35 c3 93 70 b0 bf 27 7c a4 38 dc 52 7d bf
       -0.06421779170850707 -0.007159099807068115
000550 d4 1a dd 2e ac b5 d2 3f 46 16 88 0b e8 1c cf 3f
       0.29233841492206847 0.24306965411249076
000560 a2 2e c3 23 9d 86 9d bf 8b f5 32 14 4c 08 8c 3f
       -0.0288338234975486 0.01368770062105786
000570 73 41 cd ad c9 df d1 3f 13 78 f1 32 f1 ab 73 bd
       0.27928392384367057 -1.1182037925787934e-12
000580 2f e7 52 32 01 2f c8 3f ee ec 6f 7f 58 50 8c bf
       0.1889344688150287 -0.013825122250628454
000590 00 a9 79 19 61 00 b2 bf ac 82 02 1c 7b 7f f6 3c
       -0.07031828758195857 4.995553359991966e-15
0005a0 eb 71 5d 47 b9 6a 2a 3f 36 22 c0 6f 9d 82 d2 3f
       0.00020154487327318725 0.2892221061052028
0005b0 d3 05 e1 bb 24 97 c4 bf 92 0e 59 dd 31 5a 26 bd
       -0.16086253331927355 -3.97057025019367e-14
0005c0 5c 56 d4 7d a3 08 b8 3f 5a f1 c3 d9 e4 7a 22 3f
       0.09388181516654853 0.0001409916266154148
0005d0 17 35 bc c1 ce be c4 bf eb fc d1 d1 d5 87 c8 3f
       -0.16207298717237315 0.19164536233072424
0005e0 6b 75 5f 43 be 5b 9d 3f 41 3f 87 b2 5e 7b ad 3f
       0.028670285093416775 0.05758186272907873
0005f0 40 55 80 33 5a e5 8c 3d 1c d5 86 ec 52 f7 c2 bf
       3.28508435936014e-12 -0.14817272709994078
000600 18 a4 f4 fb e9 3e ad bf be 37 bc c1 68 c0 1a 3f
       -0.057120620733549454 0.00010204924950249405
000610 16 4f c2 81 03 c9 1f be 80 07 39 64 15 24 b6 3f
       -1.8501427118088722e-09 0.08648809143872249
000620 90 15 ec 0b 6b ab be 3f c5 c2 a2 60 6e ee a3 3e
       0.1198031334025329 5.940011658292556e-07
000630 0c 9f bf 4d b2 3c cd 3f a4 26 44 be 97 30 b5 bf
       0.22841481014551623 -0.0827727164761663
000640 d3 35 68 46 4f 0f be 3f 88 95 1c d4 b1 5e be bf
       0.11742110699579848 -0.11863242558009379
000650 11 51 2f bd 67 93 cd 3f 35 51 34 9f 38 34 be 3f
       0.23106095063725055 0.11798433195901199
000660 a1 0a ec 02 74 30 bc 3f 4f d6 2e 64 6b 92 3e 3f
       0.11011433669413374 0.00046649095400694713
000670 56 93 65 1b 05 24 c3 bf cd 28 a2 a2 7d 1a 5b 3f
       -0.14953674161656733 0.0016542651087854577
000680 f9 e1 c6 8f 9f 04 aa bf 5e d9 9a 29 d5 8f a0 bf
       -0.05081652288521705 -0.03234735615608274
000690 93 30 77 79 64 6b c2 3f 0f f6 1a 59 53 1f 19 3f
       0.14390235835015072 9.583421913369354e-05
0006a0 86 16 b4 ad c3 5d 63 bf d3 e1 34 16 7b bf a9 3f
       -0.002364046272876066 0.05028900762630752
0006b0 f5 e9 c7 c6 9b 4b c9 bf 50 eb 1d 3d 01 ba 1e 3e
       -0.19761988836383151 1.7885224312566278e-09
0006c0 20 93 f9 28 ef 0f c2 3f e4 64 02 b4 20 ad 0e bf
       0.14111127377250288 -5.8510361214911423e-05
0006d0 73 60 f3 fd 07 9a b7 bf 0e 2c fd fe 62 c4 c6 bf
       -0.09219407987564114 -0.1778682465613603
0006e0 16 0f f8 8a ce 0b c8 3f d0 12 39 df f1 d0 a3 3f
       0.18786031518549667 0.03870349740876622
0006f0 41 d4 24 db 93 51 ff 3e 90 37 9f 41 78 fe c0 bf
       2.9867803911194172e-05 -0.13276580051609388
000700 fa 0a 3f 0c 8d 67 bf bf 20 67 5c 51 c2 1e 03 3d
       -0.12267381237965572 8.49105344017101e-15
000710 7c fe 2f 2b 04 25 66 3f 2e 3f 82 be 51 5e 27 bf
       0.0027031976146643637 -0.0001782870087976228
000720 3d b2 d3 b5 e1 26 d1 3f 29 14 78 0e cf 07 e1 be
       0.2679981494573303 -8.120776739959229e-06
000730 a9 1a 64 4d 39 9c ae 3f e8 02 bd ef 04 6c bc bf
       0.05978564328875297 -0.11102324345575776
000740 2b ba 33 9e a7 03 75 bf bb 24 1a ba 48 40 82 3f
       -0.00513043857357202 0.008911674670587613
000750 26 03 43 74 3e f7 c4 bf 47 27 a3 e1 8c c2 89 bf
       -0.16379528691143114 -0.012578106532959444
000760 bf 1a 88 5f f6 f4 99 3f 29 f0 40 31 64 74 66 3f
       0.02534851987914055 0.0027410466082340612
000770 0d 47 49 e0 0e db 97 3f 41 14 e3 1c 09 8d 69 bf
       0.023296577872606018 -0.0031190088257937736
000780 2f 75 a7 f2 28 c5 d0 3f ba fa 30 d8 87 e0 b1 3f
       0.26203368851368486 0.06983231571301021
000790 5f 08 4c 4c 42 bc bb bf 10 9e cc be ab 62 40 bf
       -0.10834135401458543 -0.0005000437355179872
0007a0 cc f9 9f 96 89 b3 1a 3e 41 68 9d 46 e8 ca d2 3f
       1.5542212746831088e-09 0.293634480438076
0007b0 1c 2c 75 a3 7b ae bd bf 85 41 85 c9 80 98 6c 3f
       -0.11594364872614488 0.0034906878828808185
0007c0 c6 96 de a6 35 4b b0 3f ed f8 a0 2e 89 2c 6f 3f
       0.06364760707819092 0.003805416044115542
0007d0 06 21 1d c4 3a 9d a3 3f 3b ae 49 61 9e b3 b2 bf
       0.03830894130675415 -0.07305326342764655
0007e0 fe 84 cc 5b 0e 21 62 3f 4b d6 d0 da 29 56 9a 3f
       0.002213027996177729 0.025719312649206832
0007f0 44 53 14 87 ee 40 07 bd 02 55 88 6b 6c e7 a8 bf
       -1.0326690455267356e-14 -0.0486406213059727

lin1.weight f8 [32, 64]
000000 55 ef 17 cb 18 9b 93 bf a1 57 68 0f ce cd b4 bf
       -0.019146335025637857 -0.08126533390199465
000010 d4 a5 b2 57 e5 9f 74 bf 1f d2 b6 32 e9 92 9b bf
       -0.005035301083958516 -0.026927608223291096
000020 ad cd c1 b8 09 3e ba bf 7a 7c 94 f5 d0 a6 9b bf
       -0.1025091243807796 -0.027003540982260855
000030 ba 3f 5f 4d 53 59 90 3f ca fb eb 76 9f 68 99 3f
       0.015965749356666704 0.024813167222415257
000040 d4 ef 41 be e7 24 24 3e 16 fc c9 d5 62 36 41 bf
       2.3450889997775735e-09 -0.000525282153446829
000050 4b 60 8e 29 3c 2e ea bd 79 18 2f df 17 d7 85 3f
       -1.904889759628256e-10 0.010664164064916758
000060 a2 99 ed 97 5f 33 8f bf d2 5e da 9d 90 92 79 bf
       -0.015234705757120551 -0.0062432908140619015
000070 11 ba fe e0 a3 3e b8 3f e8 39 2e 6e 52 ae 9c 3f
       0.09470581286471026 0.028008735632789966
000080 31 1f 63 12 2f ea b3 bf 7d f8 67 c6 20 ef a1 3f
       -0.07779211234003182 0.03502752706479926
000090 56 0e 2d 9e b0 61 b9 3f 10 56 7a c8 e2 1f c6 3f
       0.09914687978476286 0.17284807957609916
0000a0 2c 07 86 d7 b1 b6 bb 3f a7 31 26 96 eb 2e 9b 3f
       0.1082564498119864 0.02654617408693274
0000b0 a6 d4 7e bd 66 fa 4d 3f 44 0d a3 d1 fa 06 50 3d
       0.000914859930154184 2.2776113002862307e-13
0000c0 ec 7d ec 14 d3 17 30 be 54 4a d7 99 21 ac b3 3f
       -3.746958589564925e-09 0.0768452644909215
0000d0 35 3f ad d5 58 98 98 3f 5e ef d4 cb bb 4e 9f 3f
       0.024018657724183618 0.030573782268432985
0000e0 d5 f0 26 41 8f de bd 3f 7a b4 b6 a4 27 c0 1c 3e
       0.11667723980548612 1.6735054616859707e-09
0000f0 8b 9a d3 b2 85 53 8e 3f 37 3d e4 cc 50 d3 82 3f
       0.014807743568281203 0.009192115071100388
000100 5e d8 69 52 a9 13 b7 bf 5c 3b 56 d5 9e 79 b2 3f
       -0.09014375936553295 0.07216828068179154
000110 7a e1 d1 b5 79 26 81 3f ed 33 e4 8c 40 b4 c0 3f
       0.008374167309953096 0.13050085906471
000120 1d 52 92 61 28 6c 9b bd dc e1 05 9f 6e ba cf 3d
       -6.235152606514248e-12 5.7713351353058834e-11
000130 82 9c 2a ac 1a 56 ac bd cc 74 09 ea ff cf cc 3f
       -1.2885877590831913e-11 0.22509764602265248
000140 14 3f 63 7c 1a 32 c0 bf 44 e8 af 67 d5 38 ba 3f
       -0.1265290362703061 0.1024297121183802
000150 00 3a 1b 50 e5 73 30 bc 2e 55 7f d0 16 c0 75 bf
       -8.919036184198283e-19 -0.0053101435841729615
000160 58 32 10 04 62 e5 9e bf b2 a9 11 69 76 03 a1 bf
       -0.03017190122413846 -0.033229542089276434
000170 18 f6 f4 ad 73 c2 ce bf f1 96 d4 61 3e 60 bb 3f
       -0.24030920022953306 0.10693731201589764
000180 94 24 cc eb 29 df bc 3f 2d 6b 2d fa 63 b3 c0 3f
       0.11278020865224142 0.1304745647019784
000190 b0 99 5a ea 04 60 af 3f 94 20 3f e4 46 bd a4 bf
       0.061279443366675124 -0.04050656830037372
0001a0 12 66 09 41 44 17 73 bd 97 68 8e ec 45 41 90 bf
       -1.0851911852197684e-12 -0.015873997271775932
0001b0 c4 aa 40 35 dc 03 b7 bf e1 70 70 27 f4 9a 3f 3f
       -0.08990265178787654 0.0004822584227797255
0001c0 de 03 a4 6e d5 ea b4 bf f0 62 06 eb 73 78 80 bf
       -0.08170827819050383 -0.008042245492832362
0001d0 62 03 4d 15 89 24 67 bf 2b 79 2b bf ec 3f 91 bf
       -0.0028250386625647142 -0.016845416229324044
0001e0 4e 78 a3 68 c3 fe 07 be 2d 7c e3 6e 78 c9 a5 3f
       -6.983513362010433e-10 0.042552722488601404
0001f0 d5 df e0 3c e3 be c1 bf 27 1c d7 93 1d 28 c1 3f
       -0.13863792870119931 0.13403672903788896
000200 96 71 25 dc 7c 44 e5 3d 53 dd e4 ac c0 41 a9 bf
       1.5474164837784803e-10 -0.04932977781794059
000210 af f2 4f f5 cc 80 82 bf 16 33 d8 80 13 eb 81 bf
       -0.009034730182969268 -0.008749153489611621
000220 50 28 6f ff 81 db 85 bf ad 55 82 db 4d 17 a8 bf
       -0.010672584159596848 -0.04705279640726743
000230 6a 0c 99 33 5b e9 81 bf 32 f2 a3 70 58 b0 82 bf
       -0.008745872985974585 -0.009125414788735051
000240 90 6b b1 f8 fb 5d 1f bd 0a fe c6 2b b6 42 07 3e
       -2.7859604427252054e-14 6.769723319722286e-10
000250 99 9e 33 1c 40 12 53 3d e4 2e 42 1a 64 b9 21 bd
       2.710193419865257e-13 -3.1484474927688104e-14
000260 85 c4 1c 48 59 5a 82 bf 4a 96 3e 17 80 05 42 bd
       -0.008961389077372548 -1.280503579471245e-13
000270 cc 15 04 9c a5 90 82 3f 19 4a 64 f0 5d 61 82 bf
       0.00906495458958547 -0.008974775217699226
000280 15 a4 5e c3 f1 8a a4 bf aa de 7b da 6f b3 e0 bc
       -0.04012256154903341 -1.85417520206945e-15
000290 35 f3 8d db 25 48 46 3d ea ad 61 22 38 f0 81 bf
       1.5832190784452986e-13 -0.00875896315502352
0002a0 1e 90 7e cc 25 ba 82 bf 31 fa 58 84 97 5d 82 bf
       -0.009144110968755167 -0.008967574812342867
0002b0 f6 66 eb 8d 6a d1 26 bd ce f3 49 1c 5d d5 0c bd
       -4.053296745479497e-14 -1.2804624917497894e-14
0002c0 4e ff 09 b5 0e 38 e6 3c f1 6a f6 b9 ca 38 8a bf
       2.4668016977774935e-15 -0.012803634452941167
0002d0 60 a9 ca 19 65 56 22 be 8f f7 c1 d1 b9 33 da 3c
       -2.134763656067344e-09 1.4545061892972548e-15
0002e0 b0 d8 cc e2 73 3b 82 bf 85 91 d0 df 86 8a 55 3d
       -0.00890245948685861 3.0611773408582057e-13
0002f0 77 36 2a 3b db 17 a6 bf 78 28 bc b9 af 4a 1f 3e
       -0.04315075967052178 1.82141921592144e-09
000300 e9 38 6d 33 1a 74 82 bf 35 6c 04 55 4a 61 a2 3f
       -0.009010510153214262 0.0358985165387015
000310 2d 7f 79 2a 44 02 82 bf 2e f9 79 39 49 e9 6d bf
       -0.00879338507291968 -0.0036512785116534973
000320 a0 2d 0f 30 19 d0 8b 3d a4 cb 26 35 bf 83 21 be
       3.161958867881761e-12 -2.0389720269932744e-09
000330 ee 2b 7b f5 77 a3 25 3e 79 47 ac c2 74 43 83 bf
       2.5190586663915928e-09 -0.009406006041476666
000340 47 b5 87 54 ed 16 82 bf 63 65 70 77 a4 f9 85 3f
       -0.00883279241767333 0.010730061430921983
000350 c4 71 08 30 fe 5f 7c 3d 16 45 f0 fb 6d a1 51 bd
       1.612930438194038e-12 -2.505456745142828e-13
000360 4a ad 5b 70 81 61 90 bf 37 3a f0 30 fb 69 82 bf
       -0.01599695442466257 -0.008991205626469696
000370 36 f1 1b b2 83 95 f3 bc d6 1e c1 ee 57 e5 8b bf
       -4.348530595055192e-15 -0.013621031736092897
000380 d3 9f c6 3e 71 54 e2 3c c3 d0 22 0e 1b c6 a1 3f
       2.035022482182776e-15 0.03471455142553872
000390 4f ef 52 34 83 84 a0 3f 85 96 81 a2 11 e7 9e 3f
       0.0322609902736689 0.03017833284720563
0003a0 18 0c 86 a0 39 0a db 3c 07 f1 ae c9 5b 1a 71 3f
       1.5010182995950379e-15 0.004175528093522957
0003b0 68 86 03 1d 43 9f 83 bf 38 0d 7d b9 8e 7a 17 bd
       -0.009581112215929014 -2.0853310459775908e-14
0003c0 c4 6f af 80 4d 6d 76 bf 67 73 7a b4 d6 e5 a4 bf
       -0.005475332970458827 -0.04081603005508932
0003d0 ff 75 e0 bf dc 51 d9 bc 4d f1 ea 2b a6 72 21 3e
       -1.4055298380911842e-15 2.0311968490348585e-09
0003e0 4d 9d 0b f5 6d 5f d7 bd 17 4b 52 fc a7 05 22 be
       -8.502964761228207e-11 -2.0980479320632675e-09
0003f0 d2 21 25 3e 49 c2 93 3f 23 80 d0 4f a4 1c ac bf
       0.019295830171616242 -0.05490601991937207
000400 67 25 57 d1 c7 18 93 3f c7 ba da e6 b5 25 bf 3f
       0.018649217750668436 0.1216691673859983
000410 f6 35 88 2b 8c 4d aa bf 69 18 79 2c 2b b9 c7 3f
       -0.05137289077184086 0.1853383986619435
000420 6f d1 dd 61 42 74 93 3f bc 6b 18 c3 ea c4 bb 3f
       0.01899818155603 0.10847346556731358
000430 58 b4 9b 61 28 1b b5 3f 56 8e e4 7f 85 50 af bf
       0.08244564421666334 -0.06116120516005867
000440 ae 38 aa 05 71 db e8 bc d5 3f 6b bb 14 b0 ea 3e
       -2.75970283634353e-15 1.2725742505464915e-05
000450 ea 9d 34 b9 a2 0e 0a bd a2 ee ae 56 66 bc 7f bf
       -1.1571708241814626e-14 -0.00774803138750327
000460 19 e6 0b 3a 6d 30 bd 3f d4 20 04 8a 74 9e 79 3f
       0.11402018229627976 0.006254630309065774
000470 51 76 9c ff 56 43 b4 3f de 3c 22 d5 4c 2f b5 3f
       0.07915252438075383 0.08275299266300659
000480 68 9d b7 f7 95 21 c2 3f 9d 00 69 7b 90 e0 92 3f
       0.14164995761459953 0.018434770138128987
000490 ca 41 e5 23 90 14 b4 bf ff e0 5d cc 64 f8 b3 3f
       -0.0784387672076782 0.0780089377348112
0004a0 d1 c1 45 67 cc 4c c2 3f 1b 3d 94 bd a5 38 b8 3f
       0.14296870272256837 0.0946143710937019
0004b0 f6 77 af 14 35 de 86 3d 08 7e 4d 1d 17 d0 fa bc
       2.59979031497638e-12 -5.953649284401612e-15
0004c0 71 a8 f9 38 b0 0d e6 3d 63 9c 12 f4 a0 30 a9 3f
       1.6046011436892975e-10 0.04919913272288381
0004d0 e8 d3 af 00 c2 da bc bf a8 1e c7 04 5f 1e ab bf
       -0.11271297947662584 -0.0529660886127748
0004e0 14 d6 52 d5 92 e2 c0 3f 8e d6 7d e9 bd d3 23 bd
       0.13191447654905686 -3.522003413947419e-14
0004f0 34 99 67 f3 ee 95 b4 3f 87 75 15 60 5c ec 9e 3f
       0.08041280214783769 0.030198520054332014
000500 69 d9 ef 9a 75 22 c2 3f 2d ce 23 ab 04 6a 6a 3f
       0.14167661729124895 0.00322438155955653
000510 3f e2 b3 27 11 b3 c1 3f f0 0e 69 72 7e 45 a4 bf
       0.13827719153029425 -0.039592696634398794
000520 ee ce 90 1e fd 3c d0 3d 61 72 c2 db 14 de 53 bd
       5.907436314551149e-11 -2.8233423811445317e-13
000530 22 fe b5 fa 3b 3c 1a bd 81 2a ac 1e 07 4b a2 bf
       -2.330161860094769e-14 -0.035728666776852165
000540 3b b8 2f 45 eb a4 b0 3f 6a 88 32 b8 0c d8 b9 bf
       0.0650164646064874 -0.10095290658003511
000550 f6 75 7f 6e 63 ff 76 3d 62 d7 e2 b1 ff af 75 3f
       1.3072628323871464e-12 0.005294798667980634
000560 3a cd db 68 15 9a 9e 3f 49 c9 a7 55 09 78 a8 bf
       0.02988465740686517 -0.047790805536254206
000570 12 12 6f 48 b7 a3 ce 3f 78 b7 99 73 94 e9 9f bf
       0.2393712142640117 -0.031164474063579445
000580 9e c4 5f db 90 aa b4 3f 15 2a ad c7 80 f3 a2 3f
       0.08072762828648414 0.03701403081375446
000590 df 66 ac 82 2c b3 c2 3f 30 ba 54 0f aa 01 bc 3f
       0.1460929525426797 0.109400395148193
0005a0 f4 2f 2c 30 14 1b 94 3d c9 df 2e fb a4 11 a9 bf
       4.571524367996144e-12 -0.04896274152946451
0005b0 56 de 9b e1 c1 e7 c2 3f aa ef da 96 87 a0 5a bf
       0.1476976729970711 -0.0016251873125119145
0005c0 ed 65 fc 72 b9 41 9c 3f 76 9b 31 70 06 58 ba 3f
       0.027594468730148525 0.10290565718751829
0005d0 7f af ea cf 22 b1 65 3f 5f 9f 6c 5f b9 40 91 3f
       0.002647941582230417 0.016848465394246556
0005e0 0b 6d a3 f7 5c e7 1b bd d2 f4 44 28 ca cf a9 bf
       -2.4783519520169842e-14 -0.050413434425061646
0005f0 31 29 79 1d e0 9d b0 bf 96 c1 a6 38 72 ea b2 3f
       -0.06490898818552605 0.07388986476030932
000600 9a 6c f6 26 da e9 93 3f d9 e3 f2 e9 cd e7 b4 3f
       0.01944676268395238 0.08166205369606362
000610 41 01 37 b3 ad 33 72 bf c5 11 cf 80 e0 72 c5 3f
       -0.004443815723277845 0.16756826676841122
000620 15 3e 9f 7a 15 31 b0 3f 69 87 f4 73 d5 b0 c3 3f
       0.06324896091177153 0.15383403932451792
000630 54 20 a9 8c d8 ca c4 3f 5d 36 d0 f6 45 66 b4 3f
       0.1624403654880121 0.07968556667057088
000640 8b 32 76 de 05 1c 79 3d 86 b1 60 b0 b0 1d 5d 3f
       1.4273078109963784e-12 0.0017770982244754443
000650 ed c0 de 59 f1 fe 1a 3d 0d 85 d0 ed c8 6e 7d bf
       2.3977149354729224e-14 -0.007185730818521263
000660 f9 d9 e2 78 3e 61 bb 3f 1d f5 f5 89 d8 8b 79 3f
       0.10695257617303601 0.0062368830252783865
000670 82 15 98 d2 03 b9 b6 3f dc f7 b2 51 d9 91 b7 3f
       0.0887606038232516 0.09206922764403153
000680 bf 85 37 6a 55 2d a3 3f 9d 69 5b 78 1e 18 b1 bf
       0.037455243316582 -0.06677427709965973
000690 a5 7d 55 bb 34 6a a1 3f 06 1b 82 fc 92 c9 a8 bf
       0.034013412349618556 -0.04841288883567611
0006a0 e4 37 77 65 1d b1 bb 3f f3 35 48 2b c2 a8 c1 3f
       0.10817130782308443 0.13796259988195878
0006b0 51 05 31 9b bd 37 22 bd ee 5e d4 01 75 50 64 3d
       -3.236120156072227e-14 5.773667165661718e-13
0006c0 22 04 b6 3b 04 36 25 be 3c 3e ca 35 27 e2 33 3f
       -2.4692856350691556e-09 0.0003033967712235718
0006d0 45 d3 78 66 9a aa b9 bf 01 c7 86 c9 d0 4b 87 bf
       -0.10025944711453601 -0.011375075483417431
0006e0 ba 1d 5b 7c ba da 43 3f a3 e9 01 b7 da c2 96 bd
       0.0006059084486986146 -5.1752862928221796e-12
0006f0 32 15 bd 30 e3 c0 b2 3f fb 1e 45 3e 06 12 b1 bf
       0.07325572910220471 -0.06668128032935876
000700 49 02 2d 79 d0 34 a8 3f a9 1e 5c 9d 67 72 90 bf
       0.04727794150540327 -0.01606141946743259
000710 fa 67 bd dc 39 14 c1 3f a6 05 c4 45 c6 58 c2 3f
       0.1334297492820154 0.14333418280152194
000720 85 9d 3b ca 2b d2 a3 bd ef 86 2f 73 42 f8 7b bd
       -9.013538457087726e-12 -1.5898970074021029e-12
000730 e0 92 35 83 c9 a5 65 3d 94 fe d3 ac 23 1b c3 bf
       6.152619700766205e-13 -0.14926572741386634
000740 fa e3 ea b5 52 72 b2 bf 11 35 9f 07 11 e0 b2 bf
       -0.07205693188997478 -0.07373148380357387
000750 88 28 f9 13 20 d9 65 bd 6e f0 10 7a ea e4 75 3f
       -6.209616492967014e-13 0.005345264363367004
000760 58 d5 3d ba 2e f9 c0 3f 9d 14 c2 7d e1 20 bc 3f
       0.13260444730591803 0.10987672157542012
000770 74 3c bd e7 04 53 d5 3f a1 ac 42 36 eb a9 a4 bf
       0.3331920874670182 -0.04035887753828971
000780 78 a3 c8 8f ae df be 3f 67 35 0c dd 24 38 ac bf
       0.12060061464639016 -0.05511584471069391
000790 96 b1 ee de 2b af b2 bf 00 c3 95 eb 83 ef 91 bf
       -0.07298540299115638 -0.017515240911452956
0007a0 32 f9 1e 72 97 a5 c0 bc 13 db 6e c9 6e 11 b1 bf
       -4.620426854809318e-16 -0.06667225282476989
0007b0 d6 78 cd f2 67 9c c3 3f 17 13 94 e2 27 4e 7a bf
       0.15321063380810668 -0.006422191430151234
0007c0 e1 05 99 fd 83 f7 c0 3f b9 41 bb fb 33 51 94 3f
       0.132553576304459 0.01984101509043665
0007d0 6e 9d 15 e0 c0 93 95 3f 76 a4 ec 73 fb 54 91 3f
       0.02107144706442681 0.01692574400945942
0007e0 70 c9 38 b2 bb b1 de bc 0f 3e 95 76 3b a8 ae 3f
       -1.7038742786914074e-15 0.05987726042314644
0007f0 76 ec 85 da 99 e4 a9 3f 32 a5 39 0d ef 30 93 bf
       0.05057221214789191 -0.018741355116081944

lin1.bias f8 [32]
000000 ee 6d 27 af 93 e9 c0 3f b7 bd 0b c0 89 92 8c bf
       0.13212820103113593 -0.013951374219202657
000010 0b ce c2 f6 bf 74 b6 3f e3 4d e6 f1 16 54 a3 bf
       0.08771896147191442 -0.037750927952540335
000020 92 5e d3 96 d8 e7 a9 3f 39 f4 6e f1 47 b2 c3 3f
       0.05059696999677245 0.1538782051920025
000030 e0 39 6e 15 88 8f 9f 3f 1a b9 54 7f 3d 07 bc 3f
       0.030820967014330125 0.10948547705331571
000040 77 cc 02 46 d6 60 a1 3f 30 a9 7a 3e 25 6d b3 bf
       0.03394193272233619 -0.07588417792672852
000050 bd dc 02 c4 31 99 b0 3f 36 b1 23 c0 92 39 b5 bf
       0.06483756099156586 -0.08290974799064518
000060 9b 4c 65 10 36 f8 b4 bf 65 35 f8 42 ce 9c 9a bf
       -0.08191240215573929 -0.02598879131078515
000070 98 cc 47 51 6b 33 b7 3f be ae 8a 5e c1 8d a6 3f
       0.09062834486376159 0.044050257483232866
000080 78 8f 68 73 14 07 c4 3f 63 21 ac 31 ee 21 b8 bf
       0.15646606097390836 -0.09426773750977228
000090 2c c2 e7 47 9a 2d b4 3f 7c 3f 76 65 cc c0 b6 bf
       0.07882084136486672 -0.0888793704709751
0000a0 75 f7 ff df 8b e4 98 3f ce 86 85 d0 55 04 c1 be
       0.024309335276476902 -2.028576663246811e-06
0000b0 ba fd 20 66 59 5d c4 3f b8 d4 6f 49 7f 69 bf bf
       0.15909879194985682 -0.1227035097397956
0000c0 31 9d 9f e9 3e ed c2 3f aa 35 86 68 75 66 b4 3f
       0.14786516578099332 0.0796883945642636
0000d0 31 7d 4a d7 bd f5 a2 bf be 8f bb ca 12 3e bf 3f
       -0.037031109362255406 0.12204091500785716
0000e0 4e ee 90 0c 42 a7 96 bf 72 9a af d4 97 69 ab 3f
       -0.022122413651443566 0.053539986336365156
0000f0 c6 ab bb 3a c9 f0 7c 3f 09 6f c1 2d cd 9b ba 3f
       0.007065568973966435 0.10393984191017237

lin2.weight f8 [1, 32]
000000 89 cb 73 e8 95 14 bf bf f0 5f 18 5c 6e f2 ac bf
       -0.12140786099534585 -0.05653710245331911
000010 ff 0a ad f1 0c 5e b2 3f ae 1c 61 90 ac 86 cc 3f
       0.07174759769717907 0.22285992669842386
000020 02 6a d3 8d db 28 c7 3f 36 58 7a 9e bf e0 c0 3f
       0.18093437600221313 0.13185878027133108
000030 ef 03 c2 fc b4 da c5 3f a1 ff dc 49 04 20 b6 bf
       0.17073690740292544 -0.0864260368662131
000040 37 92 ee c9 92 20 b3 3f 94 54 16 ab 03 7a bd 3f
       0.07471578054407578 0.11514304091390876
000050 e4 d3 8d 90 d4 fd aa bf 66 ed 4d e2 2a 06 c0 bf
       -0.052717821737054554 -0.12518821764011107
000060 5a cd 4d a5 cc 69 b6 3f 98 6f 6b 8c c3 10 a3 bf
       0.08755187068691353 -0.03723727311236685
000070 97 54 fa a5 1e c6 bd bf 5a f2 49 ab 9e f2 7b 3f
       -0.11630431701844866 0.006823177148018356
000080 a7 8c 8f ed 7d 5c c6 3f de f8 79 15 5e 13 b2 3f
       0.17469762897153382 0.07060802482917292
000090 d8 bd 6a 2a e8 8a b9 bf 4a e8 aa a8 50 5f ba bf
       -0.09977580104418082 -0.10301689260350702
0000a0 1d bc 04 9e 29 8e b3 3f e0 3c 12 48 73 a7 85 3e
       0.07638797862885878 1.6133563821407354e-07
0000b0 01 1e b8 61 98 44 bc 3f 4e 83 21 85 19 59 a7 bf
       0.11042168031428191 -0.04560165166981865
0000c0 8e d6 4b 03 78 a8 b1 bf 0d b8 1b ef 84 94 b7 3f
       -0.06897687988733933 0.09210997426609442
0000d0 33 ce 53 a2 15 40 bc 3f 4b 48 05 a4 43 ec ce 3f
       0.11035285199232518 0.24158521183795964
0000e0 68 dc ac 2a cb bb c3 bf e0 6c 11 64 ee 47 a5 bf
       -0.15416850646736013 -0.04156441661390331
0000f0 3b 8d 55 75 af aa 75 bf d9 3a 8f d2 83 14 bb 3f
       -0.005289731392028425 0.10578178301441755

lin2.bias f8 [1]
000000 89 bd 30 df 36 f7 8a 3f
       0.013166836439352252
