Q1/models/gcn/100/d1/lastmodel.pth (torch, 36751 bytes, 8 tensors)

conv1.bias f8 [32]
00000000: cc7a d125 5192 bb3e 3a04 f0c5 db6a 933e
00000010: b6f6 7a32 e8e7 903e 80cc f2b3 e1f5 e63e
00000020: cf29 f1f1 bd4d 97be aad1 09d0 44b8 7cbe
00000030: 104b c20b 342e d4be 94f6 14df a870 c13e
00000040: 8cd8 d905 1d02 b83e a036 adb3 4d18 c9be
00000050: e314 172b 67f5 92be 60bb 1ec6 3dbf a33e
00000060: 209c 4d59 1751 c8be 4ec8 d02f a472 cc3e
00000070: 6c18 e271 7df9 ea3e e8fe 7870 ca9f a23e
00000080: 5424 a6f2 6e6b 70be 9c50 b285 4076 93be
00000090: a2f6 1f6b fa6f e0be 8c3e b832 b5c1 80be
000000a0: 0ef1 e5bf c2da 94be dc64 073f 5973 b73e
000000b0: 6764 40db 05dc dd3e e49e 69fa dffb 643e
000000c0: 547d 30b4 8c5d cfbe 76b8 53ab 0e34 723e
000000d0: 20b1 53dc 516a d0be 452f fd98 2e07 bdbe
000000e0: 7769 c625 f2dc bb3e a317 e928 642f 813e
000000f0: c3de 3181 0ce4 523e 8027 0ecc 31f0 c03e
1.643392486337376e-06 2.893420453787283e-07 2.5191734430081337e-07 1.0948407746935599e-05 -3.4725188586119433e-07 -1.0698959230523008e-07 -4.8114017624663726e-06 2.07901916185369e-06
1.4310035320298215e-06 -2.991549448528124e-06 -2.825052361733804e-07 5.885075433554594e-07 -2.8987839847840997e-06 3.3912441481871014e-06 1.2862477486896329e-05 5.550438979054199e-07
-6.116800635980009e-08 -2.9000523733250683e-07 -7.837970176889742e-06 -1.2484692867063191e-07 -3.107567748889734e-07 1.397763522806211e-06 7.119051066006421e-06 3.908553418836344e-08
-3.739050414633115e-06 6.781275881429703e-08 -3.913715265851486e-06 -1.7302068932743087e-06 1.6607683824611526e-06 1.2803913703086286e-07 1.7593443213104483e-08 2.0191979221471728e-06

conv1.lin.weight f8 [32, 1]
00000000: aa93 ed21 85ef bb3f 5f60 d790 ab69 c6bf
00000010: 19af e5a2 e91d d2bf 1891 7779 7e01 b4bf
00000020: e040 df4c f812 a1bf ceaa 33d3 b413 c8bf
00000030: b728 2e5e 74e3 cb3f 6722 30d4 6feb c1bf
00000040: 1f59 1ac8 c42e cebf e073 fc5b 6ea9 b0bf
00000050: ff26 efd4 4836 cc3f 3113 4ef6 55cd a1bf
00000060: a172 9226 5b1a bf3f c89a 5432 0202 99bf
00000070: 2b52 4925 d9d0 b03f f4fb 5b32 f28f d6bf
00000080: 761d c135 6332 73bf a58a a564 6d58 adbf
00000090: 5c1a 0479 1b7d 9c3f 4740 4ba0 a887 d8bf
000000a0: 399a 446e f851 d6bf e9c6 0e2d 4eba be3f
000000b0: e2f6 e3f5 7a7a a23f d3ae 1ca7 da8c cabf
000000c0: 148b ce16 7815 9d3f db88 6a44 05f4 cebf
000000d0: ff9c 5584 8066 c13f 6232 c639 05b2 9bbf
000000e0: 3cdd 037c afa8 a4bf 577f d171 ef86 b7bf
000000f0: d921 8cf2 6275 d3bf db63 f562 2688 a63f
0.10912353590317872 -0.17509979793863104 -0.2830757227700232 -0.07814779725555743 -0.03334785402660301 -0.18810139000500786 0.2178788623680867 -0.13999746189826398
-0.23580226679468638 -0.0650853132796807 0.22040663144280612 -0.03476971274998276 0.12149591151905749 -0.024421724626473545 0.06568677101433511 -0.35253577154065785
-0.004686725176788689 -0.05731527188870204 0.027820996533615236 -0.38327994970041285 -0.3487530781589246 0.12003029441873604 0.03609070064156385 -0.20742352638023095
0.02840221060945243 -0.24182191696770058 0.13594061338083205 -0.027046281481988628 -0.040349468124924986 -0.09190269974487585 -0.30403970419186305 0.04400749166479275

conv2.bias f8 [64]
00000000: 292d 6c1a bc0e d23f abd1 f6f5 a90c 8ebf
00000010: 68d7 a68e bf62 d2bf 2029 3a63 a45a cc3f
00000020: ef85 3e97 3f99 cf3f cb50 0495 dae5 cc3f
00000030: 81dd 3c4e 6965 d8bf a03a 2e2b d467 cc3f
00000040: 8c6a edda eed4 d03f 2e49 0c47 038b 88bf
00000050: 6595 2202 5ab0 83bf d25d 823e b0d8 90bf
00000060: 51d4 6803 2fa0 99bf a9a1 04d9 56bb 96bf
00000070: 8441 cdba 2c10 81bf b6a9 a60c 6f4e a8bf
00000080: a509 b2c4 cf34 d23f f61d a5c4 e625 a8bf
00000090: ff68 6321 9e22 98bf 95ee db76 c8a3 96bf
000000a0: cfa6 0f89 a2a1 be3f 0ac7 c1b8 2764 ca3f
000000b0: d00e e931 6ff5 87bf 598d 67e4 be2e d13f
000000c0: 50a3 a619 7d3f 77bf 4ae8 8233 8ff0 d13f
000000d0: 0852 a013 63bd 8cbf 5b4b ebb7 92e1 68bf
000000e0: 6ad9 1723 f9d9 cd3f aec8 5b8b 3112 5f3f
000000f0: 1b2c 8b68 aa1c cb3f 2fc6 a5b8 df5c c93f
00000100: 356d 45ed 5e38 d23f 5706 4ed1 a489 d03f
00000110: 110c 6f4f 0443 aabf ad57 1b29 dd60 bb3f
00000120: ad86 e7f8 d561 d4bf 8f73 c686 5791 d03f
00000130: 69d8 922c 5c41 93bf 4962 560d e4aa d3bf
00000140: b3e2 77fb 2bf9 bd3f 9ce9 a99e 2ab4 94bf
00000150: 026b f970 8fc0 75bf cbe9 9c32 2e06 89bf
00000160: e17f 57c6 effd d13f 2b4f 62ba 3f06 d03f
00000170: 147e ca72 3b69 d13f 123a eb96 a8a5 5bbf
00000180: 9f03 863d ddd3 853f a153 3824 e6f9 d13f
00000190: 49bc 3194 c661 d03f 0662 6232 2849 e1bd
000001a0: 9cce a57d f8a9 58bf 1eff cd4c 8703 cb3f
000001b0: f36c 5287 9f5a cebf 5356 4d83 f138 96bf
000001c0: 2583 8572 4d38 d03f 3227 9f28 4241 cc3f
000001d0: 9aa1 742a 5c8c 70bf 6d52 5d87 c82e 9bbf
000001e0: a95c c15a 517f abbf 00e2 319e 9e27 79bf
000001f0: a7d0 28c7 0129 c43f 3171 c740 1c5e d13f
0.2821493394883015 -0.014672591990213165 -0.2872771161158796 0.22151617856099737 0.24686427006695008 0.2257645824071289 -0.381189657596643 0.2219186030237852
0.26299640063886254 -0.011983895879471431 -0.009613707723768081 -0.016451600852262 -0.02502511461553453 -0.022199017520650042 -0.008331632090318626 -0.047473402303995924
0.28447336395779593 -0.04716416502429503 -0.023569556033955937 -0.02210915780504637 0.11965385290354934 0.20618149300894856 -0.011698597632068625 0.2684781294357968
-0.005675781891491052 0.2803075793305011 -0.01403310207027976 -0.003037249144975202 0.23321451390774978 0.0018964275199633662 0.21181230644865043 0.19814678684228812
0.2846906010724582 0.2584011119834932 -0.051292547890192115 0.1069467759474196 -0.3184714251238841 0.2588709655918188 -0.018804016323621307 -0.3073053484199915
0.11708331002581467 -0.020218530592026704 -0.0053105929542549574 -0.012218819541534828 0.28112406129184647 0.25038140489162924 0.2720478650098539 -0.0016874452955338887
0.01065800518040466 0.2808776239119713 0.2559677550515898 -1.257705269723468e-10 -0.0015053679149702797 0.21104518175342774 -0.23714059932249362 -0.02170159686951074
0.2534364336370792 0.22074152930718466 -0.004040107748814492 -0.026545651685710703 -0.053705732658891954 -0.006141299821245116 0.15750143265325287 0.27136904073792595

conv2.lin.weight f8 [64, 32]
00000000: ae40 d0a9 8318 af3f 0dd2 87f0 2205 ccbf
00000010: 6105 ee2d fe0f b2bf 0dd9 e3c6 d7d6 b7bf
00000020: 5cbb 6478 f931 b93f f869 f4a6 71d5 72bf
00000030: 3728 5b16 53cf d03f f8e3 f4f7 a156 74bf
00000040: 61a7 d86f a244 9dbf b0e9 594a 87e0 b23f
00000050: 1d56 3696 ef12 c23f 24cb c502 c9da b9bf
00000060: 8cae 44dc d62e 85bf 6527 dc8e cf0c bfbf
00000070: dbab be86 5b67 c7bf 6e3c 9a84 a010 bbbf
00000080: 4705 3aa1 93d7 b9bf 67eb 106b ba5b c8bf
00000090: 69dd ecdf a974 ca3f 6f83 c790 fbfb a43f
000000a0: df82 db14 42e8 c9bf 74f6 5082 c59c c5bf
000000b0: a8eb 89e6 f6c2 93bf 42ed 7930 4f6f b53f
000000c0: 630e 4656 c22e c3bf 23dc 783f a609 9a3f
000000d0: e688 0750 f65c 97bf 33e2 5aa7 c248 b33f
000000e0: 5933 e60e 0119 c8bf be2a 5101 ec32 c0bf
000000f0: b306 141a ca92 b4bf c2d9 2c78 924e cc3f
00000100: 2682 b140 8bc4 8dbf a583 ebcd 32f7 06bf
00000110: 3983 511b afe5 0fbf 6c94 601a 9d36 fbbe
00000120: 9acc 0e9c 4686 92bf 09eb ea22 85e4 06bf
00000130: dc2b b13e 8bc4 8dbf 9ce6 ea91 b1b9 06bf
00000140: b13a a78c 7e05 07bf 12e1 9050 a02f 03bf
00000150: 2ffd 0533 9ae1 8cbf bad8 69ef 59c4 8dbf
00000160: 5a6a cf8a 89c4 8dbf 067a a45d 2a7e 1abf
00000170: 27a0 b852 4f69 8fbf 5029 b4a4 3130 06bf
00000180: 558d fb1e 77c4 8dbf c4e4 7910 4c72 03bf
00000190: a7e9 9f6a cd63 70bf eddf e458 0f8b 04bf
000001a0: 6ead 2fb9 d1fc 00bf e27b 0e22 52c4 8dbf
000001b0: 3dfd dd87 55c4 8dbf 564f 49dc b91b 07bf
000001c0: 54f8 df7d 87c4 8dbf 4a42 a69e 4c0c 07bf
000001d0: 9120 ac4a 91c4 8dbf 25fc 3c2f e9ce f6be
000001e0: a84e 7593 86d8 01bf 0bf4 56a9 d9e9 0fbf
000001f0: 30c0 26ee 9405 20bf bddb 3303 afa2 95bf
00000200: 728b 3027 9726 b23f 2e07 006c 2d26 a6bf
00000210: a526 9aab 76e6 d03f 93ee 2ff0 7082 a23f
00000220: b4dc 6c3e 8beb ca3f 8364 a229 3d04 a63f
00000230: 1ebc aae4 3d36 babf afb0 5064 1909 c4bf
00000240: e1b3 e186 2711 c5bf 9ea8 2c66 04e8 cf3f
00000250: 82f3 86fb cc6d cebf 429b d33b a398 c93f
00000260: 3e39 68a2 fb9b c23f 5066 33e2 0dd0 9f3f
00000270: c688 7945 6352 90bf de02 c8c3 6c61 ce3f
00000280: d4dd a485 5ee8 c83f b738 8295 ab8a bdbf
00000290: a935 d5d3 32af c63f 2a2a 7bc7 f5af 9c3f
000002a0: ee78 d34c 1dcc cb3f f90b 2c92 c4a6 ccbf
000002b0: 58cf 6c4b b792 babf 47eb 0e3b bc72 a4bf
000002c0: 5fb0 f52e f89a b1bf 3626 7207 4d6e c63f
000002d0: b087 f7a1 5951 b2bf 381e 9c3a 4128 c63f
000002e0: a0ec 54a1 c10c d33f adcd deb2 1ecd aebf
000002f0: 838b 2857 880a bf3f fa4e 258c 4c2e ba3f
00000300: e67f c80d 54e8 c73f e971 c895 bb11 d2bf
00000310: a97d a2e5 988d c2bf dd7e 01d7 9105 d0bf
00000320: 3375 09ab 5278 c23f 3184 8b4c 4cb1 abbf
00000330: dfe1 94f2 a864 cb3f 9f2e e063 4ec3 d3bf
00000340: f365 6d0a b6e8 cfbf 5c7c 6e63 ebc1 873f
00000350: 5043 e168 f530 a33f bc41 df52 69b0 babf
00000360: 34bb f0eb 4e35 cbbf f21e 9412 3643 cebf
00000370: b069 d9b7 b3a0 b03f c7cd 69b8 2836 d2bf
00000380: 18cb 5c21 5263 79bf 4134 050e b677 ccbf
00000390: 57d8 cc2d 1e26 c3bf f594 3c52 4483 be3f
000003a0: f9cb 4078 7a76 d4bf eb45 e7de 011c ce3f
000003b0: afb8 0576 0589 933f d1b1 65b5 a444 9abf
000003c0: f374 dbe8 a749 cabf 8481 9a73 dc43 d5bf
000003d0: a139 aa80 55d3 cdbf 8954 8573 23d5 bc3f
000003e0: c13b 2b6e 7e5e b03f c50c e3f8 9c72 c2bf
000003f0: 9aaf 9267 6d39 873f 14a0 1459 7758 c53f
00000400: 90de d94c 6378 d03f 44d0 37bf 355b aebf
00000410: 5a27 59c2 c41d 96bf ef95 50c0 b207 d0bf
00000420: ec40 3fcd ae7f c23f f185 4eb7 cd2f c5bf
00000430: 4fe5 d74f fe4f a63f 095f a182 6852 babf
00000440: e8e3 28bd 451a 963f c6fc a708 c8a6 9dbf
00000450: 006f befc 804e b73f 5e67 6805 507a 9bbf
00000460: 5276 552d adf2 babf 8e88 0f67 c1fd c6bf
00000470: e7c7 9131 1320 bf3f a117 c518 53f4 d1bf
00000480: 4513 09fc 1132 87bf 1c26 bb10 5ea1 d0bf
00000490: cb0b a4e0 72c6 ca3f 1d20 6eee 793f c0bf
000004a0: 7449 3265 f006 c2bf 67ae a0bf 8247 93bf
000004b0: 5ec1 bdda fad9 c4bf daf7 58ff 633d a2bf
000004c0: 831b fc8e 4d01 cc3f 39ea b310 33b5 d4bf
000004d0: 1cde a5d5 2597 b8bf ff14 8131 8283 d7bf
000004e0: 6a96 feeb 801c d8bf e3b6 2b2f 381e c1bf
000004f0: 5862 3217 a7de adbf 8eb1 ba60 ad23 853f
00000500: ae33 1e2a 83ff b03f ea0c 43c1 f216 a7bf
00000510: 39cb b868 11eb cabf aaa7 e864 03aa c8bf
00000520: 6357 3829 3baf c2bf ed4c 99fc da34 bbbf
00000530: 31e8 3d4f 0229 b33f 3f76 cf1b 33b0 d9bf
00000540: 3f07 6578 8d6b d9bf a1a7 fd8f 9609 c8bf
00000550: a4b0 d00f 0553 cf3f 7b5c 3881 7a63 c73f
00000560: 3d78 beae 69a4 b3bf 6089 7dc5 4b25 ba3f
00000570: 6af4 dab8 56b1 cd3f 6935 7a42 ed48 bcbf
00000580: 274a 8619 d0b0 c13f 9a28 d20f 2f4b d0bf
00000590: d2fb fe83 9f43 bebf 44c7 1457 9308 c6bf
000005a0: 1e94 7dbb 62df 7cbf ec95 bc22 2aea ce3f
000005b0: 3281 9894 7f0f c9bf f182 f81d 8837 cfbf
000005c0: e53f b588 1e5c a73f 039f 2653 ec7c 88bf
000005d0: fb77 2f55 1ad1 cabf 88ee f26b aec4 9cbf
000005e0: f739 29a5 66eb c1bf ce9a c0c0 2c56 c6bf
000005f0: 6255 dcc9 a09b babf e1d0 405e c310 c9bf
00000600: 439d fc2d 1542 b1bf d9d3 69e1 74f0 d13f
00000610: d575 bbfa 8e39 cc3f 6204 481f 78ce d53f
00000620: a6ab 5eda 6ed9 bc3f c67a b9ea 1cd8 ce3f
00000630: bd34 fe5d 40e8 cb3f 644b cc44 735b bd3f
00000640: 65d9 2121 8b75 d53f a88f daf5 442e c0bf
00000650: 2b6f a754 5049 cc3f 6573 3165 4c76 ba3f
00000660: f519 a0b8 778a b93f b175 b8d4 b5d3 be3f
00000670: 387a 1fc9 6568 c4bf c465 a262 7b13 d53f
00000680: 436c df5c cb55 aebf 087c 3960 4ebf 783f
00000690: 0c63 b401 d634 c13f 3169 a747 24e5 d13f
000006a0: 5d88 dd9a 4fe7 c0bf c97a 8473 3187 a43f
000006b0: 3838 bb6a 6afc c8bf b67e 5548 6c0e 8cbf
000006c0: 9654 8677 07b7 c03f 3266 d91c b838 b1bf
000006d0: b2f2 df11 a61f babf 6fd1 3683 f6f6 c2bf
000006e0: 669a f54e bb99 d53f 09c6 d7f4 b292 b33f
000006f0: 6a80 1bc9 8e18 d13f a571 87d5 3044 c2bf
00000700: 04f9 dd2b 8575 c6bf b3f7 47ef 34b3 b6bf
00000710: 46f1 7bf5 0a33 c93f c6a1 f4f4 6e48 c2bf
00000720: 90eb 3739 9540 d03f 18e6 ccae 8ffc c8bf
00000730: cee6 c56b 36f9 7a3f 56bf ed27 d90d c6bf
00000740: 69db 2c80 a972 c5bf 26ef 7f59 b4a4 a13f
00000750: 3c63 765d 88db cbbf db72 0b78 def6 aebf
00000760: 148e 77f9 735f 9dbf ee3b 43cd 59e2 b93f
00000770: 9450 c960 b804 9cbf c52f 0417 3e4c d2bf
00000780: 97f7 9092 7f32 cd3f 0147 ad95 fd4d be3f
00000790: 5867 671b f1b3 c4bf 39b1 d6b7 ae19 cfbf
000007a0: 6d9e 4ee3 afcb b43f ad9e 73d4 d8fb cf3f
000007b0: 2d78 e46c e62f c6bf 672e 918e 6a33 ca3f
000007c0: d812 4689 8c7e 9d3f c47a 4ec7 9e8e ca3f
000007d0: 39a4 03f3 8662 8dbf 6ade 182c 7603 c6bf
000007e0: f282 ad2f fa4a c63f 0330 72d1 bcfa b4bf
000007f0: 4856 3b35 5fb0 b3bf 3f14 0f97 cfa7 babf
0.06073390434187452 -0.21890675301223475 -0.07055653210956826 -0.09312199216569557 0.09841880025190392 -0.004598087266709509 0.26265408690653963 -0.004965431871192465
-0.02858213241248764 0.07373853268828756 0.14120287737448303 -0.1009946471947783 -0.010343245122008037 -0.1212892268923987 -0.1828417213376657 -0.1057224582420859
-0.10094568906972255 -0.19029932239376565 0.20668528970575586 0.0409849752647976 -0.20240045565062467 -0.16884678710077916 -0.019298417874306445 0.08372969563963742
-0.14986447537022504 0.025427434562711803 -0.022815559992417266 0.07532898507896206 -0.18826306560040498 -0.12655401291188711 -0.08036482941318006 0.2211478316109617
-0.01453503409555974 -4.3803441931229086e-05 -6.0839086849956465e-05 -2.5952658369150455e-05 -0.018090346598637376 -4.366427707710146e-05 -0.014535034037313758 -4.334519529920514e-05
-4.390995453073166e-05 -3.6594467083652296e-05 -0.014102177316770962 -0.01453466665155322 -0.014535021351482037 -0.0001010621412302696 -0.015337581359816067 -4.2320742602868834e-05
-0.014534884102835358 -3.709120397572257e-05 -0.0040014289934284025 -3.918305002276177e-05 -3.2401228189228286e-05 -0.014534608520817064 -0.014534633835636352 -4.4075593483099376e-05
-0.014535006073853086 -4.396065544931946e-05 -0.014535079089469856 -2.1751638043850927e-05 -3.403816884408928e-05 -6.087012767917046e-05 -0.0001222366618782735 -0.02112840134665438
0.07090134341028234 -0.04326002066956246 0.26406637914679215 0.03615143711064408 0.21031323001964142 0.04300109036666646 -0.10239016373337548 -0.15652768514826707
-0.1645860107995807 0.24926810254084314 -0.23772585183715128 0.19997063084812267 0.14538522176776242 0.031067101412963816 -0.015939284434701738 0.23734817084916576
0.19459134603105943 -0.1153971900950833 0.17722163527871018 0.0280149844173058 0.21716657878182083 -0.2238393510561705 -0.10380120841437923 -0.039937860688459774
-0.0687708964011917 0.17524111617631072 -0.07155380443830839 0.17310347902115253 0.297653586912654 -0.06015869077182443 0.12125446441545588 0.10226896688009993
0.18677759812362565 -0.28233232142682013 -0.14494620525964066 -0.2503399467150141 0.14429696418202695 -0.054087051719541875 0.2140093979339914 -0.3087955451344246
-0.24928927907130535 0.011600340816413084 0.03748289971611618 -0.10425432465786505 -0.2125643398335001 -0.23642612368734423 0.06495211828715841 -0.28455560692892984
-0.006198235341616586 -0.2224032944162975 -0.14960076557480548 0.11919047363024389 -0.3197313474985886 0.23522971519427868 0.019077382401001482 -0.02565247876320759
-0.2053727995870883 -0.3322669152203377 -0.23301190168826927 0.11262723512966678 0.06394186200780806 -0.1441227164524205 0.011340002749726175 0.16676227426182832
0.25734789376245093 -0.059289626686137825 -0.021597933160854545 -0.2504698637079334 0.14452157041387836 -0.16552134943508137 0.04357905125284366 -0.1028199500009316
0.021584596319573907 -0.02895653298218972 0.0910416237879268 -0.026833772974078733 -0.10526544911177751 -0.17961900264987601 0.1215831752795392 -0.28053738993582483
-0.011325970176707787 -0.25984908708469034 0.2091811749342852 -0.12693714277361404 -0.1408367628215036 -0.018827479311012498 -0.16290221863483628 -0.03562462322268774
0.21878976327590402 -0.3235595381844721 -0.096056332264077 -0.367401645988437 -0.37673972174011416 -0.13373472502956138 -0.05833933027424071 0.010321955217784031
0.06639880922575855 -0.04509695634035345 -0.21029870618220928 -0.19268839289844425 -0.1459726287145556 -0.10627525965655922 0.07484449801077699 -0.4013793727479857
-0.3971894908646511 -0.1877926066475171 0.24472106239534697 0.18272334394052678 -0.07672749057971458 0.10213159152548235 0.2319744494069796 -0.11048777459128235
0.1382084011680302 -0.2545888571263589 -0.1182193467384274 -0.17213670494089162 -0.007048974679354307 0.24152113624693017 -0.19578547244692285 -0.243882193216471
0.04562468928145317 -0.011957021987498267 -0.20950631293720776 -0.028094029749566235 -0.13999636711601202 -0.17450484668480332 -0.10393719604720311 -0.1958240709515229
-0.06741459248279562 0.2803013039877534 0.2205065464285513 0.34072688154998876 0.11269276458067043 0.24097024403723405 0.218025251288429 0.1146766703571252
0.33529928432053274 -0.12641202931001527 0.22098735936639832 0.10336759062324814 0.09976909882980307 0.12041794246075345 -0.15943596191842047 0.32931408531439055
-0.05924830921841153 0.006041818767328351 0.13442492564424702 0.2796107005830378 -0.13205905019555333 0.04009394202352252 -0.19520311557283931 -0.013699384648759288
0.13058560691994064 -0.06727171615912012 -0.1020454209937707 -0.14816171080532167 0.33750803671720175 0.076457199836817 0.2671238864841202 -0.1427060167906237
-0.17546143190333663 -0.08867197839569378 0.19687020288973595 -0.14283549271318757 0.25394182765710926 -0.1952075580136785 0.006585323888765605 -0.17229761552470774
-0.1675617099624234 0.034459720540296154 -0.21763710559459948 -0.06047721114530243 -0.028684436894662893 0.10111008893294102 -0.027361756236431292 -0.2859034752625543
0.2281035867362646 0.11837754158230142 -0.1617413886841017 -0.2429712674760454 0.08123301791658273 0.24987326024642212 -0.1733367950154742 0.20469409905705335
0.028803058508418328 0.20747742397084867 -0.014348081866460404 -0.17198063996487473 0.1741631253053338 -0.08195095170430026 -0.0769099717102445 -0.10412309110604755

lin1.weight f8 [32, 64]
00000000: 9b72 afc8 af5e afbf e126 195b 7695 af2b
00000010: 5c95 cf8e e6c6 c2bf 3bab 5c57 4608 aebf
00000020: 0d4c 48a1 d060 c0bf bcaf aa4a 6394 a6bf
00000030: 256e b9e9 36f2 b1bf e8d7 10a3 4c30 c3bf
00000040: 7f4f ed13 e676 c3bf 641d a9db a58a dd2b
00000050: 7a4e b93e 6f60 b33f 6aca 41c6 f1c1 52ab
00000060: 750f 9c88 10ac 91ab 2f5b b82e 5c1d 873f
00000070: 3a7d 9f66 434d f0aa 0f06 1c3e 51a9 2fab
00000080: ca0a f1c3 2ea9 b8bf 18ca 07c2 ff7d 84bf
00000090: 4071 2c3e 6293 b73f 3431 8fd6 ee62 d32b
000000a0: 6c6a 1332 c6be b73f 4ddd c6f3 63bc bdbf
000000b0: 87b8 3ff0 344b ac3f 219e ca5f 5930 bcbf
000000c0: 2645 67fb 3928 6d2c b91c d388 34e6 a83f
000000d0: 2be3 e23d ae02 963f ebc0 3eac 2f4f 472b
000000e0: 04e2 2e27 1b09 bb3f 61de 8525 a557 6e3f
000000f0: 457f 933f ab8e 75bf bd30 3e56 3412 743f
00000100: a53b 7805 8fab c0bf 7c08 a306 b325 b0bf
00000110: 3653 8280 c4ed a0bf 569a f98c 10f1 36ab
00000120: 8482 d07d 3b17 9abf fc79 dd72 68f8 c2bf
00000130: 5ac1 4613 838e fe2b aa79 c27c 4d96 a43f
00000140: d552 9b38 fd69 c0bf af61 dc11 b123 a03f
00000150: c44f 5dca edd6 a2b6 f1e7 8b0f 2427 792b
00000160: 1366 147d c535 a9bf d302 b04a 5416 aebf
00000170: b060 b707 08b5 b8bf 843f ed30 222a f0aa
00000180: 5cf1 ae75 b79f bb3f 7aa9 184f a53d ba3f
00000190: 17a6 d87a 2bba a13f 6fe2 e9b9 6f8d 722c
000001a0: bc6b 3676 5ae2 bdab c7b6 1c97 229b aebf
000001b0: 53ad 9dab 2f2a b0bf 8ad9 5deb fd36 fd2a
000001c0: 9673 b1e9 d799 babf b858 8032 a8a1 a4bf
000001d0: 6bb7 587a 5a02 a2ab af92 c247 7078 94bf
000001e0: 0d4f 129e d73a a1bf e138 afd3 87ea e4ae
000001f0: 1dce 9237 5a0b c2bf 1653 1074 5827 b63f
00000200: 65ec bf16 9791 bf3f cbe3 e3c1 d20b 552c
00000210: f04d 8f5b 553c b53f 910c 30f4 6b61 8dbf
00000220: 403e 1445 4ee6 b1bf 0385 a5ad fd63 c2bf
00000230: a574 0c5b 3a2a c03f 400e cd47 996a a33f
00000240: 1491 af48 d273 abbf b0b5 9aec d403 643f
00000250: dbc8 78a1 417e adbf d165 a2b9 9bcc 90bf
00000260: 2b45 f02f e530 953f 7c20 463f 57d6 b7bf
00000270: 6af3 4607 530f 9a3f 34d8 925d 47e4 a0bf
00000280: f5b4 2d21 1671 bebf 53bf 217b 179d a2bf
00000290: f8e9 c7f0 27ea aa3f dd99 7aa1 ba60 6333
000002a0: 587b 99f7 0dfd 54bf a7ac 0cb4 4962 a83f
000002b0: e25f f1f2 aa4a b93f 2b40 dc4b 3349 85bf
000002c0: c74f 7b61 0705 973f f363 825e 084c b2bf
000002d0: 4997 504a 3acc bc3f 7cfe 21e2 c8c8 763e
000002e0: f1c2 3a9e 1ac8 a43f 7b1c 4d4b 195b a63f
000002f0: 2595 a13c 19a8 c2bf 21d4 dcd2 6b61 c3bf
00000300: 8ea0 00bc 123a 63bf 0cec 2045 e75e c13f
00000310: 8368 51bd 56cd a13f 1fd9 4b24 50c4 943f
00000320: 19db f9b2 6248 c83f 554e 1575 ad30 b23f
00000330: 4fdd 6deb 0089 863f 946d 8735 521a c43f
00000340: e361 f662 df54 9bbf 5d92 df42 1e83 90bf
00000350: 0b1c 5673 4a38 b1b4 6614 7267 e565 1233
00000360: b023 e050 063c b4bf f519 7101 4c5a 52bf
00000370: e17b 9258 748c 42bf 1820 bed2 1e2f 9e2c
00000380: a50c 6b45 6bc6 a6bf 4453 229a f13d bc3f
00000390: cb3b 3c53 0288 c03f a521 14d8 76b9 38ac
000003a0: bef9 be52 8344 2fb3 24b9 7b3a 03b7 bf3f
000003b0: 6864 affa e34f 773f a253 85a8 db75 57ab
000003c0: 5070 79a1 4edd b33f 6a48 9461 6f0f c1bf
000003d0: 0054 6ad4 6ccc 29b3 7e20 2cb7 eb0b c1bf
000003e0: 08b2 54b6 3b7b aa3f db37 8635 591c ad3f
000003f0: 2eeb ff19 1566 aa3f 8ff0 b333 25fa bfbf
00000400: fec7 8fb8 d178 c53f 7857 dddb 5307 8d3f
00000410: 90de 909b 1e52 afbf d5ff b91a 3ebd c53f
00000420: 7686 1786 4a0e 943f 6491 be7b c546 b83f
00000430: bb51 91ab 2957 c4bf 29f3 81f7 82c4 b5bf
00000440: af32 d54f 2f0f b03f 518c 9060 9309 5dbf
00000450: 48ac 108a 3f27 98bf 1bb4 9c54 8512 8f3f
00000460: 458e 085f 9114 91bf aaac 3375 74ca a13f
00000470: 7b51 70a9 0099 8fbf 3bf9 12c3 1b83 973f
00000480: e105 8324 6608 c33f 2f1b 27c4 1381 a73f
00000490: cb1c b003 c019 b0bf dd1b 87f2 6d13 34b6
000004a0: 816b 83b7 9099 c23f efb9 5c62 98e5 b03f
000004b0: 929f 54cf 06cf ab3f baf9 7010 12b9 bd3f
000004c0: 29b4 694e e2d4 8ebf 03c9 a688 85d6 aa3f
000004d0: d3bf 4495 1be6 babf 75b0 3b60 4dde 83bf
000004e0: 85bf 2f15 7419 c13f 278f 2c7b 2121 623f
000004f0: c6eb a0ec ce82 b63f f5f6 64b6 416e a93f
00000500: 5f0a 2ec5 0d51 c23f c360 c72d d6dc 77bf
00000510: ff55 eea1 336f a33f 9994 f91d feb2 98bf
00000520: 4200 1779 c349 9d3f 643c 49fa 5809 c03f
00000530: 498a 7321 af15 853f c6df 94ef f846 aabf
00000540: 1cd4 211c d8b1 b03f b4e0 3b45 2a2d aabf
00000550: eec6 55ec 9b4b 32af e6cf 1215 0293 4433
00000560: 5672 aea7 56c5 a13f b955 24d3 7ca8 a6bf
00000570: 27e1 d705 c02c c23f 907d a424 047a a2ac
00000580: fefe 3ee8 baf7 b73f ee0e 32aa af4b a43f
00000590: a297 e2cf 71e5 c13f 14b9 6880 31f5 413c
000005a0: de23 a16c 3588 1633 dcb0 86f0 a5b2 b2bf
000005b0: 3311 17e1 bae2 a4bf 24f8 b7cf b0af 5931
000005c0: 230c 2365 c1cc 933f edb1 2032 de50 b93f
000005d0: d006 f308 7719 65b3 92fb db12 7ad2 b4bf
000005e0: 3bab 3d7b 96f9 75bf 64b0 216b cbef 95bf
000005f0: f813 76b0 4f56 adbf 8f04 1ad1 37e0 b13f
00000600: 4f6f 4e1e 1ff6 8dbf 915c b51f 871a 45ab
00000610: f3da 5d31 6110 91bf 8f13 fc6b 8d8b 8dbf
00000620: e5fc 6228 173c 8fbf 933f 0b46 241c 8fbf
00000630: 684b 6c4c bb41 91bf 3b76 31c2 bb02 8ebf
00000640: 63d0 26c1 100e 8fbf b626 0219 9964 5d2b
00000650: 52c5 b2dc c974 572b 051b 3f4f 06c2 2b2c
00000660: 33c6 f5ea d389 502b 9556 af19 2f6b 71ab
00000670: 3320 6e36 8d1e b62b 2175 c945 c9ca 50ab
00000680: 0bf7 a434 4b7f 8fbf 7a90 5ea2 5a5a 942b
00000690: 6c6f d4bb ad52 452b 0c1a 186a c36e 492c
000006a0: 0541 7a18 0cb5 61ab 7b9a 7ec8 890f 8ebf
000006b0: c407 afd7 ef04 62ab b51e 0343 9d09 8fbf
000006c0: 72e5 2ee0 0ad5 52ac a8b1 7124 b57f 8fbf
000006d0: cc3b 047f 2958 0d2c 5d69 4499 646e af2b
000006e0: fb46 586a 4a88 8fbf 6ddb a5a5 cf8a cbab
000006f0: 124d 2416 1bd3 8ebf 326f 8c9d 7fe8 8ebf
00000700: 1224 e72f 1468 8fbf d474 a283 bb36 8fbf
00000710: dc4d 2572 80ab 662b ca8e 2def 695c 18ac
00000720: c5ad a64d 4500 7bbf 04a4 be85 f1ac 8ebf
00000730: 4552 23d9 d901 a32b 336a b963 b0b5 8abf
00000740: 9472 c241 28b9 3f2c fed4 a1ee d9c5 feaa
00000750: aca5 67a0 891d b52b 02c6 c4bb 1def 40ab
00000760: 7e40 6f0a 0fc9 8fbf 6530 2a7c bef6 8ebf
00000770: a287 b5f4 c8b6 8ebf bb0e 539f 6d90 50ab
00000780: 96c8 f53d f7a9 8bbf ee69 42d2 76b6 8fbf
00000790: 93ff 462c edc0 8fbf 3cd8 14b6 fd5b b4ab
000007a0: e0ed 25eb f4c6 0dab bcbb 81e8 99e8 8ebf
000007b0: 8474 9ea0 8b75 70bf a1cb 2717 1b61 ceab
000007c0: d606 fb1e ac7d 8fbf 427e d87f ba5f 8fbf
000007d0: 5a65 5a58 7a7f d32b fc0f 3c97 fccf 98ab
000007e0: aeec 528c b9eb 17ab d63a 6d1d c7be 402c
000007f0: 05f4 faac 1f83 8fbf 206d cc1d 3fa6 8fbf
-0.06126927685520408 2.8879942165863474e-98 -0.14669496510684155 -0.05865688148909106 -0.12795455813520143 -0.044100859512894414 -0.07010215002213067 -0.14991147958943363
-0.15206600163457648 2.1610027937455283e-97 0.0756902244696053 -5.359923768302408e-100 -8.079607464729727e-99 0.011286468673501552 -7.278423026824003e-102 -1.1308930100004525e-100
-0.09633152278642423 -0.010005949124182442 0.0920926477232955 1.4181424496693593e-97 0.0927547333007312 -0.11615585996229534 0.05526128227926202 -0.11011274899157587
1.0920341461048627e-94 0.04863132639143814 0.02149460079883451 3.3302825259676474e-100 0.10560769755000626 0.003703901817228503 -0.005263012827725626 0.004900173607790656
-0.13023555533478973 -0.06307524597198894 -0.0330640227195204 -1.6388766709965896e-100 -0.025479249528987072 -0.14820581062936344 8.941032598880924e-97 0.040209218482448364
-0.12823453201294535 0.03152230589893478 -1.649990922314383e-45 2.8749440688316202e-99 -0.04923836852885812 -0.05876410876954243 -0.09651231945406624 -7.217154665300008e-102
0.10790583251122626 0.10250313931525126 0.034623488183864896 1.3897077646935794e-94 -5.4651608978205704e-98 -0.05977733702307613 -0.06314371051637595 1.3043813186572575e-101
-0.10390996413612039 -0.04029584518882373 -1.6467424497230256e-98 -0.01999068677891341 -0.03365205578407258 -8.613360779123536e-83 -0.14097144807384235 0.0865378650053795
0.12331528001225107 3.941257001756182e-95 0.08295186505647911 -0.014345973386303864 -0.06992043673039294 -0.1436764810451124 0.12628869481787777 0.03792265893437419
-0.053618022320536834 0.002443233363769358 -0.05760388465968599 -0.016405518727514782 0.02069433312505457 -0.09311433119558105 0.025449082678949443 -0.03299162881141662
-0.11891306219122895 -0.036354764729252274 0.05256771864147319 3.768395083138233e-61 -0.0012810360334680384 0.04762487719411839 0.09879558974478145 -0.01039352488763264
0.02248012096863741 -0.07147266681057811 0.11249126734091165 8.487818850717352e-08 0.04058917218697456 0.04366377872661872 -0.14575496159083304 -0.1514105586626622
-0.002347027388186324 0.13570872188014993 0.0347697359181476 0.02028012486967967 0.18970903147757026 0.07105526073910913 0.011003501114585616 0.15705325711938356
-0.026690950789630363 -0.016125176269172637 -7.022812451074146e-55 1.1180784396298475e-62 -0.07904090380192375 -0.0011201612703800577 -0.0005660598846083353 9.04396922035459e-94
-0.04448256704702062 0.11032018673934113 0.12915066780303017 -1.1575196501948872e-95 -3.8003697643129057e-62 0.12388630082907476 0.005691423934842545 -6.703730482177277e-100
0.07759562914128648 -0.13328354134188497 -3.1356383056341737e-62 -0.13317629283870142 0.05172144509046822 0.056856906684614926 0.051560077117719025 -0.1249106646754987
0.1677496100597295 0.014174132487521737 -0.06117339753148798 0.16983772568710145 0.019585766252822677 0.09482988616088545 -0.1589099967701609 -0.08502977888742848
0.06273170184176523 -0.0017723025541805002 -0.02358722000296279 0.015172044415146904 -0.016680022645358745 0.034747733408800954 -0.01542854802213677 0.022961076527957074
0.1486938169746699 0.04590665597384313 -0.06289291467702467 -1.37364857493101e-47 0.14531144104588736 0.06600334550305552 0.054313862618356926 0.11610520268820937
-0.015054481523487056 0.05241792004689396 -0.10507366556407698 -0.009701351641943948 0.13358927759645325 0.0022130636147198626 0.08793347622933742 0.04966931678289469
0.14309856536790996 -0.005825840602902757 0.037957776562659966 -0.02412030275299468 0.02860169817518022 0.12528526516914262 0.010295265396455327 -0.051322726484101674
0.0652136868173589 -0.051125832511332986 -2.410914743979293e-81 1.0002646510879063e-61 0.03470869824306948 -0.04425420834938216 0.1419906643420827 -1.107220246325489e-93
0.09362381143636964 0.039639939809630195 0.13981459284439973 1.9469871227882313e-18 1.3693104094054475e-62 -0.07303845522136804 -0.04079231259996376 5.815170353998237e-71
0.019335767553240523 0.09889019702740827 -4.103198131747448e-61 -0.08133662186081228 -0.005364978616720968 -0.02142255631808644 -0.05729912785594843 0.06982754569073023
-0.014629595863702298 -3.015147064442561e-100 -0.016664045942401406 -0.014426331384592731 -0.015251332206729315 -0.015190394771167159 -0.016852308787814435 -0.014653651107603518
-0.015163546461600846 8.398945978249563e-100 6.702536689516277e-100 6.497677258660576e-96 4.72579277029487e-100 -1.9909340121208785e-99 4.045140684224696e-98 -4.798299266163638e-100
-0.015379512352065491 9.305264018602481e-99 3.046484798306728e-100 2.3813505288065674e-95 -1.0119562205312195e-99 -0.014678074294193202 -1.0297907609634355e-99 -0.015155056579160367
-3.526650093572431e-95 -0.015380301642118635 1.7172613110263805e-96 2.8740392821187313e-98 -0.015396672602068664 -1.0073735262499931e-97 -0.015051089871610777 -0.015091893191815229
-0.015335233413582148 -0.01524111266581444 1.2955721320462724e-99 -2.851256938746576e-96 -0.006592055050002659 -0.014978300947250396 1.7380019706285848e-98 -0.013041856807082563
1.4851808549231472e-95 -1.3739448094826038e-101 3.8615383276778623e-98 -2.4194253393787073e-100 -0.01552020788759045 -0.015119064487656606 -0.014997072189263442 -4.733160137062e-100
-0.013507777765628764 -0.015484741489037081 -0.015504696763741587 -3.7232750403685347e-98 -2.6589793113210008e-101 -0.015092089088481468 -0.004018350047684586 -1.1111417369123393e-97
-0.01537641973061758 -0.01531930639890711 1.4262990789375087e-97 -1.1344126074796947e-98 -4.2720582465437444e-101 1.5679145492351404e-95 -0.015386817423285857 -0.01545380887687614

lin1.bias f8 [32]
00000000: cd94 af49 6c3c b63f 188c 65e1 9bbe c9bf
00000010: 5e60 3c85 e6e4 d53f 32fe 761a 0dd9 86bf
00000020: 2179 52fe 8c2f d43f 00e5 1723 9217 d93f
00000030: 061a 3343 01ac d13f 4022 6049 9bbb b23f
00000040: 312a 428e 704e d23f 3250 f821 b585 c53f
00000050: 1adc ae39 1ae2 a53f 18f8 e9a3 9b07 b9bf
00000060: b36d 3110 6317 c93f 833a edcb 3a21 b2bf
00000070: fdfe 4b0b 981a ab3f c33a 8e78 5fb8 90bf
00000080: 89ef 0c67 5ae3 da3f fa53 6f34 9975 c63f
00000090: 19a3 495f 6a74 b33f f590 b9e5 6a97 b6bf
000000a0: 6b28 b016 bc4c d23f 2e3a d6aa 40c3 b0bf
000000b0: aaa0 46f8 5c2f db3f ba44 29e8 e098 d2bf
000000c0: 6e77 bedd 81af b1bf 6cbe db27 1927 d53f
000000d0: 53b7 66b8 91c5 c93f f75b 0aaa f7c8 d63f
000000e0: 5d0b 8dd2 c474 8ebf 6ab2 0e49 bffa ae3f
000000f0: adc4 69af 7ffc adbf 76d2 3e1d fba2 d63f
0.08685948180171295 -0.20112942224213337 0.34209597598374397 -0.011156179781095597 0.3154022678007938 0.39206365038951674 0.27612334787809834 0.07317514935869784
0.28603757755687115 0.16814293059053537 0.04274064973963494 -0.09777233840756627 0.19602621355703106 -0.07081954458883825 0.05293727052594297 -0.016328326924446978
0.42012653411415407 0.17546382007881772 0.07599510980947989 -0.0882479487277726 0.2859335156978264 -0.06547931834050111 0.42476581807796754 -0.29058096572868986
-0.06908427871391407 0.33051136867923137 0.20134183410612624 0.35601607900156246 -0.014871156383042533 0.06050679938139043 -0.058567037737597395 0.35369756561275467

lin2.weight f8 [1, 32]
00000000: 28c2 67a1 954d babf ecd8 09d2 2cbc c4bf
00000010: d541 3a80 a9bb b73f 6f99 1b0c 7fe7 8fbf
00000020: 7ec7 e5c0 642b c93f a965 d3b7 fc57 c43f
00000030: ba1c 0dcd ea3e c83f dc81 5148 62c9 b3bf
00000040: 66db 19e3 1917 b73f 68dc e7b9 19bd bd3f
00000050: 6eb7 3438 afbc adbf 4d2c 3c70 3c7e c1bf
00000060: bd10 2bf8 c0ba b23f b41e 39ab 498b 95bf
00000070: 80a3 a5da cca3 bcbf cce7 9347 7638 78bf
00000080: 395b 693a cd08 c93f 6085 5d96 aa3f b33f
00000090: cd86 fa5f 14cb babf 4129 38d2 f5e1 b9bf
000000a0: bc59 14a6 b2ae b73f 4e8d 8fed 5370 693f
000000b0: 62e8 3736 e38c c13f fb70 e6f5 c222 b3bf
000000c0: bd9b 6a14 8776 a7bf f31d fe7b 941d bd3f
000000d0: a217 0c4d 8237 be3f 8b59 ee79 5d64 d03f
000000e0: 8087 3d21 0d31 c4bf 1dd2 f61b 4ca3 a9bf
000000f0: b178 4bcd f9f4 babf 0185 94ef 1439 be3f
-0.1027463454299854 -0.1619926477030228 0.0927072465949615 -0.015578262860299145 0.1966367666132633 0.15893515563838648 0.18942008030191976 -0.07729162469468726
0.09019624514062982 0.11616669453347728 -0.05808017312152357 -0.13666491966464137 0.07316213663858924 -0.02103915317118661 -0.11187439287244949 -0.0059132213875674015
0.19558110572935464 0.07519022151020271 -0.10466124861934674 -0.1011041296225459 0.09250942759204056 0.003105319902248083 0.13711204669363314 -0.07474916938230429
-0.04582616924499614 0.11373260523952648 0.11803449994121576 0.2561258021099994 -0.15774692652763278 -0.05007398454054999 -0.1053005338867219 0.11805849885105958

lin2.bias f8 [1]
00000000: 9724 3701 f1a7 ce3f
0.23950016555162243
