Q1/models/gcn/10/d1/bestval.pth (torch, 36751 bytes, 8 tensors)

conv1.bias f8 [32]
000000 f2 8e fc 24 5b 28 36 3f ac f9 08 12 d5 cd 8a bf
       0.000338098766393665 -0.013087906468283027
000010 18 cc 1e 68 de b3 98 bf 89 a7 d2 9a a9 d8 d9 3f
       -0.024123644928931126 0.403849030679901
000020 20 5b aa 93 83 a8 d7 3f 70 97 19 1b b2 8b 8c bf
       0.36966027660803213 -0.013938323452020035
000030 9e 0a 08 cd 7c d0 e2 bf f6 87 b6 6b d9 0a 91 bf
       -0.5879501347083822 -0.0166429492943578
000040 be 17 1d da 0a 3e 57 bf a4 cf 4c d9 ea 92 81 bf
       -0.0014186006523728557 -0.008581003910513925
000050 bf 1f 64 3e 1b 0b d8 bf a0 f0 59 2f 3d 0a b6 3f
       -0.3756778821266344 0.08609373479879645
000060 95 fb 01 99 9f b9 e1 bf fb 2b c3 2e f3 61 52 bf
       -0.5539091099197885 -0.0011219858961790663
000070 8b d8 4e c7 b6 e3 95 bf b7 3e d1 f7 08 11 b8 3f
       -0.021376472391886153 0.09400993395069689
000080 6a 8c 8b d5 62 f1 e2 bf bd cb 14 d2 16 28 dd 3f
       -0.5919660731127696 0.4555718471121358
000090 49 a7 27 d0 49 14 c1 3f 09 73 31 c4 39 4f 9e bf
       0.1334316507703142 -0.029599096870117445
0000a0 e0 de b4 a0 b7 c2 86 bf f3 5c e4 c2 49 0b dc bf
       -0.011113581268190342 -0.43818897278238395
0000b0 67 de ff 72 cf 1c c5 3f 18 3a 92 0d ca 2c 88 bf
       0.16494172206124633 -0.011804178752098202
0000c0 42 c6 db 33 36 66 e0 bf 85 5a 4c 2a 95 e8 90 bf
       -0.5124770176755151 -0.01651223250072544
0000d0 eb a1 29 ac ec e6 c5 3f ff 5b 50 e5 fd 93 83 bf
       0.17110975653055446 -0.009559615669827435
0000e0 8f 22 11 d1 99 42 dc bf df 4d 3c c6 d5 20 75 bf
       -0.4415649930638574 -0.005158267074665684
0000f0 a9 6c 46 d9 20 bf a0 bf 44 b6 ab 66 59 a9 e2 bf
       -0.032708193323935326 -0.5831725125587544

conv1.lin.weight f8 [32, 1]
000000 0d ac 00 d0 0a e7 c1 3f 9e ab 40 a0 46 83 92 bf
       0.13986334949854076 -0.018078902751010532
000010 46 53 b6 83 aa 4e 8f bf fd b3 23 85 2d 6b 7c bf
       -0.015286762375390627 -0.00693815022735311
000020 bb 05 1b a6 92 d3 c2 bf 31 c5 32 e6 6d 68 84 bf
       -0.14708169088957654 -0.009964808070750482
000030 fb bc 3f bb 67 9e d3 3f c2 ea 34 20 4e d1 6e bf
       0.30654328619034715 -0.003761913861720729
000040 9b 05 c7 a3 4d 69 72 bf 92 04 03 19 0b b2 81 bf
       -0.004494956283850905 -0.008640371990966043
000050 09 20 04 b1 66 d5 d5 3f e4 70 dd 47 6f 82 9a bf
       0.34114997183542123 -0.02588819385651754
000060 79 bc a7 d5 ce c4 c4 3f 7f ee c0 00 83 46 7a bf
       0.16225610191711207 -0.006414901476144429
000070 1b 45 37 e6 a3 3e 6b bf 11 50 42 85 23 b6 c0 bf
       -0.003325767627509036 -0.1305584335974577
000080 f9 c7 c7 8d cf 94 ba 3f b7 75 7b a8 ea 27 76 bf
       0.10383317195353915 -0.005409161218009321
000090 46 ee 44 79 07 36 cc 3f 0d 4b ff be 77 c0 9f bf
       0.22039884015417693 -0.031007643730684587
0000a0 91 71 c1 cd 9c b2 9a bf a1 04 ef 44 04 9e d2 3f
       -0.026071977670981964 0.2908945725612942
0000b0 ad 96 71 5b 3b ef a2 3f b1 a1 80 2e 73 83 9e bf
       0.036981444275438015 -0.02979831668213401
0000c0 d2 99 f1 d6 cf 5c c2 3f ec c6 73 f0 6c 10 9a bf
       0.1434573936014219 -0.025453283477822206
0000d0 56 70 fe e7 be 94 c7 3f 75 73 02 5a 7e 0b 78 bf
       0.18422685935809352 -0.005870336113869769
0000e0 32 eb 8b 91 7b ad b1 3f 8a 6d 99 ce 64 f0 73 bf
       0.06905338576681855 -0.004867929246383249
0000f0 98 8b 96 7c d8 36 9a bf e9 99 0d 70 4c 4e c0 3f
       -0.02559984455514161 0.1273894831785605

conv2.bias f8 [64]
000000 c2 36 0a e3 7d 1e 76 bc d5 4a b4 3c 0f 1e d8 bf
       -1.918526828832812e-17 -0.3768346875014406
000010 ca ec c9 e8 5c 75 c2 3f 3e e7 a7 e7 aa 2a da bf
       0.14420663229598168 -0.4088542234672906
000020 63 a0 f9 31 4b 31 aa 3f b4 58 fc 81 0f 28 d7 bf
       0.05115733132407809 -0.36182010358732986
000030 0d af 87 4e fa f9 d9 bf ea ae 6f 33 9d 92 c0 3f
       -0.40588243168780097 0.1294743062165858
000040 a7 fd de 60 3c 39 b5 3f 08 d4 1e 9b a9 8c 93 bf
       0.08290459980979979 -0.019091272442626234
000050 ce 90 8f e4 74 01 c3 bf 1d b0 cb 8b 36 bb b7 3f
       -0.14848195228763078 0.09270039475421794
000060 2f b2 7e 88 29 ce 9c bf 4a 56 93 e4 3c c0 92 bf
       -0.028130196529376924 -0.01831145424951889
000070 05 43 ac fb c3 85 b6 3f 19 65 cd 59 35 a8 a1 3f
       0.08797860044820645 0.03448645325870298
000080 ce 98 12 99 0d ba d5 bf 3b 19 3d 7e b5 72 d6 bf
       -0.33948078106403734 -0.35075127914423704
000090 5e 6d ec 74 d5 12 c0 bf 53 fb 7b a5 78 38 cc 3f
       -0.12557476243169224 0.22047336654937996
0000a0 b9 ad c5 b0 aa 89 d7 bf d0 96 ed f0 9d 7a 51 3f
       -0.36777751219662097 0.0010668318170358633
0000b0 32 9c fc ec 75 ad 07 be ba b8 75 77 28 cd 13 be
       -6.891082929747604e-10 -1.1525931024181436e-09
0000c0 5d 15 10 ca ea cf ec be 0b b5 23 92 92 ee bb 3f
       -1.3738716292630954e-05 0.10910907810076169
0000d0 bb c1 00 3a 90 2b ac bf 34 d2 07 10 4c c2 b9 3f
       -0.05501986225170038 0.10062098876353148
0000e0 a7 22 ae 4a 31 7c d9 bf ed de fb a7 92 99 78 3f
       -0.39820511143674725 0.006005833507280772
0000f0 f8 d4 a2 35 68 dd c7 bf 92 3c 64 fb 51 50 d8 bf
       -0.18644430750797603 -0.3799023585315321
000100 49 b2 07 8c 78 f6 bd 3f 38 04 6f 3f b5 6b bf 3f
       0.11704209727003802 0.1227372436396913
000110 f6 80 0f fe 21 88 9f bf f1 6c 4e 52 21 0e 81 bf
       -0.030792742854715414 -0.008327732395449124
000120 9a b5 d7 fd ee cc a0 bf d0 e3 d2 a9 9c ff 66 bf
       -0.03281351898827296 -0.002807432158615765
000130 d1 c3 64 54 8c a2 8c bf 52 44 d4 e4 90 66 b3 bf
       -0.013981911015976596 -0.07578378283166501
000140 ba eb 6f 64 f5 8d d4 bf 0f 93 97 1a 78 e2 98 bf
       -0.32116446312255287 -0.024301411269237735
000150 fa a1 3d aa 83 81 b2 3f c9 c4 9b 3b c4 5d 6d bf
       0.07228873163479213 -0.0035847504303708516
000160 a1 21 9a ab e8 a3 db bf a6 d2 18 2e cd dc b0 3f
       -0.43187920339598845 0.06586916327871481
000170 af b7 9f ce 3b 1b d5 bc a4 7a a6 65 88 4d 72 bf
       -1.1716395261928493e-15 -0.004468472291050549
000180 8e 46 5a 19 4a 88 d9 bf f2 7b 5a 3d f7 64 b3 3f
       -0.3989434478363386 0.07575936553847365
000190 0a ef 3a 59 a5 30 c2 bf 56 7f a6 25 62 4e 88 bf
       -0.1421095548338303 -0.011868254446028164
0001a0 6f 30 2e 08 e1 5d b9 3f 4f 5e 87 fb 7f 6b bc 3f
       0.09908873033254094 0.11101531878318237
0001b0 f2 de 61 b3 0e 0b a7 bf 71 93 de 0e 15 7f 9a bf
       -0.04500623645520631 -0.02587540534263461
0001c0 0a b8 6d 7a 4a e2 df bf 1e 06 03 20 e8 8b b8 bf
       -0.49818670230786266 -0.0958848074106062
0001d0 bd 48 e3 6b a1 3c 91 bf 51 bb da 9b c4 c4 aa 3f
       -0.016832849702787856 0.052282470727155535
0001e0 49 b4 5c ee 3b 61 95 bf 46 54 e0 fc a9 c8 c3 3f
       -0.020878731177777863 0.1545612797496309
0001f0 51 d9 eb 5e 13 53 d4 bf ad 62 30 04 de d8 b3 3f
       -0.3175705363240882 0.07752788164396902

conv2.lin.weight f8 [64, 32]
000000 bc 62 ee 1b e9 9c 25 1d c6 75 46 f3 f4 17 cf 1e
       2.863427020434957e-168 2.7645412039305208e-160
000010 25 a1 cf c8 f6 27 2e 9d e2 d0 50 89 4e fd 18 1d
       -3.995284794443445e-168 1.6553874156140619e-168
000020 87 6d b7 bd 38 65 e1 9f 7d 65 a9 cd 93 a1 a2 1d
       -4.054399948584534e-155 6.319057823057301e-166
000030 1a f4 5c c0 5b 53 6d a1 e2 95 a4 ca 78 33 9a 1d
       -1.1467251091068315e-147 4.443255580639906e-166
000040 b9 0f 79 93 08 56 65 9d 38 b8 f3 7c 65 74 37 1f
       -4.522794020428755e-167 2.669264943529032e-158
000050 ba 91 a0 84 3c e1 bf 1d c8 e3 d5 e5 cb 36 a1 9e
       2.162511302458648e-165 -3.826267743632391e-161
000060 ea cc 26 06 a0 16 62 1d 5a 13 45 4a 6f c3 bf 9d
       3.834352807318614e-167 -2.1546146494561684e-165
000070 65 dd 8c 7e 45 8d d1 21 1c 10 65 50 06 a3 1f 9d
       8.78506136391272e-146 -2.0957293378545301e-168
000080 5b 97 e6 37 bc b9 1a 1f 4d c6 76 7f a8 96 27 9e
       7.603763419823865e-159 -2.0481079617256752e-163
000090 e5 d6 3b 5f 84 b6 a1 20 ec 99 a9 1c a6 e9 63 9e
       1.6909986710150772e-151 -2.766319247653069e-162
0000a0 e8 61 95 8e d3 c2 44 1e 7c fb 13 f8 60 3b 4d a1
       7.2104351014106e-163 -2.857655746658818e-148
0000b0 96 27 43 7c 8a 5c e3 1f 5d 78 68 ea d1 32 a1 9f
       4.512642983072888e-155 -2.505320099762063e-156
0000c0 47 13 0a a2 62 87 c4 a0 80 4d 8a 0f 24 b4 f1 9d
       -7.839290825889483e-151 -1.9214355001807976e-164
0000d0 47 65 dd 7d 4e 6d ef 20 39 25 63 54 ca c8 41 9f
       4.8003710375820004e-150 -4.047901834144908e-158
0000e0 1c 7a eb 47 5a 94 c1 1d f1 a4 bb bb 8e 37 51 9d
       2.384948313375088e-165 -1.8248217390366763e-167
0000f0 86 8a d3 58 2b 9b d3 3e 72 75 b7 1e 5e 7d f1 9f
       4.674465697381897e-06 -8.152766982125225e-155
000100 72 38 ba 5b f0 a7 a0 3f 59 59 dd 5f 16 63 8a 3f
       0.03253127212256936 0.012884306717449933
000110 bc 50 24 94 54 fa 95 bf a5 58 b7 89 de 5b c8 bf
       -0.021462747136937507 -0.19030362820075655
000120 73 86 9b d2 23 ed c5 bf 63 8a ec 21 14 e0 80 bf
       -0.1712994364125283 -0.008239896092679893
000130 35 65 18 84 bc 63 6e bf 6b 7a f1 36 30 cc 8b bf
       -0.003709667392069927 -0.01357305209802214
000140 11 05 ba fa 1c 0f 82 3f 5b 38 e1 a4 ee d6 0b bc
       0.008817888642854517 -1.8864832465932267e-19
000150 55 8d f8 01 45 c6 ba 3f 3c 9c 1f f3 05 65 ab bf
       0.10458785341375194 -0.05350512116256609
000160 7c e0 64 a3 a5 05 a3 3f 7c 91 5f fd 11 dc b5 bf
       0.03715245837742118 -0.08538925586578289
000170 ad 61 d2 c4 9d 09 c5 bf e8 98 f1 06 d6 9d 90 3f
       -0.1643559657138786 0.016227096723377438
000180 3a e0 99 f3 3c 7d b9 3f 18 80 03 34 fb a0 d9 bf
       0.09956723162929473 -0.40045051650486263
000190 e2 26 1e 59 15 1f c4 3f be 30 fa 95 bd 28 c1 b9
       0.1571985898156561 -1.69202212023048e-30
0001a0 ff d4 6b 44 b5 11 95 30 3c 78 65 40 ca 5b bf bf
       1.1645243018762115e-74 -0.12249435493637945
0001b0 31 de b1 cb 9b 8b bf bf eb 7b 5e ec c6 14 79 3f
       -0.12322400782601829 0.006123330158430011
0001c0 39 f0 bc 09 e5 fc 7b bf 53 13 f1 9a 52 2f 81 3f
       -0.006832976035919863 0.008391042092748135
0001d0 2f 10 ba d8 67 86 c0 bf 02 73 67 e5 76 39 7e bf
       -0.1291017349468588 -0.007379021108559371
0001e0 b5 38 28 5c f7 dd c5 3f 83 ea 8b 8e 9e ba d4 bb
       0.17083637237414498 -1.7558130619724184e-20
0001f0 0e 44 d9 67 b9 ea 95 bf 62 d5 63 50 05 73 c7 bf
       -0.021403214419766718 -0.18319765496532187
000200 c9 ae 6c 64 c8 8c f4 bf 1f f7 f1 aa 08 95 97 bf
       -1.2843707964738533 -0.023029456552186574
000210 26 6c d9 10 fb 25 62 3f 79 24 63 ba 15 12 99 bf
       0.0022153762463808123 -0.02448305082433364
000220 e1 be fd e5 3a cc cf 3f 24 0e 19 b4 f7 c2 79 3f
       0.24842010717428933 0.006289451209855499
000230 24 45 d3 d6 b0 d0 c9 bf 9f 69 94 dd 77 4c 62 b1
       -0.20168123712077446 -8.285359550516677e-71
000240 35 87 4a e3 18 49 8a bf d8 e9 3c ea ab 53 80 21
       -0.012834734379172022 2.5537261168007713e-147
000250 ac d8 e5 63 f3 c0 d2 bf 1c 4a ef 4b 01 a3 d0 bf
       -0.2930267787518328 -0.2599490396070523
000260 76 35 90 50 9d 4d b8 bf 0b 6e 50 b3 d2 c1 27 3f
       -0.0949343034446509 0.00018125245119980678
000270 e4 ec 3f 1b 85 fa de bf 7b 60 f6 e6 0f a9 84 3f
       -0.4840405241117891 0.01008808539954508
000280 86 4e ff 13 07 7f 94 3f 5d 64 27 73 8b 8a ad bf
       0.02001582202485832 -0.05769763737379983
000290 e2 01 cc 62 86 0a c8 bf fa 5c 56 07 de 2e 3d b2
       -0.18782119583194318 -1.0824604272704485e-66
0002a0 cd 5c 52 c8 eb ca 17 aa 56 bf e3 07 04 27 dc bf
       -6.483724278721713e-106 -0.43988133211586466
0002b0 18 fb ed ad f8 9d c5 bf fa f8 fe 35 d5 77 54 bf
       -0.16888340466172092 -0.0012492735040577339
0002c0 11 8b ba 88 0a bf bc bf 26 1c 96 36 ba 5f f9 1e
       -0.11229005659201287 1.8048043628054816e-159
0002d0 75 34 b1 14 c8 8e d5 bf ff 2e 84 d4 c1 37 52 9f
       -0.3368396951744395 -8.293125606716503e-158
0002e0 6c 69 ee bd 63 76 5d a2 2c 45 a5 5c d0 ef a2 1d
       -3.7751226873057858e-143 6.422710891045375e-166
0002f0 65 b0 90 cc f8 c9 c6 9d df 67 b9 5a bf 82 a7 bf
       -3.0916957906346816e-165 -0.045919399094330286
000300 df 92 d0 90 1a ee c4 3f 33 5e 3f 94 a6 43 8d 3f
       0.16351635046989707 0.014289189719348538
000310 b9 57 7a 43 ab 78 97 bf 73 cd cc eb fc 5a cc bf
       -0.02292125319816993 -0.22152673257515296
000320 3d 73 2f af d3 be d1 3f 5d 87 cd 4d 90 4a 81 bf
       0.2772721491617636 -0.008443000196794942
000330 bd d3 11 ad 99 f9 cb 3f 52 a3 8f dc 62 c6 b9 bf
       0.21855469656625628 -0.10068338284294256
000340 0d 70 0e 18 5a 45 8a bf b4 e9 da f5 82 06 90 3d
       -0.012827590808051093 3.6437622376719735e-12
000350 03 d2 e4 2c e1 88 a1 3f 38 58 70 38 c9 5a b6 bf
       0.034247433405116844 -0.08732278468991772
000360 d0 f0 40 d8 87 18 c9 bf 20 27 38 6a 52 60 b7 bf
       -0.1960611158300538 -0.09131350606199051
000370 f6 f1 7a 76 fc 34 b1 3f ec 35 69 e9 f6 39 58 3f
       0.06721475498756732 0.0014786635635063395
000380 9e bb 7c 72 cc bb a8 3f df 09 fe a4 b6 e3 d7 bf
       0.048307789779179475 -0.3732735263112356
000390 73 95 07 47 c1 32 c5 bf 65 f5 1d 7c b7 f0 93 be
       -0.16561141937487953 -2.971336209230075e-07
0003a0 36 41 b4 16 cb 58 28 b1 ae 34 6d 68 ff 72 cd 3f
       -6.889914065795084e-72 0.23007195090250349
0003b0 89 8a 42 b4 d0 74 9d bf be b0 c7 af 05 e1 7f bf
       -0.02876592731684949 -0.0077829572805791485
0003c0 8b ca 12 04 fa 13 c8 bf 51 c8 91 d3 e4 40 8a 3f
       -0.1881096382035888 0.012819087702357875
0003d0 f0 0e 37 20 2f 15 d0 bf a9 f5 b0 86 c4 20 87 3f
       -0.25129297395709127 0.011292968140078257
0003e0 cc 28 29 b6 7a 05 d4 3f 3e 4f fb 18 d7 ca 76 bc
       0.31283443249834586 -1.976920764995601e-17
0003f0 ea 60 f8 af 42 77 96 bf 6c 61 ef 27 b9 f0 c9 3f
       -0.021939317694063577 0.2026587910647878
000400 26 e3 00 c4 8e a4 cb 3f b2 42 8b 16 d6 11 81 3f
       0.2159594018028425 0.008334801257121913
000410 cd 68 3d 2a 66 cd 40 bf 5f 4a 58 d5 ba fa 9e bf
       -0.0005127667286431104 -0.03025333335069502
000420 c9 5b 92 e8 26 ed e0 bf 89 d9 18 51 67 6d 89 3f
       -0.5289492170730848 0.012415702021013402
000430 d5 7a 27 22 53 fd 9b bf b8 e3 3d e2 21 d2 85 3f
       -0.027333544692619356 0.010654701916552031
000440 1f 63 f2 da 3c 60 ae 3f b1 cf fa 96 3e c2 09 3a
       0.05932798550310835 4.0640169364298815e-29
000450 d5 f2 c2 6c 62 f7 a3 3f 55 65 c3 7a 6d 41 b0 bf
       0.038996768738319844 -0.06349834677839301
000460 f6 ad 11 fa 36 87 cd bf 0a 98 10 4e 3a 74 9f bf
       -0.23068892679599146 -0.03071681119413231
000470 6c dd 80 b1 54 96 ab 3f 6f ce 66 be 61 1f aa bf
       0.053881308238881015 -0.05102067422140243
000480 67 c8 56 8c 5a 02 dc bf 21 aa 7b 9f b6 20 9a bf
       -0.43764365868549365 -0.025515416606973432
000490 52 63 f3 e7 8b ac c5 3f fe 47 93 ce dc f0 83 bd
       0.16932820153922507 -2.267014366048233e-12
0004a0 dd 59 64 ab e4 dc f4 2f a6 06 e5 08 49 78 b1 bf
       1.1260950746442404e-77 -0.06824165789751166
0004b0 f4 1a 39 d5 bf ca ce bf 22 ad d6 ad 42 52 6c bf
       -0.2405624190452823 -0.00345719359639464
0004c0 3f 1c fe 1f 30 3c b6 3f fe f7 61 a3 90 07 84 3f
       0.08685589581556118 0.009780054079097763
0004d0 8e 68 7f 03 64 dd c0 bf bc 13 61 37 3d 22 6d bf
       -0.1317563073233185 -0.003556365550169775
0004e0 d7 1a 4e 1f 86 3b f0 bf aa a1 e7 88 46 65 df 3a
       -1.0145322058539727 4.0577871663019243e-25
0004f0 22 d0 82 61 3a bd 8c 3f 96 4d 20 a2 d4 12 cc bf
       0.014032798863219457 -0.21932466427152225
000500 d7 21 92 6b e2 16 aa 3f 3d e6 7a dd 4d 29 8e 3f
       0.05095584452743978 0.014727218934569847
000510 07 8e a3 8d b6 51 96 bf 67 5a cb d6 81 9a c2 bf
       -0.02179608573432115 -0.14534018505101473
000520 de 8a a5 d7 8f 9a cb 3f 37 80 03 a3 72 98 80 bf
       0.2156543543779525 -0.008103271102697913
000530 bd a3 b1 c1 4b fc b6 3f 19 f7 36 56 16 e6 bd bf
       0.08978723028998466 -0.116792102859986
000540 f8 18 17 2c e8 31 b1 bf 10 4e ff 5d 66 1a 90 bd
       -0.0671677692072058 -3.6614266034937715e-12
000550 5f fe e0 41 4f 1c d0 3f ac 9c ed 33 96 b9 ca 3f
       0.25172788079723846 0.20878865752749698
000560 6b 97 e1 b0 e2 27 aa bf ab 45 e0 a9 fd 33 af 3f
       -0.05108555230326214 0.06094353388483439
000570 a1 aa fe 2c 83 d8 cd 3f 9f 73 6d 07 83 db 91 3f
       0.2331699342442635 0.017438933685628318
000580 66 b4 6d 0c a7 a9 c9 3f ea b3 af bf a0 6e d1 bf
       0.20048988444196708 -0.272377192681971
000590 29 bc b3 f4 75 a2 bf bf 41 e6 a4 94 55 29 11 bf
       -0.1235727045457088 -6.546578257351448e-05
0005a0 dd 58 82 69 c0 68 d0 2f a9 ac fc 5d c5 7c cf 3f
       2.21425774911772e-78 0.24599520768365338
0005b0 9a 1c ee 9c ae 56 ce bf dc af 60 35 12 9c 78 bf
       -0.23702032721141536 -0.006008216025332271
0005c0 2c a7 07 60 9b 5d b2 3f ed a4 cb 20 3f 09 8d 3f
       0.07174082846145485 0.014177792728747163
0005d0 ed d6 8d 53 b8 98 cb bf 12 e0 3a 4d 18 a0 91 3f
       -0.21559814529216884 0.01721227618574523
0005e0 76 72 e8 91 04 0b c8 3f 28 9d 1a 5e 84 f0 b3 3c
       0.1878362381402387 2.7671642434653183e-16
0005f0 03 e9 4a 9a e4 24 96 bf f3 f7 27 80 63 57 c3 bf
       -0.021625110547327086 -0.15110439069388767
000600 3f 04 41 c4 d6 c4 c2 bf e8 af 33 be 9a 52 8e 3f
       -0.14663204748834066 0.014805993012906485
000610 5d ee 04 d2 8d 70 98 bf e1 c2 a5 c0 0f c2 ba bf
       -0.023866859382208328 -0.10452364400203919
000620 e8 e6 86 1e 0d 40 c4 3f 40 ff 1d e7 1e 0f 83 bf
       0.15820468893598805 -0.009306184223305203
000630 f8 f0 d4 90 13 f6 c4 3f 42 e5 ba 85 e6 a9 89 bf
       0.16375965663781478 -0.012531090694539618
000640 e4 77 b9 0f da fa bb 3f dd 62 c9 f4 1a de 39 bd
       0.10929644473932815 -9.19001721617641e-14
000650 9e 2a e5 0d fd 6e c4 3f 78 c8 bd 65 ab c2 b0 3f
       0.15963710001445447 0.06547042116088331
000660 7e 63 82 95 56 f9 ac 3f d3 38 85 03 bd 35 88 3f
       0.05658979964318343 0.011821247739728957
000670 fa 08 80 61 fd 4e cb bf 1e fd 68 ec f5 e7 53 3f
       -0.21334807644604564 0.00121497169460822
000680 50 38 fa ee 99 55 b1 bf f3 e7 5f c5 ad 48 d6 bf
       -0.06771242222223006 -0.34818596148363595
000690 ab 1e b4 a7 23 11 af 3f 4d 5f 14 7d 3e 4b b3 be
       0.060677637311582565 -1.1500073820499039e-06
0006a0 3b 13 cd c6 1b 8e 97 af cd 6a 62 f3 37 b0 97 bf
       -1.9865811702966806e-79 -0.023133157949454742
0006b0 ed b2 4f e0 fb f8 d2 bf 2a c4 a0 05 c9 e3 82 bf
       -0.2964467707195542 -0.00922352837014458
0006c0 da 9c 8b 4d d8 83 b6 3f 04 45 e4 0a 46 05 8a 3f
       0.08794929402539556 0.0127053711007954
0006d0 43 fd 2d 98 d3 b5 c6 bf ec 6e 72 7d 41 a7 5e bf
       -0.17742390566488994 -0.0018709315825508567
0006e0 33 46 a6 9d 46 c2 d4 3f ed 01 46 60 cc fe 52 bb
       0.3243576564355834 -6.285019551445995e-23
0006f0 7b 27 3a 35 ec 93 96 bf e4 4f 9f 7d a3 6e c5 bf
       -0.02204865527031739 -0.16743892320539466
000700 0b c1 67 a6 1b 94 53 bf cb cd 9b 99 d7 a5 5c 1d
       -0.001194979669545462 3.0363652650081347e-167
000710 3a 0f da 37 a9 3f 42 22 da b3 1d bd ce 3b c7 3f
       1.1691316914381699e-143 0.18151268228703438
000720 4e d8 d4 94 59 55 c6 3f b5 1e a9 4b 3f 89 36 9f
       0.17447967307242823 -2.5647289597934174e-158
000730 3c 22 54 cc 20 c7 e7 bf d0 69 3f 3d 75 6f a2 2f
       -0.7430576315683264 3.1095912537741805e-79
000740 b9 40 d5 2d 95 c4 58 bb 42 5a 0f 0e a8 4c 99 9d
       -8.195011104759567e-23 -4.290355689514047e-166
000750 a2 60 1d 6e 64 d8 de bf 8a 4d 91 ad 84 6d b1 3f
       -0.481957538160268 0.06807736623277641
000760 41 ac e4 c0 39 a6 ee bf 3c 9d 5f 70 fe 8a 63 2d
       -0.9577912108847003 4.796907162525982e-90
000770 ea b4 94 27 db da b5 3f 3b 54 34 0b e2 4b c9 bf
       0.08537072864847386 -0.19762826487627358
000780 0d 58 ed f0 b5 0d c7 3f d1 2d 4c b9 8a 8f c3 3f
       0.18010591758746877 0.1528180508397399
000790 2e 6d 40 f4 15 eb 88 bf 3e 4b 32 36 71 a6 0c ac
       -0.012167140499562547 -1.6766349989322737e-96
0007a0 09 7b c9 d5 b0 f4 67 9e 57 d1 a6 b7 ad 26 ba bf
       -3.3280009886263537e-162 -0.10215268834764878
0007b0 df 13 a4 7b e1 60 b3 bf 82 d1 39 b6 66 a9 7b 22
       -0.07569703358247136 1.4177553668858624e-142
0007c0 7b b8 ec ed c4 b5 e2 bf 80 29 06 c4 ca 6c 9f a2
       -0.5846886298147774 -6.44253686990231e-142
0007d0 6c 0e 97 8d 1c 64 bd 3f 98 2a fd a9 a9 3f 10 1f
       0.1148088308028094 4.622963386318454e-159
0007e0 c7 99 35 7b fa 21 b2 bf d7 d7 31 58 98 2a 5b 1d
       -0.07083096988717506 2.879348974338117e-167
0007f0 a1 d1 ef e4 68 65 4a 1d 2f 37 0f b4 61 3e d1 bf
       1.3988550408530831e-167 -0.26943247398309017

lin1.weight f8 [32, 64]
000000 64 f3 7b 10 7f e9 1a 9d ed 15 a2 1f 98 a9 bf bf
       -1.7827479495915604e-168 -0.12368155262273435
000010 a3 fc 03 93 63 97 d9 3f d7 dc ee b7 0e 0e c1 bf
       0.39986504895200364 -0.13324150067430793
000020 d9 2c 0a 11 8e 35 ab bf 65 9a fd bb 0e 99 a0 bf
       -0.05314296682362291 -0.0324177364807852
000030 13 86 c9 bd da bd b4 bf cf 21 6c 88 eb 58 a2 3f
       -0.08102194913364995 0.03583465614616765
000040 61 c2 27 4f 90 af 77 bf 65 a8 73 76 f0 f2 c1 3f
       -0.005782664974035429 0.1402264192941544
000050 45 af e7 fb ac 5b a1 bf 15 0e b0 ab d2 4a dc 3f
       -0.03390255522739819 0.442066829360756
000060 3a 80 c7 31 fc 95 b1 bf 75 41 e6 8c bb b4 91 bf
       -0.06869484153094244 -0.01729100272638236
000070 ef b6 1a a0 da 21 a7 3f 5f 29 ce 21 d7 87 a1 bf
       0.045180160564411646 -0.03423950469648917
000080 fc 02 f6 f4 4c ab 99 bf 1b 84 13 02 b0 ac 88 bf
       -0.025067522479278445 -0.012048125327455186
000090 7f 8d 78 4b 5e 74 b7 3f 3f 4d d7 31 08 75 c5 3f
       0.09161938993979922 0.16763403352397607
0000a0 e4 7a 10 fc e9 a2 bc 3f c4 13 c8 1c 1b 95 a7 3f
       0.11186087039866838 0.04605946279847431
0000b0 b7 39 84 ba 57 44 64 a2 74 a1 5e 17 82 af 45 25
       -5.193746595598681e-143 3.910595414863174e-129
0000c0 58 b5 9b 46 b3 51 01 aa 81 3b 52 8c d4 32 ba 3f
       -2.359814725452833e-106 0.10233810830889746
0000d0 a2 b6 25 71 d4 99 7d 3f 04 4a 2c 5c 7e c6 d0 3f
       0.00722678170346361 0.26211508752126655
0000e0 3f e9 a5 0f ec 26 bc 3f 31 0b c9 a9 d1 4a 79 bf
       0.10996890432389693 -0.006174868580788127
0000f0 b8 17 da 3a 09 9a 71 3f 33 ac 36 ab b1 a8 8e 3f
       0.004297290853747464 0.014970195806048725
000100 37 a3 40 23 d8 20 b2 bf 57 5b 70 19 3a ae 8e 3f
       -0.07081366406113153 0.014980749036153247
000110 c5 15 55 58 f6 12 a1 bf 6b d9 90 25 3f 80 96 3f
       -0.03334779575611039 0.02197359720977358
000120 1e c0 2e ca 0b d2 9f 3f c6 ac 8f fc 8f 4b 8c bf
       0.03107469960713171 -0.013815998930985517
000130 3f 02 71 ee f6 13 22 22 51 fc ad d0 ad 25 b8 3f
       2.895490513240862e-144 0.09432493538587151
000140 50 60 0c cb 13 5f c0 bf 7e f3 39 69 70 2e d1 3f
       -0.12790152945013 0.26845941806805473
000150 2d 13 db 61 81 6a c3 3f 2c 07 b8 9d 5b b6 5e 1f
       0.15168778684724185 1.3980899807211572e-157
000160 69 b3 65 a0 55 36 64 bf 2a c5 52 49 86 41 a6 3f
       -0.002467314948424383 0.04346866269168921
000170 4c 1f 03 3c 26 71 45 1e 2c 0c 6f b0 93 83 69 9f
       7.446932832083458e-163 -2.3228991562676582e-157
000180 84 87 31 57 24 eb b3 3f 19 a8 14 7b 55 cb cc 3f
       0.0778067314982121 0.22495525846289935
000190 4f b4 73 1c 7f c4 ac 3f 47 d2 f3 ad 3a f4 54 3f
       0.056186649535313486 0.001278931907845353
0001a0 81 21 4e ce 45 9a 90 bf e7 fb 20 31 d0 d6 87 3f
       -0.016213503567571678 0.011640192508023573
0001b0 e8 bb 5c ff 57 41 bf bf d2 73 04 2f 04 14 76 3f
       -0.12209081634931318 0.0053901828216824255
0001c0 e3 25 c8 ca 1c 97 b8 bf a5 2a b1 0f b2 56 a0 bf
       -0.09605579329231477 -0.03191143456986837
0001d0 ec d7 a1 c4 78 d4 7a 3f 8f 4e b8 cb 00 4f bf 3f
       0.00655028510128906 0.12229924176818428
0001e0 28 e8 1f f7 b0 c2 41 3f c7 85 b9 ff 25 dc e4 3f
       0.0005420078362015123 0.6518735880492209
0001f0 d9 4d 30 65 16 5f ba bf 84 2a 3f ab 31 f3 c0 3f
       -0.10301341982294988 0.13242169248254154
000200 db e3 44 e7 83 dc 25 1e 90 33 92 18 5f 19 a2 bf
       1.8981480763718482e-163 -0.03534981894436051
000210 80 8b 48 6a 2b c5 e0 3f 13 ab d2 1f 26 32 9a 3f
       0.5240685535285223 0.02558192795974452
000220 8e e8 3a 03 b6 ad b0 3f ed ed 64 59 5c ca 73 3f
       0.06515061930523044 0.004831658114479148
000230 b9 8b b1 33 5c ff a0 3f f5 b7 0b 0a 8a 5c c8 3f
       0.03319824343704831 0.19032407274738686
000240 36 45 ca df 69 0a c3 3f 5b bd ff a9 cc ac d0 3f
       0.14875529696704753 0.2605468425890273
000250 cb 99 b9 08 e1 33 87 3f 52 19 ab 84 81 e0 e1 3f
       0.011329420164838752 0.5586555091074763
000260 f7 e8 d0 8c 05 bd 88 3f b6 6c d1 e4 2c 6c 91 bf
       0.01207928024279113 -0.01701421877474437
000270 67 29 e3 f5 ae d0 c0 3f 5b c2 b3 89 61 24 86 3f
       0.131368513166602 0.01081157876476018
000280 d3 92 78 c1 dd 77 a5 3f 27 04 0c 08 8b b7 57 3f
       0.04193013178545404 0.0014475686768380487
000290 42 1c 18 bc 0a 50 80 3f 6e 0a 17 f4 07 38 b3 3f
       0.007965167870692128 0.07507371625164591
0002a0 1c 7e e4 c4 db d4 94 3f a0 94 20 73 ba 34 5a 3f
       0.020343240635268697 0.0015994854734427202
0002b0 48 28 7f 46 0b 20 49 9d 92 c5 99 52 b4 08 6c a5
       -1.3315009117929434e-167 -2.0221666911755382e-128
0002c0 c4 43 7d 22 82 ad dc 2a 0e 03 0e a9 5b 38 a8 3f
       3.201008401566425e-102 0.04730497778564856
0002d0 dc 14 51 45 2d bf a9 3f de 4b f1 c8 e2 6e c8 3f
       0.05028668852950499 0.19088396846436145
0002e0 cd 5b e3 b6 05 4c af 3f e3 b5 3a 2e 4e 78 86 3f
       0.06112687928696623 0.010971651826674872
0002f0 2f a1 7c 34 65 a9 8c bf 28 b6 de 2a b2 56 81 3f
       -0.013994970955153533 0.008466140683448378
000300 69 9e 11 cb 6b 52 a4 3f 8d 0e 6c a4 f9 54 b5 3f
       0.03969132284038041 0.08332786812030175
000310 80 2e 03 a3 94 ea 15 9d 59 9b e0 a3 ea 0e 54 bf
       -1.4518116537763015e-168 -0.0012242595107722824
000320 ed 4e 84 9d 02 2d a0 3f 69 02 38 22 f4 bc 81 bf
       0.0315934006959234 -0.008661181730532168
000330 c8 4d c4 66 12 05 31 ac 5b ff f3 69 57 79 86 bf
       -7.968125155892865e-96 -0.010973627968723745
000340 05 7c 72 be 89 02 9a 3f ca c8 9d ac a5 c6 d2 3f
       0.02540030693910113 0.29337446076455065
000350 a6 10 8f f0 d0 1f c4 3f 48 47 be f9 ce 2a 8b 9d
       0.1572209524730443 -2.303549861989162e-166
000360 1e 33 d9 4f 16 5c ae 3f ac 7f 1f 92 92 f9 b6 3f
       0.05929631924354893 0.0897456747766216
000370 c6 37 4f 87 32 4d 5a 9e e6 3d d3 63 74 0e af 29
       -1.8269376687119792e-162 6.6118587113064516e-108
000380 97 b4 bd b2 f4 19 aa 3f 37 0e 9f 00 74 ca c5 3f
       0.050979277438139174 0.1702408793481582
000390 f5 f0 45 c4 2e 23 b4 3f 6a 3d 8f 3b 12 35 84 bf
       0.07866184512926451 -0.009866850321400295
0003a0 97 1a d7 44 3f ea ab bf d6 7f 9d 35 18 6d aa 3f
       -0.05452153888068272 0.05161357550127803
0003b0 ac 21 b1 14 e5 f7 91 bf 7d 93 90 cb 2e c6 78 bf
       -0.01754720629495103 -0.006048376840259159
0003c0 42 19 23 cf 2c 43 b5 3f ba 12 c4 18 bc 8d a9 bf
       0.0830562596994229 -0.049909475348646606
0003d0 c2 b5 69 17 0c 39 93 bf 23 3b ff 87 26 4a a8 3f
       -0.01877230542088682 0.0474407235156973
0003e0 c0 33 fd 7f 7b 08 72 bf 82 13 ad aa 31 a2 e4 3f
       -0.004402620717724071 0.6447990735547224
0003f0 99 c1 11 b1 21 25 bd 3f 3e 8d f2 d5 dc 86 82 bf
       0.11384783337576322 -0.009046292571219024
000400 1a 75 0b dd d4 22 57 9e 24 46 a9 51 e4 7d a5 3f
       -1.6070587809604648e-162 0.04197610375252861
000410 5e da d9 96 8e 2a e5 bf 47 5f 63 1c ca 25 bb 3f
       -0.6614449449833264 0.10604537194319362
000420 7a 96 5c f4 8d b2 ca bf 8c b1 d0 99 bc 65 65 3f
       -0.208574051205847 0.0026119884119195132
000430 98 8c 61 e8 42 d1 82 3f e5 4f c0 eb 79 60 d3 bf
       0.009188196865755935 -0.3027634432085036
000440 d5 ca 58 e1 a0 e3 a6 bf b3 48 9e 54 9d a0 d5 bf
       -0.04470541716400126 -0.337928135523849
000450 64 d6 27 e9 8a 19 85 3f cb 99 fd f3 50 25 db bf
       0.01030262493166418 -0.4241526015015579
000460 b8 ab 1c c6 49 b2 95 3f 9d 1c 39 a4 02 4b 8d 3f
       0.02118792792968424 0.014303227078143183
000470 b3 74 ec a1 b1 0b 9f 3f 63 89 d7 8d c2 dc 95 3f
       0.03031804610065043 0.02134994497999666
000480 34 e5 9b 59 90 21 7a 3f 26 ba 78 68 ff 12 92 3f
       0.006379665248226463 0.01765059542793259
000490 d8 bd 3b 85 80 2d b7 bf 20 a4 be 44 3d 56 90 bf
       -0.090538055923154 -0.015953976937144287
0004a0 70 14 95 62 0d 63 ab 3f e0 bc 19 42 ba 8d 62 3f
       0.05349008396527999 0.002264846597249112
0004b0 1c 62 b9 84 22 46 88 9d 52 ef bc 94 e4 f4 51 25
       -2.05822625473136e-166 6.476289948081016e-129
0004c0 ba 2e eb c6 c6 be 13 a6 2c b4 81 3b 00 32 b2 bf
       -2.916915193166432e-125 -0.07107545330809789
0004d0 70 5f ee fa d4 c5 be bf cc f8 4d 5d a2 94 c7 bf
       -0.1202061760544646 -0.18422345691573694
0004e0 5b 2d ff fa 1a 5d a3 3f 77 6d c1 98 f5 c4 86 bf
       0.03781971277165993 -0.011117857670049898
0004f0 0a 10 ed 93 b2 bc 64 bf 8a cc 76 a6 8a d7 aa bf
       -0.0025313842628822457 -0.0524257019236752
000500 ef d1 38 b5 0f 1a a6 3f f4 eb bc 2c 8a 47 ae bf
       0.043167582389660335 -0.05913955494039405
000510 24 b6 a0 66 a1 f4 aa 3f aa 91 da a7 d9 98 5c 3f
       0.05264763238697537 0.0017454267066706422
000520 3c 78 80 33 57 ed 9b bf 79 06 69 f0 6a b3 75 3f
       -0.027272570150778316 0.005298059206838007
000530 21 1b a8 ac fa 00 81 24 bd 7a 3c 17 1e c4 a5 3f
       7.486150385785667e-133 0.0425118831028519
000540 c6 48 aa 85 01 75 79 bf e0 01 f4 ee be 48 d9 bf
       -0.006215101190394095 -0.39506505332249553
000550 2b 57 82 08 c7 89 d1 bf 04 cb bb dc 64 f5 55 9d
       -0.2740342696282478 -2.327375613623437e-167
000560 a4 92 5e 4a a4 f8 b4 bf cd ed d7 ff c2 4b c9 bf
       -0.08191897216472427 -0.1976245640979485
000570 cd 8f f7 97 3d 57 1d 1e a6 c6 23 59 94 e2 32 1d
       1.2737789736421189e-163 5.0040445526739425e-168
000580 ce 19 f7 c2 30 39 a0 3f 4e 26 3a 83 e2 49 c9 bf
       0.03168632869669673 -0.19756728560996567
000590 07 96 4a 91 86 e5 b1 3f 13 cf 5e 31 7d cd 88 3f
       0.06990853354599134 0.012110689229167393
0005a0 3b be 59 b8 c0 76 bf 3f 34 a0 bc 47 20 66 c2 bf
       0.12290577412363117 -0.14374164107107534
0005b0 78 35 92 7e 01 24 b5 3f 36 80 01 95 01 7c 90 3f
       0.08258065548053206 0.016098046035381418
0005c0 65 65 5b be ca ef b2 bf b2 0e 57 5f 22 e2 85 3f
       -0.07397143504512867 0.010685223135517095
0005d0 6f a7 78 b0 46 b0 92 3f 87 e3 9a d9 96 21 c7 bf
       0.018250565072015442 -0.180712562801798
0005e0 06 80 ec 51 ce f7 6c 3f e5 db 8a 74 b8 2b eb bf
       0.003536131829051217 -0.8490869785517786
0005f0 fb 67 c5 45 31 c0 c6 bf c6 28 3f ab e6 95 ba bf
       -0.17774024874489655 -0.10384980851009393
000600 3c 20 86 9b e7 b1 f2 9d 87 60 67 a3 da c9 57 3f
       -2.0290206114950993e-164 0.0014519343509303022
000610 cf 5a d9 4c ba 03 14 1e dd 79 bc c8 a0 66 a6 3f
       8.68897297151544e-164 0.04375173998254287
000620 4a e0 b2 c3 66 84 59 bf 3d 2b e4 06 2e 22 a3 3f
       -0.001557445865541867 0.03737014612314347
000630 ba fb 77 73 1b b1 ac 3f c3 2e 56 b5 d7 45 9a 1d
       0.05603872093705982 4.455424997405579e-166
000640 e1 bc 58 b5 92 cb 98 bf 53 3a 68 58 bd 91 09 3f
       -0.024214069670219444 4.876956068155095e-05
000650 27 b2 9a 12 12 3a 94 bf 48 8c c7 97 ed ec 50 1e
       -0.019752771745219413 1.1756657518295905e-162
000660 be cd 96 a3 90 a7 9f 3f b8 ae 87 a4 e1 37 5f 1d
       0.030912647232708805 3.3088073775157485e-167
000670 15 8c cc e4 2f 8f 89 bf f9 9a 3a be 56 10 44 1d
       -0.012480138940707911 1.0632762776028837e-167
000680 c3 8c 80 ae db db b3 bf 72 89 ac dd 32 45 c0 bf
       -0.07757351885134071 -0.12711177658008982
000690 ff 23 aa 82 9c d6 6e bf ae 4e 32 c7 c9 c6 b1 bf
       -0.0037644440502089256 -0.0694395171470272
0006a0 68 e4 45 8b f9 d0 5b 3f 71 32 18 32 84 86 0f 9e
       0.0016977726891964865 -6.843113295502056e-164
0006b0 ce ab 08 81 02 27 62 9d 56 1d 75 18 9e 21 8d 9d
       -3.8479200193848395e-167 -2.4700887029380526e-166
0006c0 00 35 ef 79 2d 6d 2b 1e f0 ad eb fd 00 fe b2 bf
       2.3813452201915523e-163 -0.07418829154237705
0006d0 60 49 dc 1f 80 2d be bf 16 3b d2 d9 2e 10 9c bf
       -0.11788178232044322 -0.027405483288528286
0006e0 b6 e2 b7 bf 16 5e b9 bf 74 38 9b 0e 03 2e d1 9d
       -0.09909193211195597 -4.661426317017853e-165
0006f0 4c b0 7c 2b 42 a1 7c bf bc e9 71 30 c4 e9 ba bf
       -0.006989725566921189 -0.10512949164141266
000700 79 40 d4 7a 22 9b 93 bf 4a 44 71 7f da ff a0 bf
       -0.01914647936524758 -0.033202007348002896
000710 82 6a 47 4a 59 63 ae 3f 38 03 c6 69 97 37 94 bf
       0.05935172111249633 -0.01974331458177689
000720 ed 2c 88 d5 7e 0e 00 1e 6f fe bd f0 b0 df a7 1d
       3.485351454442748e-164 8.09718074196631e-166
000730 0c e5 c7 4f d0 fa a3 1d d0 c1 06 62 72 a6 91 bf
       6.776450241950743e-166 -0.017236506684357
000740 a8 7f e1 2f 8a 47 c2 bf 8e 2c c5 88 d2 df 50 b8
       -0.14280822122509318 -1.9835651668384646e-37
000750 2e cb 5e f6 51 08 b1 1d bc 9f 2b 98 69 f7 29 9d
       1.155369257755246e-165 -3.4402111189729763e-168
000760 1e 6d aa c0 76 d3 95 3f e7 d5 ab 4f 48 28 a4 3f
       0.021314483174689085 0.0393698308234141
000770 86 07 2b ff 91 53 2c 9d 20 1d f9 eb c4 b1 50 9d
       -3.7528787114191403e-168 -1.7694305516079447e-167
000780 06 54 aa 67 f0 fa aa 3f 55 b8 8d 2a 2c a5 bf bf
       0.05269576325842 -0.12361408270746328
000790 60 4e 09 ba 0d f6 c2 bf 0e bb 54 cb dd 75 c4 1d
       -0.1481339605694414 2.7757914860968463e-165
0007a0 16 4f d0 e1 3e b0 29 ad ba 0b 89 7a ac f5 c0 bf
       -3.940845271467107e-91 -0.13249736769838966
0007b0 1e 4b 7e ef 3d 13 b6 3f 20 f1 a8 be c1 4f 75 9d
       0.08623110863690583 -9.035193321624732e-167
0007c0 8d b5 51 3f 23 ba 92 3f 02 e0 4a f3 d6 4e ac bf
       0.01828818391770919 -0.05528899879340089
0007d0 cb 0a d0 64 e1 05 d6 9d 1b 8d d4 1f 78 53 90 bf
       -5.975555461229355e-165 -0.01594340986515617
0007e0 53 0d 7c 94 9e 53 1c 1d 5e 0d 53 54 55 6b 53 9e
       1.8764520747965513e-168 -1.3488860631170236e-162
0007f0 a6 a9 43 e5 ea 2b ac bf af 52 ce 3d cc 6d b6 bf
       -0.0550225643981606 -0.0876128817456656

lin1.bias f8 [32]
000000 4f fe b5 57 22 44 b3 3f 42 14 c9 d0 e7 00 bf bf
       0.07525839463596039 -0.1211075672845974
000010 6b 7a f1 46 1f ed ce 3f a4 fd e2 17 79 c0 bf bf
       0.24161139453913746 -0.12403065522356954
000020 1e 08 48 b9 59 84 a1 3f 4f 91 43 e7 2f 82 d2 3f
       0.03421287905440827 0.28919599136704205
000030 16 46 d2 9e 6a 39 c1 3f ef 37 66 2e be 92 af bf
       0.13456471209478654 -0.061666434444404554
000040 f8 4c c9 5b 8a 96 b5 bf 21 8d 8a 4e c4 a1 b2 bf
       -0.08432831517102446 -0.07278086583624034
000050 6c 3a 35 6c 52 39 d8 bf 91 40 f4 1b 6f ea d4 bf
       -0.3784986550062175 -0.32680871705907416
000060 87 dc f2 42 7d a0 bd bf 76 9c 3a 83 e6 b0 dc bf
       -0.1157301224183006 -0.44829714598967685
000070 c2 3a 19 97 b5 55 a6 3f e1 9f ce 27 75 25 a1 3f
       0.04362266034569508 0.03348890410353512
000080 a9 d3 be 0a 46 58 d4 3f 31 35 2f 14 d9 09 ba bf
       0.3178877930579867 -0.10171276800902686
000090 89 99 ce b7 67 0a b3 3f df 00 c3 b4 1a b0 dc bf
       0.07437751996494603 -0.4482485547305383
0000a0 91 b7 4e 25 22 73 a1 bf 39 0c 11 eb 62 2b 74 bf
       -0.03408152299321821 -0.004924188994723849
0000b0 6d 0e ce de 73 c1 d4 3f 95 d7 46 20 79 2d d5 bf
       0.3243074107960869 -0.3309004607393658
0000c0 7e ac c4 d3 38 36 c2 3f 12 0a 4a 43 6f 2f c8 3f
       0.14227972355124402 0.18894758973699816
0000d0 c4 52 8e 9b 9d d6 76 3f 82 d1 13 10 6b 0a d1 3f
       0.0055757671879247996 0.26626087732372394
0000e0 d8 02 07 cc ac c4 c5 bf 54 80 7a 9f ad 59 d4 bf
       -0.17006454431795848 -0.317973523846381
0000f0 c1 06 86 3c 85 e0 b1 3f c7 84 2e 78 5a f6 ce 3f
       0.06983216025949003 0.241893109018781

lin2.weight f8 [1, 32]
000000 18 b5 45 40 84 b6 b5 bf 49 45 5d a0 87 47 c2 bf
       -0.08481623238704505 -0.14280791597642864
000010 a4 67 f1 c7 96 db ca 3f 38 d5 db 9a 43 40 c2 3f
       0.20982632410851665 0.14258618413411184
000020 60 e6 07 0c 49 c6 b2 3f 68 03 46 1b cd dc c7 3f
       0.07333809417459625 0.18642581779206613
000030 af 24 ad bb e3 61 b0 3f fe 90 74 fb f6 0b bc bf
       0.06399367649022979 -0.1095575679688103
000040 cb dd b2 d9 e6 6b a2 bf 98 a3 8c ca 2f bd 9a 3f
       -0.03597947509245677 0.026112314927704355
000050 f4 e6 f7 33 e2 5a c5 bf bf 97 dd db bd a8 d0 bf
       -0.16683604753034553 -0.2602991721272438
000060 5e 13 8a 02 2f a7 90 3f c8 b4 e1 3e 1e 5c c5 bf
       0.016262754945745576 -0.16687372274774348
000070 73 ff 22 9d b6 64 ba bf b0 2f 81 d0 24 a4 8a 3f
       -0.10309926353784053 0.013008391964966254
000080 df 67 62 8a d3 6e c8 3f 24 e2 24 25 2e b9 64 3f
       0.19088215119410187 0.0025297070762031627
000090 77 c6 70 13 3f 19 cb bf 9f 36 a7 bb cd 99 cc bf
       -0.21170795869106815 -0.22344371474030297
0000a0 81 bb ea 14 17 e7 c5 bf 1e b4 ba 50 4b f2 48 3f
       -0.17111481210073623 0.0007613055945135982
0000b0 4b b7 58 4b ab c9 c3 3f 4a 88 b1 36 e9 e6 c3 bf
       0.15459195307760817 -0.15548434420185436
0000c0 54 b8 c4 39 a0 ea c4 bf 1a 64 ef c3 f6 35 bd 3f
       -0.16341021366810315 0.11410467418262762
0000d0 57 8b bc 67 28 23 75 bf df ed da f5 12 aa c9 3f
       -0.005160482247250928 0.20050274853370717
0000e0 ee 0c 34 cd 87 02 d0 bf a6 2f ee 43 bc a7 b8 bf
       -0.25015444793116515 -0.09630943926293742
0000f0 ec 29 1d 17 eb 7f cb bf ee 7d 8e a4 c1 d8 b0 3f
       -0.2148412573681776 0.06580744044776285

lin2.bias f8 [1]
000000 23 37 d6 73 f4 64 c3 3f
       0.15151839881985393
