Q2/models/A3TGCN/2/temp/bestval.pth (torch, 59448 bytes, 15 tensors)

tgnn._attention f8 [12]
000000 66 79 7d 3c 23 a8 cc 3f 4e ce 9a c1 27 60 e4 3f
       0.22388115361804778 0.6367377072660447
000010 bc 46 59 71 bf 4f c0 3f db 60 ed 34 29 46 da 3f
       0.12743371042829732 0.4105322853915944
000020 94 16 ab 04 ef fa a5 3f 30 0e ed b2 cd a2 e4 3f
       0.04293009693132635 0.6448734755180734
000030 d0 1e b4 a9 b1 a3 e0 3f f2 d1 19 06 50 82 d2 3f
       0.5199821772120803 0.28920364948069655
000040 dc c1 b8 2a 86 0f c4 3f 72 d1 73 d2 93 c0 db 3f
       0.15672375761052038 0.43362899353021256
000050 75 eb d1 0a 61 15 e4 3f 87 d7 f5 f7 51 a2 e9 3f
       0.6276097499206644 0.8010644762969016

tgnn._base_tgcn.conv_z.bias f8 [32]
000000 c7 d8 03 90 98 6d a2 3f c4 ea 64 a9 a3 8b 61 bf
       0.03599240072246484 -0.002141780521154631
000010 74 d6 4f bb a5 94 9d bf ff 35 7a cb f8 92 9f bf
       -0.02888735728989507 -0.030834090632700036
000020 9f 60 37 e8 f4 ca 9e bf 24 ce 41 61 e5 3b 64 3f
       -0.03007109324775625 0.002469966895711344
000030 08 53 b9 ed ce 80 5c bf 6e f4 a6 53 62 ed 90 3f
       -0.0017396946704099654 0.016530548434947105
000040 22 6f 7d a2 9f 37 a2 3f bc 19 24 2e 02 77 a3 3f
       0.03558062418480136 0.03801733792538495
000050 b2 e1 71 ed 28 b0 71 3f c2 c7 b3 fb e3 3c 5c 3f
       0.004318389771576768 0.0017235018156580438
000060 00 3e c4 91 39 7b 1b bf 8a ea 41 15 4f 5c a0 3f
       -0.00010483301997887134 0.03195426115504059
000070 d4 ea 34 55 ae 33 6b 3f 2c ba 5e e5 ca 9f 68 3f
       0.003320541852784723 0.003005882531361045
000080 86 58 84 0d a4 20 a0 3f 5e 5d 46 d5 af e2 a2 bf
       0.031499029779454665 -0.036885733398942064
000090 dc 99 e3 48 1f 6e 6c 3f c6 8b 10 e0 8a e5 63 bf
       0.003470479109739728 -0.0024287903220438804
0000a0 2c b8 fa 3c 68 9c 5d 3f 45 ec 1f 8f fa 36 9c bf
       0.0018073099089792695 -0.027553477273596156
0000b0 8a e0 77 0a a5 2a 7f 3f 2e 7d 61 5f 7f 3e 70 bf
       0.0076090285215216855 -0.003965852307458646
0000c0 02 91 10 98 0f 50 80 3f 06 c0 f9 cf 3d 5a 9a bf
       0.007965204074999569 -0.02573486883051148
0000d0 34 17 ae c2 11 b5 69 3f 97 cb 19 b7 89 e6 a2 bf
       0.003138098419586033 -0.03691511497608884
0000e0 b6 6a ce 07 43 29 84 bf 27 aa 1d 3c b3 30 9a bf
       -0.009844325710038997 -0.025576401275808316
0000f0 57 3b 83 2b 08 54 8b 3f 1e c7 01 42 a9 92 a2 3f
       0.013343871906185063 0.03627518587826571

tgnn._base_tgcn.conv_z.lin.weight f8 [32, 1]
000000 36 37 ac dc b2 29 cf bf a2 39 8c 3f d2 1e a8 3f
       -0.24346004271540672 0.0471101477215712
000010 80 a8 dd d0 30 60 86 3f fe 48 6b 16 94 a0 b8 3f
       0.010925656675415008 0.09620023295727617
000020 58 f4 2e e9 ba 12 c6 bf 1b 0f 30 6f 31 0c d7 bf
       -0.17244659791859607 -0.3601192079370194
000030 30 56 e2 f2 3b 8a c8 bf ba 27 d6 af dd 37 d1 bf
       -0.19171857223106903 -0.269034787860274
000040 77 39 89 49 c6 e1 d4 bf 1c b7 de 10 e4 8e da 3f
       -0.3262801855206798 0.4149713673349298
000050 0e 33 75 0e fb 11 d7 bf 47 0c c5 c6 f8 b1 d2 3f
       -0.3604724541844896 0.29211253558259326
000060 ee 11 fb dc 8a 1b 94 bf b3 80 c3 29 87 67 d4 3f
       -0.019636316049188744 0.31881884649738906
000070 81 02 86 2e 11 55 d1 3f 37 21 e4 be 42 cf cf 3f
       0.2708170847254579 0.24851259537559553
000080 52 15 8b da be fc dc 3f e1 84 c3 57 da 07 d6 3f
       0.4529263624393326 0.3442293030803523
000090 fa 95 14 f5 99 b9 d7 bf 1e d2 5a 8a 0b 29 d1 3f
       -0.3707032101977742 0.26813019286353945
0000a0 cb 41 61 50 2b 28 cc bf b4 fd 1b e4 72 d7 d3 3f
       -0.21997586655426313 0.31002495075514536
0000b0 9d ac 32 b1 5c 32 cb bf 46 37 64 d7 ff 63 a3 3f
       -0.2124744286751125 0.037872309725669726
0000c0 e4 4d 2e 3b 90 97 d8 3f d7 b3 36 75 fa 74 c8 3f
       0.38425069598562644 0.19106989596676158
0000d0 7f c7 ce c3 58 85 d4 bf fb a5 af 3b 08 99 c1 bf
       -0.32063883897637163 -0.13748267092095987
0000e0 2b c8 4e 2d 1d 7e bc 3f 78 34 c9 fc ad db cb 3f
       0.11129934650560418 0.21764159052910137
0000f0 8a 5d 74 6f e1 1e c3 bf 0f 1a 60 4d f6 76 ba 3f
       -0.14937990133396922 0.10337771786735338

tgnn._base_tgcn.linear_z.weight f8 [32, 64]
000000 7c 58 18 4a 54 08 8e bf 9e 9c ae a6 03 17 64 bf
       -0.014664324294283874 -0.002452380305345849
000010 57 23 09 e9 51 16 a7 bf 84 c4 61 39 f0 eb 68 bf
       -0.04509216279672639 -0.0030421916845218572
000020 36 82 77 ee a7 d1 73 bf 70 43 49 0d 31 55 76 3f
       -0.004838615400757853 0.0054523387994585976
000030 18 5f f9 5a e4 5d a0 3f 12 ee e7 67 67 ae 62 bf
       0.03196633921169062 -0.002280427898993195
000040 23 14 36 90 92 b8 b4 bf 14 fc 28 fa 20 0e a9 3f
       -0.08094135304243415 0.04893591932022204
000050 8d 3e fe d0 9b a7 92 3f f8 5d 78 79 e3 bb 60 3f
       0.01821750128834636 0.002042717252844769
000060 18 e4 9e 16 bb 96 6d 3f c2 32 c5 6d a3 3d 63 3f
       0.003611913115460396 0.0023487274139938072
000070 43 57 6f ac 55 4c 76 bf 1e 68 e8 33 f9 0e a0 bf
       -0.005443892156980659 -0.031364238344579784
000080 a1 fd 44 d7 90 95 6c bf 2e 53 4a 45 f0 98 b0 bf
       -0.0034892872737654766 -0.06483365718515863
000090 71 31 b3 e8 0e 2a b2 3f fc a2 07 df 00 4f 89 3f
       0.07095425778533639 0.012357718283014567
0000a0 64 c3 ce c9 21 c8 88 bf 3b 12 ca fc 0c a5 93 3f
       -0.01210047146909838 0.019184306077038676
0000b0 cb 8e 5f 0a 22 99 b3 3f 87 f6 6f a0 24 fb af 3f
       0.0765553736997006 0.062462944588316076
0000c0 5b bc c1 b7 87 68 a4 bf 14 9f c1 24 c7 68 73 3f
       -0.03986000173687706 0.004738595871550694
0000d0 4c 68 bb 69 92 85 6c 3f 0e a1 b4 0d 81 19 b1 bf
       0.0034816608075347918 -0.06679541191681812
0000e0 0c 56 20 7f e0 ca 7a 3f 50 e2 e7 b4 18 1c 76 bf
       0.006541134776872248 -0.00539788867035236
0000f0 91 37 c8 e9 3a bf a3 bf 18 db 10 92 cd a5 ad 3f
       -0.0385683451059854 0.05790560157804786
000100 64 d1 19 0f 8f 87 69 3f fe ac 8f 92 32 3a 94 bf
       0.003116397296986916 -0.01975325603045252
000110 72 80 f9 54 32 e1 63 bf ec cb 94 f8 0c b7 6e bf
       -0.00242671804862487 -0.003749394735359504
000120 c0 a1 eb bd f3 bd a4 3f 2e 55 28 73 d1 03 b2 bf
       0.04051171964039524 -0.07037076055015198
000130 af c8 b4 ff 4a 0a 81 bf 8f ff 12 af 01 94 95 bf
       -0.008320413521321816 -0.02107241278713406
000140 81 b0 7d 31 8e d9 7b 3f b9 ab 65 1f a5 79 68 bf
       0.006799273913071003 -0.002987692361036545
000150 fd a1 ed 76 ef 07 a2 3f 40 47 af b0 dd dd b4 bf
       0.035216792361840256 -0.08151040614691585
000160 04 60 c3 b0 52 96 7b 3f 63 50 f5 dd cc 7d b2 bf
       0.006735156068508278 -0.07223205965903072
000170 b8 fc 8f 15 13 ce a2 3f 7f e2 40 90 2b 3f b3 bf
       0.036728474027762414 -0.07518265029728786
000180 af 84 e0 19 bf bd 8a bf 24 3c 2d cb 38 79 a3 bf
       -0.013057225205616111 -0.038034224321215754
000190 98 2f 64 43 2f 7e ae bf 4f cd e4 5d 16 a9 a5 bf
       -0.05955646226547556 -0.042305659257545807
0001a0 70 0d 1b 6e 70 09 80 3f 1e cd 24 a7 9a f9 77 3f
       0.00783050380721903 0.005853275406752871
0001b0 e7 3a e4 43 ea 23 b1 3f be 2e 4c b4 c9 aa 81 bf
       0.06695427091129212 -0.008626533331628546
0001c0 fa 9d ff 34 81 9d b2 3f 00 5d fd 48 a4 b3 ab 3f
       0.07271583122166439 0.054104932699084785
0001d0 9e 8c b4 a4 bf 28 66 bf 25 f4 0b df 96 f9 b3 bf
       -0.002704977324940196 -0.07802718110538416
0001e0 94 63 9c 76 bb c4 6a bf 49 61 78 2f c0 08 b1 3f
       -0.0032676373856585592 0.06653977545682212
0001f0 15 e5 d3 d9 1c a3 ad 3f ae e2 2b 13 b3 a0 9c 3f
       0.057885076132104064 0.027956769986277656
000200 b2 8f ae 18 94 43 a8 3f 5c 22 89 db 1e 0c b4 bf
       0.047390583050656146 -0.07830994472272707
000210 d5 f1 a2 3d 42 bc a0 bf 00 d1 d3 29 68 35 54 bf
       -0.03268630030058587 -0.001233436319407366
000220 fc 86 33 d6 4f 20 b2 3f 1a 03 14 ea 64 7f a5 3f
       0.07080553988955879 0.041987565587993284
000230 0e c0 11 4e 08 ed 95 3f 9a d8 84 68 7d ac a8 3f
       0.02141201950547616 0.048190993317278344
000240 20 81 bd 44 db ef b3 bf 44 81 d8 32 e4 42 ad 3f
       -0.07787867000798032 0.057150965887788036
000250 56 21 2a be 82 b9 a4 bf cf 08 6c a8 60 7f a7 3f
       -0.0404778344282614 0.0458936887353204
000260 bc 4f 4d 1a a0 70 69 bf 00 9b 95 45 16 d3 3b 3f
       -0.003105461788814849 0.0004245690702959076
000270 b6 e3 ec 69 af 1b 8d bf 94 0c 9e 3c 3b a8 a8 bf
       -0.014212961597523815 -0.04815850367506261
000280 72 4e 34 23 83 18 65 bf e8 2a 41 fa 2c 9e a2 bf
       -0.002575164916956579 -0.03636303477158781
000290 56 e1 3b 17 bf e2 63 3f 40 2a 90 26 e6 ba 2b 3f
       0.0024274570695263327 0.0002115636773683694
0002a0 3a 42 ce 37 d9 54 7e 3f e4 6a 7d 74 a4 d2 a0 bf
       0.007405136592652678 -0.03285707399364471
0002b0 e5 72 81 2e 84 db b2 3f 77 20 59 8a a3 d5 74 3f
       0.07366205344574046 0.005086554364943755
0002c0 9c 27 c6 0f 8d 6c 92 bf ee 1a 38 02 05 4f b1 3f
       -0.017992214286585914 0.06761199287585004
0002d0 94 4c ff ba b7 5f 94 3f de bf a5 70 a3 e3 63 bf
       0.01989638403740608 -0.0024278824031895704
0002e0 86 64 06 d0 4b bc 80 bf bb 6e 65 d2 7c 2c 70 3f
       -0.008171646390837017 0.003948676667586855
0002f0 28 01 5b 80 22 d9 70 3f 87 1f 71 43 ba 09 84 3f
       0.004113325854348461 0.009784178908503595
000300 e2 e2 bb d6 38 09 77 3f 80 f8 b5 0b ca ff 56 3f
       0.005624029184894326 0.0014037583449346969
000310 4a e1 f2 3c eb eb 9c bf 66 11 39 4c 54 a8 89 3f
       -0.02824370917798661 0.012528093887461633
000320 2e f3 11 67 9e 1e 73 3f 5a d8 1f 16 ab 72 90 3f
       0.004667872200226948 0.01606242487465468
000330 f4 d2 0f f8 45 31 75 3f 00 2b 36 4f ef 96 0f 3f
       0.005173943821308969 6.0252359527520824e-05
000340 00 a0 3b 28 eb 93 63 3f aa 43 38 2b 5f 8e ac bf
       0.0023898690140988776 -0.05577371027550922
000350 72 a4 c8 64 62 32 71 bf 24 14 d8 b5 a1 0a 74 3f
       -0.004198440885866283 0.004892951661081422
000360 52 5e 6b 35 fc da 79 3f 0e b0 cd b2 6b 7d a9 bf
       0.006312356176486471 -0.04978500898036496
000370 6e 21 46 a7 e8 1b ab bf 9d 03 57 9a 57 88 7a bf
       -0.05294730226438814 -0.006477682303228341
000380 3b 00 7e 4b 0f 4f 8f 3f 3d c2 58 25 c8 3f ab 3f
       0.01528751324781307 0.053220991667676
000390 46 c3 13 9a 19 cd 62 3f ce fe 93 f5 dc e9 a3 bf
       0.002295064929619536 -0.038893609025760875
0003a0 c6 8d 93 b5 b7 fb 63 3f 7f bc ce f8 a6 99 8f bf
       0.002439364249413353 -0.015429787128452553
0003b0 d8 5c 01 64 f2 cb 9e bf 65 00 68 9a c3 29 76 bf
       -0.030074870447006713 -0.005410923075487605
0003c0 7f fd bc d8 e1 69 b5 bf c3 05 40 f5 eb ad a8 3f
       -0.0836468843599416 0.04820191735053527
0003d0 b7 91 8b 6b d2 20 b2 bf 56 4b c7 65 78 12 b4 bf
       -0.07081332326521915 -0.07840683445765015
0003e0 d9 e6 52 e6 a6 e1 86 bf 36 df c4 de 63 87 b4 3f
       -0.011172584442067745 0.08019088925072712
0003f0 9c ba 04 9c b2 6c 7b bf 73 d1 20 54 db 82 b0 bf
       -0.006695459073212586 -0.06449671558295282
000400 10 0f 98 c7 89 4f 76 3f 11 88 82 d2 db ac b8 3f
       0.005446947290241658 0.0963876141491087
000410 ba 1f 9c 4f 6b ef ab bf 4a 7b 71 fa a6 32 b5 bf
       -0.0545609984092716 -0.08280414213502954
000420 7f 8b ec 3f 5f 63 b3 3f a7 dd b7 59 7c d8 a5 3f
       0.07573504744190805 0.042667280151302216
000430 86 17 db 9b 7e f9 79 bf 8c 1b eb 4a c7 e1 74 bf
       -0.006341452184363555 -0.005098131644166847
000440 6d 0e 2f cb e0 d4 bb bf c4 3b df ba 8d 02 92 3f
       -0.10871701202909785 0.017587866335641925
000450 9f a5 2b 92 d3 d5 bb bf 82 23 7b 6a a0 7d 63 bf
       -0.10873148268333076 -0.002379239380250587
000460 ac 67 a3 f9 c1 db 5c bf 6b 24 be 67 c2 bc b4 3f
       -0.0017613786972589902 0.0810052397993261
000470 43 00 f7 f1 ae 77 b0 bf 14 9b 9e 08 9e 54 b2 3f
       -0.06432622344345966 0.07160365782202077
000480 85 80 52 71 12 7a 84 3f 28 27 68 1f c5 b1 af bf
       0.009998458941766106 -0.06190315254577988
000490 53 b2 8a 6a a2 90 7a bf d0 75 5c 1f 0a 74 42 bf
       -0.006485590398977853 -0.0005631493974964045
0004a0 5c 80 c2 a6 da 01 a6 3f 02 a9 9b 30 f0 f6 7a 3f
       0.04298289571420419 0.0065831549088477565
0004b0 51 9f fe d4 5c ca a5 bf e8 29 b2 a4 7d 12 76 3f
       -0.042559529304809225 0.005388727945624151
0004c0 63 b7 fb a1 82 19 a9 bf fd 6f 50 4a a9 6e a9 3f
       -0.04902275302252581 0.049672403642233555
0004d0 00 c3 7d 92 f3 d6 6f 3f fb 4e a5 c3 46 4a b4 3f
       0.0038866765279909066 0.07925836826808201
0004e0 78 66 89 3e 56 31 ae bf e4 c3 5f bd 09 f0 a5 bf
       -0.05897016061198895 -0.042846969954446285
0004f0 2a 06 09 5f 75 36 a7 3f 3e 15 2a 2d e9 59 a9 bf
       0.04533736023996611 -0.04951409031222419
000500 83 a7 b7 81 f7 f9 82 bf 92 c3 6b 0f 20 99 63 bf
       -0.009265836378250963 -0.0023923517395520533
000510 c5 6b 65 30 80 e1 6f bf bf 47 4d f6 fc d1 9a bf
       -0.0038917068188033276 -0.026191666157792556
000520 be bd 19 8f 84 97 b1 3f ee c6 56 86 fc d2 6e 3f
       0.06871822827974136 0.0037627155422449354
000530 52 c5 0f d0 ad be 66 3f a4 02 c1 3b c4 e2 af 3f
       0.002776469686516827 0.062276966375525405
000540 15 62 59 a0 32 06 9b 3f 6a be 08 8a 20 34 b3 bf
       0.02639083007520256 -0.07501414651846408
000550 ce 96 a7 15 95 e6 8b bf dd 1c 40 8a 23 75 9f 3f
       -0.013623394702288929 0.030720286667954667
000560 5e 05 3d c9 3d 43 af bf d9 6d 93 8e ce 76 ad 3f
       -0.06105988580248821 0.057547049431118054
000570 64 d4 15 dc 29 81 99 bf 70 23 70 f4 2f e5 97 3f
       -0.02490678220552346 0.023335217756570825
000580 d4 b9 1a 91 37 0d a8 3f 5c 8b 92 19 f4 8d 8b 3f
       0.046975838149012766 0.01345434859314814
000590 8c c4 26 7b 8c cc b2 3f 34 3d 05 f0 fa 87 a7 bf
       0.0734336662924468 -0.04595932178437537
0005a0 04 e2 f9 4c 62 b1 72 3f 19 e6 fd fa 9a 7a 83 3f
       0.00456369780260291 0.00951119497743762
0005b0 07 ba 21 a9 13 ec 87 3f 54 f8 42 78 61 eb ab bf
       0.011680749510756717 -0.05453018754040842
0005c0 1c 63 66 b0 67 24 97 bf 0e f3 2c 72 b0 19 69 3f
       -0.02259981168899393 0.0030640073977380505
0005d0 f4 a8 10 26 b3 fb 9e 3f 3c 7d 06 33 f7 d5 6e bf
       0.030257033537204728 -0.003764136134307398
0005e0 04 3a 5c 3d c5 4d 5e 3f 60 7f 15 ef 7d 8d 91 3f
       0.001849596611865346 0.017141311376121293
0005f0 6c 7b 8e 32 a2 e9 a4 3f d5 13 e8 f7 6c ef b1 3f
       0.04084498278756751 0.07005959560781545
000600 7e e3 55 10 25 1e b6 3f 49 73 00 9a 39 8f a2 bf
       0.08639747284713725 -0.0362489700785092
000610 36 81 e1 1a 0f 3e a9 3f de 4b a9 ea b4 2e bd 3f
       0.04930159762511936 0.11399393776927932
000620 5c 30 38 26 7e 9d b5 3f 5c 79 32 73 ad d0 7a 3f
       0.08443439896672217 0.006546666659373503
000630 fc 07 81 e3 ea 94 bb bf 95 7f 42 2c 21 03 b1 bf
       -0.10774105123803673 -0.06645400362549332
000640 7a 2d e2 09 1e db 84 bf 06 99 f2 99 68 97 bb 3f
       -0.01018355815565174 0.10777906187522399
000650 62 80 05 ea f5 eb af bf 2d d6 d8 07 f3 17 a9 bf
       -0.06234711152751583 -0.04901084395207209
000660 3e cb f8 c6 40 4e b0 3f 1c ab 46 a5 41 e6 b4 bf
       0.06369404657088482 -0.08163843426761414
000670 8d 9b ce 1b 73 37 b4 bf 18 96 9d b3 86 a3 5a 3f
       -0.07897109440692258 0.0016259017415561957
000680 ce 17 99 3d 82 b3 b0 3f 7a e3 36 cb 6c 9d 9f 3f
       0.06523908618791482 0.030873966124747444
000690 08 6f 1b 24 a7 ad 82 3f fe 44 99 23 a2 00 af 3f
       0.009120279111292998 0.06055170712046197
0006a0 48 a8 39 c5 b6 7a b8 bf 8c 29 47 9a 5e 41 ac bf
       -0.09562246623104997 -0.05518623002315612
0006b0 df 5e fe d2 69 14 74 3f 41 f9 ab b1 19 82 b4 bf
       0.0049022802121709555 -0.08011017406167743
0006c0 34 b6 3b 75 e0 50 af bf 93 00 70 45 19 39 86 3f
       -0.06116391593046125 0.010851094657482718
0006d0 80 78 92 b2 8b 3e 28 3f 6d b4 47 89 a3 7c bf bf
       0.00018496947567298375 -0.1229955873638617
0006e0 b8 9d c5 03 2f 1b 71 3f dd b4 a5 f9 d8 c2 af bf
       0.004176314975075916 -0.06203344390346797
0006f0 98 45 14 25 fe b8 9e 3f 36 95 b1 f7 38 35 73 bf
       0.030002566350110976 -0.004689428834443723
000700 53 7d 36 53 97 ac ac bf 8a 43 38 c5 3d f9 98 bf
       -0.05600426569730623 -0.024388280069675562
000710 06 b8 44 cd 08 d1 70 bf 14 9b 4e fb 90 f9 9c 3f
       -0.00410560072150013 0.028295770014348312
000720 1d ab 15 f6 d3 d4 b2 3f 43 bc 19 8f 4c f4 b3 3f
       0.07355999715734325 0.07794645780244118
000730 13 9c 7b d4 e6 72 a0 bf cc 10 73 44 43 39 a0 3f
       -0.032126630246971065 0.03168688021244889
000740 f8 8a 99 c0 ee 80 6f bf 8e be d2 07 6f a7 78 3f
       -0.003845659554643329 0.006019052231905809
000750 3f 1c 13 33 d1 78 a3 3f 42 ef 34 f3 ce ea 9d 3f
       0.038031136975000816 0.02921603545585972
000760 ee 8e 34 0f 6b 1f a0 3f 6f b3 5f f9 9b 2d 92 bf
       0.03148970184909482 -0.017752110572405607
000770 8f 16 2c 7a e4 95 af 3f e0 01 31 f7 eb f2 97 bf
       0.06169046393737886 -0.023387610399597025
000780 c9 5f c1 63 1b 79 b1 3f 67 b1 d1 44 2f 16 69 bf
       0.06825419602807793 -0.0030623362750274333
000790 5f c2 05 2b 4c 77 b5 3f 0c ce b9 b0 3a 5e 6b 3f
       0.08385158586839613 0.0033408304496391813
0007a0 9a 73 9f 65 a0 41 77 bf af 2a 98 3a e6 e1 8b 3f
       -0.0056778207308213705 0.013614462531241626
0007b0 90 04 c1 31 1f 62 b3 3f 16 e4 7f ce 64 ef 61 3f
       0.07571597065636326 0.002189347160307618
0007c0 27 70 b3 30 62 c4 b5 3f ce 6e 5e d6 68 f6 75 bf
       0.08502782525050688 -0.005361947556504721
0007d0 b5 c0 c8 97 e7 60 a1 bf e8 f1 60 86 15 18 92 bf
       -0.03394244888147694 -0.017669998480629362
0007e0 f9 00 d9 4c 5d e6 90 3f a4 45 d2 33 92 a9 a3 bf
       0.01650377065220796 -0.03840309984765192
0007f0 c4 70 51 46 8f 03 64 bf 5f 0a fd e4 86 a6 b4 3f
       -0.0024431036313626604 0.08066599932230066

tgnn._base_tgcn.linear_z.bias f8 [32]
000000 f9 c9 4d d3 77 f9 a7 bf ac be f1 96 ba b6 b5 3f
       -0.04682516531365261 0.0848194712177654
000010 22 9f 26 51 2d 2e a4 3f 32 e5 d0 55 94 56 7a bf
       0.03941480270014909 -0.006430224832962227
000020 3f 25 8e 28 bc 56 bb bf 38 71 10 74 9f 8c a7 3f
       -0.10679222097509909 0.04599474231528905
000030 43 22 ca 2a 0a c0 a4 3f dd 3e bf a8 d6 7c a4 3f
       0.04052764675458722 0.040014942263608445
000040 6d 81 25 e9 62 78 b5 bf b4 b0 ce 2a 2d 26 b8 bf
       -0.08386820022633908 -0.09433252616026061
000050 59 0c 8d fd be 63 ab bf 90 05 c8 8a bc c5 63 bf
       -0.053495377017065145 -0.0024136240447211812
000060 78 36 ca 0c be e6 67 bf 13 7e a0 17 84 89 b1 bf
       -0.0029176437295237966 -0.06850457741574471
000070 e8 db a5 e9 36 7d 99 bf 33 96 27 37 75 04 a0 3f
       -0.024891717921004558 0.031284010870689015
000080 a7 c4 29 b4 51 06 b0 bf d1 9b 6c ee 91 02 93 bf
       -0.0625964226581056 -0.018564491441022405
000090 69 38 9d 28 25 9a a1 3f 30 4a 9d 5d 6b aa a3 3f
       0.034379159171849256 0.03840957181696003
0000a0 26 99 bf dc f9 71 b0 bf 65 f3 ab bc 90 2b b2 bf
       -0.06423913611761076 -0.07097725492708447
0000b0 3e 3e 24 0a 92 82 95 3f f6 d4 c0 35 b5 33 b5 bf
       0.021005899304382895 -0.08282024919829553
0000c0 6d f0 17 64 69 5a 7a bf fd a0 7d 79 c4 22 74 3f
       -0.006433879550510208 0.004915969351579228
0000d0 d1 fe 10 7f 12 98 b4 3f d5 45 d3 24 cd ee b1 3f
       0.0804454384060549 0.0700500693231086
0000e0 f0 04 0f 8b 53 bd 41 3f 72 f3 62 23 9a 34 9f 3f
       0.0005413682866831897 0.030474098596403328
0000f0 65 7e 9a 97 2e 4b a9 3f fb 4e 6b 5f a3 8d b5 bf
       0.049401718145642794 -0.08419247703141856

tgnn._base_tgcn.conv_r.bias f8 [32]
000000 00 00 00 00 00 00 00 00 00 00 00 00 00 00 00 00
       0.0 0.0
000010 00 00 00 00 00 00 00 00 00 00 00 00 00 00 00 00
       0.0 0.0
000020 00 00 00 00 00 00 00 00 00 00 00 00 00 00 00 00
       0.0 0.0
000030 00 00 00 00 00 00 00 00 00 00 00 00 00 00 00 00
       0.0 0.0
000040 00 00 00 00 00 00 00 00 00 00 00 00 00 00 00 00
       0.0 0.0
000050 00 00 00 00 00 00 00 00 00 00 00 00 00 00 00 00
       0.0 0.0
000060 00 00 00 00 00 00 00 00 00 00 00 00 00 00 00 00
       0.0 0.0
000070 00 00 00 00 00 00 00 00 00 00 00 00 00 00 00 00
       0.0 0.0
000080 00 00 00 00 00 00 00 00 00 00 00 00 00 00 00 00
       0.0 0.0
000090 00 00 00 00 00 00 00 00 00 00 00 00 00 00 00 00
       0.0 0.0
0000a0 00 00 00 00 00 00 00 00 00 00 00 00 00 00 00 00
       0.0 0.0
0000b0 00 00 00 00 00 00 00 00 00 00 00 00 00 00 00 00
       0.0 0.0
0000c0 00 00 00 00 00 00 00 00 00 00 00 00 00 00 00 00
       0.0 0.0
0000d0 00 00 00 00 00 00 00 00 00 00 00 00 00 00 00 00
       0.0 0.0
0000e0 00 00 00 00 00 00 00 00 00 00 00 00 00 00 00 00
       0.0 0.0
0000f0 00 00 00 00 00 00 00 00 00 00 00 00 00 00 00 00
       0.0 0.0

tgnn._base_tgcn.conv_r.lin.weight f8 [32, 1]
000000 cf 83 60 7b 35 53 d8 bf b7 9a f4 f5 80 64 d2 3f
       -0.38007866905723814 0.28738426226702124
000010 44 49 c1 d7 d8 ec 74 3f 16 74 53 70 a7 4e b3 bf
       0.005108687441025165 -0.07541891567548506
000020 f6 7c 3b 86 77 37 ad bf af 42 b9 5c 74 0b d3 bf
       -0.05706380380228808 -0.29757412962957636
000030 49 75 dd 53 93 af d8 bf f6 ab ec 3e c8 0a c3 bf
       -0.38571627798031166 -0.14876654694066332
000040 3c 86 30 4d 4e bb d6 3f d1 61 ff 25 b7 a9 cb 3f
       0.35518224275628874 0.21611680369711775
000050 39 3a 0b 4a 22 bc b8 3f 94 92 29 2d 97 b5 c1 3f
       0.09662069614135128 0.13835420327372516
000060 f0 9c 58 83 59 8d cf 3f 8b a8 a3 d3 a2 8f c6 bf
       0.24650114930520983 -0.1762584241290067
000070 f8 e0 67 ab 78 d3 b3 3f 43 c1 d4 72 0c a8 c8 bf
       0.07744554695807782 -0.19262843710886032
000080 91 36 ad d1 ff f0 b1 3f 6d e2 a3 4b ce b7 c6 bf
       0.07008360737855869 -0.17748430913322313
000090 06 27 42 4b 3e a8 d0 bf 7f e1 4f 8b f9 1b c8 3f
       -0.26026875829175855 0.1883537225946945
0000a0 c9 79 03 4a e3 90 cb bf ef 9d 0a 5f 39 65 cc 3f
       -0.2153591262239856 0.22183911457726377
0000b0 9c c6 d9 84 e5 f8 d7 3f a6 48 cf 58 e1 d8 76 3f
       0.3745664403314579 0.005577926885012163
0000c0 31 2b 6b ff 8c 3f c8 3f f2 25 b3 43 54 28 c0 3f
       0.18943941566097913 0.12623074823049724
0000d0 87 a1 7b cc 64 3b 7b bf 24 24 f7 c0 16 9e 63 3f
       -0.006648439164316128 0.0023947185906974134
0000e0 60 7e 95 c5 c1 b1 cf 3f 6d 7c 90 7f f4 b4 d5 3f
       0.24761221072820927 0.3391696210619049
0000f0 39 98 88 a0 4e 22 cd bf 2d 4c fb e8 9d bb b2 3f
       -0.2276094707351051 0.07317530572918036

tgnn._base_tgcn.linear_r.weight f8 [32, 64]
000000 56 14 86 af d2 24 b1 3f 3d e4 17 58 68 08 b0 bf
       0.06696812424896001 -0.06262828970638253
000010 06 dc f9 e7 90 03 71 bf 0a b1 38 57 5f c8 b1 3f
       -0.004153791465447481 0.06946369056158033
000020 fe a8 5b 92 80 24 79 bf ff 05 10 80 17 2a 98 3f
       -0.006138326867338726 0.02359806746608761
000030 b6 12 34 55 34 a2 a4 bf aa 09 ec 21 d3 0c b3 bf
       -0.040300021553809115 -0.07441443994688393
000040 59 69 d8 0e 8b 98 89 bf af 70 00 7f cf 19 82 3f
       -0.01249798430494724 0.008838292182240385
000050 98 ea 02 e7 06 ef 96 bf 42 32 22 6a 34 d9 63 bf
       -0.022396190500084318 -0.002422907230601263
000060 f3 d0 a0 71 5c c0 ab 3f d4 20 0d 50 0a 72 78 3f
       0.05420197379172178 0.005968132289872769
000070 38 8e 22 b8 a0 7d aa bf d2 64 a9 36 1d a0 6f 3f
       -0.05173971412412154 0.003860528047238001
000080 88 34 9b 83 89 b9 70 3f ce 99 6f 70 33 dd 97 bf
       0.004083192028429335 -0.023304752099557118
000090 f4 e6 76 bb 1d 47 64 3f 00 1b d7 07 0f 2a 07 bf
       0.002475317068925226 -4.4182380388549033e-05
0000a0 da fd d5 cf da b6 9d bf 3b ea cf 82 84 c6 96 3f
       -0.029017847953125876 0.022241659626141646
0000b0 62 2f cd 77 5f a3 a8 bf 94 f4 ac 1f b8 65 97 3f
       -0.048121436475951254 0.022848965581250782
0000c0 fd 8c 2b 31 dd bd b5 3f 8e d9 9c 21 75 8c 97 3f
       0.08492834520761856 0.02299674050956351
0000d0 30 40 71 08 7b a3 53 bf 56 fb f8 bb d6 7b b2 3f
       -0.0011986447805334526 0.07220213021444741
0000e0 ed 5d b7 d1 ab 33 76 3f 68 c0 38 db 34 b0 72 bf
       0.00542037121655124 -0.004562574834878409
0000f0 bb d4 bc 13 5f 11 a1 3f 00 f9 c1 b8 c5 c6 a9 3f
       0.03333565822541958 0.050344637683325644
000100 79 b3 13 57 8f e5 a5 3f 30 8b fd 93 a4 53 b4 bf
       0.042767028216849697 -0.07940128911063193
000110 f4 6a 00 f7 0e 61 ae 3f 50 4a 0a 8d 76 50 64 bf
       0.059334247256819156 -0.0024797740409863503
000120 c0 b4 a2 be 69 7e a5 3f e4 67 bf 2b 12 15 aa bf
       0.0419800801476895 -0.05094200881985936
000130 8e fb ed fc f8 af 9f 3f 30 4b 01 2a c8 13 4e 3f
       0.030944719731901986 0.0009178855289156736
000140 21 9b 00 b0 1e ec 7b 3f 8a 34 6c 63 c8 25 a7 3f
       0.006816978333552355 0.04521013463645669
000150 40 ba c6 94 e5 b1 63 3f 86 e9 00 1d d1 a9 61 bf
       0.0024041637427310303 -0.0021561702961012145
000160 ce 1b 83 94 77 20 78 bf 48 c3 20 db 17 af a5 bf
       -0.0058903380488066325 -0.04235148000623795
000170 60 37 c6 58 48 d4 ac 3f fb a8 26 9d 4a a8 b2 3f
       0.056307087742523576 0.07288042389578557
000180 ff c2 dd 9c a6 1e a0 bf b0 36 9c 40 a7 e8 b4 3f
       -0.03148384728308961 0.08167500808141415
000190 bd ba 27 2b 16 c8 9a 3f dc 65 35 72 a8 ea 8c bf
       0.026153894790634114 -0.014119449601525717
0001a0 e2 e8 d9 bd 44 24 a3 bf 8c 52 8e 42 07 51 94 3f
       -0.03738608186263705 0.01984034866070998
0001b0 34 9f b4 9e 26 c7 72 bf 60 b7 5e 7a 5a 28 a7 bf
       -0.004584456309465957 -0.045229747236006146
0001c0 a4 4f 92 e3 a5 8f a3 bf 87 3a 37 54 11 9a a9 bf
       -0.03820532229397536 -0.050003568201295194
0001d0 ca 4c e8 d2 88 dd 95 bf 33 c8 d3 8c e6 0a a3 bf
       -0.021352899430053175 -0.03719253987391404
0001e0 c1 74 8f dd 43 8c b4 3f 4a 78 b6 7a 0c 0b 9c 3f
       0.08026527556599473 0.02738589762667968
0001f0 49 5e 52 17 69 0d 6b bf 22 85 1d 50 7e c8 9c bf
       -0.003302293067985383 -0.02810857166276038
000200 80 d0 7d 60 a5 38 3a 3f f2 bb 8c 4a 6b d5 af 3f
       0.00040010488054709886 0.062175133562384036
000210 d8 85 aa a7 53 e3 60 3f 26 04 db f2 6b b7 b2 bf
       0.0020615228543909674 -0.07311129263963831
000220 8f f5 20 39 87 75 af bf 1f d7 ea 97 c9 51 b5 3f
       -0.06144354412434005 0.08327922781867557
000230 1c 7b fa 02 54 8f b5 bf 4c 31 8e d0 fa 61 9d bf
       -0.08421826431957097 -0.028694075564588403
000240 71 55 79 2d d3 09 98 3f 27 56 5d 2e 44 ce 78 3f
       0.02347497906733537 0.006056085903613651
000250 fe 1f 02 25 68 92 a3 3f 9c b4 cb 7e 16 cb 61 bf
       0.03822637035142405 -0.0021720351563688355
000260 81 e3 b7 2b 72 91 aa bf 78 67 a5 91 69 41 63 3f
       -0.05189091476126518 0.002350526990238796
000270 d1 23 4f 9a 6a c6 b2 bf 30 5a 7f 8d 7e 15 68 3f
       -0.07334009425461764 0.0029399368031406622
000280 37 18 28 2c b6 31 b2 3f e2 ea cb 55 8a 28 62 3f
       0.07107103899042576 0.0022165967806108003
000290 b2 1d 69 cc a7 7c 77 3f 24 66 fd 61 fb 24 6d bf
       0.005734115088280077 -0.0035576734370976904
0002a0 90 35 40 58 98 a5 af bf b0 84 ef b4 f9 96 99 bf
       -0.06181026532440648 -0.02498998801082014
0002b0 40 5d f4 51 7f 4a 91 3f e0 18 15 28 1d 18 a1 bf
       0.016885747315510402 -0.033387099402306
0002c0 5c 29 05 c5 a7 2a 63 bf e6 ce 6c 8f 7c 81 84 bf
       -0.002339675593394803 -0.010012601019844646
0002d0 80 33 a7 36 4e 82 2b 3f 0d 56 4c c4 f3 3f b4 bf
       0.00020987705950261878 -0.07910083334385139
0002e0 ec ed 89 25 c2 a0 a4 3f 40 29 2e 60 6c b7 2e bf
       0.04028898914563314 -0.00023434827752694988
0002f0 f5 64 1f 57 fe 14 af bf fe fa cb 1c 48 00 64 bf
       -0.06070704282292098 -0.0024415405699750306
000300 96 43 f8 9d 27 eb 8f 3f c5 8d ff ea 55 0e 85 3f
       0.01558524084887995 0.010281249269559542
000310 f1 c8 b9 24 8d 1b b2 3f 8e 2b a3 15 e8 be 9a 3f
       0.07073290011047441 0.026118875809327195
000320 d6 a4 c8 7f e2 b0 ae 3f f8 c3 a6 5c 9c 82 6a 3f
       0.05994327363834777 0.0032361082023375475
000330 2c 35 b0 8f 38 0f 76 3f 6c 8b 99 d2 60 03 5b 3f
       0.0053856095719429335 0.0016487546476120175
000340 4c 9b f1 13 c0 bc 75 bf a2 81 8d 04 a4 51 62 3f
       -0.005306959442441816 0.0022361949417446106
000350 88 01 16 b1 76 23 a2 bf d2 61 37 61 14 86 9c 3f
       -0.03542681609815462 0.02785522311555317
000360 39 88 ae be 55 4c 8c bf 5d d4 2f 10 7e d4 b2 3f
       -0.01381747234501428 0.07355487723528271
000370 37 d4 e6 f9 35 94 75 bf b0 20 dc 17 27 87 64 3f
       -0.005268298000761943 0.002505852083121672
000380 7c 3b 48 f7 8b 60 96 3f 79 2c 8e 10 95 d8 b0 bf
       0.021852671592621928 -0.06580478338416808
000390 4c 7b 8d 7d a2 45 63 3f ba 62 27 87 a9 be 68 3f
       0.0023525403634460425 0.003020602330462499
0003a0 d3 f5 dd f9 4f 14 9e 3f 00 b2 9d 6f 12 16 a3 bf
       0.0293743606812223 -0.03727777111530273
0003b0 48 d3 48 09 6b ff 64 bf 6c 3b 46 eb ec d3 78 3f
       -0.002563199095926203 0.006061482872964468
0003c0 f0 e4 0c 9b c1 0d b3 bf d3 d0 09 5b 2a 86 ac 3f
       -0.0744286540547312 0.05571110116298574
0003d0 38 6f 08 b4 a8 45 5d 3f cc 86 46 3c 5c ed 62 3f
       0.0017866275303565892 0.002310447833409812
0003e0 0b fe 25 c5 e2 0e b3 bf e0 d8 85 9a 14 81 61 bf
       -0.07444588959878488 -0.0021367456831128256
0003f0 4e 71 27 91 dc 04 93 3f ee b8 f5 60 60 db 64 bf
       0.018573232993604187 -0.0025460131070565916
000400 3c 41 b5 ba ba 7d 5c bf f4 5a aa 0f 8f 60 92 3f
       -0.0017389606026264178 0.01794646771539994
000410 42 af 43 b8 3a 95 9e bf d0 aa bb 82 7e c3 b0 bf
       -0.029866139885526673 -0.06548300449109523
000420 28 ec 76 ad fe 7a a4 bf 48 23 26 f6 e2 72 b5 3f
       -0.040000876116629336 0.08378427991386872
000430 cc 5f 9b bd 85 ca 63 bf 48 82 53 49 33 2b 6d bf
       -0.0024159061548338686 -0.003560638588723717
000440 6a b1 c7 c9 cd 47 b2 bf e2 c3 5c 8a 6d eb 64 bf
       -0.07140813995619558 -0.002553667017217696
000450 38 09 9e 9f f2 f7 81 3f a6 b1 a6 95 28 2d 62 3f
       0.0087737040482848 0.002218798891780521
000460 23 a4 d1 4d 1f b6 9a 3f 49 b5 b4 31 12 11 ae 3f
       0.02608536636799753 0.05872399193536155
000470 dc 2d ad 88 6a 04 63 3f 11 10 a5 e2 4e 17 a6 bf
       0.0023214417209709137 -0.043146577040289576
000480 5c 50 b0 1a d8 2e af bf 30 d0 1e cd 60 8a 65 3f
       -0.06090426755704989 0.002629460396713433
000490 ad e6 2c fd 6d 5a 85 bf 6c d3 13 ee b7 2b 8b 3f
       -0.010426387108611957 0.013266980126425763
0004a0 8f fa 8d a1 e0 ca a4 bf 82 9c c6 3c 84 d4 b1 3f
       -0.040610332222958616 0.06964899524483495
0004b0 e0 3a 4d 9f 97 a3 a2 3f ba 14 f0 80 56 2a a1 3f
       0.03640436000443059 0.03352613758037522
0004c0 34 7a 67 d7 d2 be 78 bf cc 4e 97 9b 0a 12 a7 bf
       -0.006041358565623645 -0.04505952023796808
0004d0 bc 0d 71 25 f9 0c 94 3f 05 f1 a4 3d 6f 32 a4 3f
       0.019580738935713646 0.03944728496068887
0004e0 4f c2 cb 6c 03 5a 80 3f 01 3a f3 86 81 ea 7b bf
       0.007984186895073324 -0.006815439191270035
0004f0 1e 38 1f 4f 25 3d a9 bf 75 5e e6 9c 68 1c b2 bf
       -0.04929462996334187 -0.07074598150790641
000500 2d 21 75 17 bd b8 b0 bf a7 94 1a e9 b8 d6 78 3f
       -0.0653188879269961 0.006064150149233039
000510 7a e3 67 39 17 1a 78 bf bf c0 0c 57 39 c4 97 3f
       -0.005884257049267977 0.023209472597216726
000520 a5 60 34 3e e6 4d a1 3f d5 21 b2 ca 18 36 a4 bf
       0.03379745015462391 -0.03947522615732494
000530 78 13 e5 dd 3c d8 ac 3f 8a 3a f9 94 2b d1 76 bf
       0.05633726319005111 -0.0055705740374622035
000540 4b bc 2d cd 5b 76 ae 3f 46 7f e6 d2 f2 7b b4 bf
       0.05949675445196386 -0.08001630448279426
000550 ea 1a fd 4c 76 4b a2 3f 76 43 a4 e8 5f 04 62 3f
       0.035731980226548846 0.002199351617612806
000560 18 29 e6 9d 59 e1 9f 3f ee ed c5 1d 77 76 78 bf
       0.031133079779047085 -0.005972352312137981
000570 54 10 34 8f 06 ac 73 3f 1a 8a 35 51 50 66 a3 bf
       0.004802728293047027 -0.03788996688196651
000580 16 ae b9 da df 3f a6 bf cb fa d4 23 3d ac 82 bf
       -0.04345607323633886 -0.009117581993107212
000590 7b 21 37 28 81 e3 ab 3f f6 47 01 34 a5 cb b3 3f
       0.05447009673986521 0.07732613105443406
0005a0 de 83 db f7 66 91 78 3f 22 62 97 a4 ed e2 61 3f
       0.0059980413622904 0.0021834031547138958
0005b0 f5 2b e8 ac e7 8d 9e 3f 06 2d e9 43 3e 55 ab 3f
       0.029838199547196315 0.05338472918500696
0005c0 d0 c8 71 e8 c2 ae 8e bf 9a 5a 2d 67 6e de 88 bf
       -0.014981768339769636 -0.012143003963200717
0005d0 d8 b9 16 9c ba f7 77 3f 90 60 47 96 00 72 b2 3f
       0.005851487106538454 0.07205203694263873
0005e0 cf 8c a4 c8 f1 ea 8d bf d9 28 ef 5a f5 62 97 bf
       -0.014608277259475248 -0.022838433909591813
0005f0 49 b1 d4 72 d4 d8 b4 3f 34 3d 10 97 df 50 9a bf
       0.08143356135832848 -0.025699132533245364
000600 c9 79 18 61 d7 c3 b0 bf e8 3b 71 b2 8c dc ad bf
       -0.06548830147264718 -0.05832328489542943
000610 68 37 d6 f2 09 bd a8 bf 6c 80 d1 e2 0f 72 b4 bf
       -0.048317252057229976 -0.07986544883306274
000620 25 c3 16 f6 61 97 a8 bf 2b d5 ab b2 25 7d a4 bf
       -0.048029958048010614 -0.04001729780240234
000630 92 2f f0 39 1c dc a4 3f e9 97 a9 f2 80 bd 98 3f
       0.040741808006799066 0.024160399256650953
000640 e3 df c3 1d 6f 10 83 bf 28 15 0e 2d 22 b0 ab 3f
       -0.0093086892088507 0.05407816696155471
000650 f8 5e 93 47 25 df 5b bf e2 4e 08 84 28 8d a4 3f
       -0.001701151281215672 0.04013945209240234
000660 85 89 77 76 2f b9 99 3f 6e 32 78 b0 07 18 b0 3f
       0.025120488744400333 0.06286666925752524
000670 80 98 c6 15 40 eb 2d bf 70 88 3c 8d 80 0d 77 3f
       -0.00022826344765042653 0.005628111033532432
000680 7c 2a 97 92 53 0d b0 bf 84 54 fb 58 cb eb 6e 3f
       -0.06270334557408747 0.0037745448715705305
000690 c6 7e fc 64 9e d3 ad 3f 59 32 96 5a 87 c0 ab 3f
       0.058255147769384716 0.05420325260920284
0006a0 a0 52 d6 a1 ba 78 ad 3f 72 40 41 24 27 2a a7 bf
       0.05756171441604363 -0.04524347608151026
0006b0 0e 7c 71 0e 2a b3 b1 bf 65 c9 9f 60 af 8c af bf
       -0.06914008000011071 -0.06162021688932632
0006c0 c6 41 15 da c3 7b 9d 3f 45 0a b1 1b 7c 7d b1 bf
       0.02879243868420802 -0.06832099605620907
0006d0 cc d9 5e f4 ed 73 b1 bf 38 54 8c 83 a6 e3 63 bf
       -0.06817519393994259 -0.0024278881286457187
0006e0 76 a4 f3 46 ab 7e ad bf 29 e8 ed 58 ff 95 94 3f
       -0.05760703316793407 0.020103444865050477
0006f0 0c 7c ec d6 ee 3d 9f 3f 4f 9b 9d fa d7 a2 ad 3f
       0.03050969301977706 0.05788302358887753
000700 a0 a1 68 69 f3 3c 62 3f 26 6b 2d ae 65 6c 8d 3f
       0.002226329244212802 0.01436690748021403
000710 dc df 0a ad 97 96 b0 3f c8 37 cb 4a 9e 02 88 bf
       0.06479785895032769 -0.011723744065786593
000720 06 9d 90 d8 55 6c aa bf 1e 58 07 b1 fc 68 b2 3f
       -0.05160778301825002 0.07191447565068684
000730 00 73 c3 96 79 94 a3 3f ac 15 1f fd 63 8d 62 3f
       0.0382421490228122 0.00226468590787717
000740 1d c5 7a 16 4b 3e a4 3f 56 da 85 5c c7 7a 9e bf
       0.03953776025208298 -0.02976523878302325
000750 fe f8 79 98 c1 09 70 bf d4 09 81 2d 54 d6 93 bf
       -0.003915554268699715 -0.019372287061068708
000760 ac ff dc 10 42 9b 78 bf 64 97 59 17 d7 9d 79 bf
       -0.006007440633595634 -0.0062540437698766806
000770 38 67 e1 de 35 a3 aa bf 30 00 7a 09 38 f7 70 3f
       -0.05202644677838325 0.004142016310311233
000780 b1 64 ec 24 84 bc b3 3f e4 8b 52 54 a0 a7 6a 3f
       0.077095278753762 0.0032537585671703496
000790 b8 89 54 b1 86 5b 82 bf 11 d2 a5 cd f5 d9 93 3f
       -0.00896363476437477 0.019386139561406838
0007a0 b4 9c 20 39 da 01 b1 bf 58 49 b9 29 d4 01 ad 3f
       -0.06643451590263078 0.05665457734416418
0007b0 aa 04 a8 13 66 ae b3 3f c3 a5 b4 0c df 66 b1 bf
       0.076879863547236 -0.06797594127842559
0007c0 30 26 4d d4 a8 1c ae 3f 9e a7 f9 97 f0 1a b2 bf
       0.05881240455216774 -0.07072356901485796
0007d0 07 37 4f c8 70 28 71 bf e8 70 fd 3c b0 fd 9e bf
       -0.004188957745055572 -0.030264619562658718
0007e0 74 e6 5e d2 49 28 b0 bf d2 10 97 c9 dc e4 78 3f
       -0.063114751682315 0.006077635241528339
0007f0 0f 9c 9e 4d f6 14 b2 3f 0e 05 5d c0 ef 50 a0 3f
       0.0706323565960789 0.03186749671159293

tgnn._base_tgcn.linear_r.bias f8 [32]
000000 6f 13 74 cf 6b 3e b2 bf 9a 41 29 1d d2 00 ac 3f
       -0.07126497092037963 0.05469376188250692
000010 40 85 88 7d 83 52 2c bf a8 42 dc 88 37 a5 80 3f
       -0.00021608214480387834 0.008127626289508541
000020 d0 c1 c0 b6 44 b0 64 3f 02 10 79 e5 05 a0 67 bf
       0.002525457579416669 -0.002883922115673344
000030 d6 9b 65 04 af 50 9c bf 64 e4 ac 9e 4f bc ab 3f
       -0.02765153374039272 0.054171074027586724
000040 e6 c2 a6 d3 2b 13 61 3f 58 27 ad d0 33 a6 6b bf
       0.0020843368522139747 -0.003375149918984837
000050 96 24 35 6c 8d 53 92 bf c8 ca d7 b6 e4 5a a7 bf
       -0.017896852235285886 -0.04561533672303636
000060 85 49 36 34 6a 78 a7 3f da 83 fc eb 23 d7 76 bf
       0.045840567468206785 -0.005576267547241687
000070 04 40 11 10 67 83 b5 3f c5 6d 7e 25 10 9f 68 3f
       0.0840362943865785 0.0030055346832804385
000080 2c c5 64 a6 cb c3 74 3f d9 63 5d 53 e3 4c b3 3f
       0.005069537646975857 0.07539196763299517
000090 2c b6 08 0d e4 55 5b bf 64 6b 41 f4 d4 9d 6f 3f
       -0.001668427186938169 0.0038594397793025193
0000a0 bf 23 53 6f d9 71 b1 3f 76 d3 39 01 e6 d7 9c bf
       0.06814345329179526 -0.028167337250539735
0000b0 99 a2 1a a2 19 d2 73 3f 81 95 5d e5 e8 8a 9d 3f
       0.004839038972627074 0.02885021114288611
0000c0 f9 e2 24 3b de 02 ab 3f 0e 60 f0 b4 0e bb 75 bf
       0.052756256789910645 -0.005305345009240637
0000d0 09 79 3a d4 95 3f a8 bf 8f 09 d0 c3 a7 01 6e bf
       -0.04736011710814309 -0.0036628986986226362
0000e0 08 0b 4d d8 3f 45 76 bf 9c 2c f0 18 7f 57 a6 3f
       -0.005437135118713916 0.04363629512234832
0000f0 9d 0b 3c 46 15 c8 92 3f ae 40 b7 49 71 10 b2 3f
       0.01834138146569907 0.07056339311316392

tgnn._base_tgcn.conv_h.bias f8 [32]
000000 84 50 55 01 a7 5d 61 3f 3e a3 c0 19 17 23 9a bf
       0.002119852239653554 -0.02552448362999659
000010 74 12 6a 63 09 e0 94 bf 7e 68 eb be 92 65 94 bf
       -0.020385882084627174 -0.019918721106343622
000020 54 98 b8 c3 cd d0 95 bf 2b 63 66 fc fd e1 a1 3f
       -0.021304335661760668 0.034927308140316825
000030 46 04 3e 55 7c ed a2 3f 1d b8 51 63 21 6c a2 3f
       0.036968121915386606 0.03598121964829224
000040 11 ef 44 40 67 bb a1 3f c0 19 f3 79 1f 14 51 3f
       0.03463289889847777 0.001042395342481947
000050 a9 3d 00 a0 52 6a 8b 3f 0e bc 04 77 79 58 8c bf
       0.013386388309327328 -0.013840626663833813
000060 d1 ea 93 25 7a 36 a1 bf e6 37 15 36 65 e6 a1 3f
       -0.033618752562650685 0.034960902072825026
000070 d0 f7 c0 59 a6 e7 33 bf b8 a1 ac 20 7a b7 a2 3f
       -0.00030372439664805035 0.03655606888634416
000080 28 63 e8 2b 09 49 a3 bf 60 21 31 1c 21 10 a0 3f
       -0.0376665941332191 0.03137305707110971
000090 c2 70 5e 06 a9 ee 8d bf 40 88 a2 ce 2c e2 1e 3f
       -0.014615364558089875 0.00011781118851897452
0000a0 86 9c a2 7f f8 b3 94 3f 76 3b 68 6b dd 7e a2 3f
       0.02021778372786944 0.036124152528023964
0000b0 2d 5c 54 32 f4 53 91 bf 70 e1 5f 6f c7 fc 61 bf
       -0.016921821185942477 -0.0021957297531082706
0000c0 48 94 1d 77 e4 fb 95 bf c9 7c de e1 d1 42 95 bf
       -0.021468705911861258 -0.020762710009532257
0000d0 6e 79 30 b9 a8 ef 8b bf 39 38 fb 37 dd 61 a2 bf
       -0.013640707160501999 -0.03590289409986309
0000e0 3e 39 fd e5 06 e8 8c bf 98 dd 5d 0a 80 59 67 3f
       -0.014114431279861447 0.0028502941885865767
0000f0 a2 af 64 45 2f 9b a1 3f f5 1d f6 db 6f 0e a2 bf
       0.0343870899399399 -0.03526639518809908

tgnn._base_tgcn.conv_h.lin.weight f8 [32, 1]
000000 e2 3a 26 91 18 1d db bf 57 d9 ea 50 0a 1f d6 3f
       -0.4236508767580017 0.3456445493897226
000010 1e 5c 89 39 03 a4 ac 3f 46 a3 83 5f 5c 1a c7 bf
       0.05593881680822953 -0.1804919687631587
000020 4d e3 48 30 7f c2 b8 3f 1e ae cb ed e5 b2 b3 bf
       0.09671778611017352 -0.07694851928288712
000030 b1 53 68 e5 21 db bb bf 59 f0 d9 f9 a3 27 cd 3f
       -0.10881244517106727 0.2277722330071608
000040 28 2f 4a ec 4b 1c b3 3f a9 0c e4 a6 d1 c4 c4 bf
       0.0746505214576102 -0.16225643776860935
000050 f3 a1 f6 a2 0f cf d2 bf 5f 79 9c c5 a3 70 c7 3f
       -0.29388800539393783 0.18312499188409512
000060 40 dc 41 4c 36 bc d6 bf d9 06 ca e0 3e 29 a4 3f
       -0.3552375549983857 0.039377179088672505
000070 37 44 c6 74 09 11 bb 3f 61 a8 95 74 0e b3 d6 3f
       0.10572871304454244 0.3546787394067277
000080 9a 3a 7c 85 e5 ae 91 bf 97 eb 6f ce 7d 3f d6 3f
       -0.017268739959997427 0.34762520942575165
000090 79 9c c0 0b 59 60 b1 bf d4 44 33 73 ef 0e d9 bf
       -0.06787640129970098 -0.3915365815165164
0000a0 d0 49 92 1b 15 eb 83 3f 78 4f 53 fd 11 a1 9f 3f
       0.009725727943337953 0.03088787182498673
0000b0 f4 5f 46 c5 2d 4c cf bf b8 fc df 2a cd 91 be bf
       -0.24451229221881443 -0.11941225334884364
0000c0 62 d7 f5 5d 13 66 b8 3f 36 89 45 84 01 e6 c9 3f
       0.09530755084946699 0.2023317237718147
0000d0 ab 40 c0 98 d8 88 b0 3f a5 22 d7 e2 96 cd d8 3f
       0.06458810548088205 0.38754818107967487
0000e0 10 84 d8 af f0 1a d7 bf e1 77 ca 4c 22 ee d6 3f
       -0.3610192982906151 0.3582845449362804
0000f0 f6 a8 91 0f ec 8e d5 3f f0 91 40 be 31 d3 b8 bf
       0.3368482734719146 -0.09697256941632992
