Q2/models/bestval.pth (torch, 6569 bytes, 19 tensors)

_temporal_conv1.conv_1.weight f8 [1, 1, 1, 1]
0	0xbb354bbc95f0eb50	-1.761551121996691e-23

_temporal_conv1.conv_1.bias f8 [1]
0	0x3b273085a64b4b52	9.590968674256335e-24

_temporal_conv1.conv_2.weight f8 [1, 1, 1, 1]
0	0xbb40b7492eae85d3	-2.765423676595481e-23

_temporal_conv1.conv_2.bias f8 [1]
0	0x3b16011119e640de	4.550355124385242e-24

_temporal_conv1.conv_3.weight f8 [1, 1, 1, 1]
0	0x3b614706caa46150	1.1433255606470812e-22

_temporal_conv1.conv_3.bias f8 [1]
0	0x3ae9ab2be18a7cc8	6.635187490608735e-25

_graph_conv.bias f8 [1]
0	0x3b0a2c107aba7472	2.706134449190914e-24

_graph_conv.lins.0.weight f8 [1, 1]
0	0xbb51891585b057b6	-5.802005174688334e-23

_graph_conv.lins.1.weight f8 [1, 1]
0	0x3b36b804d2e8d0d2	1.8792570427175086e-23

_temporal_conv2.conv_1.weight f8 [1, 1, 1, 1]
0	0x3b335e4185c54cf2	1.6020989030425752e-23

_temporal_conv2.conv_1.bias f8 [1]
0	0x3b22641ceae4af22	7.60636672177613e-24

_temporal_conv2.conv_2.weight f8 [1, 1, 1, 1]
0	0xbb302f83c2442793	-1.3388418021956265e-23

_temporal_conv2.conv_2.bias f8 [1]
0	0x3b03dbffcac86ad2	2.0534109192017113e-24

_temporal_conv2.conv_3.weight f8 [1, 1, 1, 1]
0	0x3b465429de2e6334	3.693984112358673e-23

_temporal_conv2.conv_3.bias f8 [1]
0	0xbb20c8e228de13ff	-6.941989595180863e-24

_batch_norm.weight f8 [5]
0	0xbb47914cd036f3f2	-3.8989287756369124e-23
1	0xbb3ad6b4c5312a3e	-2.2200448861410534e-23
2	0xbb410aba1f8ee9e5	-2.8193462724150865e-23
3	0xbb4b168d4eecca00	-4.481349186865206e-23
4	0x3ac591835a068040	1.3938258612105017e-25

_batch_norm.bias f8 [5]
0	0x404f3699924a7b2d	62.42656162869239
1	0x404e6455d40e9b91	60.78386927331224
2	0x404ec27a6d31ab96	61.51936116147333
3	0x404e11f2ce45b661	60.14022234348227
4	0x404e3599fe8762a5	60.41876203165638

_batch_norm.running_mean f8 [5]
0	0x3b29e4a2f753823d	1.0709139984235244e-23
1	0x3b29e4a2f753823d	1.0709139984235244e-23
2	0x3b29e4a2f753823d	1.0709139984235244e-23
3	0x3b29e4a2f753823d	1.0709139984235244e-23
4	0x3b29e4a2f753823d	1.0709139984235244e-23

_batch_norm.running_var f8 [5]
0	0x366fee77c0c88900	1.7478743216461415e-46
1	0x366fee74551ac0a5	1.747871464610623e-46
2	0x366fee7463723e72	1.7478715114028092e-46
3	0x366fee7c09ce700c	1.7478779008508684e-46
4	0x366fee7413dac34b	1.7478712517226966e-46
