Q2/models/lastmodel.pth (torch, 59448 bytes, 15 tensors)

tgnn._attention f8 [12]
0.6126989248266068 0.0059808789023308145 0.17352307925504015 0.7823793630176057 0.1690687072711941 0.6580469220982029 0.23116398087001067 0.3813081459919329
0.5900000664679896 0.77399974849578 0.9149854723792049 0.483810996859288
00000000: a496 8dc6 3a9b e33f 1eed 96f4 677f 783f
00000010: df34 4017 0136 c63f ce3a 2772 4009 e93f
00000020: 0ade 401c 0ba4 c53f d1a5 346b b80e e53f
00000030: 64c8 ec04 c896 cd3f aff5 2e48 5a67 d83f
00000040: 5cc5 c3d1 47e1 e23f e9d9 dc1e 9bc4 e83f
00000050: a9e1 059d 8f47 ed3f d72b 3d66 c2f6 de3f

tgnn._base_tgcn.conv_z.bias f8 [32]
-0.0012158195136419744 -0.022870457517831826 -0.02475211743361947 -0.023524775228530696 -0.02119820205217558 -0.02260527131709595 0.02089615552907842 0.02509294649553797
0.02037643743686299 -0.01998372665774266 0.017813799406944043 0.023254404574215556 0.02573476207219348 -0.021583524653271215 0.019847036421366673 -0.01733349311595037
0.020218191264424985 -0.021795756659762376 0.023328342195639198 0.02745018248008354 0.023946625572595123 0.017501464167107978 0.02182421376569694 0.0298925623939581
0.022223264437426983 -0.023866272920508018 0.0007225666004461052 -0.02321924526062843 -0.02773175127530695 -0.02444868497706848 0.02454646010062799 -0.014519256954416861
00000000: 18af 2143 84eb 53bf 0ba7 556c 5a6b 97bf
00000010: da5d 897b 9e58 99bf 6158 02f1 e016 98bf
00000020: 9b3f 3142 fbb4 95bf 92b6 1814 d625 97bf
00000030: 6026 7042 cd65 953f 2605 3c22 f7b1 993f
00000040: 99ec 9991 8fdd 943f ecf0 c931 9d76 94bf
00000050: 7d37 7bd7 c73d 923f fc6d 89ac 00d0 973f
00000060: bcb3 e1a5 365a 9a3f 8aa5 12d2 fd19 96bf
00000070: e7be 6811 c852 943f c9d9 3b08 dfbf 91bf
00000080: 7256 0fd9 13b4 943f f656 2e78 a051 96bf
00000090: 075f 338b 62e3 973f 16b3 1590 e61b 9c3f
000000a0: 0c44 bcd6 7685 983f 655c eb60 e7eb 913f
000000b0: b2cf 8931 1659 963f c0b4 80e7 279c 9e3f
000000c0: 0a5e e007 b2c1 963f 9e18 af76 6670 98bf
000000d0: 903b 84f5 53ad 473f 97f9 202c c9c6 97bf
000000e0: ea2a 2753 b665 9cbf 107a a079 1309 99bf
000000f0: 3e85 750d b522 993f 2164 40ae 45bc 8dbf

tgnn._base_tgcn.conv_z.lin.weight f8 [32, 1]
0.10705377375152858 -0.2990918381930244 0.1501119269934397 -0.16086354350300067 -0.36104932452820016 -0.3227039740575674 0.42206682083380614 -0.12253342659113724
-0.3635352929493293 0.21812434660544186 0.18001901720997013 -0.2494548355114988 -0.038487932883917504 -0.07705874384355776 0.10434413873339342 -0.24716073650681267
-0.33961617929705334 0.004683293923437018 0.11999086526272534 -0.4130300873637667 0.16552408196303994 0.2766803043062587 -0.24912302030639571 0.31120366745428024
-0.2692307767594372 -0.19049412172580177 0.1215308981261139 0.10525533007760568 -0.3299223570333838 -0.3897820965684852 0.017067448565318846 -0.36171662635583274
00000000: 581b 2d49 e067 bb3f 3588 e217 5224 d3bf
00000010: 1193 961c de36 c33f 5b66 3b35 2d97 c4bf
00000020: 4edb 45a0 6e1b d7bf 7b74 b791 2ea7 d4bf
00000030: 0d4e 0d8e 2403 db3f 3b31 e0c3 595e bfbf
00000040: 7e2f 8a88 2944 d7bf e7dc 90a3 7feb cb3f
00000050: c395 c9f7 dc0a c73f d3eb 2cd4 22ee cfbf
00000060: f1db 0dba b0b4 a3bf d4cd ad30 1fba b3bf
00000070: 5fa3 6327 4cb6 ba3f d775 1388 f6a2 cfbf
00000080: 047e d17f 45bc d5bf 76c9 d123 ca2e 733f
00000090: 1445 1faa b8b7 be3f 1c73 5fbf 156f dabf
000000a0: b1a7 5da3 e42f c53f 5855 9c4e 21b5 d13f
000000b0: 82c7 725c 43e3 cfbf 1121 87c9 c2ea d33f
000000c0: 9a8a 50b9 133b d1bf 763f 7283 1c62 c8bf
000000d0: 04b9 e720 a61c bf3f 78ba 6968 03f2 ba3f
000000e0: 1c5e 6ba9 721d d5bf 43fd 549b 30f2 d8bf
000000f0: c425 a815 217a 913f 4589 277e 5d26 d7bf

tgnn._base_tgcn.linear_z.weight f8 [32, 64]
0.03486847073713049 0.08138554375817925 0.09585186747381416 0.09616707198276567 -0.06198269511773061 0.11751165444954476 -0.012165728201325752 0.01569819155360579
0.08265888759300817 -0.017722873217567187 0.02934810816775908 -0.10617623864428971 -0.05655706247105293 0.021119986626748993 0.11173229899775954 -0.05020996834907641
-0.0927663794107307 -0.0866749418799807 -0.09349417994120471 -0.03861162127878397 0.013213146644881553 0.051740873554325745 0.07263309998396202 -0.10654092689855066
-0.05579871356058958 0.10345214242710338 0.038956072906450534 0.015770850235360342 0.10610935224805206 -0.034126083537294634 -0.09281700427936156 -0.052561296662860475
-0.021631029072357956 -0.00674834069641444 -0.028246193955645458 0.0919038396504005 0.024221115004881735 -0.04540497626278974 -0.025977988382639833 -0.0659974711911468
-0.002244924638127627 0.007283386702609546 -0.04547722205206568 -0.06880929865573887 -0.08995764996422306 0.05538421774780343 -0.027126039730717727 0.0020251992003336543
0.00937520284417814 0.08982608802928174 0.07450867494100268 -0.038110815492442815 0.0025896263427483794 -0.01735695842887313 0.08881817455075353 -0.06215783145172196
-0.0013222398882247336 -0.07340305588360237 -0.001974800361887618 0.013742431203006084 0.004034859548584415 -0.026450035934169558 0.006558426187655459 0.0684378586743691
0.0895763892199209 -0.06879500403148789 0.08480037073442413 -0.08475003898949386 -0.04916391153610525 -0.015713748470815216 0.10949295448129487 -0.14143869454642918
0.025174836846580485 0.08513612241480027 0.05278788757790103 0.005039389387049427 0.06268847313211681 -0.04473010656291493 0.09447504013853235 0.0903105076488498
-0.004827043211788039 0.10666123729538897 0.06559026980076565 -0.11258354970351186 -0.012899175662240667 -0.03809622975936561 -0.0755473754437915 -0.020208384003172385
-0.1380751486455639 -0.07472808688604565 0.06735340707528427 0.03370299024140152 -0.02042317951731263 0.04962348774098987 -0.03574092762021343 0.011811991465266534
0.0004879019649699002 0.07932578149924746 0.07896628615573013 -0.02390724441814685 -0.0620894914570655 0.0015407884782793688 0.006720595480614715 0.04706438338608902
-0.06297012871364858 0.004727816891790894 -0.0005348354384566607 -0.0024754048975862836 -0.06738582729629576 -0.005980541683734937 -0.031772246296267265 0.07029598399474526
0.033506146579069654 0.04751644376698901 0.045977279363286994 -0.008695125543736072 0.08670293432428389 0.06536745634662514 0.05695821940689217 -0.008205036313518954
-0.07582001992565329 -0.06719189830874879 0.0008937825174183027 -0.007162132240907898 -0.0902940266965301 0.004727477998742525 -0.08188972823503106 0.05641872154255245
-0.038380369101224485 0.0756071043392512 -0.003687630890781511 -0.08455200236948458 0.008813308157493852 0.07247435827583407 -0.020481040463618566 -0.02950033380831734
-0.007538128386702786 -0.025471385666900204 0.02335010944518201 -0.07947677400071265 0.05492540029020282 -0.06672895005474819 0.006313598070776534 -0.008808125331088278
0.0030759703223156884 -0.004745418178407216 0.05120097341880581 0.033756717333546425 0.08566720569848746 0.007701643734871411 -0.048180863150767014 0.07626580007072056
-0.09494671217566054 0.07534239819083377 0.013452975542013275 0.062270860782386514 0.006173171037059627 -0.06223517500493946 0.037601169864031066 -0.022253946488893613
0.08212847007863575 -0.00866425472462443 0.004003259157654789 0.06705877436302601 0.041643909122135364 0.00363538690182366 -0.005126886776377895 0.006613012152547593
0.06132109696405526 0.04464554137486009 -0.05356875952283135 -0.09303696693985518 -0.007977168069239282 -0.008355223746257568 0.08994980860725617 -0.0941324230870623
-0.07083626095233428 -0.03615954942528717 0.08621461147978048 0.04411788135521536 0.023972038562201647 -0.08136703332046145 0.04768083588805419 -0.00641985489457143
0.04079066489719731 -0.008117066565016135 0.0009652636439471379 -0.014160637576202251 0.048684716209580446 0.001469046502161649 0.0888552968804748 0.028134325770105106
-0.04244347609361279 -0.003925128236810661 0.02466823931577665 -0.08683305403044968 0.0195943463245583 0.09458024333161062 -0.011869451781557409 0.027227589722566642
-0.0892803247868937 -0.0003568223299688193 -0.0025288078305651966 0.005284332163150862 -0.03687037838105737 0.006178137257499459 -0.07134698627460563 0.06971508424873527
-0.036314198945209944 -0.015046501571915826 -0.006619507322728612 0.008593417044319603 0.04321052787839459 0.06115158303333365 -0.0716887623343725 -0.02402160585454311
0.05033737840626507 0.006184937447996794 0.0051512927602111735 -0.06284643957714563 0.04474875071052818 0.04371932373388405 0.05714436531402667 0.002011861676971668
0.005809459715717895 0.021150164768480126 -0.0015597448383154484 0.0888087265904281 -0.0933863662926068 0.0004048662494508092 -0.052747803797562665 -0.023747374563714837
-0.04467636759229116 -0.0629394031676815 -0.05948895987862336 0.03421569342168797 0.020696311237349208 -0.08688040966016489 -0.003942251052130586 -0.04033843493650566
0.008296515195976528 -0.08307353909475731 0.013827283784580332 -0.04897745529785141 0.028321164927309968 -0.022419829949090204 0.03401366666866352 0.012651910702911549
-0.000743916540804732 0.021637257017627066 -0.08162482428671206 0.09204020156557485 0.09475780748205336 -0.08658526771244036 0.014079576129783618 0.04776301894161279
00000000: fd7b f4ba 47da a13f 94fd ced8 aed5 b43f
00000010: ba80 0f7c bf89 b83f f238 1ebd 679e b83f
00000020: d4ad e520 32bc afbf 4478 c268 3e15 be3f
00000030: b2c2 0d66 58ea 88bf 6dfa 50cd 2f13 903f
00000040: b58a ef02 2229 b53f 8842 71e3 f125 92bf
00000050: 33b7 1e33 6e0d 9e3f 80ea 96b0 5d2e bbbf
00000060: 7b8d 571b 0cf5 acbf 2856 6a4f 7aa0 953f
00000070: 6b2e 1aea 7c9a bc3f 1d26 fcf7 1eb5 a9bf
00000080: 4dc7 bc95 89bf b7bf 08d9 c138 5430 b6bf
00000090: 7abc 360d 3cef b7bf c69c 4605 e7c4 a3bf
000000a0: 2474 bc85 7e0f 8b3f ac89 909f c77d aa3f
000000b0: 75c8 0935 1598 b23f 40fd b624 4446 bbbf
000000c0: 099f cd23 a691 acbf 64f0 6cf0 d67b ba3f
000000d0: 9043 3ae6 0cf2 a33f 2fc5 f6d7 3b26 903f
000000e0: 3f83 b485 fb29 bb3f d16b 7759 f978 a1bf
000000f0: 277e e4ed dac2 b7bf 1199 6774 50e9 aabf
00000100: ea45 c7c9 7126 96bf 3a6d 7ee9 25a4 7bbf
00000110: e997 1afd 91ec 9cbf 58e0 ac91 0287 b73f
00000120: d444 4683 6bcd 983f 43a9 3f30 523f a7bf
00000130: f5c4 134a f999 9abf 3c7a 62d4 35e5 b0bf
00000140: da44 e3bc f263 62bf 94bb 113b 2fd5 7d3f
00000150: 0a65 da5a ca48 a7bf ac18 6377 7c9d b1bf
00000160: 0811 9fec 7607 b7bf bef9 e1f7 515b ac3f
00000170: 68c0 0db6 edc6 9bbf 588b aa8a 2697 603f
00000180: be75 df6c 4e33 833f 6ad3 69ae d7fe b63f
00000190: 91d0 2322 0013 b33f e6ee 53c4 4283 a3bf
000001a0: d84c 6e0e d736 653f 8e7b 3dc3 05c6 91bf
000001b0: 5464 fcb2 c9bc b63f a404 8dba 26d3 afbf
000001c0: 44fd f344 e0a9 55bf f54f 72ec 8aca b2bf
000001d0: 65d0 0ddf 742d 60bf 70ef ace4 fd24 8c3f
000001e0: 0fc9 e15c db86 703f 90d9 42dd b715 9bbf
000001f0: 07ce d31f 02dd 7a3f 368f d0bc 2485 b13f
00000200: e47d 316e 7aee b63f 8a84 71a4 8c9c b1bf
00000210: 0737 fe22 7ab5 b53f f96a cbb5 2db2 b5bf
00000220: f4cb 6120 032c a9bf 476f 1ecf 4317 90bf
00000230: 64bb a3f2 ba07 bc3f dfa0 bbc3 a91a c2bf
00000240: 3ab7 c0b3 6ec7 993f 77d5 7a1d 7bcb b53f
00000250: d744 8b95 0307 ab3f a23a bfc9 2ea4 743f
00000260: 2a49 f00d 5a0c b03f 482b ab51 dde6 a6bf
00000270: afeb ae27 842f b83f 8543 d6e4 961e b73f
00000280: e535 b28b 85c5 73bf 5d41 ef9d 264e bb3f
00000290: 28e8 ba1f 86ca b03f fc4e 0b88 46d2 bcbf
000002a0: d2de ea0c e26a 8abf 78b2 d559 5981 a3bf
000002b0: 6668 d4a2 1257 b3bf c333 98b1 81b1 94bf
000002c0: 3b59 e94b 72ac c1bf 94a9 4441 6121 b3bf
000002d0: f99a a9a8 123e b13f eb7b bab1 8441 a13f
000002e0: 7ac4 6d60 d0e9 94bf 4b09 ecf1 3f68 a93f
000002f0: a2d9 8386 a24c a2bf ec02 5aa8 e230 883f
00000300: 68fc b2fb a2f9 3f3f 44d7 44c5 b14e b43f
00000310: 2383 8670 2237 b43f 6257 a703 247b 98bf
00000320: f97b 779e 31ca afbf e0ee f307 893e 593f
00000330: 453c c81c 0e87 7b3f 9639 e6a6 d218 a83f
00000340: 3f35 7373 cf1e b0bf 6851 e8ae 795d 733f
00000350: a0cf c35b 8686 41bf 6031 8be2 4c47 64bf
00000360: 2395 7394 3240 b1bf 62a6 1a6f 0d7f 78bf
00000370: 1c9e 86ad 7344 a0bf 922d 4ce8 eafe b13f
00000380: ea4e 8bb7 b727 a13f dbbc 0048 1354 a83f
00000390: 10e1 727e 558a a73f ba7a c2fe bfce 81bf
000003a0: 58d9 63db 2932 b63f 2241 3bef ebbb b03f
000003b0: d196 2eb3 a029 ad3f ad4e 0855 cdcd 80bf
000003c0: bc76 f6d9 f068 b3bf d5cf cafd 7c33 b1bf
000003d0: a85a 4d57 9749 4d3f 06c3 e83b 0a56 7dbf
000003e0: 298d af63 821d b7bf 0ec3 5ab6 1e5d 733f
000003f0: 51d5 a5a8 b9f6 b4bf e095 d027 eae2 ac3f
00000400: 1643 327c 97a6 a3bf df7a 7bb8 fc5a b33f
00000410: 1687 6bc2 8535 6ebf 01fe fc34 33a5 b5bf
00000420: 55b3 7232 b60c 823f 22e2 97f6 ad8d b23f
00000430: 28cc ea5b fbf8 94bf ce12 b6e3 5535 9ebf
00000440: a091 4dee 4ce0 7ebf 7d4b b1c1 2b15 9abf
00000450: 8047 b351 17e9 973f aae8 1f01 9758 b4bf
00000460: 98a8 ee9b 2e1f ac3f c67a 2e02 2615 b1bf
00000470: 48c4 be93 49dc 793f e684 e391 fe09 82bf
00000480: 478f 02fe c632 693f ea17 1d7e ee6f 73bf
00000490: 91da b694 0337 aa3f 5b90 ef79 8f48 a13f
000004a0: bc90 d036 49ee b53f 34ab 773f c28b 7f3f
000004b0: e61a 0d7f 29ab a8bf 9e65 1bcd 2786 b33f
000004c0: 693d a87f 6d4e b8bf e859 3bb0 a349 b33f
000004d0: b109 e5cf 3b8d 8b3f 7eb5 1b5d f7e1 af3f
000004e0: 13f4 77fb 0949 793f df35 9df2 49dd afbf
000004f0: 21f7 b6e5 7540 a33f 0fc6 8111 bdc9 96bf
00000500: cee9 0e15 5f06 b53f d2e6 7d95 90be 81bf
00000510: a279 8db2 b865 703f e28d cc8a c32a b13f
00000520: 74ab 83b7 5952 a53f 3ca1 407b f5c7 6d3f
00000530: 36b2 8e30 eeff 74bf e799 c5ee 3e16 7b3f
00000540: aaea 0794 7a65 af3f bf06 3cc8 c7db a63f
00000550: 5fc7 794c 5d6d abbf cf61 534a 45d1 b7bf
00000560: edd0 c65f 5556 80bf 5a71 ed25 8b1c 81bf
00000570: 65e7 3f5e f306 b73f 7af4 a6fe 0f19 b8bf
00000580: 3e44 2940 5322 b2bf 0b7d 7024 8183 a2bf
00000590: 7735 be28 2912 b63f 75cd 2d73 9e96 a63f
000005a0: a08a 9246 208c 983f 0f7c 154b 78d4 b4bf
000005b0: 54fd 915d 9f69 a83f 8c74 13ad b44b 7abf
000005c0: 925d 6e97 83e2 a43f 1756 7d3b ae9f 80bf
000005d0: f0d4 31e4 37a1 4f3f 8d0c 3e9a 4000 8dbf
000005e0: 1bd1 deff 33ed a83f 88b4 b7ab a011 583f
000005f0: 1292 2d82 38bf b63f 6079 4fa4 3ecf 9c3f
00000600: e451 80bb 26bb a5bf e829 8e96 cb13 70bf
00000610: 7cd4 7184 a142 993f f5c7 45e7 b03a b6bf
00000620: 4d16 9a52 8a10 943f 47fd f42b 6936 b83f
00000630: 0231 c9d9 024f 88bf f81a a19d 8ce1 9b3f
00000640: b5ce 224b 13db b6bf c0d0 d93c 7c62 37bf
00000650: 06c2 c35d 4bb7 64bf 26a4 261d 06a5 753f
00000660: 65f2 ac9a ace0 a2bf 57de 8917 3f4e 793f
00000670: 1db4 b7cc cb43 b2bf 2ede e206 d9d8 b13f
00000680: 3242 b351 c697 a2bf d95e 5d41 b3d0 8ebf
00000690: d9d0 7777 0e1d 7bbf 8476 54e9 6c99 813f
000006a0: 8a44 29b8 b01f a63f ac1e 74a2 424f af3f
000006b0: 4183 b7d9 315a b2bf 52b0 2bae 1e99 98bf
000006c0: e1e5 0a24 d2c5 a93f 303c 1281 6055 793f
000006d0: 60e3 fe9e 8519 753f b764 a74a b416 b0bf
000006e0: be59 ade9 4ee9 a63f 49d1 4713 6162 a63f
000006f0: c04d 59b8 0642 ad3f 2cd5 6903 2e7b 603f
00000700: 0573 c8f7 a8cb 773f ec49 f187 63a8 953f
00000710: 08da 8544 0b8e 59bf c427 4e30 2bbc b63f
00000720: 4a78 1e3d 2be8 b7bf e018 f74c 8788 3a3f
00000730: 6822 7e98 c201 abbf 6fd3 7754 3b51 98bf
00000740: b909 6d23 d2df a6bf bd25 3cf6 cb1c b0bf
00000750: 52b1 4d42 5675 aebf 2221 8328 b884 a13f
00000760: 6d25 a6ef 6931 953f 2a4b 2766 cb3d b6bf
00000770: 41e0 76f5 bf25 70bf 7cf2 a545 3da7 a4bf
00000780: c6f8 7f6b c3fd 803f 9630 93b5 4e44 b5bf
00000790: 0ba3 2d9d 7a51 8c3f d8bb 7db1 9213 a9bf
000007a0: e2f4 9634 3900 9d3f 2224 a751 39f5 96bf
000007b0: 29fc ea43 3d6a a13f 9f7a 9bb5 3ee9 893f
000007c0: 84d7 5a9b 6c60 48bf 3a3c 10bd 1328 963f
000007d0: aa69 da4e 5de5 b4bf 4432 a457 f28f b73f
000007e0: cb13 2d34 0c42 b83f 11ed 23bd 732a b6bf
000007f0: 04d6 26b8 c0d5 8c3f 2afa 9ff8 6474 a83f

tgnn._base_tgcn.linear_z.bias f8 [32]
-0.06215329111303688 -0.07607992756644587 -0.09325278163124935 0.08759237533404979 -0.03218370621890447 -0.05369386053953848 0.05166617767226679 -0.036427082525015975
0.03717717201791137 0.03325964884813952 -0.011350664251952107 0.005607559677925365 -0.022891771933014407 -0.07759519368556697 0.007499994277478141 -0.07025100324195804
-0.031705115805463265 -0.02725953712214505 0.10947097940533321 -0.09498570160832057 0.06812959207072633 -0.11305977547172014 -0.008413610577900894 -0.048003091923791714
-0.0991991593449146 0.018637621421584503 -0.045682892633553705 -0.07336386229486677 0.029267788193880984 -0.053914412943413786 0.09493530229748504 -0.0009202083004528471
00000000: 5ba9 5661 8ed2 afbf bfa9 c760 f979 b3bf
00000010: cd03 5e0f 6adf b7bf b44e 7033 746c b63f
00000020: 7639 59fb 617a a0bf 9ccf 06fe c27d abbf
00000030: d2cb d23e fd73 aa3f 086c 4410 92a6 a2bf
00000040: 4f0b f3e3 e208 a33f 568d 28a0 6807 a13f
00000050: 8f05 005e 043f 87bf 7e3a d5d6 f3f7 763f
00000060: 84fb 32cf f070 97bf cecf 3453 47dd b3bf
00000070: 6873 4562 50b8 7e3f 5c76 6f41 f8fb b1bf
00000080: d92e 0027 a73b a0bf 2a5c c691 ece9 9bbf
00000090: de30 6844 4a06 bc3f 5acf fea1 fb50 b8bf
000000a0: 3066 d5e1 f070 b13f 6ce6 2446 7cf1 bcbf
000000b0: 77d9 2fb2 273b 81bf 81d1 d67b dc93 a8bf
000000c0: 7e56 2db9 1d65 b9bf 167a ec99 bd15 933f
000000d0: db11 b283 bf63 a7bf 66c3 435d f9c7 b2bf
000000e0: 40d4 7904 60f8 9d3f 2c00 c080 ab9a abbf
000000f0: b083 9a12 ae4d b83f 7075 2947 4427 4ebf

tgnn._base_tgcn.conv_r.bias f8 [32]
0.0 0.0 0.0 0.0 0.0 0.0 0.0 0.0
0.0 0.0 0.0 0.0 0.0 0.0 0.0 0.0
0.0 0.0 0.0 0.0 0.0 0.0 0.0 0.0
0.0 0.0 0.0 0.0 0.0 0.0 0.0 0.0
00000000: 0000 0000 0000 0000 0000 0000 0000 0000
00000010: 0000 0000 0000 0000 0000 0000 0000 0000
00000020: 0000 0000 0000 0000 0000 0000 0000 0000
00000030: 0000 0000 0000 0000 0000 0000 0000 0000
00000040: 0000 0000 0000 0000 0000 0000 0000 0000
00000050: 0000 0000 0000 0000 0000 0000 0000 0000
00000060: 0000 0000 0000 0000 0000 0000 0000 0000
00000070: 0000 0000 0000 0000 0000 0000 0000 0000
00000080: 0000 0000 0000 0000 0000 0000 0000 0000
00000090: 0000 0000 0000 0000 0000 0000 0000 0000
000000a0: 0000 0000 0000 0000 0000 0000 0000 0000
000000b0: 0000 0000 0000 0000 0000 0000 0000 0000
000000c0: 0000 0000 0000 0000 0000 0000 0000 0000
000000d0: 0000 0000 0000 0000 0000 0000 0000 0000
000000e0: 0000 0000 0000 0000 0000 0000 0000 0000
000000f0: 0000 0000 0000 0000 0000 0000 0000 0000

tgnn._base_tgcn.conv_r.lin.weight f8 [32, 1]
0.006061398403042141 -0.28809811957419723 0.042910715684559335 0.1122294675825455 -0.019427287361162594 0.006343284287947726 -0.1355291220022846 -0.22467568316779768
-0.20947519723731625 -0.06095521408372817 0.31291444092535814 0.13248888295255434 0.08041984613910814 0.039507069195520585 0.25810941446141544 0.27859776757878113
-0.03025017976752526 0.007313501028833125 0.25515049781656657 -0.011845938359886952 0.3739769491279328 -0.37491689931890326 -0.2385434798091992 -0.38113481857455767
0.33875812156261087 0.03440680200533558 0.3093612259593766 -0.3942244014303996 0.39240435520215505 -0.31884887352640173 0.0656952254775917 -0.17510662643800237
00000000: b5a4 8b3e d6d3 783f bd0e 6718 3370 d2bf
00000010: d7b9 06b1 64f8 a53f 511e ea04 12bb bc3f
00000020: daf9 762f bfe4 93bf 8032 0e69 6afb 793f
00000030: 5be4 53ad 0459 c1bf 4ac1 b43b 2cc2 ccbf
00000040: d58c ba50 15d0 cabf e044 0596 8535 afbf
00000050: 481d 8e4a ca06 d43f 88b1 ae4d 65f5 c03f
00000060: 01e8 1d21 6596 b43f dda6 4f44 453a a43f
00000070: feb1 7959 dd84 d03f 8b53 1fbb 8bd4 d13f
00000080: 52d5 3233 e7f9 9ebf 9a42 cffb c2f4 7d3f
00000090: 9789 ebc0 6254 d03f 5fe8 c4ee ae42 88bf
000000a0: c496 7d03 3def d73f eab6 5273 a3fe d7bf
000000b0: 982e 3abe 9788 cebf 6e41 494b 8364 d8bf
000000c0: 5e69 578b 36ae d53f f8e7 beb2 c49d a13f
000000d0: e157 0907 93cc d33f 8270 dbfb f83a d9bf
000000e0: a5ad 1928 271d d93f b563 0a1b 0568 d4bf
000000f0: 6bfa edfc 66d1 b03f 219b eed8 e469 c6bf

tgnn._base_tgcn.linear_r.weight f8 [32, 64]
-0.039800758633338706 0.001577474473447124 0.005500227606826861 0.017512428166107395 0.028741574498361695 0.0017955761822724802 -0.0004312253647100646 0.06714190050656345
-0.0642559492112227 0.06050067839307402 -0.008413588132500028 -0.006231941354328988 0.004864401284128414 0.03629222605065931 -0.0060185268739984445 0.0568376632222474
-0.005132637297841528 -0.0401543547558503 -0.06728649928610236 -0.008365126004604963 0.028805176197000258 0.007969946708641032 0.06408541079549457 0.0017462024823126417
0.01693845930561274 0.0758313959125857 0.036832325320352285 0.042714353522170026 -0.09286216443838266 0.03216376244691026 -0.008855010733427733 -0.03144644123813638
0.024433424627816665 -0.04032522894178513 0.046226437049580155 0.05659530859729711 0.027639025763617688 -0.0346252927353771 -0.0009704293151448651 -0.0010700828010678839
0.08300902398956646 0.0041604729497048895 0.06527393906766056 -0.03025071070699515 0.0006037011635568398 0.05754572966994035 0.02122619764650003 0.094875549128677
0.021481951483916628 0.05490314743156017 -0.09228827038671827 -0.09405173776966018 0.007247977897080915 -0.06346858334102724 0.0013732755360870985 -0.03986310840592941
0.08100862071140574 0.007576214780710892 0.00721943632568222 0.048148117859448086 0.039246497923305465 0.058930644887784996 -0.028190627186127092 0.032101393204621846
0.08478019249260002 0.042894316024398534 -0.030450501876191492 0.04802971435426799 0.05902216292267517 0.0036573718872325214 -0.015815360933942355 0.07236554121864266
-0.003297414482071665 0.07840502087437942 -0.030306135700560042 0.09271792738318511 0.05852627988971689 -0.011033056397455675 -0.07272341058024334 0.018494015820622066
-0.032051425292081034 -0.0026940919448309106 0.003446603895903449 0.05202029546976554 0.07977462731831515 0.08874041867015366 -0.00038917162060901275 0.07323541321085664
0.0008205374643207256 0.00032292529554814146 0.004391669336420004 0.048768737978213975 -0.04568597590394968 -0.08160002827515873 0.023468481611193477 -0.027621384034424684
-0.01797383388002318 0.009547501771831956 0.05546840983517371 0.008177517525847685 0.027964652572716384 -0.07147338415254972 -0.024810610304270165 0.02042232484388028
0.0742652773618185 0.017903931915738497 0.05705089095025966 -0.07053187623032336 -0.001421691716709419 -0.038922295104431556 0.015694296463858816 -0.010947175301647861
-0.007302926644395194 -0.06440877755993832 -0.0021105970558931656 0.022763266243431918 0.0004346335988155668 0.021228878172102568 0.06651254439368152 -0.07242354022120187
-0.004456433205540538 -0.027631382953427874 -0.005494800305035685 -0.07875924181981579 -0.005320284759999443 -0.03177525723192589 0.09502972102585207 0.0811498074863254
0.0904031523894184 -0.05741379079571634 0.05074560854678921 -0.0907994838939961 0.08977258256662202 -0.008960733091103517 0.01579782971941796 0.0019804172703101162
0.016070701739205807 0.04150092118928557 0.0004257179966160214 -0.0891541965428229 -0.02091264475515487 -0.08993998831480231 0.0012569150071514764 0.0025460248350935005
-0.0772847366145019 0.05825426736155694 0.0014207638372750568 -0.051948532618523884 0.07901578315178028 0.011592173433132992 0.093167068676464 0.008679184705838262
0.03630198518902224 -0.08360541948881642 0.064299798937966 -0.0656838419879198 -0.020141871292073215 -0.004721501010456649 0.07445437152672749 0.07204132439758276
-0.07300462654099611 -0.06060418345332169 -0.08602308143301711 0.0009020286283657943 0.007011439772082187 -0.0810337879493345 -0.0017241747511913368 0.004732583229265272
0.06632229876123714 0.049301417653984145 0.001001441212945384 -0.0011398145904199797 0.018249236519754998 0.03917587101369586 0.01598951109229687 0.046218327782191114
-0.008154352599823278 -0.007396465723357992 0.00480764361697023 -0.007085900274201872 -0.05411038384379476 0.00692406359280846 0.001202722344348239 0.03192462859433743
0.008671981458125824 -0.045638808004222015 0.00792361718967869 -0.03780891501331656 0.006905648220743024 -0.042930937574115216 0.07588891538529062 -0.008796008745057128
-0.07918310406934922 -0.062164442625701866 0.06348997927074199 -0.0072288288444341976 0.0092327679330487 -0.005521442809476661 0.04420237761422337 -0.008621476094844583
-0.008721824495947801 -0.06650746162990416 0.02442246447442583 -0.009984182996211498 0.06114480906845904 -0.007720222256758037 0.03618030885199904 -0.09508656835807733
-0.02755930086381843 -0.012431269362609005 -0.04259667390551334 -0.0034056474454105343 0.0709402808505884 0.06666704944542332 -0.043063974793088815 -0.04103915977937368
0.021708859298811063 0.04560518891841978 0.08730936632184337 0.09236661534182007 -0.0333262002656776 0.003005066030002968 0.04264201809254317 -0.0035980977822323724
0.09125824123906415 -0.07020644756520182 -0.003982349117718175 -0.04608620930869789 0.008488548000232125 0.03362304583136632 0.05014232253057249 -0.013938842837431908
0.00138995454247561 -0.006269197988270551 -0.0460328558778258 -0.006544072893653334 0.03876760445558785 0.01357154489980931 0.07116741140908324 -0.03966787672581331
-0.05825048038976485 0.0924264492859129 -0.015991677769668762 0.006699385206223643 -0.06512644976799066 0.0007853422533734599 -0.022412071893605234 -0.08811802188943652
-0.06072931781416916 0.0909110515994125 -0.008295780417891557 0.008838367792498185 0.008043034602316165 -0.00878893732596731 0.07032023012665377 -0.07770743865327102
00000000: e852 5fd9 c360 a4bf c0cb 8451 68d8 593f
00000010: 5eee 111b 6887 763f 76e8 fc28 c7ee 913f
00000020: c527 066a 6e6e 9d3f b8d6 bd3e 316b 5d3f
00000030: 40cf b0d6 c242 3cbf 21f2 dd2a 3630 b13f
00000040: 0186 6ff0 1373 b0bf cc0a 2be6 f1f9 ae3f
00000050: fa03 f8ae 243b 81bf d13e eb04 aa86 79bf
00000060: 4a15 e1c6 b1ec 733f 6226 f907 e594 a23f
00000070: b6b2 8001 e2a6 78bf 64f4 7081 d319 ad3f
00000080: 0423 62d5 f505 75bf c4cc ef90 1c8f a4bf
00000090: 3c69 e521 b039 b1bf 14ff ee34 bc21 81bf
000000a0: f6f3 e2a6 1a7f 9d3f 3b3f b723 8c52 803f
000000b0: a872 84c7 e667 b03f 9842 70a3 1a9c 5c3f
000000c0: f686 0cc3 5058 913f 985f 74b5 af69 b33f
000000d0: ee82 5fc1 afdb a23f 121f e5de a7de a53f
000000e0: de72 4c97 d0c5 b7bf 46ce a6c7 c477 a03f
000000f0: 71e1 0b6c 9322 82bf e602 6379 bf19 a0bf
00000100: 0fb1 d25e 1305 993f ae71 0427 82a5 a4bf
00000110: 5c56 add6 fdaa a73f 3099 106f 0ffa ac3f
00000120: 0afe fd9e 674d 9c3f d563 d307 68ba a1bf
00000130: 90de f715 8dcc 4fbf 9843 9da8 4088 51bf
00000140: 81dd 4e53 1440 b53f f8f7 1374 920a 713f
00000150: 89a2 93f9 cab5 b03f 0251 abd4 0afa 9ebf
00000160: c02d 8460 36c8 433f 55e8 e945 a276 ad3f
00000170: 8231 d702 52bc 953f 0f9d b294 c349 b83f
00000180: 808b 4f5c 5dff 953f 3900 55ed 431c ac3f
00000190: 4088 1d3f 34a0 b7bf d347 da51 c613 b8bf
000001a0: 3343 7b40 0eb0 7d3f f9ed c521 7a3f b0bf
000001b0: 805b 0461 ef7f 563f ac3a d7f5 ef68 a4bf
000001c0: 4c49 a620 fbbc b43f 6bb8 5eab 3c08 7f3f
000001d0: 7837 a1ae 2092 7d3f 24fc 23bf dea6 a83f
000001e0: 6e52 20f2 1d18 a43f 71ea 0c51 282c ae3f
000001f0: a3c7 45f7 00de 9cbf 1795 f003 986f a03f
00000200: 86b3 1a9a 27b4 b53f 31a6 0469 3ef6 a53f
00000210: 26f3 d196 6a2e 9fbf 168e c6c8 5997 a83f
00000220: 13f1 fb26 2738 ae3f 6c9f a394 10f6 6d3f
00000230: 2c60 f1e7 e631 90bf 7633 e450 8c86 b23f
00000240: 0e50 94eb 2d03 6bbf 7266 7ff8 5912 b43f
00000250: 79e4 ce56 9208 9fbf 531a ddb1 5cbc b73f
00000260: cb6e 2a14 28f7 ad3f 8649 37c3 7f98 86bf
00000270: 7881 185e 009e b2bf 6630 7c64 18f0 923f
00000280: aedf d65e 0b69 a0bf b074 7499 eb11 66bf
00000290: f248 7c60 0d3c 6c3f 66b3 8a77 67a2 aa3f
000002a0: 05fc 6127 1c6c b43f 5d8b 052c b1b7 b63f
000002b0: c05e 0f62 3781 39bf 2451 a658 8ebf b23f
000002c0: d0f2 85c9 2ae3 4a3f e0b1 5b95 c929 353f
000002d0: 90db cbc2 fffc 713f ba03 5e4d 37f8 a83f
000002e0: a85f c9f8 2664 a7bf 2d63 cb4c bde3 b4bf
000002f0: 9204 0724 1f08 983f 1877 64b4 c748 9cbf
00000300: e632 cb92 bb67 92bf c6ba f2fe a38d 833f
00000310: 4909 68fc 5a66 ac3f ab17 b0d2 5fbf 803f
00000320: b9ab f910 c4a2 9c3f b43a 7867 144c b2bf
00000330: 6d0e 67df f367 99bf 9d42 4005 97e9 943f
00000340: 4554 7f99 0c03 b33f a80e 3188 6855 923f
00000350: 0795 ad3d c635 ad3f 2419 bc85 600e b2bf
00000360: 0aa1 68db 014b 57bf 4e1a 1e81 9fed a3bf
00000370: 2a1b 2f68 2a12 903f 67b6 3bff 786b 86bf
00000380: 43ec a471 ace9 7dbf 76fd 31f9 177d b0bf
00000390: 7423 902a 3e4a 61bf d841 43f0 404f 973f
000003a0: c047 b817 f17b 3c3f b277 ebe5 05bd 953f
000003b0: fbd1 f152 f706 b13f 0eea b560 598a b2bf
000003c0: df61 fead e840 72bf 504d 83b8 664b 9cbf
000003d0: 001a bb39 b781 76bf 93b5 dfcf 9029 b4bf
000003e0: 6c2e cb10 b9ca 75bf e326 44b5 d844 a0bf
000003f0: d93b f427 de53 b83f a9ff 3ad9 3bc6 b43f
00000400: 6ec5 f736 a924 b73f 772d 9d23 5765 adbf
00000410: 1e87 3f12 54fb a93f 2382 d18d a23e b7bf
00000420: 607b 3302 56fb b63f 2386 983c 015a 82bf
00000430: 5180 f867 4e2d 903f 78bd 116d 3c39 603f
00000440: 6a1b 9389 d674 903f da11 86d6 9b3f a53f
00000450: 40cd 6edf 5ce6 3b3f 53dc 7336 cfd2 b6bf
00000460: c25d 2fd5 1f6a 95bf a729 6a9c 4e06 b7bf
00000470: 184f 5f36 e297 543f 3c56 d9ac 66db 643f
00000480: 1b40 3db8 eec8 b3bf 2335 57da 80d3 ad3f
00000490: b015 da8d 1d47 573f 87ef 5781 ff98 aabf
000004a0: 9935 81dc 603a b43f f467 472e a3bd 873f
000004b0: cb93 0709 ccd9 b73f 747a bd73 64c6 813f
000004c0: 3a5d 557e 2c96 a23f 3a0b 792e 2a67 b5bf
000004d0: d8f3 939d f375 b03f 22b8 3601 a8d0 b0bf
000004e0: 5b35 eb19 12a0 94bf fcd9 d846 da56 73bf
000004f0: 2664 c012 710f b33f 6c86 3fdc 4c71 b23f
00000500: 0545 7363 6eb0 b2bf 1898 ddf3 8207 afbf
00000510: 5bb9 74d1 9b05 b6bf b0cd bcba c38e 4d3f
00000520: 03b0 4d08 07b8 7c3f 2a07 1d5d a1be b4bf
00000530: b02b d08a b63f 5cbf f0ea 1f23 7962 733f
00000540: 65d0 2c88 7ffa b03f 06cb f010 093e a93f
00000550: 28b9 8a50 5968 503f 803b eb98 baac 52bf
00000560: 2a05 1e88 edaf 923f 699f 9719 dc0e a43f
00000570: 26bc e1ec 8d5f 903f 6bc3 99bc eda9 a73f
00000580: e0ed e3ad 3ab3 80bf b375 34a6 c14b 7ebf
00000590: 45fd b001 2eb1 733f 0cf0 0bdf 1a06 7dbf
000005a0: 9359 f731 5bb4 abbf cc0d fc2a 685c 7c3f
000005b0: 9833 a648 95b4 533f f1ce 7fc7 6c58 a03f
000005c0: a889 08a6 9dc2 813f fcf4 9c47 f85d a7bf
000005d0: b4c7 90e5 413a 803f e778 f5aa b05b a3bf
000005e0: 039a 40d4 1849 7c3f 6a21 bc39 0bfb a5bf
000005f0: 9f6f b5b9 746d b33f 74ad 294f a403 82bf
00000600: 86a5 5f0a 5845 b4bf b058 1a90 04d4 afbf
00000610: 2270 9718 e140 b03f f286 9af7 f99b 7dbf
00000620: 328e 9722 a1e8 823f 98ea b104 a79d 76bf
00000630: 4a5e 84ac b1a1 a63f dafe f6ee 22a8 81bf
00000640: b1ba c577 bfdc 81bf 1ff2 a30c a206 b1bf
00000650: 564f d2d8 3302 993f 796c 915b 9672 84bf
00000660: 08d4 8956 5f4e af3f e820 c561 3d9f 7fbf
00000670: 8b99 8eb6 3986 a23f 0406 63e5 9757 b8bf
00000680: 0495 a45f 8138 9cbf 17a2 e1ba 9075 89bf
00000690: 8d63 af32 3bcf a5bf 54b4 ca0c 29e6 6bbf
000006a0: c4ea 386a 2429 b23f aec2 167d 1711 b13f
000006b0: e781 be36 7b0c a6bf 3228 37b2 1503 a5bf
000006c0: 022f e3e2 d83a 963f 8d72 dd35 9059 a73f
000006d0: ff9e fc18 e859 b63f eda4 22a8 56a5 b73f
000006e0: 8568 7bb8 2110 a1bf 3422 478a 149e 683f
000006f0: ec2b 49b2 2cd5 a53f a410 ae09 c279 6dbf
00000700: 02bd 9c39 b35c b73f 13c9 42bc 0cf9 b1bf
00000710: ccb6 8cb3 cb4f 70bf 5010 8e93 9c98 a7bf
00000720: fc84 69a0 7162 813f 4faa 7934 0a37 a13f
00000730: 301e d426 41ac a93f 20fd 0bd1 f78b 8cbf
00000740: 580c 6253 e4c5 563f 1eef 4e05 bbad 79bf
00000750: 01d0 1255 9e91 a7bf 855e f930 f5cd 7abf
00000760: 07e1 8ff2 58d9 a33f 95cb 01ec 65cb 8b3f
00000770: 6101 8b08 0738 b23f f36e 7a12 594f a4bf
00000780: 2c2b 80c8 01d3 adbf f6e8 f780 42a9 b73f
00000790: 5297 1d54 1f60 90bf 3618 d385 d070 7b3f
000007a0: e1ac db83 20ac b0bf 2818 afa5 edbb 493f
000007b0: 5348 46af 30f3 96bf 380e 3416 e78e b6bf
000007c0: 952a d7c3 e917 afbf e1e5 7659 f245 b73f
000007d0: f095 b7cc 60fd 80bf 1c4d f3a4 d919 823f
000007e0: 8bcf 9ed4 dd78 803f 8390 0d33 efff 81bf
000007f0: d723 a4b0 8100 b23f 31f6 ab7b a2e4 b3bf

tgnn._base_tgcn.linear_r.bias f8 [32]
-0.00013679349547257406 -0.006048880732827244 0.07659891130724808 -0.011437887780213783 0.00855130018287684 -0.00881946038353838 -0.045564870031853395 -0.06124618130893699
0.0035551778802698497 -0.07902512334292719 0.005225321784002118 -0.08252990385744795 0.04187059733161026 0.03668629956503505 0.023949612803373738 0.046895754521797436
0.02462890205764385 -0.04597235770600718 -0.020088372232137705 0.008546336606257563 -0.0682710712700794 -4.580425233528373e-05 0.0024744975384608636 0.018065116838164443
-0.08471857397076979 0.07966364205321777 0.05773871879412862 -0.0518195809773152 -0.006678046750990608 -0.03408855678703894 -0.019618937415652685 0.046119090361151534
00000000: c09f c02d 07ee 21bf 5961 cc0e b6c6 78bf
00000010: 424d f97a fc9b b33f 2c56 9c4f bf6c 87bf
00000020: b268 fd14 5883 813f 2648 53ef ef0f 82bf
00000030: 0140 4455 4754 a7bf 4f1b 74d3 a85b afbf
00000040: 4066 4597 bf1f 6d3f 26fb 5190 fd3a b4bf
00000050: e01a c6a2 2567 753f d77f 0206 ae20 b5bf
00000060: 8210 681c 1070 a53f c8a8 aff1 8bc8 a23f
00000070: 682b f84e 3f86 983f 2617 fc67 b802 a83f
00000080: 52f1 7ea3 5138 993f a310 bc59 b089 a7bf
00000090: cc4f 11d7 0b92 94bf 32be cbe1 bd80 813f
000000a0: 232d 5e82 367a b1bf 8095 5a20 be03 08bf
000000b0: 1c1b 0ec0 6545 643f 77c6 1278 a97f 923f
000000c0: 6a76 91d0 1db0 b5bf 827f 4c21 d664 b43f
000000d0: f010 dee9 ed8f ad3f 7f13 2e9b 1888 aabf
000000e0: 0ebc 5886 705a 7bbf 52e7 2229 0e74 a1bf
000000f0: a17a 549a fc16 94bf 8913 a5e1 eb9c a73f

tgnn._base_tgcn.conv_h.bias f8 [32]
0.016643150016630234 -0.02650280316065471 0.009200401132941235 -0.00987502723553131 0.021841087634937514 0.02042028810555857 -0.02644541669409295 -0.02788169038709723
-0.013080461304501762 -0.008109571819502837 -0.021729562752656462 0.024533300297979375 0.023597764724306542 -0.007162409995477543 0.017723531137100346 -0.02540862359536182
0.023571218494912727 0.0034435608816418333 0.001072188762585394 0.026338467278648515 -0.006104832149913597 -0.003367386975058323 -0.00810906764718929 0.01378052795944757
-0.02396930209506789 -0.0015692970657866976 0.026688800495679142 -0.0046135263255064635 0.026627976885237256 -0.02715155618185715 -0.026590080546648773 0.0009045620626940264
00000000: cc6b 18e4 e60a 913f 8a31 4f03 8d23 9bbf
00000010: 9efa ceef a8d7 823f 2792 30b8 5b39 84bf
00000020: bc8d 6794 825d 963f f063 5a56 0ee9 943f
00000030: a025 52df 8114 9bbf a8a7 7a91 048d 9cbf
00000040: 2aca 27cc edc9 8abf a09f fe4d c09b 80bf
00000050: dd22 8445 4640 96bf 1965 c5e9 411f 993f
00000060: e596 ff2e 032a 983f 61d3 0ecb 5456 7dbf
00000070: a0f7 690a 1e26 923f 2c89 83dd b704 9abf
00000080: 6005 40b2 0d23 983f 8e3b caab ab35 6c3f
00000090: a889 e8ea 1591 513f ddaf 5a9e 78f8 9a3f
000000a0: 4d36 e766 6101 79bf da89 c91d ec95 6bbf
000000b0: ea0d c4a2 7c9b 80bf 6470 4227 f738 8c3f
000000c0: a6cf 6ca2 688b 98bf 561a d1e4 1bb6 59bf
000000d0: 8692 3115 4f54 9b3f e21e ff0a a2e5 72bf
000000e0: 2ce0 8547 5d44 9b3f 3da9 5817 9ecd 9bbf
000000f0: b929 6219 6e3a 9bbf 7012 fd3c 04a4 4d3f

tgnn._base_tgcn.conv_h.lin.weight f8 [32, 1]
-0.1380072455693024 -0.3817657048472511 -0.09201553484505766 -0.12839300146757165 0.007534298741329411 0.03635513154622501 0.16671046505085524 -0.29953160513273286
-0.10366456221459429 -0.19868402031224555 0.21871492540873444 -0.22456422858893751 0.24392818709813893 0.24448819547816253 -0.1640524635556147 -0.290723168456646
0.016479208733386326 0.01811770464945861 -0.3725280536141171 -0.1607486654556961 -0.2485490801764811 0.07345240407035279 0.3416530499168542 0.29413023669711474
0.020128073441339996 -0.3040840244576965 0.11467858440186762 0.39745492770937324 -0.3833014270313009 0.14337841939096888 -0.0367438214131817 0.031293606893907075
00000000: 9764 2aaf 38aa c1bf cb69 436c d96e d8bf
00000010: 292b e280 548e b7bf fa53 2b8f 2e6f c0bf
00000020: 22ad 13eb 48dc 7e3f 0acd 10ca 239d a23f
00000030: 0eae a5bd c456 c53f 5976 0a9c 862b d3bf
00000040: 4741 77c0 c289 babf 694c bd5c 7a6e c9bf
00000050: 3288 e3c5 d9fe cb3f cf0a d248 85be ccbf
00000060: 995c 14f1 0939 cf3f 0e1b eba1 634b cf3f
00000070: 3259 e6ce abff c4bf a37d 2d59 359b d2bf
00000080: d29f 4bfa ecdf 903f a0c3 ca93 728d 923f
00000090: e85e c7e7 7fd7 d7bf 8c01 818a 6993 c4bf
000000a0: ff88 67cd 74d0 cfbf 3f74 4bd9 c6cd b23f
000000b0: c82d fec0 a4dd d53f 073f d8a0 07d3 d23f
000000c0: 32ee a524 749c 943f 2b0a 12d7 1c76 d3bf
000000d0: b0be 8e61 935b bd3f d354 09cb e66f d93f
000000e0: 2803 67b5 0288 d8bf d141 1e5b 395a c23f
000000f0: a56f 990e 16d0 a2bf d6cd 5d34 b705 a03f

tgnn._base_tgcn.linear_h.weight f8 [32, 64]
-0.07544145254170484 -0.03827294456004908 -0.07710873877071554 -0.03659036790038481 -0.09482610940016849 0.024352016338274704 0.0710111472896761 0.040035137864465414
0.02823974991647066 0.010374002012049006 -0.02598416339891465 -0.056204140671078325 0.08343078619310237 0.06513398936238407 -0.007121676936828925 0.013366570751973218
0.0628301661277948 0.027141725144737255 -0.009119653286606777 0.07753331055184733 -0.0588078271923269 -0.004516185176661641 -0.008352987268729545 0.0315651048881469
-0.021913087668638746 -0.070805771195624 0.06162241890178826 0.07720134963937668 0.008281686602546192 -0.08242968206181871 0.04465357884329833 -0.04878472076724813
-0.09319870506505218 -0.00790414666353867 -0.006722200461536485 -0.05560961278319032 -0.02516915110588722 -0.007239644938423209 -0.00832233312576185 -0.08927349536869846
-0.08439120384342993 -0.0472674033421866 0.06910615717095138 0.06396017944979547 0.0036100144517286423 -0.03516295337729358 0.0030683817594637716 -0.036638251956189714
0.0033778457696327074 0.0023905023344985496 -0.04210507439785242 -0.061839043846885364 -0.03775395581844984 0.014740092085545992 -0.00023475740982680307 0.0016024207094674121
-0.030654739100392035 -0.008306257024481052 -0.07578601096978219 0.0013365792744057664 -0.06192766106220609 0.08685757242378744 0.07348429810898374 -0.06461981309543835
0.07238195043265348 0.008811906160262289 0.002931866136583779 -0.030766789466575146 -0.008852662433126997 -0.08680137867783948 -0.027454169260321862 -0.04736788526019351
0.06223736718573658 -0.027111949762105965 0.0504442542276119 -0.0037838432226843972 -0.006515411101947052 0.061752127118786374 -0.004351609004647492 -0.008497748379473691
0.052065364661006155 -0.014702445837724372 -0.03317815836021581 -0.005475961217283165 -0.057548590212747844 -0.054745880094102736 -0.007607029017181027 -0.06129926271141775
-0.07466397134243771 -0.027435046504886228 0.03461044345247319 0.07751047001196984 -0.007189921043606492 -0.0009623961662277494 0.03405214045690597 0.04346203347252369
-0.04460299263302138 0.0046720140071203 0.0581965570482657 0.03269719850679534 0.023923897874160216 -0.008497540475517701 -0.05714118761495314 0.01003632501145575
-0.040473384547292074 -0.023203967125061925 0.028300083140683933 0.00777057736964364 -0.06387842613659139 0.07901078585372706 -0.06800141518593279 0.02997004146787193
0.005705358058723509 -0.015921912048261426 0.07430695612150931 0.0533089450642465 0.03545442629478188 0.08023444421703108 -0.020129260596778435 0.0010804183097195006
-0.012631481035367554 0.0260595253449047 -0.078503729787895 0.05387429976928812 -0.008297619345517773 0.010891198235857385 -0.03015299084445288 -0.059362504110248446
-0.09392953453897081 -0.019670490508016537 -0.005058528634255696 0.005871258046159676 -0.09338900019388793 0.02121166728192346 0.011116889991893534 0.005631977893112842
-0.026357735476148773 0.008189483080932678 0.0389370645620071 0.06797592431486045 -0.024736057494965304 -0.06967911042781581 -0.007084754324755778 0.012621028387933431
-0.050839584043044436 0.07880997277614116 0.036386610134446204 0.015608336471314243 0.052366120836358124 0.05344748196416986 -0.06998153101540648 0.0002946839552487573
-0.032129721166890376 0.005770383772065742 0.0822806859827492 0.003633800307265201 -0.06616284884045559 -0.008497994784707485 0.004123262422907675 -0.06766266533843816
-0.007320904906133967 0.0708132330579281 0.02834821365075367 0.06110109035956737 -0.01753869813121625 -0.09490452327581446 0.0006166491417279058 0.016168369846558048
0.060099502143648745 -0.008760980822444548 -0.0030806778110477866 0.021177729808715053 -0.007192507309550178 -0.04344356807840655 -0.009995684936585569 0.05282459102740916
0.06086910049157791 0.008454191881184219 0.0737846775465178 0.020665818532788472 0.02471906953981481 -0.026344758272506784 0.05506556948200272 -0.025934346092733037
-0.0026975851080040247 -0.09072068143979624 -0.013442574246274975 0.08690754656976565 0.08378186257342994 0.0047941348819384964 0.025556303740866565 0.017650612326869757
0.02907148590030066 0.09277151212893875 0.008292333051510468 0.013969025281133564 -0.003727811774894202 -0.004973716200206861 -0.0038806998698851566 0.08081774030592585
0.05908431904388769 -0.000580279895901847 -0.028297048328417822 -0.014081807121119845 1.4471806171926366e-05 0.0009164092038404705 0.019217212990877593 0.036141762088087476
0.07424984301142029 -0.025253799734711008 0.0950267000837253 -0.00024056688544417393 0.085935172060829 -0.05303431305749978 -0.027911186893323975 0.040797520425809086
0.03321452906147316 0.00209087075890021 -0.05105203534050312 -0.06620272228602135 0.033202152656159896 -0.08822919296375827 -0.011398561031894799 0.006117681656965248
-0.06661180729393276 -0.09468259708177292 -0.0017417959911896572 0.0801783405437481 0.003868627407900581 -0.0014294134216267015 0.0928869554765481 0.0085390773772475
0.03273083503119911 -0.057189105655691366 0.03170587396203197 -0.006083437330207195 -0.03544399013823199 -0.058037387740259024 -0.08226262767884436 0.045601364539425274
0.03214102883580936 0.008151559697385905 -0.008626429154751654 -0.07111007097089767 -0.018942612567063963 -0.07911373637740494 0.08607669899933248 0.07025650049132835
0.03708588348638604 0.02066848275976097 0.06422841505162864 0.04403396456560278 0.0015580686927549707 0.09065269662463764 0.060875710876891975 -0.0062680712310554144
00000000: 6eea 6d8b 2150 b3bf 1600 6aea 8298 a3bf
00000010: 378b 41f7 65bd b3bf 4c26 f602 f9bb a2bf
00000020: 8b3e ae1e 8646 b8bf 8ce5 0e27 bcef 983f
00000030: 8bb6 425b c92d b23f 9c30 a34f 7c7f a43f
00000040: 5195 5a89 e1ea 9c3f 578e f6fa f63e 853f
00000050: 868d 0cb0 979b 9abf 6904 2a04 cac6 acbf
00000060: 36cf 2d52 b85b b53f 2c61 2b02 9fac b03f
00000070: cdeb 9498 9e2b 7dbf fa47 eac1 ee5f 8b3f
00000080: b09b b844 a315 b03f c827 6a57 0acb 9b3f
00000090: 3347 ef24 53ad 82bf 49b9 2b19 39d9 b33f
000000a0: fe68 143d 0f1c aebf 86dd 2e3a 907f 72bf
000000b0: 7010 25f9 5e1b 81bf 20f9 602a 4d29 a03f
000000c0: 9e92 906b 6270 96bf 4e3c a7b7 5320 b2bf
000000d0: 4766 c443 f98c af3f c37e e8b7 77c3 b33f
000000e0: 21c5 e828 fdf5 803f 33d9 ac94 1c1a b5bf
000000f0: ae09 9079 d5dc a63f 0cca 7a98 4ffa a8bf
00000100: dcb0 48ce dedb b7bf 40a9 619b 0c30 80bf
00000110: 7d35 3bf2 bc88 7bbf 307a 7ef8 dc78 acbf
00000120: 59b2 7823 f1c5 99bf 7641 ec63 51a7 7dbf
00000130: 1a01 d0a4 4c0b 81bf 4117 02b7 a0da b6bf
00000140: aadd 9374 a99a b5bf 5006 0bdf 6e33 a8bf
00000150: 7960 00ed f0b0 b13f 8fb0 fbbe b15f b03f
00000160: 70ae 43c0 bf92 6d3f 308f 92ed e000 a2bf
00000170: f08e dfe9 dc22 693f 4b6f debb 3fc2 a2bf
00000180: bc71 9123 dbab 6b3f f037 202b 3f95 633f
00000190: e59f 11db cb8e a5bf 9666 e0fd 5da9 afbf
000001a0: 9cda 118b 7c54 a3bf dd5f 94ab 0d30 8e3f
000001b0: 804e 9fcb 26c5 2ebf d080 a922 0a41 5a3f
000001c0: 5648 9db7 f463 9fbf 37b4 2df2 de02 81bf
000001d0: f608 9c46 b666 b3bf c0d3 6911 05e6 553f
000001e0: b7bb f57d fbb4 afbf b059 f840 4c3c b63f
000001f0: 1ac9 25f1 ddcf b23f 7425 eb8f ec8a b0bf
00000200: ffce ed9d 9f87 b23f 83a2 3006 fa0b 823f
00000210: c435 88a5 9104 683f 9557 3f4a 5481 9fbf
00000220: c4fd 0f3d 5821 82bf b345 ab7a 9d38 b6bf
00000230: 049e 721c f21c 9cbf fd7b 257c 9a40 a8bf
00000240: 80c3 4d81 93dd af3f 0275 3c26 3cc3 9bbf
00000250: f17e 5b4c d4d3 a93f a8bb a05c 4bff 6ebf
00000260: 564e a559 e7af 7abf ba03 de8c f99d af3f
00000270: 8a50 c225 fed2 71bf fa2a 097b 4467 81bf
00000280: 0a59 f2bc 4fa8 aa3f 3199 5ae0 501c 8ebf
00000290: 6780 3242 bafc a0bf c073 7a25 f66d 76bf
000002a0: 9210 ca41 0277 adbf de97 30e9 a607 acbf
000002b0: 0685 934d 8c28 7fbf 6499 3af1 9d62 afbf
000002c0: bef1 1a93 2d1d b3bf 76ca 02ce ee17 9cbf
000002d0: bcf4 74c5 75b8 a13f 368b cce5 b9d7 b33f
000002e0: 7cc9 e3bb 2d73 7dbf b0b0 a507 2a89 4fbf
000002f0: 310f 3e3b 486f a13f b7a8 c3d8 a740 a63f
00000300: 823a 5315 34d6 a6bf b960 df35 f622 733f
00000310: e731 866a f0cb ad3f d4d7 83ec afbd a03f
00000320: 7075 d99b 817f 983f 9da1 8293 2867 81bf
00000330: 5224 1f18 9c41 adbf a7e0 91bd ec8d 843f
00000340: ec64 fa6d edb8 a4bf 8826 c2df c7c2 97bf
00000350: 8ed6 406e b2fa 9c3f b54c c77a 0ad4 7f3f
00000360: 6c36 2d27 565a b0bf 74e4 4505 0d3a b43f
00000370: 1528 4e6e 8a68 b1bf 966a db6f 77b0 9e3f
00000380: 7412 6364 805e 773f fef5 256e d54d 90bf
00000390: 923d 68da c705 b33f d938 455f 4f4b ab3f
000003a0: cc7a de22 1527 a23f 40c5 ec99 3e8a b43f
000003b0: bec3 d2cf c39c 94bf 0484 9953 9ab3 513f
000003c0: 6759 93af 88de 89bf 332f 6c24 59af 9a3f
000003d0: 6093 0d08 d218 b4bf 8c3e 3587 6995 ab3f
000003e0: 080c ca9d 57fe 80bf c3e8 e5e1 1f4e 863f
000003f0: fecb 36f6 6ce0 9ebf ce3c 861b c364 aebf
00000400: 912f f916 c40b b8bf 8a7c b645 8024 94bf
00000410: f0d4 cc70 40b8 74bf bed0 b6d4 750c 783f
00000420: 0e8e a36d 57e8 b7bf 5cf6 13e5 82b8 953f
00000430: 4259 96b7 73c4 863f dead cd8d 8e11 773f
00000440: 6e7a 77af 85fd 9abf b2ae 07d0 a5c5 803f
00000450: 84c8 ca15 8fef a33f a902 d9c3 de66 b13f
00000460: 3a33 e4b7 6854 99bf af78 807c 7dd6 b1bf
00000470: a215 0042 e704 7dbf ba30 58c1 0dd9 893f
00000480: be3e 9d5d a507 aabf c413 acef e32c b43f
00000490: ee59 1409 44a1 a23f 139a 8375 43f7 8f3f
000004a0: 9a32 d270 bbcf aa3f d6e7 2de6 775d ab3f
000004b0: 9701 0943 4fea b1bf e0a5 50f3 f94f 333f
000004c0: ae64 488b 4e73 a0bf 08dc 6199 afa2 773f
000004d0: 216b 63d7 5810 b53f b554 5baf a1c4 6d3f
000004e0: e4dd fa67 0cf0 b0bf 8686 748d 6567 81bf
000004f0: c6bd 25d4 8de3 703f cbed c926 5752 b1bf
00000500: c52f 6272 86fc 7dbf 919a 1be8 d020 b23f
00000510: 5cba 1e6a 5007 9d3f d445 b061 a448 af3f
00000520: 484d 8d1b aaf5 91bf c94b b6af a94b b8bf
00000530: 1041 cbf2 d334 443f cce4 e1ee 708e 903f
00000540: 1afb 6ca8 5cc5 ae3f aa00 e8f0 46f1 81bf
00000550: bcb6 554e a63c 69bf 8a52 ba63 9daf 953f
00000560: c06d bbfa e375 7dbf 9092 3c40 3c3e a6bf
00000570: d3e3 3a1f 9e78 84bf d84b c625 d30b ab3f
00000580: f282 e517 3c2a af3f f67d 266d 6e50 813f
00000590: 5c19 0279 8de3 b23f 1d3d f99a 6b29 953f
000005a0: d751 0bad f44f 993f d646 cecc 1efa 9abf
000005b0: 7323 1fe8 8d31 ac3f 7fe8 3e81 888e 9abf
000005c0: 404e 25fa 3e19 66bf 7dd1 da77 7839 b7bf
000005d0: 1a2c 18c6 c787 8bbf 0af1 4aae 923f b63f
000005e0: 9337 c067 ba72 b53f 1c16 7dc8 03a3 733f
000005f0: 783b 1883 6e2b 9a3f ee09 cb8a 0013 923f
00000600: 2c6d c064 eac4 9d3f 6021 98b2 dfbf b73f
00000610: 4c37 1c1a 92fb 803f 146d ead5 ca9b 8c3f
00000620: c001 15b5 c989 6ebf 382a b6c6 515f 74bf
00000630: 0c1f dbe0 6aca 6fbf 53f2 8caf 78b0 b43f
00000640: 83f6 ffc3 4c40 ae3f 3051 7496 bd03 43bf
00000650: db56 93c4 e6f9 9cbf 4429 6e28 ecd6 8cbf
00000660: 0088 26e5 7d59 ee3e b036 b6c7 6507 4e3f
00000670: f2ab 4355 adad 933f fc54 604c 2c81 a23f
00000680: 6499 77a7 0902 b33f 685d d7cf 21dc 99bf
00000690: 123d 1b79 ab53 b83f 0082 9bcf 1588 2fbf
000006a0: 0fd0 93f1 d8ff b53f c8aa 4b40 5027 abbf
000006b0: 88f4 980b c094 9cbf 4036 f99f 69e3 a43f
000006c0: 2163 24a8 7e01 a13f b4cd f2b0 df20 613f
000006d0: 6807 5d0c 7e23 aabf e3e7 1f5f a9f2 b0bf
000006e0: 8148 a15f dfff a03f d5f1 543a 3096 b6bf
000006f0: a3dc d3f6 2058 87bf 02d8 4daa da0e 793f
00000700: 6eda daad 780d b1bf 7570 f761 1e3d b8bf
00000710: a8b4 6134 9f89 5cbf 8ba2 7b56 9186 b43f
00000720: b0a0 5086 19b1 6f3f 9891 7ef9 646b 57bf
00000730: 1e2d ff83 70c7 b73f d619 9690 ef7c 813f
00000740: 303e 0f94 18c2 a03f f215 f5f4 e347 adbf
00000750: e31b 8497 c03b a03f e38c 1646 f2ea 78bf
00000760: 2487 f7f4 b625 a2bf 7151 9494 13b7 adbf
00000770: 154c 90df 290f b5bf ba19 b3e2 0f59 a73f
00000780: ed4f 6bf7 c974 a03f c249 7ed2 c3b1 803f
00000790: c4ae ceb8 bbaa 81bf 847a 3c05 4534 b2bf
000007a0: 3cc5 e735 b165 93bf 09c3 673e cc40 b4bf
000007b0: 4257 265f 1f09 b63f d710 f17b 54fc b13f
000007c0: 3a41 6fc1 ebfc a23f 4261 0b66 1e2a 953f
000007d0: 85e3 1efe 4571 b03f cae9 71ab 9e8b a63f
000007e0: b0b3 2385 0387 593f 0b0a 4cdf 0335 b73f
000007f0: 988b ace6 192b af3f e460 248f 8cac 79bf

tgnn._base_tgcn.linear_h.bias f8 [32]
-0.0226038594077747 0.00923739017103426 -0.0008654449724835849 0.019629361809828084 -0.023423870394122415 0.03328250509444681 -0.007676138032009277 0.09178320654955625
-0.01795271083053579 -0.00506295624857074 0.03299870459379753 0.044328383941689475 0.09369849243030161 -0.004792257613239367 -0.05013621044146915 0.10078834605604445
0.07720374731765052 0.04589877060416563 -0.12704311164528811 -0.08567102909504747 0.018521260340508446 0.09255491292092502 -0.08581161739886607 0.08670233460158044
-0.07193121837592818 -0.03702128269373633 -0.09509278883072164 -0.09077145067227313 0.07558998851592445 -0.07120447380509247 -0.05198890199952933 0.0029770421628995437
00000000: 4ed9 ad53 7725 97bf e3d8 7a85 0deb 823f
00000010: f015 39ed e05b 4cbf 9ae9 0e2c b819 943f
00000020: 206c 2755 6dfc 97bf 69b7 d18d 670a a13f
00000030: 79b9 e99c 0371 7fbf adcd 73ae 1a7f b73f
00000040: d018 9107 3262 92bf 4f98 23f8 e4bc 74bf
00000050: f4d9 14ca 34e5 a03f 20d0 a0be 35b2 a63f
00000060: b932 acd8 9ffc b73f 3ce0 90db 0ba1 73bf
00000070: 280a 6210 74ab a9bf a6ee 20da 43cd b93f
00000080: 0da3 dbf1 9fc3 b33f 87ce 572d 0b80 a73f
00000090: 5f6b d9dc f242 c0bf 6b8a 2d5c 89ee b5bf
000000a0: 72d2 c5bd 3cf7 923f 2a5a 14c4 adb1 b73f
000000b0: 8d51 580a c0f7 b5bf 5cc3 99cb 1f32 b63f
000000c0: 7f6d 7c96 156a b2bf 17e4 d91c 74f4 a2bf
000000d0: b406 1d42 0058 b8bf 8a42 0c3c cc3c b7bf
000000e0: 97b6 9490 dd59 b33f eb5e 52d6 743a b2bf
000000f0: 3194 af13 4a9e aabf 4899 4f57 4f63 683f
