Q2_GMAN/models/A3TGCN/2/d1/bestval.pth (torch, 59448 bytes, 15 tensors)

tgnn._attention f8 [12]
0.38671552659878555 0.20966470254686198 0.7958218053574571 0.059776195576247006 -0.016389285938525563 0.2406645782845848 0.2313219154554214 -0.10841025932268893
0.23925422350242098 0.4206855979886376 -0.13449211619821366 1.439644018225813
00000000: 8f38 e67a f2bf d83f 4c3c 4800 4bd6 ca3f
00000010: ce86 6e4a 5f77 e93f 7d97 284a fc9a ae3f
00000020: 0f6b 715c 5ac8 90bf adda 84ce 18ce ce3f
00000030: 8a53 ddde f49b cd3f 0b82 5756 c6c0 bbbf
00000040: 04b7 afe4 e19f ce3f 0a9a 5049 83ec da3f
00000050: 8411 52a4 0937 c1bf 1f97 822a c808 f73f

tgnn._base_tgcn.conv_z.bias f8 [32]
-0.10660136087445521 0.12330200251651433 0.09887284051356242 0.09046037192879515 0.04807051582315592 -0.07768392640335045 0.07421463951695284 0.07175313244494094
0.07698854549331788 0.051349921996561146 0.10007013933949316 0.11203691660249948 0.038365244599094024 -0.08287384988713561 -0.13212091785441016 0.14504545876511113
-0.060212082895739746 0.07512786200993975 -0.01788965266944533 0.04481401412696427 0.04791117841847231 0.00459752849747359 0.08005969097191966 0.025766690033908746
0.08070065870493003 -0.08692899700511389 0.1315667595248206 -0.09980163171406445 -0.13512526902811856 -0.060930304193644265 -0.11381611568342734 -0.08209378318864695
00000000: 8435 aa0e 3a4a bbbf 1ef9 5654 b890 bf3f
00000010: 63e7 7700 bb4f b93f e5a6 0433 6928 b73f
00000020: 1180 b9da b29c a83f 62c7 5303 18e3 b3bf
00000030: 0818 9c09 bbff b23f 5e90 3ccd 695e b23f
00000040: ee76 0f75 85b5 b33f 1a38 4177 894a aa3f
00000050: f0ef c457 329e b93f 409e c08c 73ae bc3f
00000060: 3959 b6fd 9ba4 a33f e677 f57a 3837 b5bf
00000070: 4cae a696 56e9 c0bf 092c ea7e d990 c23f
00000080: def4 b83d 1ed4 aebf 2be1 595e 943b b33f
00000090: 66b7 9b44 aa51 92bf 8ed4 27ca dcf1 a63f
000000a0: 281f d760 d087 a83f 4c0f a0a8 dbd4 723f
000000b0: 67c7 73ba ca7e b43f a054 164c 9562 9a3f
000000c0: c740 e761 cca8 b43f 1e07 368f fa40 b6bf
000000d0: ae2c b3f8 2dd7 c03f c2a1 4c88 998c b9bf
000000e0: 6663 abe9 c84b c1bf 69ae b1bf 4132 afbf
000000f0: 0a3a 9e8e 0d23 bdbf 0b0a 0022 1904 b5bf

tgnn._base_tgcn.conv_z.lin.weight f8 [32, 1]
0.13741866821059687 -0.2811567042428723 -0.1445607171820346 -0.04215299693823155 -0.09042516518983333 0.021795684719223527 -0.09054959217871208 -0.3741101959716277
-0.2606908164185871 -0.11831394108062435 -0.26585783917633043 -0.32727790885820857 -0.21035830064280436 0.08328755077349854 0.13539230034780858 -0.215803387424684
0.2747605760679322 -0.05016671084076746 -0.027596611629736856 -0.038259512955423805 -0.29373275311372876 -0.05166917015122333 -0.2385598517338749 -0.0382590410334119
-0.10639165706766561 0.2600086971112642 -0.24381605381914873 0.41780155895875976 0.20104469615749038 0.19590191323298764 0.1759273812472518 0.06366129434276972
00000000: 8f85 e956 ef96 c13f d28d 71b0 78fe d1bf
00000010: 75a4 4a30 f780 c2bf 2962 8ede 1395 a5bf
00000020: 8fc9 3987 1a26 b7bf f980 40a4 9b51 963f
00000030: 62de 1211 422e b7bf 3717 33e4 6bf1 d7bf
00000040: eda9 b888 28af d0bf aa26 9a8b d249 bebf
00000050: bc71 2999 d003 d1bf 1df4 cf0a 1ff2 d4bf
00000060: 44fb d952 05ed cabf 1572 bc3a 5552 b53f
00000070: c8e0 0fef 8854 c13f cd71 ad05 729f cbbf
00000080: e947 1c62 ad95 d13f 7866 d17c 73af a9bf
00000090: cd74 b841 4942 9cbf ea11 cf39 c096 a3bf
000000a0: ebcc 1876 84cc d2bf 059d 05a8 6174 aabf
000000b0: fef4 aa14 2189 cebf 4b97 0764 b096 a3bf
000000c0: 4741 accf 7b3c bbbf 462e b184 fba3 d03f
000000d0: 784e b24c 5d35 cfbf 2b86 fcbf 42bd da3f
000000e0: 42ed 8325 d5bb c93f 139e 475b 5013 c93f
000000f0: 73c4 76d6 c984 c63f 5325 3949 1b4c b03f

tgnn._base_tgcn.linear_z.weight f8 [32, 64]
-0.04007503774983684 -0.03706140868352297 -0.17480481041070728 0.025076200669395764 0.004682481417197442 0.04748439032481138 -0.1648498526929116 0.05877733451130275
-0.1182278266832626 -0.024820646518090572 -0.14216119618143136 -0.043225329308772056 -0.09401565387069413 0.01778759192375329 0.03097254544669493 -0.029602127385089588
-0.035506951727247514 -0.16033389358156222 -0.05813617157570746 -0.03333159921457665 -0.019712134833255165 0.00874585948464902 -0.11064759137750331 -0.012238420309163191
-0.18136100577494751 0.14723822648290855 -0.18414195937897773 0.18363398773067738 0.035209513508755286 0.16334437550046152 -0.04070704994958802 -0.05847353822207614
0.0014694970864135358 -0.001653614512604837 -0.0008666295538506251 0.0005691853197500558 0.0004439163864849235 0.00011272007859074381 0.00026154072612129183 0.0007102444803758983
-0.000888981516199701 -0.0008668211607316919 -0.00019459780913012555 -0.001232226937182406 0.000794931097016287 -0.00114590487470297 -0.00037505869751604384 -0.0002843165909899258
0.0013661914349144973 -0.0005900481567887701 0.0015912262287419464 0.0011734940830142523 -8.857582744265001e-05 0.0002952249049905484 -0.0008618012821654565 -9.44159622445187e-06
-0.00025844448290620746 -0.00048391430881986584 0.0010151537250651299 -0.0004048613477471531 3.781606578979148e-05 -0.0004236701720641809 0.00016444719432976885 -0.0005553612136371111
-7.669757371202827e-05 -4.995227403483494e-05 -0.0009568617874503903 -9.13585739199781e-05 0.0006942501207444408 0.0008784006300310551 0.0009707931022470302 0.00041957540355039535
-0.0011239573034678534 -0.0003447163487502221 -5.5548107479304364e-05 -0.0006938435310593501 0.001594821338906792 0.0015787317075460045 -0.0011422246223546947 0.0005975768368630486
0.00042030905235932044 -0.0011820923952061346 -5.408215050845718e-05 -0.0011497841717032003 0.00022001231037284725 0.00017386834497741305 -8.808587405853964e-05 -7.334297123607345e-05
0.0005583732080652316 0.0005623628997224555 -0.0001322209837881569 -1.240011696387991e-05 -0.0011087669554518276 -0.0002189114251463688 0.0012892111101468519 0.00042125698594290274
-0.0002392590114400461 -1.966199237333741e-05 0.00015310768022728814 -0.00016806814524799484 0.0004979352246279171 -8.745651880005161e-05 -0.00012999346248568916 0.00040498815743303265
0.0007019599656303651 -0.0011344320126462299 -4.462139122124109e-05 -0.0005526140636469328 3.504867163400623e-05 -0.0008609326617603233 -0.0004136748310042008 0.0008693917912152304
-0.0014841432067084362 -0.00023580769055386457 -0.0003807397542734841 -0.0006254163886114486 3.767083863603416e-05 -0.0001057842259783734 -0.0006570959386558899 -0.00041510866547964933
0.0005211510648602027 -0.001639843822370721 0.0010400541725619251 -0.00028727840357850294 -0.0003611339058254777 -0.0010255981677873283 -0.0006635193046963185 -0.0001110497366130595
0.06944534993301292 -0.10443741912614753 -0.2231325858299349 0.009315372021004817 0.010650179382180233 0.04186048374233615 -0.14192339684190963 -0.008779935107447024
-0.10552434211233382 -0.17729024801192675 -0.017861195380132377 -0.11941331349111411 0.009479116915982369 0.06392543861031737 0.143923238105318 -0.09978872496831999
0.10741820101066572 0.00021479947617531912 0.06236748374837661 0.027456461876220403 -0.09734681677013726 0.07022086889274103 0.023129031436559224 -0.05885384670077595
-0.17021273250013674 0.09715793613551975 -0.07833153318811134 0.12591820063796313 0.06775059309333341 0.0018145931417274672 0.09560472770766493 0.0006565035475933209
0.0016292296009825192 0.00041895282768483755 -4.258508761467573e-05 0.0008526105238260988 -0.0006507218100556517 0.0001343279172114915 -0.0008037937820536985 0.0001150044472352286
-0.00011254932246573194 -0.00010452285567446786 -0.00012067954259153355 -0.0010623213289903293 -0.00014891941527832688 0.0005205466555838309 -0.0011508044030049303 0.0004159080982708696
9.589017995387154e-05 0.00024767862936001244 -0.0008308755627692342 -0.001669420771960621 -0.0003961977194717126 0.0007058942618724314 -0.00032399737744600676 -0.0007408694771642583
-0.0009116203535517879 -0.00016002664472096852 -0.0016500981204280202 -0.0009455094061203084 0.0001578091288999444 -0.0005732380474618576 -0.0001391124753357721 0.0006985121661787935
-0.04023381106457352 0.0735762895579622 -0.02684562193924291 0.05943085862012916 -0.11614146448254524 -0.06113180412131522 -0.16480733571313122 -0.16475893841896827
-0.12490768166796759 0.04005289627618482 -0.0032381772945155054 -0.07673502376459401 -0.1472623268371907 0.029303324076374322 -0.007952530141715347 0.07223628186032302
0.1539411179785914 0.007429414178567378 0.03424226255406043 -0.07722972742509329 -0.13815003548318167 0.03222298539616505 -0.13590472470330747 0.011309521524087941
-0.11754532540789792 0.07154215083833694 0.06174280261370851 0.016157326767795403 -0.015836944520438195 0.1354130353434972 0.011272054538002754 0.06762551804876164
0.00124411594528675 0.0015318996374547738 0.00034407364129484586 0.0006950779542531868 -0.0007366345947260491 -0.0003459565721408397 -0.0005983652259233932 -0.00025035447297105685
0.001101154598197564 0.0011719324180234016 0.0006844693123709092 -0.0009304176473393167 0.0010526537263013866 0.00036845736527228316 -0.0015321482162372248 0.00016370584757377537
0.0005173626127277175 -0.0003661655052803694 0.001384616311244737 7.277283692373005e-05 -9.213680627266564e-05 0.0008662244511557698 -0.0008050403663698945 -0.0004686534970317502
-0.0006171327704305718 -0.0002103555940316621 0.00017370606615089602 2.5754418020683306e-05 -0.0006258038292864871 -0.0011179553993484455 0.0006780383344647827 0.0001332282069649867
00000000: f803 0b21 b784 a4bf 7795 7a84 b6f9 a2bf
00000010: 3ce0 f207 0160 c6bf a3c7 2157 93ad 993f
00000020: acdb d008 f02d 733f f7f7 07bf df4f a83f
00000030: 2f82 08cb cc19 c5bf c2b6 f112 1018 ae3f
00000040: d0ee 14c9 2d44 bebf e03b 3e64 956a 99bf
00000050: b203 2e8c 5632 c2bf 1ae2 7a5f a121 a6bf
00000060: baca afee 6811 b8bf 7134 5916 e936 923f
00000070: c3d8 1157 44b7 9f3f db3f 0b24 0550 9ebf
00000080: c3fa e598 f72d a2bf 83c3 af2e d285 c4bf
00000090: ebbd 4337 06c4 adbf c497 19e1 d610 a1bf
000000a0: 3ccf c5f9 6a2f 94bf 0622 b263 59e9 813f
000000b0: edf8 588a 6653 bcbf 6e47 dcf7 7410 89bf
000000c0: 405a 4962 d636 c7bf 7d89 bbc3 b3d8 c23f
000000d0: 2952 adb6 f691 c7bf a760 de89 5181 c73f
000000e0: d86c 0e3a fb06 a23f 8748 61ef 77e8 c43f
000000f0: 990f 80f0 8dd7 a4bf 12c1 b05c 3ef0 adbf
00000100: 1ea8 5f7b 8413 583f 5af6 1d10 c317 5bbf
00000110: 7a6f b7cb d065 4cbf dd58 b62a aca6 423f
00000120: 8952 b35c ae17 3d3f 999c 6034 848c 1d3f
00000130: f1e0 81dd ec23 313f c756 5e68 f645 473f
00000140: db41 f844 5121 4dbf dea0 b644 6c67 4cbf
00000150: 8cb1 c173 9e81 29bf 496a 5f99 5530 54bf
00000160: 289e 3988 5d0c 4a3f 53e9 83fd 45c6 52bf
00000170: 1975 04d7 7094 38bf ac57 c375 0aa2 32bf
00000180: c636 1de2 3862 563f 6d24 abc4 ae55 43bf
00000190: 8f21 3b27 1612 5a3f e0a1 59ad fd39 533f
000001a0: 2030 da20 3938 17bf c89e d84f 0d59 333f
000001b0: 205e 4929 503d 4cbf c072 ac1a ebcc e3be
000001c0: b405 179a faef 30bf 6206 6521 bcb6 3fbf
000001d0: 5c1c 2c03 dda1 503f ba2c 7c3f 7288 3abf
000001e0: f4c2 6b20 96d3 033f d3c3 8688 01c4 3bbf
000001f0: 7535 a4a4 ee8d 253f f640 0120 b532 42bf
00000200: 8c6d 7948 161b 14bf b8cb 1411 7b30 0abf
00000210: 28f5 bc0a bd5a 4fbf 40c7 4959 f8f2 17bf
00000220: aff4 2bc8 cabf 463f f34e 48fd 8ec8 4c3f
00000230: 96ec 0a50 9acf 4f3f 2db6 eea2 4e7f 3b3f
00000240: b058 12f7 376a 52bf 4b40 bc71 6197 36bf
00000250: 3877 9870 8a1f 0dbf 8ce2 20a3 61bc 46bf
00000260: 939c 965f 2a21 5a3f b178 6543 aedd 593f
00000270: 09e8 7359 d6b6 52bf 536d 4f7c d694 433f
00000280: 1c1e 54a2 9d8b 3b3f 619f 680b 0e5e 53bf
00000290: 34a4 b68a c85a 0cbf 1c1c 8e5a 8bd6 52bf
000002a0: 7582 045b 63d6 2c3f ac79 02b6 0dca 263f
000002b0: 30a9 14cb 5717 17bf a041 c2a6 f639 13bf
000002c0: f701 7455 f94b 423f 5628 a321 716d 423f
000002d0: ecdc 389a 9954 21bf a0c2 3319 4301 eabe
000002e0: 48d6 0074 812a 52bf 968a cdd2 72b1 2cbf
000002f0: 10ed 90e3 571f 553f cd7a 53fa 849b 3b3f
00000300: 98cd 4142 335c 2fbf 84ec d5d3 f99d f4be
00000310: a165 6cf5 7011 243f 0af7 ea5f 6e07 26bf
00000320: 74c7 adc0 fb50 403f 20c2 618d 1bed 16bf
00000330: cf64 1357 db09 21bf ea8d 35e4 928a 3a3f
00000340: 59cf 388c 7700 473f e4da 3419 2796 52bf
00000350: 045e f653 fb64 07bf 2d80 53aa a91b 42bf
00000360: e45e ff2f 2760 023f 0d37 2bd0 0636 4cbf
00000370: 25b1 cede 4f1c 3bbf 0a5f c4a7 fc7c 4c3f
00000380: 44e2 43a2 f250 58bf 6aaf 5da3 64e8 2ebf
00000390: 28f3 faca c0f3 38bf 5f6f bd77 5f7e 44bf
000003a0: 20fd dd28 18c0 033f 3e78 fe29 0fbb 1bbf
000003b0: a8ea 8ec8 1e88 45bf 9a46 7c24 5e34 3bbf
000003c0: 2b21 d263 bb13 413f 5bba 9be5 00de 5abf
000003d0: 10ec 0faa 4d0a 513f cabb 2459 bbd3 32bf
000003e0: 92a7 a350 d2aa 37bf 801b baa5 abcd 50bf
000003f0: c43b 62db 00be 45bf a88a abf2 6b1c 1dbf
00000400: 2b52 d2a2 2bc7 b13f 651d a023 69bc babf
00000410: b0de 67cb 9b8f ccbf 6b3b 7111 f013 833f
00000420: ebdb 24e1 c2cf 853f b90d 56c1 bc6e a53f
00000430: da92 fcbd 8b2a c2bf c70d 2ef1 36fb 81bf
00000440: 75ec 4dae a403 bbbf c133 8e64 72b1 c6bf
00000450: f3bc 1988 344a 92bf 9cbd 26f4 de91 bebf
00000460: c85d 3189 c969 833f 8db9 36e4 6a5d b03f
00000470: 4bfc 65a0 136c c23f ed9b 3ffe c08b b9bf
00000480: b301 565c c27f bb3f 70d1 6373 7927 2c3f
00000490: 0cf1 107e a1ee af3f 9cf8 49f7 8b1d 9c3f
000004a0: e2be 6592 b8eb b8bf 4f1a 64af fef9 b13f
000004b0: 27c6 6e06 23af 973f dcb2 a565 1722 aebf
000004c0: 8eb6 b9e3 87c9 c5bf d3b8 3fae 57df b83f
000004d0: 9ed9 490d 890d b4bf 3109 db6c 161e c03f
000004e0: 27d7 9e55 1a58 b13f 84c3 c08c f4ba 5d3f
000004f0: 98ef d82a 8d79 b83f 82a5 20a2 2683 453f
00000500: 6c37 a6f6 7bb1 5a3f 0074 87b1 dc74 3b3f
00000510: 2c7f 0478 ac53 06bf 0e9b 7428 37f0 4b3f
00000520: e743 4d72 a652 45bf 1864 d105 4c9b 213f
00000530: 11de d900 b656 4abf a0a1 ec5b d125 1e3f
00000540: 385e ffa2 0e81 1dbf f3ce bafc 6866 1bbf
00000550: 3c9e 41c1 aaa2 1fbf 4f32 6ad7 b267 51bf
00000560: 9076 6609 e884 23bf 64a2 4e6e a90e 413f
00000570: 5295 99d1 d2da 52bf f690 22ae c741 3b3f
00000580: b92f 65bf 1423 193f 32d6 ee9c 5b3b 303f
00000590: 32f6 3faf e339 4bbf adf9 9ae7 0e5a 5bbf
000005a0: 861d 753f 18f7 39bf 3a5d 7462 7821 473f
000005b0: aaed de23 c63b 35bf 0639 6716 dd46 48bf
000005c0: 8979 6ccd 39df 4dbf 8cd6 3f69 9af9 24bf
000005d0: 8d71 985d 0309 5bbf c2b5 19fd 81fb 4ebf
000005e0: 78ae 6318 32af 243f 807e 5555 abc8 42bf
000005f0: a898 6610 d73b 22bf 94a4 6d74 8be3 463f
00000600: 887b 6ead 8699 a4bf e497 694d e5d5 b23f
00000610: e54d 1431 6b7d 9bbf 4a16 4bb4 b86d ae3f
00000620: e77d a96f 72bb bdbf 2c9f e4f6 aa4c afbf
00000630: 70af 8322 6818 c5bf c0d7 1d26 d216 c5bf
00000640: 3679 c827 f3f9 bfbf e38a 3b2f d081 a43f
00000650: 43d7 8332 f386 6abf bcd6 8611 e8a4 b3bf
00000660: a26b d9ee 7dd9 c2bf 12d9 49ca b001 9e3f
00000670: f070 0887 6a49 80bf ceba 2cb4 137e b23f
00000680: 2e26 9db1 57b4 c33f 2061 ce2e 4e6e 7e3f
00000690: a818 9fab 3388 a13f 72dc 91d1 53c5 b3bf
000006a0: 6eb6 2b7e e6ae c1bf bb7a e9f8 877f a03f
000006b0: cb7d fc75 5365 c1bf 878a a248 7229 873f
000006c0: 8cb2 6c50 7317 bebf 21db 221e 9650 b23f
000006d0: 7780 faab c09c af3f aede 3bd8 8b8b 903f
000006e0: 2ba9 225b 8f37 90bf 0e4f 20df 3655 c13f
000006f0: 8eac cb8c cd15 873f 3bfd 64ec e74f b13f
00000700: 663c 0953 3362 543f 45e9 fdb5 4019 593f
00000710: a437 6a09 998c 363f cac0 748a bcc6 463f
00000720: 9c63 29bf 5623 48bf c23d c629 30ac 36bf
00000730: 73a0 c789 739b 43bf d1ef 1846 4068 30bf
00000740: 6e9f 2cbf 930a 523f 6266 25da 7033 533f
00000750: 5561 e7a7 be6d 463f 3e02 f8ae e87c 4ebf
00000760: 5bc4 0555 263f 513f b5e2 7455 b025 383f
00000770: 58a9 ce9e 4b1a 59bf 0874 e285 0e75 253f
00000780: cc3f 3cc0 f3f3 403f 9e09 bfde 3cff 37bf
00000790: a233 8e71 80af 563f e419 89d1 b313 133f
000007a0: d02b 5f47 3227 18bf b3a2 27d8 6a62 4c3f
000007b0: 518d d305 2b61 4abf 1f61 6271 b3b6 3ebf
000007c0: f629 7c88 e238 44bf 5e09 36cb 5c92 2bbf
000007d0: 71a5 18bf 9bc4 263f e417 4921 6601 fb3e
000007e0: 39ed 807d 9f81 44bf f9c9 3a78 0b51 52bf
000007f0: 0f34 693c cc37 463f 1c58 6995 6576 213f

tgnn._base_tgcn.linear_z.bias f8 [32]
0.17028947493255378 -0.003089678661860007 0.017231799669330927 0.10423409899637337 -0.08993220344061707 0.032760265467103505 0.1304210557941891 -0.048927955624587606
-0.016252825776244484 0.11831055384342772 -0.20465761013928746 -0.13048870807387777 0.05505621605802357 -0.2024630172128155 -0.019199938416042492 -0.07133313311607323
-0.10925057879654196 0.18389400325771843 0.09010569009645211 0.0665414206616112 -0.006665844986691387 0.07555719673606856 0.038116690375021973 -0.0598473521222414
-0.008925405101030078 0.05334304246398827 0.004402828003441271 0.18954726931315233 0.15099938964912088 0.12903142422576305 0.0263280251538786 0.018054712026761722
00000000: 351b d8a6 0bcc c53f 9ace d999 864f 69bf
00000010: 73be 1f80 36a5 913f 6844 51fe 15af ba3f
00000020: ab79 a200 cc05 b7bf bc37 9419 f4c5 a03f
00000030: 4644 ac1c a3b1 c03f 9d15 89c2 150d a9bf
00000040: 10cb b4ac 94a4 90bf a177 87b7 9949 be3f
00000050: 3a7f 3677 3832 cabf 2b59 d69e dab3 c0bf
00000060: 0f4a d20e 5430 ac3f 320d cae2 4eea c9bf
00000070: 5c16 540e 26a9 93bf d6d0 da61 e342 b2bf
00000080: 560e 008f d8f7 bbbf cc11 f6b4 d689 c73f
00000090: 72d4 25a0 2a11 b73f fa2c 92c9 db08 b13f
000000a0: d21c 7d23 a54d 7bbf 5a77 f568 b757 b33f
000000b0: 3159 2fe5 0784 a33f a704 3ce8 4fa4 aebf
000000c0: e48c 1998 7b47 82bf 4435 b47d c74f ab3f
000000d0: 7e1a 8e24 b308 723f ff7f 5fbd 1543 c83f
000000e0: c924 21b0 f253 c33f b75c 9a09 1a84 c03f
000000f0: 2d46 04dc bbf5 9a3f 6d49 c636 ef7c 923f

tgnn._base_tgcn.conv_r.bias f8 [32]
0.0 0.0 0.0 0.0 0.0 0.0 0.0 0.0
0.0 0.0 0.0 0.0 0.0 0.0 0.0 0.0
0.0 0.0 0.0 0.0 0.0 0.0 0.0 0.0
0.0 0.0 0.0 0.0 0.0 0.0 0.0 0.0
00000000: 0000 0000 0000 0000 0000 0000 0000 0000
00000010: 0000 0000 0000 0000 0000 0000 0000 0000
00000020: 0000 0000 0000 0000 0000 0000 0000 0000
00000030: 0000 0000 0000 0000 0000 0000 0000 0000
00000040: 0000 0000 0000 0000 0000 0000 0000 0000
00000050: 0000 0000 0000 0000 0000 0000 0000 0000
00000060: 0000 0000 0000 0000 0000 0000 0000 0000
00000070: 0000 0000 0000 0000 0000 0000 0000 0000
00000080: 0000 0000 0000 0000 0000 0000 0000 0000
00000090: 0000 0000 0000 0000 0000 0000 0000 0000
000000a0: 0000 0000 0000 0000 0000 0000 0000 0000
000000b0: 0000 0000 0000 0000 0000 0000 0000 0000
000000c0: 0000 0000 0000 0000 0000 0000 0000 0000
000000d0: 0000 0000 0000 0000 0000 0000 0000 0000
000000e0: 0000 0000 0000 0000 0000 0000 0000 0000
000000f0: 0000 0000 0000 0000 0000 0000 0000 0000

tgnn._base_tgcn.conv_r.lin.weight f8 [32, 1]
0.002022243114025067 0.0033684898734854573 -0.0039034138872136507 0.0037041947464398145 -4.518634783121767e-05 -0.0004283992924030562 -6.778712984343145e-05 0.0017040576099106098
0.00028691882371629325 0.00024665352969866465 0.0025353492289405762 0.0034125831732557395 0.005071202167276337 0.000645423648445744 0.0002365071067829925 -0.00930077632947805
-0.008200665249678668 0.0015359576421564156 -0.0012738151866943349 -0.0002810432385569694 0.0007783070151139432 0.008642462947174289 0.008666231689984628 -0.007899485530329613
-0.004413664196141767 -0.007898443871756112 0.0016868937151289136 -0.0024228653714901587 -0.00040076615950818996 -0.0031143287101797817 -0.009670630996034992 -0.0004885322697933573
00000000: b0ef 4181 f390 603f ca2c fe3a 3c98 6b3f
00000010: 6f70 a05f 0dfa 6fbf 323c 6869 4258 6e3f
00000020: e873 db16 cfb0 07bf 0203 54f3 5813 3cbf
00000030: 2cd9 e705 1ec5 11bf 1fcd 1fed 55eb 5b3f
00000040: 7864 e7f6 b2cd 323f 6188 efd7 282a 303f
00000050: b52d b640 03c5 643f bfea f7a3 b4f4 6b3f
00000060: 2a92 5b77 8ac5 743f df62 27bb 3426 453f
00000070: 7e4b eb93 dcff 2e3f d6d6 4c11 490c 83bf
00000080: 8329 6ca8 82cb 80bf ffa1 d4f5 452a 593f
00000090: f11d 5aa4 c4de 54bf a382 b384 1f6b 32bf
000000a0: fb77 8c96 e980 493f b954 b8bd 23b3 813f
000000b0: 941c 81ed 99bf 813f 895d 1000 9b2d 80bf
000000c0: 901a 0cf6 0f14 72bf cda7 f230 0f2d 80bf
000000d0: d4d0 a655 58a3 5b3f eaa7 0ff1 1dd9 63bf
000000e0: a0fc 658c bd43 3abf cee5 b17e 3883 69bf
000000f0: 6192 e01e 32ce 83bf 9d3e 970f 1b02 40bf

tgnn._base_tgcn.linear_r.weight f8 [32, 64]
-0.001485665669228031 -0.000565199618362473 -0.0015496301013061958 0.0016689212836509721 0.0001322028468991594 0.0005141547625205287 -0.0006142724402818225 9.61050682631722e-05
0.00034827272895298473 -0.00037926849072514014 0.0004532331180733316 -0.0009882032604322205 -0.0014953097885707022 0.0012852019784599911 0.0011311001856581801 -0.0005170847612973093
-0.0011644861818497863 0.000114467755409451 -0.00045858124516419743 -0.00019421758940586878 -0.0005220551116579408 -0.000263450921484775 0.00024009873376729498 0.0008323252903139487
-0.0004193321588655933 -6.902172255785483e-05 0.0004622150765885082 -0.00014200665495510973 7.895968514191057e-05 0.0005912206729447389 0.001667412595467891 8.686005183539645e-05
-0.001177709025824827 -0.0008592797579340852 0.0008174770144957756 -0.0013746198116444395 -0.0014170164274654592 -0.00018464665341848396 -0.00013761972878447896 0.0011774761074199182
-0.00010508331279496698 -0.000743279306988293 -0.0001317313592829278 0.0005330653601000643 0.000377126168607756 -0.0013888880746758695 -0.00021305284539910308 0.0004135784560728217
0.0005562333149540126 0.0011179568836450502 0.0011273311798939904 0.0008649772912136615 -0.0011777585413534275 -0.0011759341687582498 -0.00017368829578114656 6.4589347848260275e-06
-0.0005929341029001096 -0.0001807545693270771 -0.0009014854230032771 0.00026783954713358764 -0.00012888121298123217 -0.0010195480421083716 -0.0014015764855024246 0.0004752372809309103
0.0001312415073049515 -0.0015182806736219515 3.37877671531379e-05 0.000450385618122079 -0.0002302793052595099 -0.0006173326021268902 -0.0007689502580552311 -0.00035168387595058007
-0.0008926455344735413 0.00011795999550815215 0.0008631461602651076 -0.00023546405315875242 0.0012918238213820471 0.0003644335113708622 -0.0016657185875417278 0.00022277563693669605
-0.000623214252854427 -0.0011778023541957295 -1.3463969057835051e-05 -1.126030404612985e-05 0.000400386986260955 0.0009372605986343918 -0.0005819521142277518 0.0011802006113702764
-0.001164471700581648 -0.001659067927682458 -1.049538460192473e-05 0.0015337464566167272 -0.00011092377046864466 -0.0009361048476239555 -0.0003744657631703767 -0.0007769102708087873
0.0011730324579153728 0.0005164285258865607 0.0004676494654820812 -0.0006827777788690184 -1.8057992523075358e-05 -0.00013210226428284652 -0.0016722570782138875 -0.0016721931177789487
-6.214640022754234e-05 4.5608471128354795e-05 1.6368722143560854e-05 -0.00158483475385162 -0.0011706474117032233 2.797968149042309e-05 0.0016696668936711323 -0.0002759409654744784
-0.0005102520269239113 -1.1006611322079366e-05 -0.0006549782018262354 0.00011664801000300167 0.0008325830806460745 0.0004940751107825244 -0.00013100247656335913 0.0016056704756246063
0.0005703262201543183 0.0007655612297472016 0.000763343103994376 0.00014326896751976767 0.0016111946928183878 0.0007822027411001289 -0.0002905173902596851 -0.0009336386265715067
0.00021015546939168384 0.0016636150465902937 -0.0013209417100425267 0.0002874368247919012 -0.00011245480365540891 0.00041797107228025486 -3.10014218318876e-05 5.79073026863372e-05
-0.0002751929719469712 0.0002550386952065631 0.0005833891635056287 -0.0005583476985499432 -6.302568447186116e-05 0.0005807885239147547 0.0003437139894184949 -0.0002525645086682812
0.0009718191696450958 0.0005645056834986514 0.0014630570815335029 0.00014118486441461132 -0.0006432752267371632 -0.0005800460348372883 0.0004518128463408366 0.00045459064624021216
-0.0011395112085004612 -0.0016004791681256047 0.0006506627202386472 -0.001489476340484383 0.0005698161775669686 -0.0003832601904193768 -0.0005951433334298793 0.0008688634996129046
-0.0004391915547228963 0.000631307280520939 0.0006648812336827272 -0.0003391110806190737 0.0007471328849298845 0.0003983131217079525 0.0008411137947238699 -0.00011252963921787388
0.0004277869956952148 0.00015035791882926771 0.00012112596603123985 0.0003126068008238099 -0.00045451261121427365 0.0006412580247397454 9.957657678315245e-05 0.0011724461852096948
-0.0013360467112816421 0.0005663299636681463 0.00020757624270720476 0.00021302835079870246 9.705575143123412e-05 -0.0007893629869665426 0.000638084134190207 -0.0015177436686470182
-0.00045967980749443856 0.000375800237452026 -0.0010008806145440537 -0.0014735572891792018 -0.001520627338190373 -0.00156206668408691 -0.0006616047042105149 -0.00042239555403747535
-0.0001466784461937366 0.0006303989613809921 -0.0010223618181564845 0.0016682599842934933 -0.0016629039376881134 -0.0007176577037597405 -0.0007680053695915418 -0.0007306750097678045
-0.0006324912379861246 -0.0016078283280634485 -0.0012113738723728421 0.0008873376826533884 -0.00037902578709774057 -0.0008367763101587099 -0.0016722726716328568 -4.3071502292208337e-05
0.0002226682581442349 -0.0006332856594841064 0.0005809727430935828 0.0005130346877967539 0.00022812636283883771 0.0015590716959703519 -0.0016558518721524929 0.00042270152740575534
-0.0004584623046964766 -6.072576232092879e-05 -9.367067540349243e-06 -8.417391179437052e-06 7.785298575582343e-06 -0.00020783012111058336 0.00042659736963979595 0.0008587442908097481
0.0013596312597247747 -0.001672103050522263 -0.0014262842721486082 -0.0014761441235691321 0.0008473309044039082 0.0004116791526684336 -0.0008185517009416504 0.0011626154587726179
-0.0010454960451747436 5.465728514216281e-05 -0.000333685301293122 0.00024384679667533284 -0.0003086289377211734 0.0001104658539220216 0.0005233104128057226 0.0011232116248970246
-0.0004105098523214306 -0.0009897149925483493 -0.0010748852145329604 -0.0003416851289279025 0.00036084473259566786 -0.000637607791875441 -0.0011079089435831243 0.0015517988098822995
5.8465431670284645e-05 -0.0010886609433151857 0.00017427178464316252 0.00035628172539215266 -0.001144490224738098 0.0016359202636053462 0.00016447545027163739 -0.00036845771791829
00000000: ff71 935d 5557 58bf 71b9 33f0 3c85 42bf
00000010: c0d2 c8a6 9e63 59bf d5e4 4d95 f657 5b3f
00000020: f00b c8ce fd53 213f c011 eff1 0ad9 403f
00000030: 7329 5b05 e420 44bf 0f9c 2c80 8031 193f
00000040: 7cff 1efb 0bd3 363f c9f1 99c3 11db 38bf
00000050: 6330 6a6b fdb3 3d3f 6ee3 dc2b d330 50bf
00000060: e149 eaa8 c87f 58bf f6e0 d61d 870e 553f
00000070: 84e3 9393 2d88 523f 31cc cb11 9ff1 40bf
00000080: 2803 5584 3514 53bf 33fc 4f10 cd01 1e3f
00000090: 3e89 5673 b70d 3ebf 22a2 bd63 dc74 29bf
000000a0: 85cc cdd0 501b 41bf f253 8517 f943 31bf
000000b0: 90d0 2e6b 6078 2f3f 8467 65f3 0c46 4b3f
000000c0: d3b8 92e8 397b 3bbf 9601 162a f817 12bf
000000d0: 7e10 3ea3 ae4a 3e3f cf7e b0e0 f39c 22bf
000000e0: 9c99 c10f e5b2 143f 48fd 3dba 845f 433f
000000f0: 4318 41a4 a251 5b3f 80d1 ed53 14c5 163f
00000100: 3efe 0170 ab4b 53bf a637 ae3a 2928 4cbf
00000110: f758 7085 7ec9 4a3f ff27 abc8 9285 56bf
00000120: 41dd afcd 6537 57bf 3156 edac b633 28bf
00000130: 7613 0578 c009 22bf 0658 e257 b14a 533f
00000140: 5191 3691 058c 1bbf 6a05 5c28 145b 48bf
00000150: 4873 8cc2 2b44 21bf 27b6 e524 ad77 413f
00000160: d8d8 858f 20b7 383f 4946 f236 6bc1 56bf
00000170: fcb3 b101 deec 2bbf 6620 73f1 b11a 3b3f
00000180: 932f c6f2 053a 423f 84e0 3a10 0d51 523f
00000190: de76 29a3 5e78 523f 4cce b996 f457 4c3f
000001a0: dc8e bb9a e04b 53bf 8d1f 03b3 3944 53bf
000001b0: d2d2 a319 03c4 26bf 809c 8879 3a17 db3e
000001c0: 8b61 524a e46d 43bf 0c5e 7fed 1db1 27bf
000001d0: f16b 6e34 358a 4dbf 869e 7318 9a8d 313f
000001e0: b6aa 8c30 89e4 20bf 53f6 d75f 4bb4 50bf
000001f0: e0bf c14a a3f6 56bf 3f10 5694 2825 3f3f
00000200: e643 a8f6 bb33 213f 96fe b775 21e0 58bf
00000210: c646 e4d6 eab6 013f 02ba 1b80 3784 3d3f
00000220: b2bb 892b e42e 2ebf 9232 1fab 8f3a 44bf
00000230: e2df f41a 6c32 49bf e8b3 e8be 460c 37bf
00000240: d367 51b0 0d40 4dbf ecc8 b14a 29ec 1e3f
00000250: b441 d743 9848 4c3f ee1c bed0 dcdc 2ebf
00000260: 1272 2944 4d2a 553f 2fb2 4d03 2ee2 373f
00000270: 23b4 e6b6 874a 5bbf 89ea 6426 1c33 2d3f
00000280: 70f9 cd6a e66b 44bf ec3f eaa5 0f4c 53bf
00000290: 7096 1fd1 693c ecbe 3075 6467 549d e7be
000002a0: 530d 0103 613d 3a3f 2937 3acf 4fb6 4e3f
000002b0: 9a7c 33a6 c411 43bf 6fd6 d3c1 1e56 533f
000002c0: fe5b c0f7 2514 53bf 3c74 709f a22e 5bbf
000002d0: 30ad 0cad aa02 e6be a50f c7b7 ff20 593f
000002e0: 9647 b5dd f713 1dbf b0d7 63da 9dac 4ebf
000002f0: df51 cf34 7e8a 38bf 2016 3f1a 3275 49bf
00000300: ae24 cf02 0e38 533f ad51 90d0 1dec 403f
00000310: cd51 0529 dba5 3e3f eeda 861d 8e5f 46bf
00000320: 3cfb 0dcc 67ef f2be d8e0 44cf 9d50 21bf
00000330: f41e 885d f465 5bbf 20a3 38b0 af65 5bbf
00000340: 5acb b206 934a 10bf 604c a522 77e9 073f
00000350: 9845 4205 f229 f13e dfa7 fd5b 47f7 59bf
00000360: 7d63 4c16 0d2e 53bf f036 3e12 bd56 fd3e
00000370: a9a8 062d 175b 5b3f da71 1e6c 8515 32bf
00000380: 8a7c 59e2 4db8 40bf 0075 3124 2115 e7be
00000390: 7383 6cfa 5a76 45bf cec1 6b8d 1d94 1e3f
000003a0: 2045 218d 3648 4b3f b569 a638 9a30 403f
000003b0: 676b 7fb4 b62b 21bf 23db 948b ab4e 5a3f
000003c0: e4b4 573b 3eb0 423f 5ed6 f038 fe15 493f
000003d0: 4787 69d5 6203 493f 01f9 5f0f 4fc7 223f
000003e0: d958 d720 d765 5a3f c515 8f98 97a1 493f
000003f0: ab62 a9b0 120a 33bf 1d31 07af ed97 4ebf
00000400: 4a48 79bc a58b 2b3f fd9f f70d b541 5b3f
00000410: ad96 735c 6ea4 55bf d615 1cc3 63d6 323f
00000420: 66a1 dfd0 b67a 1dbf 0ad0 0b16 6464 3b3f
00000430: b405 41be f040 00bf 001c 18c5 2f5c 0e3f
00000440: beb5 89d0 f808 32bf 5c95 e9da d6b6 303f
00000450: 7a7f 65b0 d21d 433f 96e5 728d c24b 42bf
00000460: a48f b303 9585 10bf 665c a9db 0108 433f
00000470: 90b2 fe57 9086 363f bd57 0b4e 548d 30bf
00000480: 4469 8fc6 35d8 4f3f 6ee8 79b9 6a7f 423f
00000490: 32c0 4f94 81f8 573f ecff 2dc0 6081 223f
000004a0: 4731 d407 2f14 45bf 9077 f95f c701 43bf
000004b0: b85c 2166 299c 3d3f 8558 6bf5 c3ca 3d3f
000004c0: b98c eed7 74ab 52bf dc82 d76b e538 5abf
000004d0: 29d5 548d 2752 453f 8d3a ea0a 5167 58bf
000004e0: 3e02 77ec f6ab 423f 696a d4fb 091e 39bf
000004f0: b756 a693 6c80 43bf 0524 6328 8e78 4c3f
00000500: e024 3d5d 69c8 3cbf 0ef3 d00f caaf 443f
00000510: 5419 c393 6dc9 453f 4494 3f00 5739 36bf
00000520: c6b3 3ca7 677b 483f 6c4b d0d4 951a 3a3f
00000530: d674 ca1e c68f 4b3f 3470 287b bc7f 1dbf
00000540: 9d6e fa27 1309 3c3f 3076 29b0 2cb5 233f
00000550: b9cb 4e40 a0c0 1f3f 7d79 6dfc ab7c 343f
00000560: b43c 00cd 74c9 3dbf 1092 4d1f 4303 453f
00000570: d6db 1b90 781a 1a3f 5d19 6581 9835 533f
00000580: 5296 933b c9e3 55bf e204 1b56 b88e 423f
00000590: 5264 0359 1a35 2b3f 688c 7f99 0bec 2b3f
000005a0: a5f7 f61c 4d71 193f aa54 5a1b a8dd 49bf
000005b0: 5650 853e a3e8 443f 904a eada e0dd 58bf
000005c0: 1edb 64bd 2520 3ebf 03ab ccba e1a0 383f
000005d0: d03b 6d60 ff65 50bf 2062 6917 8c24 58bf
000005e0: 36ae f62b f9e9 58bf b2f6 a054 c897 59bf
000005f0: 56a8 a248 f1ad 45bf 0d62 2f17 9fae 3bbf
00000600: a8ac 4442 b639 23bf 7891 1676 2ba8 443f
00000610: 77dd b6a4 18c0 50bf 2595 b884 3055 5b3f
00000620: 7934 d781 b93e 5bbf 77ff 052f 2684 47bf
00000630: 10b8 07f9 7e2a 49bf beb9 aea2 58f1 47bf
00000640: 51eb 5097 b8b9 44bf 1919 8b85 b857 5abf
00000650: bf82 90ca ded8 53bf ccac eb29 8713 4d3f
00000660: 1813 245c ffd6 38bf ccf9 6e71 636b 4bbf
00000670: 646e d11b 0566 5bbf 0cbd c48c f594 06bf
00000680: a3b3 eec5 812f 2d3f 9a3d 2799 62c0 44bf
00000690: 65e5 3977 8d09 433f ccac 579a a5cf 403f
000006a0: 094c 1689 a6e6 2d3f db5f 907c 388b 593f
000006b0: d29a d368 2521 5bbf fd17 763c c1b3 3b3f
000006c0: 8827 e99a b80b 3ebf 8029 384e 79d6 0fbf
000006d0: d08a b8f5 e7a4 e3be f049 466f 0da7 e1be
000006e0: e0eb e749 b353 e03e a0bf 8625 9f3d 2bbf
000006f0: 4d30 4cc0 1df5 3b3f 940a 8452 ab23 4c3f
00000700: 1887 e3f2 b446 563f 88e4 b8fa 4e65 5bbf
00000710: 7c73 6f13 455e 57bf 5dcc 08af 652f 58bf
00000720: 92a7 fb42 edc3 4b3f 259c 457f d4fa 3a3f
00000730: 6b82 8f64 82d2 4abf 295e e3d7 5c0c 533f
00000740: 36a9 9dd4 2021 51bf e8a9 7304 faa7 0c3f
00000750: 742b ca74 4fde 35bf 9450 ae08 24f6 2f3f
00000760: 424d b131 ef39 34bf 5418 70eb 3cf5 1c3f
00000770: 9f77 e88d d825 413f ccc1 814c 1767 523f
00000780: 65ab f163 36e7 3abf f56e 9f61 2a37 50bf
00000790: c9d2 f935 659c 51bf de5b 4b74 8664 36bf
000007a0: 4c87 4f53 f8a5 373f 1656 904e a4e4 44bf
000007b0: 9825 7f2b e826 52bf 9dcf db48 b76c 593f
000007c0: b02c 8eef 18a7 0e3f 555c 78c9 2cd6 51bf
000007d0: 6b84 373b 97d7 263f 4230 d55b 6a59 373f
000007e0: b26e 7e05 57c0 52bf 86b3 fc01 8ccd 5a3f
000007f0: 1a5e 1d5c e18e 253f 82e9 31d9 b125 38bf

tgnn._base_tgcn.linear_r.bias f8 [32]
-0.0003246407118816301 -9.065002249694943e-05 -0.0006099019021187949 -0.0004794469214846837 0.00015501640364158853 -0.0003130639037798417 -0.001052109991253701 0.00038014177263551743
-0.0016201108643329866 0.0006649031871069353 -0.001476519352562549 7.045632511739103e-05 -0.0012508361774539994 0.000415551572027929 0.0004921057931851716 0.0008306440966784818
-0.0002919902328099652 0.0016592464712382588 0.0005814603220794352 -0.0008453064740410889 0.00014504420695027784 -0.000115676822717437 3.4526207158396964e-05 5.620366702888329e-05
0.00022560850458176504 0.00017345091006745349 -0.0005311046611426735 -0.0010072546586573192 0.00018712532369461886 0.00020031131086862425 0.0001661516120766768 -0.0004036454411510593
00000000: 6e36 903d 9146 35bf de98 2c87 6bc3 17bf
00000010: 1756 975c 3afc 43bf a6e5 12d9 c86b 3fbf
00000020: 5292 99c4 7c51 243f c460 713a 5784 34bf
00000030: c64b 4580 de3c 51bf 6b54 377b b8e9 383f
00000040: b9b3 67cb 3c8b 5abf fee1 c8b8 9cc9 453f
00000050: 16d8 3195 f830 58bf ea24 de72 3e78 123f
00000060: 786d 631e 637e 54bf 47a3 6269 cc3b 3b3f
00000070: cffc d924 1520 403f b4b5 6b9d f237 4b3f
00000080: 8aec 2b80 c822 33bf bb41 1e55 622f 5b3f
00000090: 62bd 9b88 a40d 433f 870a 9fd4 f1b2 4bbf
000000a0: a7b0 2a40 e002 233f be69 91ae f052 1ebf
000000b0: 5c89 de71 071a 023f 2e11 604b 8777 0d3f
000000c0: a9c1 394c 2a92 2d3f 6c5b eff8 0bbc 263f
000000d0: 0607 3f93 3a67 41bf 32d1 5474 bb80 50bf
000000e0: 68d5 814a e286 283f 0441 f30e 5541 2a3f
000000f0: ec70 e77a 1fc7 253f 5d5b 0bf8 0b74 3abf

tgnn._base_tgcn.conv_h.bias f8 [32]
-0.1270982329545968 -0.02875127582269511 0.10610021589431616 0.042976435372531714 -0.07348827927332052 0.08361911865273376 0.139887452469337 -0.12632158586072223
0.10963468138106358 -0.11895458153928751 0.1506680910453202 0.10964830112293723 -0.08249399522259321 0.042061297010905704 -0.14757252668859017 -0.1251721740015464
-0.12305404470460311 0.134209584233597 0.07158295306412064 0.13584069566790063 0.11563152530709978 0.11910268152877468 0.03446063786494782 0.09031328992876861
0.04673423209038556 0.1653126385810776 -0.032874312462039125 0.05934937404196456 -0.10181160047026666 0.04954294215152201 -0.1060647710494067 -0.10720799928924435
00000000: 55ae f540 c144 c0bf 03cb 8175 f970 9dbf
00000010: 3758 5d3d 6229 bb3f c1ec d8e0 0101 a63f
00000020: 1444 1ebc 20d0 b2bf d10f ef03 1068 b53f
00000030: d1ff bc00 d5e7 c13f f67b 0644 4e2b c0bf
00000040: 10ff 09bb 0411 bc3f c8ac 6bb5 ce73 bebf
00000050: 4092 cb8d 1749 c33f c18d 623b e911 bc3f
00000060: 64f0 9893 531e b5bf 56a9 2dee 0e89 a53f
00000070: ca31 f513 a8e3 c2bf ba59 da4c a405 c0bf
00000080: 2f94 a549 7880 bfbf 45e9 8b97 c72d c13f
00000090: 578b 5caa 4253 b23f d204 ae58 3a63 c13f
000000a0: 8aa1 9413 079a bd3f 8830 086a 837d be3f
000000b0: 132d 4221 d3a4 a13f de62 a392 c51e b73f
000000c0: 561f dd9c 8ced a73f f41c 29ec f628 c53f
000000d0: 954e cee1 e6d4 a0bf f9bb 1889 0a63 ae3f
000000e0: ec8a 5f36 5310 babf 12aa 9348 b15d a93f
000000f0: d038 ea92 0f27 bbbf 1420 d1c2 fb71 bbbf

tgnn._base_tgcn.conv_h.lin.weight f8 [32, 1]
-0.026586861375945493 -0.42543173030699805 -0.12905674427396552 0.29291557039573346 0.09883853224404127 0.18776462139895533 -0.06061968144271005 0.32197927225109046
-0.1706734151246068 0.34456579896712924 -0.050575960878099735 -0.09114908859826482 0.09353630009950975 0.1412743706092574 0.27317420277388615 -0.06064941242550708
-0.48339417253762834 0.28312975185316563 0.295914421239472 0.05328527415312868 -0.1642364378178329 -0.17429029573879823 -0.31178001243377246 0.26324741862316803
0.26299499771079554 -0.25129920138236184 -0.09036446122263588 0.0067148374468645735 0.12121308584518384 0.2181988298873919 -0.37640376620832855 -0.1659166552566045
00000000: caae 7310 9639 9bbf 175a 1602 463a dbbf
00000010: c411 fe6f ee84 c0bf e6af d5f2 20bf d23f
00000020: f0a2 9267 7b4d b93f 0c8e 20ce ab08 c83f
00000030: 65ac 94fa 8a09 afbf 6abb 13f3 4e9b d43f
00000040: 69df 2060 a0d8 c5bf 5292 78b5 5d0d d63f
00000050: 58d4 dea3 17e5 a9bf 1cfa 96f2 8b55 b7bf
00000060: 708e eab5 fef1 b73f a8ce c350 4715 c23f
00000070: e894 c1a6 af7b d13f 2741 c795 700d afbf
00000080: f111 881c eeef debf e7f8 2e40 cc1e d23f
00000090: e8d9 680a 43f0 d23f a131 b11b 3548 ab3f
000000a0: cf9b 9e18 b305 c5bf caa9 1af8 244f c6bf
000000b0: 09c5 3c27 34f4 d3bf 228c 6fb3 0bd9 d03f
000000c0: 4d7c 8bf8 e8d4 d03f b0ae dc3e 4915 d0bf
000000d0: 6900 ac15 2022 b7bf bf40 b773 0481 7b3f
000000e0: de63 8d1f d207 bf3f 0327 3273 f0ed cb3f
000000f0: 1f2f 7dd2 ff16 d8bf 592b 18c8 c13c c5bf

tgnn._base_tgcn.linear_h.weight f8 [32, 64]
-0.06701518140101768 -0.012679965503060114 -0.05290218680640919 -0.12675960534331004 -0.09657844348946788 -0.07205031784437707 -0.03954368408213683 -0.00525948400239693
0.13036025861217426 0.05669651427629933 0.16368193885186688 -0.014152300874097225 -0.13364230880788064 -0.012045441221281568 -0.07622369306098564 -0.09273210809706026
-0.05791950099364986 -0.10750267376523279 -0.1580197988578427 -0.14183402196063455 0.04665896357172198 0.13784107969118425 0.03744748759961056 -0.0854880417905932
-0.03670573573948159 0.019497414410512358 0.1375622736091637 -0.06471011322637256 -0.1492684776858138 0.05248168850313607 0.1843258316713471 0.12795633193821965
-0.001672280920187878 0.0011949858669092397 -0.00026634016622716967 0.00011856230196375587 -0.0005922146133894204 5.867948390797647e-07 0.001223782366118845 0.0008638335930554039
-0.0008715381144569906 -0.0015820825782576937 0.0012948602562722802 0.0006610316435600261 -0.0013823162886184394 -0.0011482129319337075 -0.0008446702910315199 -0.0004400573658952503
-0.0015349315805714794 -0.0001544846971444853 0.0015048612058808151 -0.00032390549123059655 -0.0014668717112010221 8.202462217910991e-05 0.00019835453691620513 0.0002663999606515113
0.0001804162253043344 0.0002397704200856065 0.00014513337808452192 0.000731603196483789 0.0006565667588909192 0.0007701106854878806 0.0010772278854915066 -0.0005086832357153565
0.06974246072347834 0.04199843418518272 -0.03335485061801382 -0.06361942271222838 0.042462171163169006 -0.02251481692800195 -0.06367729685339531 -0.07061563241581977
-0.03264113558689571 0.017197914155678822 -0.08878909554332613 -0.04738992446155876 0.044909387354352834 -0.01854701311174082 0.016737594258918524 0.05318866510842579
0.08501345305603268 -0.08576273940145807 -0.025432262754432982 -0.035807879821778604 -0.03943463547223476 -0.0305272091793518 0.04739780136339796 -0.034972875576185156
-0.06344721952871261 -0.06310008803250736 -0.010093799336589162 -0.034179548589851234 -0.0395766509530644 -0.0490851594192862 0.043271414888505895 0.09298988519273148
-0.0011641390286615304 -0.0007927460582433077 0.0007102812058306543 0.00033625377281303666 6.688701225874636e-05 -0.001344181689138711 0.0008352707091975973 0.0003516883429829108
0.0003133156225904445 -0.0001499235536985532 -0.0016040623813011194 -0.001469545759390654 -0.000863434453166146 -0.00145622103569139 -0.0014409185649596741 -0.0016507073887513037
0.0005134442153814096 0.001567378450164131 -0.0016494993290108227 -0.0008455556472652335 0.00044546035861152536 -0.0006083643157176109 -0.00011748949939186494 0.00012056250141701491
-0.0005500226250507543 0.0016651172639430118 -0.0005557205890816444 0.0008492719584845491 0.0004525370448116048 -0.001129488056808974 0.0008409465635494892 0.0005983091633279835
-0.03911083025179361 -0.09519722588648882 -0.15781095922906757 0.15739816292877568 0.03430513795270961 0.07486904113854086 0.023690624817060753 -0.019530246365579037
0.0413520364806525 0.01456568061731266 -0.1517122388718284 0.05670489530344965 0.02165582620033095 0.1301438110483545 0.008571432829155443 0.029312442986243303
0.038642137853311824 0.010857044837086518 0.06403447668332478 -0.01291920565715708 -0.15800879498006343 -0.025755845080574182 -0.07870614255285571 0.16002649498961927
0.03067762609507017 -0.16530517972552328 0.041547809109821934 0.1289755416222092 0.10238648342769459 0.01817640665962615 0.003762784452267676 -0.07047158850541663
0.0011884364042743477 0.0008225842995503792 -0.00013798785569093367 0.00015268890884071888 0.0004697412743271103 0.0005104107270767911 3.1968193171998975e-05 0.0015559399987760138
0.0009960437290957823 0.0016154242571166035 0.0002637417719850672 0.001090262435092926 -0.0005944129899001812 0.0002897741671499564 0.0001540931830563097 -0.00017037534410735818
8.178875107989236e-06 -6.932818042408993e-05 0.00025268530285033595 0.0014766251234220058 -0.00162940444752398 -0.0001374346606243735 -0.00018998653541599402 0.0016707800539541642
-0.0005747624816638121 -0.0001678964398963475 0.0006470988346239342 -0.0006583480966207349 -0.0007281761096853123 0.0011777421005454937 -0.0002772335641081238 -0.00047703991629225264
0.01845196937760029 -0.056642918658772516 -0.06950376867959189 0.01115587288393984 0.006560925314572741 -0.020161570780322748 0.0876737379693905 0.009741255872583702
0.131267820273781 0.04896983000406847 -0.01967809655388536 -0.07356399993690656 0.08246557746534884 -0.0011300577298183573 0.006798849533355298 0.08595205906618573
0.1400885761446963 -0.07081667954614802 -0.040674115485402895 -0.04285587085899334 -0.10140308359559905 0.09650113609365304 0.11941047805505348 -0.05393004508636941
-0.13663239934128016 -0.017648145364650265 -0.10566285714481394 0.13989042020096965 -0.11856392144153755 0.10162944471874658 -0.0013557859808794564 0.033749085334339665
-0.0011531880350359597 0.00017356280249768814 0.00015796230915120327 -0.001344306619528142 0.0010925719096963945 0.0006526419075912352 0.0008530023908845743 0.00019360823341052773
0.000556228007948316 0.0014258168805140342 -0.0007331473902054612 0.0011751609333790281 -0.0004314538130861177 0.0011579932426439613 -0.0007813757080632191 0.0010506749787033865
-0.0005168635150748796 -1.6030301119760278e-05 8.132415822646453e-05 8.941295118061981e-05 0.0011742721244372355 -4.800938339650799e-05 0.0004184070030787094 -0.0009655204406136522
-0.00034918435048501487 0.0009194963164470487 0.0011154887789931688 0.00030839061899187026 0.00032228261621315333 0.0009423498357605854 0.000518155132707939 -0.0003376352398757223
00000000: d7ef 732c e827 b1bf 234e 3329 f4f7 89bf
00000010: 9ad9 70d4 fe15 abbf 12a2 b3a3 a839 c0bf
00000020: 612d 4968 5db9 b8bf 66d9 cebe e371 b2bf
00000030: 01d2 cadb 113f a4bf e6cb 8bfc f78a 75bf
00000040: 6cfc b71b a5af c03f 7551 3a55 5307 ad3f
00000050: 2046 289f 87f3 c43f b4d5 56ab e1fb 8cbf
00000060: 408c d8f0 301b c1bf 71ee e3c0 47ab 88bf
00000070: 2095 e05c 6583 b3bf 12e6 909b 4abd b7bf
00000080: d300 23f5 9fa7 adbf 26e2 0d94 4b85 bbbf
00000090: e982 1b26 fe39 c4bf 24fa e302 9e27 c2bf
000000a0: 952b 3605 afe3 a73f e2d3 a8c8 c6a4 c13f
000000b0: ec89 1d2d 512c a33f cf8e b057 8be2 b5bf
000000c0: 2644 271d 18cb a2bf e6b3 ff54 21f7 933f
000000d0: 1f4a 28fd a39b c13f 2119 078c d790 b0bf
000000e0: c2fc fdbe 3a1b c3bf 4208 853f e1de aa3f
000000f0: 5d10 6b25 fd97 c73f acd1 7e82 df60 c03f
00000100: ace3 29f7 0d66 5bbf d875 ec4d 2294 533f
00000110: a3e7 b54d 7274 31bf 300a 80d6 9414 1f3f
00000120: a6bf c732 db67 43bf 00ec 537f 87b0 a33e
00000130: a88d 5a4f ea0c 543f 7893 0384 5c4e 4c3f
00000140: 809d 72d9 fd8e 4cbf d05a b93b bceb 59bf
00000150: d372 079d 0937 553f 5208 36a5 22a9 453f
00000160: af68 26d0 daa5 56bf 85ba 743f f4cf 52bf
00000170: da23 50a3 9bad 4bbf dcb7 b0fe efd6 3cbf
00000180: af73 2b3c f825 59bf 22cb a571 a53f 24bf
00000190: 9e84 836a d8a7 583f f495 e87d 3b3a 35bf
000001a0: fbf4 ba81 8108 58bf e342 6647 9480 153f
000001b0: 33e2 857f acff 293f 941a 601e 7375 313f
000001c0: 2486 1f93 c3a5 273f 2700 c339 5c6d 2f3f
000001d0: 2d8f 9039 de05 233f a6db b9e6 21f9 473f
000001e0: fce7 e760 ae83 453f 0d2a af1a 283c 493f
000001f0: a032 77a2 38a6 513f 620a 43ee 24ab 40bf
00000200: e82c f353 a4da b13f a6fc 9d9a d180 a53f
00000210: b379 2211 e313 a1bf dd7d f0cb 5c49 b0bf
00000220: c509 ed08 9abd a53f 2158 86c9 1f0e 97bf
00000230: f9a6 7bc3 274d b0bf 1df3 cfb7 dd13 b2bf
00000240: ab35 b3c3 56b6 a0bf 3ba6 6e7b 549c 913f
00000250: ef99 99d5 e1ba b6bf 00d2 71ff 7d43 a8bf
00000260: 96d0 f0fb 5cfe a63f ea7d 03fb fcfd 92bf
00000270: 01b6 d2ef a823 913f 1032 5172 8b3b ab3f
00000280: 3f7f 9810 71c3 b53f 78d3 f100 8cf4 b5bf
00000290: 3b9d 2c43 ea0a 9abf 341a 8c11 6955 a2bf
000002a0: faa8 5dcb c630 a4bf 7dfd 4054 8642 9fbf
000002b0: 7b25 844d 8644 a83f c68e b1f9 f6e7 a1bf
000002c0: 43e0 e5b4 133e b0bf 5a6e 79ce 5327 b0bf
000002d0: c123 58d0 0eac 84bf 395a c556 fb7f a1bf
000002e0: 21a7 0e0b 6443 a4bf d77c d9a4 b021 a9bf
000002f0: a976 98bf ab27 a63f abf6 c263 2fce b73f
00000300: 141e 97c3 c012 53bf ecbf 7432 09fa 49bf
00000310: 9c99 6646 4546 473f 726b 17f5 6609 363f
00000320: 9e1a e71e b688 113f 5f4d 4319 e805 56bf
00000330: 503e 8d30 c25e 4b3f 2686 76ee 590c 373f
00000340: e5ba 335a 9088 343f ac5b 2385 99a6 23bf
00000350: 02cb fadd ec47 5abf 91ee 7fbe b813 58bf
00000360: 3a0f 8a5e 034b 4cbf 49b3 566e d5db 57bf
00000370: 797e 3687 a69b 57bf 6238 ff8f 910b 5bbf
00000380: 065a 830e 15d3 403f e72e c5cb 0fae 593f
00000390: 1964 106b 8006 5bbf cbc5 0ced 08b5 4bbf
000003a0: 17b3 01ac 9531 3d3f b71a 876b 54ef 43bf
000003b0: 8a49 e43a 96cc 1ebf 7d21 ba00 d09a 1f3f
000003c0: 5a3f e497 ec05 42bf b637 540c 0248 5b3f
000003d0: a6b1 bee0 b835 42bf d0b9 bfa4 35d4 4b3f
000003e0: 390e c5ce 4fa8 3d3f 4951 f990 6a81 52bf
000003f0: d4ff 7afe 5e8e 4b3f 14c2 0a25 fb9a 433f
00000400: 0ea4 b3b1 5506 a4bf 8036 da6b d85e b8bf
00000410: 0a6c 6b46 2633 c4bf 9662 1d7d 9f25 c43f
00000420: 8fed 2e6b 7190 a13f ef43 2c13 9e2a b33f
00000430: 428c 3eeb 5a42 983f ef22 b1a5 bcff 93bf
00000440: b863 9d18 182c a53f 7aa7 298f 9cd4 8d3f
00000450: b0c0 2d80 4e6b c3bf 5bed b38d 6c08 ad3f
00000460: ac70 31e5 f12c 963f cd5f 1d6a 8da8 c03f
00000470: d8db 723d e68d 813f 1095 f7bf 1404 9e3f
00000480: cfad a7fc e6c8 a33f ce4b 0de4 373c 863f
00000490: e3dd 2b3f 9064 b03f b763 4d6e 6275 8abf
000004a0: 16ba 75d7 a139 c4bf 8727 3581 bd5f 9abf
000004b0: a242 42f4 1526 b4bf 7fa9 3c89 bf7b c43f
000004c0: 5b60 30a3 f469 9f3f 3ce8 635a b828 c5bf
000004d0: d2bb b122 c145 a53f ca29 a042 4582 c03f
000004e0: 4dd8 df25 0036 ba3f bcc6 a500 d69c 923f
000004f0: 67a8 4285 21d3 6e3f 148d ed0f 6d0a b2bf
00000500: f0cd 57df a978 533f 443f 1755 56f4 4a3f
00000510: f7ea a5a7 1a16 22bf 6ad5 67bd 6303 243f
00000520: db41 2b69 f3c8 3e3f 8667 aeb0 a2b9 403f
00000530: b28f e4c0 b2c2 003f 06aa 31da 157e 593f
00000540: f081 7acf b551 503f 626e 9f96 9477 5a3f
00000550: ba1f 0749 da48 313f 3492 2d60 e4dc 513f
00000560: 1c55 0c2d 4c7a 43bf 3be2 3592 9afd 323f
00000570: 5c17 105d 8232 243f 9660 dd0f d954 26bf
00000580: e04c 1109 0027 e13e 2e0d 0912 892c 12bf
00000590: 62ec a61c 5b8f 303f 0865 4427 6a31 583f
000005a0: 4dc3 19b4 37b2 5abf 03f7 d4be 8a03 22bf
000005b0: 3b1c 9fe9 e3e6 28bf 20d8 316c c25f 5b3f
000005c0: 7c3d e607 75d5 42bf c040 db6f ab01 26bf
000005d0: dca1 7e2a 4234 453f bce9 adc5 9f92 45bf
000005e0: f676 d549 62dc 47bf ec8c 84f3 ce4b 533f
000005f0: 0ebf 5817 352b 32bf 446a e0d6 6643 3fbf
00000600: 1e27 18b4 12e5 923f 27fb 60f6 4c00 adbf
00000610: f376 6dbd ffca b1bf 0b10 8fe9 e3d8 863f
00000620: 737b 85fa a0df 7a3f 5ac6 8c1c 3ca5 94bf
00000630: 59ee 4b3d c971 b63f 4f60 283b 39f3 833f
00000640: 8bea 8b49 62cd c03f e95f b7d4 9212 a93f
00000650: b0fb 95b4 7e26 94bf 7957 e41d 17d5 b2bf
00000660: dd69 42ce 761c b53f 6994 7f3f ce83 52bf
00000670: fec6 5646 1cd9 7b3f 8f8f b642 f400 b63f
00000680: add6 8a26 6cee c13f 017a a9ba 0a21 b2bf
00000690: a068 9bd7 3cd3 a4bf 10dc 8f67 34f1 a5bf
000006a0: f2b3 c16f 8df5 b9bf d690 8c67 4cb4 b83f
000006b0: 7ad2 0b62 af91 be3f eae4 d507 b89c abbf
000006c0: f155 5fa3 2b7d c1bf d274 b4fc 5a12 92bf
000006d0: e0c1 d693 b80c bbbf e8b7 e4e5 ede7 c13f
000006e0: d4b0 1385 345a bebf 18ae 6025 6304 ba3f
000006f0: 732b b01c 9436 56bf 66d2 8f63 8f47 a13f
00000700: 4030 6239 d2e4 52bf f4be fd1e cdbf 263f
00000710: 26fe 52e7 55b4 243f 87ea dd3d 6e06 56bf
00000720: 9d20 b927 94e6 513f 0dd2 15d3 c162 453f
00000730: 4a2f a6af 80f3 4b3f 6870 bc0f 6a60 293f
00000740: 8e88 378d fa39 423f 4516 cd37 4f5c 573f
00000750: bcc7 3308 1606 48bf 9f88 b071 fb40 533f
00000760: 8223 5604 9846 3cbf 9613 cbc6 f9f8 523f
00000770: f8ae 568e a79a 49bf 4d40 06ab d936 513f
00000780: 0f25 66f2 c3ef 40bf d896 a5e7 19cf f0be
00000790: 323b 5b66 9251 153f b0c8 fccd 6670 173f
000007a0: 617c bf17 413d 533f 7c66 4bda b52b 09bf
000007b0: b527 0765 b46b 3b3f eeb1 a75b 5fa3 4fbf
000007c0: bf7e 985d 57e2 36bf c7bb d04d 4b21 4e3f
000007d0: 6b06 caf4 b246 523f 7f85 7a9f ef35 343f
000007e0: bcd8 f44b 011f 353f 2a00 eddc 00e1 4e3f
000007f0: acbc b3ac 99fa 403f 37b7 3050 9420 36bf

tgnn._base_tgcn.linear_h.bias f8 [32]
-0.08549987734832803 -0.044998090621717446 0.19509458563092644 -0.12550800224019723 0.21105224143012513 -0.11774652269869233 -0.09582651816320803 -0.05144613090769213
0.1482388136801551 -0.09145967709423078 0.27202334891077246 0.014328544759643552 -0.046745780474153044 0.15341995201816022 0.03166550707684351 0.24508189252330215
0.2016599341827738 -0.025646611012472963 0.16552863880453905 0.2884486892904555 0.2130065795958186 -0.15509650544749917 -0.03142291864120504 0.005392839829909069
0.18230250114477187 -0.06078108011843133 -0.10171168741728974 -0.08056299594001794 0.025783798275069308 -0.0519248913797463 -0.0499098730377596 -0.19895115188951965
00000000: 94e8 05e9 51e3 b5bf d097 345f fd09 a7bf
00000010: 0dac 7400 dcf8 c83f 3d04 816e a510 c0bf
00000020: 1c4e 5885 c203 cb3f 2767 35d8 a224 bebf
00000030: 3cbc 9931 1688 b8bf 0130 82b3 2557 aabf
00000040: 7786 604c 7df9 c23f babe 05c2 e669 b7bf
00000050: 957d d49e d468 d13f 16b2 22b9 4858 8d3f
00000060: 5597 b91c 10ef a7bf ce66 3cd6 43a3 c33f
00000070: 48d3 9c1a 7636 a03f fc5b 9dec d75e cf3f
00000080: 5740 1d23 fecf c93f 530c 35ee 1a43 9abf
00000090: 1cc3 1bdd 0a30 c53f 8de6 c47d f175 d23f
000000a0: c432 99b2 cc43 cb3f 7b79 4fc9 33da c3bf
000000b0: 0e54 d12f aa16 a0bf 417f 3b6b cd16 763f
000000c0: 80a9 3238 b055 c73f f3ff a59e b21e afbf
000000d0: 2707 14f3 c609 babf 3985 d4c8 c69f b4bf
000000e0: 8bad 6e69 1167 9a3f dd12 a63c e695 aabf
000000f0: 5dae e370 c98d a9bf 5dfa 6e39 3b77 c9bf
