Q2_GMAN/models/A3TGCN/50/d1/lastmodel.pth (torch, 59576 bytes, 15 tensors)

tgnn._attention f8 [12]
000000 01 d2 f7 ed a5 87 06 c0 f1 e3 9d e2 f9 5b 08 c0
       -2.8162344542745363 -3.0449102119860005
000010 ab a1 d2 a1 46 50 09 c0 a4 45 c8 66 77 1c 08 c0
       -3.164197220077957 -3.013899615275209
000020 7c 08 fc 56 4e 10 0d c0 04 c3 26 e9 0b 98 0d c0
       -3.6329619212784205 -3.6992414679483563
000030 d9 d4 0f d0 71 2f 0c c0 25 f6 7c 40 e3 aa 0c c0
       -3.5231662993270274 -3.583441261113665
000040 8b 61 8a ff 67 99 0b c0 cc 0d 42 73 1a ea 0d c0
       -3.44990539208465 -3.739308262303643
000050 e0 ae b4 fb d3 57 0c c0 94 e0 fd d3 3a f6 12 40
       -3.5428847946658237 4.7404587863640195

tgnn._base_tgcn.conv_z.bias f8 [32]
000000 e7 87 d4 21 3f a8 e9 3f 51 cc 9a 5e ed 3c f3 3f
       0.8017879162546223 1.2023748107428853
000010 10 22 e6 b9 10 be e5 bf 00 af 1c eb 8a da eb 3f
       -0.6794513350333222 0.8704275695831427
000020 3f 86 52 b4 26 0c e8 bf 69 d3 67 4a 92 28 e9 bf
       -0.7514832994385826 -0.786202569316271
000030 64 6d 8d db e8 c2 ec bf ed 0f 5f aa 1d 37 e0 3f
       -0.8987926757940099 0.5067280128064319
000040 15 2c 8c 1e d6 9a e4 3f 74 4e 53 fd fa d8 e6 3f
       0.6439009281760969 0.7139868686449078
000050 80 ca 81 a0 48 a2 ed 3f 7d 1e 16 be 2c b3 ec bf
       0.9260600218679684 -0.8968719208359769
000060 1d 3f e2 ec 74 9d eb bf d5 ad 55 22 fe 21 d8 3f
       -0.862970793403267 0.37707475045200783
000070 79 45 3c 00 39 87 e0 bf 1e 49 b1 58 2c d9 f5 bf
       -0.5165066723440496 -1.3655208077003134
000080 33 e1 75 b1 2e 94 e9 bf cb f3 52 ab 9a 74 ea bf
       -0.7993386713051563 -0.8267339082882413
000090 38 40 30 94 0c 89 e6 3f 53 bc 8e 37 8a ab e1 bf
       0.7042296308809517 -0.5521899304493537
0000a0 d3 4c 50 71 91 2a d5 bf 8c 0c de 93 7d 71 e7 bf
       -0.3307231527880507 -0.7326038253817315
0000b0 8a 8e 70 ad cb 11 ae 3f 47 a4 4e 1c 54 27 e8 3f
       0.05872951976951153 0.754800849235047
0000c0 f1 68 5a 62 09 12 dc 3f 93 03 b9 1f 74 2d d7 bf
       0.4386008701782336 -0.36214926813050247
0000d0 4e be c0 fe d6 62 ea 3f 5c ff 68 17 88 02 ec 3f
       0.824565408291116 0.8753090340833114
0000e0 07 7c da 01 a1 81 e2 bf 83 61 9c dd 81 b2 db 3f
       -0.5783238445472997 0.4327702202004035
0000f0 b6 9c 00 72 e5 63 f0 bf 9a d4 ac 70 e4 83 e9 bf
       -1.024388737985459 -0.7973501396833342

tgnn._base_tgcn.conv_z.lin.weight f8 [32, 1]
000000 d1 21 b1 2a 38 f4 b3 bf 4e 87 eb 22 04 ff b0 bf
       -0.07794524233134516 -0.06639123775997044
000010 46 1c 89 f7 54 c5 ae 3f b8 b3 72 59 53 76 ac bf
       0.06009927293467192 -0.055590252560569764
000020 64 ce 11 91 f8 a4 ac 3f 68 74 2f 55 94 33 cb 3f
       0.05594612856739614 0.21251157912675755
000030 10 50 ad 27 ff 4e ae 3f 9f 97 02 a9 7a ad a1 bf
       0.059196446984657425 -0.034526665812605765
000040 a3 35 bf 2c c5 f9 a8 bf 43 86 29 57 5b 7e bf bf
       -0.04878059550501781 -0.12302180173858183
000050 33 55 d8 76 90 00 b5 bf 1d d9 20 f6 0e 4f b6 3f
       -0.08203986073961715 0.08714383610717787
000060 4f be 08 22 df e4 b4 3f cd b3 ba f3 e2 14 ac bf
       0.08161730366622887 -0.05484685158931022
000070 97 35 cc 8b cc d2 a9 3f ce 22 6e e1 0a 72 b4 3f
       0.05043639379992298 0.07986515048663564
000080 fb cf d3 fa e0 43 c1 3f ea f6 b3 41 72 a3 ae 3f
       0.13488399741584076 0.05984074642218025
000090 bb e1 8e e6 3c e3 a9 bf 6e 0f 6a e4 70 3e a2 3f
       -0.050561812538436134 0.035632636911968926
0000a0 fa fd 76 47 ee 9c 9d 3f a1 d3 3c 5e c2 4a cb 3f
       0.02891895590960123 0.21321897126622694
0000b0 bb 4e af 54 0b 81 a1 bf 67 78 6a 90 34 0b aa bf
       -0.03418765457868519 -0.05086673987283135
0000c0 b1 3a 24 d0 e5 b8 9d bf ba d3 e5 b3 83 f1 9a 3f
       -0.029025641278219442 0.026311929564559945
0000d0 10 cd 6e af eb a3 a9 bf c8 46 f3 c8 55 a2 ae bf
       -0.05007874027742265 -0.05983226850515916
0000e0 23 f3 c6 61 2e 62 aa 3f 30 dc 8a e5 71 df a0 bf
       0.051530312953650424 -0.032954749365153524
0000f0 04 20 f9 72 2a 16 af 3f 31 c3 22 79 92 83 b1 3f
       0.06071598676186343 0.06841388184944887

tgnn._base_tgcn.linear_z.weight f8 [32, 64]
000000 ef d8 e5 72 3d db ab 3f dc f4 ee 72 10 10 aa bf
       0.05440704371987858 -0.05090381052966972
000010 6d 1b 06 78 e5 30 b6 bf 5f c3 f8 b6 d4 4a ab bf
       -0.08668359928388521 -0.053305289588371656
000020 7a f0 09 e6 0b ef ae 3f 90 bd 7d 57 3c 2e cc bf
       0.06041752989855893 -0.22016100189237564
000030 8c a9 0d ab 69 e0 a6 3f d1 ab 22 ef 19 50 b3 bf
       0.04468088353208363 -0.07544099891917645
000040 e9 ab f8 06 1f c8 c2 3f b7 33 cd 85 51 e7 ba 3f
       0.14673221435927467 0.10509213940277005
000050 5c 89 30 29 0c e0 ad bf 24 de 8b 4d cb 6f 79 bf
       -0.05834997179796872 -0.0062101308364997145
000060 0c 18 4a d7 02 9a b9 bf 4a 60 a4 50 dd 21 a5 bf
       -0.10000627285089098 -0.041273990720754286
000070 0b 22 a7 c3 16 da ae bf d2 a8 e0 c1 a6 be a7 bf
       -0.060257636435896066 -0.04637642971677426
000080 7c 26 1e e1 df b6 ab bf db 05 79 97 96 26 b7 bf
       -0.05412959692973815 -0.09043255994858816
000090 cf 54 07 14 3b af 94 3f 6c 07 f2 b8 b5 47 88 bf
       0.02019970235581497 -0.011855525690638045
0000a0 6a 87 96 72 8b 4b a5 bf f8 f5 64 a3 ed a0 c4 bf
       -0.041591985452454974 -0.16116114118806002
0000b0 db c6 4a 2e 69 91 b6 bf 9c d4 70 ea ad 3f af 3f
       -0.08815629367998261 0.0610327099497365
0000c0 fb 3c 43 c2 ce fc b5 bf 92 7c a3 25 2f b6 bc 3f
       -0.08588878863087139 0.11215490979110346
0000d0 ae 75 07 d4 34 20 b7 3f 2a 2b e1 24 85 6b 9b 3f
       0.09033518005840932 0.026777344108533864
0000e0 21 78 c2 96 7b 48 a0 3f 5a 71 24 19 84 16 b1 3f
       0.03180299964263634 0.06674981702639596
0000f0 41 7e 16 d2 7f 87 99 3f e8 e9 f6 3c 04 3a 82 bf
       0.024930951307054142 -0.008899720297326177
000100 57 62 73 33 0a 6b ba 39 35 74 de 63 60 48 df 39
       1.3025140957530076e-30 6.169428861306843e-30
000110 3b 9f 90 2a 7d 84 cf 39 01 c9 d3 45 32 1a c7 39
       3.107868887533547e-30 2.2780655802675753e-30
000120 14 74 df a9 31 29 b3 39 25 05 94 37 9e 25 c4 39
       9.447060004362638e-31 1.9866422032778266e-30
000130 3d cf ba ee 72 6c e5 39 92 02 2f af 2b f9 b9 b9
       8.450131577067224e-30 -1.280583684446035e-30
000140 39 13 91 bd 8e 82 a8 b9 85 8a 9f f3 ca b1 c6 b9
       -6.042179165608078e-31 -2.2378507770969593e-30
000150 06 4a dc 8c f6 c5 ec b9 16 26 81 2f 5f 76 d1 b9
       -1.1349063102588887e-29 -3.4438491792030634e-30
000160 aa 51 02 70 89 b5 a2 39 51 98 aa c8 04 db 80 39
       4.612156234383832e-31 1.0388029624676752e-31
000170 35 9e e8 7b 93 e2 b3 b9 1d 4a 9b 64 1d 03 92 b9
       -9.80409296336465e-31 -2.2201710254708238e-31
000180 68 63 1a 34 9a 7f f1 39 3e b2 58 35 37 78 ed 39
       1.3803840510903176e-29 1.1623704673744514e-29
000190 ce 0f b2 36 62 eb e9 39 93 c7 77 a8 6d 65 db 39
       1.0223427246739203e-29 5.402948670269246e-30
0001a0 40 b6 25 b9 e7 85 b9 b9 cf 09 23 79 73 97 bb b9
       -1.2583843618520555e-30 -1.3603711920941865e-30
0001b0 04 66 c4 7f 32 8b c4 b9 21 04 d5 55 b7 5d e7 b9
       -2.0257690980929485e-30 -9.216293006993831e-30
0001c0 37 8b 62 40 82 61 cb b9 f9 91 61 c6 8d 82 f2 39
       -2.6999645767226512e-30 1.4601796276010324e-29
0001d0 ce f7 de 29 e6 b1 eb b9 6f 48 a6 bc ef 76 b4 39
       -1.0923719147138164e-29 1.0089824628771154e-30
0001e0 2c f2 fe ab 0d 19 db 39 87 8a 95 07 06 ec e6 39
       5.344111551939583e-30 9.04112182042029e-30
0001f0 f6 a2 08 a1 ad a6 e6 b9 67 20 2f b1 08 03 d2 39
       -8.934278445806892e-30 3.5522113463410696e-30
000200 e4 92 5c 63 54 da b1 3f 7a 8a 81 c1 79 1b e0 3f
       0.06973769594021523 0.5033539561666907
000210 fa 00 d8 28 ff 3c ab bf e2 6a ac 6f 14 c7 db 3f
       -0.0531997430189239 0.43402586846938906
000220 8f 43 d8 22 75 98 d1 bf c5 5e a3 fe c6 20 d0 3f
       -0.2749302711754859 0.25200056902893336
000230 7d 91 27 40 19 03 b5 bf 0f 83 dd 0d 16 af a3 3f
       -0.08207853142045525 0.038445176308192434
000240 35 15 9f 8a 75 e5 c1 bf ba a1 33 9c 87 fa db bf
       -0.1398150374281301 -0.43716612104483554
000250 e2 3f 61 bc 56 ea d0 3f b6 4f 00 1b 96 61 88 bf
       0.26430290600273854 -0.011904881190311172
000260 45 11 d6 4f 95 b7 be 3f 8d 9d 83 c0 b1 6b db 3f
       0.1199887580788231 0.42844814109999946
000270 7d 2e 3b 13 cd e2 db bf 2c aa e9 18 96 9b d1 bf
       -0.4357178390316461 -0.2751212352074244
000280 1c 54 03 0c 37 66 d2 3f 54 e3 2a 32 42 0f c8 bf
       0.2874887101473307 -0.18796565484606254
000290 c5 3d 71 e3 14 43 d1 3f b2 2e 94 e3 41 3f da bf
       0.26971933566252587 -0.4101109240007005
0002a0 b6 b9 ee b9 af 96 e0 bf 16 05 e4 c2 f3 5c e1 3f
       -0.5183943397039943 0.5425967031916652
0002b0 c0 66 90 5d 47 8a a6 3f 7f a0 bb 17 c8 9b d8 3f
       0.044023733302493095 0.38450815503757235
0002c0 b5 a4 76 97 0a b5 db 3f 7f da 58 ea ed 95 d2 bf
       0.4329248885283719 -0.2904009617372267
0002d0 6a 2f 54 8f d1 21 dc 3f 2e e6 c5 88 0c e4 da 3f
       0.4395641231246744 0.42016900402777224
0002e0 79 1f 48 38 da 8f df bf ca 36 4c cc c5 b1 4c bf
       -0.49315505501044005 -0.0008756843386394594
0002f0 7b b1 27 d1 89 b7 d0 bf c2 3d 02 02 e9 3f b5 bf
       -0.26120229172990833 -0.08300644206086985
000300 23 38 6b f4 75 ae 91 39 e2 c1 6f 29 f1 92 eb b9
       2.179411580322559e-31 -1.0876022278146115e-29
000310 35 13 e9 5f 3d d0 e9 b9 89 53 ea 12 33 a8 e3 39
       -1.018160544324816e-29 7.753330973907583e-30
000320 26 4b 3c db 86 29 f2 b9 3e f2 d8 75 f1 1a e3 39
       -1.4327460573063129e-29 7.535691179012382e-30
000330 7c 71 ca 40 c5 b8 f2 39 0d c8 e4 9c bb cc d4 39
       1.476886441729834e-29 4.102024986498999e-30
000340 e3 f5 51 31 ed a8 ee 39 f9 de f3 3d 66 30 e2 39
       1.209318611421723e-29 7.17431920352247e-30
000350 27 fc f0 d1 10 bc ec 39 b4 c4 3f cb 50 fd c8 39
       1.1333813768924586e-29 2.46415633606137e-30
000360 1d 28 ae ae 95 3c f3 b9 f8 c9 2b 7a 76 0c d7 39
       -1.5175048209549324e-29 4.5455511982011705e-30
000370 39 25 43 4b c2 88 d6 b9 09 d5 00 ad 3d 7f df 39
       -4.444090249908552e-30 6.211694855478976e-30
000380 83 0e 17 74 71 e7 e2 39 ac 39 b7 37 75 bd e2 39
       7.456342823987795e-30 7.391654232586743e-30
000390 35 e9 3e fb 96 92 c2 39 ff de 55 56 12 fc c4 b9
       1.831401362728517e-30 -2.0692467230735633e-30
0003a0 ae 9a 6d da 2c 9a e8 39 c8 e3 4c 71 79 0c d1 b9
       9.70387538238893e-30 -3.362268763891691e-30
0003b0 2e 4f 52 bc fb a9 e3 b9 78 5f 0c 98 c4 9a d0 b9
       -7.756079406798569e-30 -3.2746725088233196e-30
0003c0 62 90 97 63 d6 c6 db 39 68 e6 d0 2b 46 98 8a b9
       5.477989915361338e-30 -1.6390323713118055e-31
0003d0 91 2a d8 6a 38 12 d8 39 6c fd 8d ab ef 63 b8 39
       4.747201901745673e-30 1.2025383720506525e-30
0003e0 d5 28 21 ab 78 a5 e5 b9 08 14 7b a8 ec 08 e4 b9
       -8.537988504444783e-30 -7.902359338152153e-30
0003f0 b9 45 ae cc f7 e0 d1 39 86 04 f9 5e 96 7c 9c 39
       3.525967864804978e-30 3.511253105011516e-31
000400 b6 9d 42 9f 03 3e 74 3f 99 1a ae 3b cb 09 a5 bf
       0.004941953801029289 -0.041090346369903226
000410 35 8d d8 0d ac 29 bd bf 00 5e 1a 95 3c e8 a7 3f
       -0.11391711557421476 0.04669370002846662
000420 9e 45 4e ca d7 41 63 3f ac b2 5a 33 7f 5a c5 bf
       0.0023507322934583482 -0.1668242455247272
000430 9e 56 e0 0d e7 78 93 bf b7 64 e6 a2 63 a8 a5 bf
       -0.019015894147819005 -0.042300332675219314
000440 c2 c4 c2 05 4e 09 b8 3f ed 25 c9 71 9a 58 90 bf
       0.0938919796051492 -0.01596299476140033
000450 6e 97 b6 65 8b 05 b1 3f 5d c8 bd 81 ad c3 b1 bf
       0.06649085267289731 -0.069392055678493
000460 17 f2 29 2e e9 d8 b8 bf 14 e8 c7 81 42 c2 a1 3f
       -0.09705979706809163 0.03468520960082358
000470 d1 5e ae a4 2d 37 b7 3f 02 a9 e3 0b 42 bb c1 bf
       0.09068570395026689 -0.13852716045887098
000480 7a 86 10 87 08 64 a6 bf 5b 42 02 4b 50 af bd bf
       -0.043731943595287384 -0.11595632392187254
000490 e1 e2 dd c3 0b 79 84 bf a6 74 2b d0 ba a7 ca bf
       -0.009996501841429363 -0.2082437054113246
0004a0 e3 87 d9 4d d3 8d 91 bf 37 04 d8 94 f3 a9 c2 bf
       -0.017142583490915696 -0.14581150787128802
0004b0 e6 20 00 e6 eb dd b1 bf 66 6a 41 0d 1a 1d ab 3f
       -0.06979250302549964 0.05295640384493509
0004c0 c3 0a 8d 60 9f 1f 8e bf 44 52 10 6e 98 c4 a0 3f
       -0.014708752759934446 0.03274990409423542
0004d0 3d ab 8b c5 3e fb c5 3f a3 11 9a 00 f9 57 94 3f
       0.171729895074657 0.019866839086277854
0004e0 a7 11 4b 32 e7 9f b2 bf 14 b4 b5 b1 aa 25 9a bf
       -0.07275242784368761 -0.025534312340301638
0004f0 9d 9a 06 47 a7 b6 7f 3f e8 de f6 a5 3d 06 a0 bf
       0.007742551257627153 -0.03129761362964506
000500 33 9a 21 3f c1 d0 bb b9 e5 be 60 7b ab 71 d0 39
       -1.3714075029920217e-30 3.2430116890777616e-30
000510 22 c7 a5 d4 43 9b a6 b9 11 75 d3 e9 e8 ec bf b9
       -5.572933444648496e-31 -1.5740451751073292e-30
000520 ce 22 55 ca f9 7f b2 b9 30 5c 59 78 c4 cc 98 39
       -9.121157500490632e-31 3.0568203409562336e-31
000530 59 09 95 9f 8e 9a c0 b9 b6 b8 45 72 01 59 e7 39
       -1.6372550485220754e-30 9.209035327143114e-30
000540 e4 f7 54 52 c1 67 ea 39 ac 3e 33 67 44 c9 b2 39
       1.0415051907402214e-29 9.262311710480264e-31
000550 1a e8 0c eb d8 3c e0 b9 e8 94 ff 01 b7 4e b8 39
       -6.40463740781988e-30 1.198451291168776e-30
000560 35 19 f2 e8 45 09 d7 b9 e9 15 2d 96 a7 13 ac b9
       -4.5430939304062514e-30 -6.921459645976305e-31
000570 8b 33 37 5c 78 b1 d4 39 fd 85 15 d2 88 b8 d2 39
       4.081022562021772e-30 3.6920342470410784e-30
000580 47 3e 2c db f8 a3 db b9 63 35 a6 76 0f 99 e4 b9
       -5.451130616833507e-30 -8.124435944799771e-30
000590 6f 90 5e 5d 5a df eb b9 74 23 07 b0 52 72 bd 39
       -1.0993751985463043e-29 1.4518281993220897e-30
0005a0 3b fc 49 85 7e ba f2 b9 d4 b0 ea 19 8d ba ea b9
       -1.4774175982477954e-29 -1.0542619365779835e-29
0005b0 8b 5d 72 8a cb 74 bf 39 f3 56 8c fd 22 94 c3 39
       1.5509119183050626e-30 1.930604823990307e-30
0005c0 8c 00 26 2e 79 7c d5 39 c2 76 8f 88 db de a0 b9
       4.2374105412544035e-30 -4.158908542947919e-31
0005d0 aa 3f 2e cb b4 c7 d3 b9 1d 21 3e ff 38 82 7f b9
       -3.900937379547057e-30 -9.709362330944603e-32
0005e0 07 53 9f 67 c5 03 d9 39 62 a3 6b a8 cc 00 d0 39
       4.933285816950591e-30 3.1560594908268344e-30
0005f0 2b 75 d9 1b 0c 70 da b9 03 e4 b3 3a ce 41 f2 39
       -5.213913984000224e-30 1.4402275403185476e-29
000600 c0 c9 33 09 45 98 bc 3f a8 b7 4a bf 42 86 9d 3f
       0.11169845080056628 0.02883247654488455
000610 38 b8 b9 d3 6c 5c c2 bf f1 b3 4a 20 8b db 64 bf
       -0.1434455903831251 -0.002546092730276055
000620 df ab 30 f0 54 0a 86 bf af a7 c7 c5 05 3b c9 bf
       -0.01076189382555087 -0.1971137252542667
000630 e4 65 2f af b3 74 c4 bf aa c3 3d 4b fe ce a5 3f
       -0.15981145910227135 0.04259485882256027
000640 09 51 84 cf 2f 97 c5 3f 7b c1 3a 32 1a 4f 72 3f
       0.16867635376605275 0.004469969109479495
000650 19 3e 9f ef d0 34 b7 3f 75 fd 3b a9 7c 0b c9 bf
       0.09064966058871739 -0.19566305411715815
000660 21 fd 61 03 a7 db b6 bf 1a 14 78 a8 78 27 ac bf
       -0.0892891295679772 -0.05498864227778473
000670 0e 43 9e 7f 93 d2 b3 3f 1c 61 ab ff bf b7 c6 bf
       0.07743188729933712 -0.17748260482654465
000680 7f 57 e7 8f f2 39 99 3f eb 81 b5 36 2b be a0 bf
       0.024635114701446078 -0.0327008728297676
000690 aa dc 49 5b 8b fe b1 3f 93 a5 c4 f5 a4 f0 ab bf
       0.07029028872226442 -0.05457034587955003
0006a0 af d6 58 8e a7 00 b7 bf 24 0a 83 26 cb f8 90 3f
       -0.08985373711842713 0.016574072099283424
0006b0 e2 42 5f d8 57 51 b0 3f 65 5d 49 87 df 2c b9 3f
       0.0637411978962166 0.09834096005339672
0006c0 86 e4 07 62 ac 51 b2 bf 9e c6 be b1 b6 cb b4 bf
       -0.07155873673754529 -0.08123342360957017
0006d0 3c 27 8e a8 7e d7 97 3f a1 45 a7 da b7 48 a1 bf
       0.023282984769628742 -0.0337579206858536
0006e0 bf 9c b8 ad 74 39 9c bf 41 ea a8 0a 99 5f c0 3f
       -0.027562926390740424 0.12791741390704384
0006f0 45 4f eb d1 1e 19 91 3f 64 82 97 9d 5e 4d c1 bf
       0.01669738918538079 -0.13517363257325876
000700 ed 5d 5c 68 87 4f e5 39 ca a8 92 aa c5 9f e6 39
       8.405573232511995e-30 8.923637907128525e-30
000710 94 1a 3d 8f 99 ac f2 39 a0 dc 7f cc 3b fd d9 b9
       1.4731360620233586e-29 -5.1254647185496626e-30
000720 ff b1 3c 0b 52 bb ce b9 e9 cd 87 c6 85 d7 ee 39
       -3.0303816204316242e-30 1.2164978660812205e-29
000730 ba 4c 05 60 37 6d a1 39 2d 70 c6 63 1e 95 9f 39
       4.295995038858884e-31 3.892843056853566e-31
000740 b3 bf 73 12 ec 32 ea b9 ef ec b9 cf 02 9c ba 39
       -1.0333649772790446e-29 1.311945593202001e-30
000750 54 f2 4f 36 1f d9 e0 39 58 10 f4 8a b8 46 d7 b9
       6.645416531452915e-30 -4.590431581711738e-30
000760 96 dd fe c3 32 a3 c3 b9 47 63 98 24 d3 32 e8 b9
       -1.936406349683798e-30 -9.544638830835253e-30
000770 3b cc ad 50 6a 82 eb b9 17 42 50 88 bd 84 63 b9
       -1.0850558795745776e-29 -3.007303714381051e-32
000780 8a 67 50 bd 7c 71 e8 b9 0e 44 11 a5 ff bd d2 b9
       -9.641185678230826e-30 -3.696243680360932e-30
000790 af 9e 42 e6 47 82 c0 b9 26 d2 25 4a e4 e6 b3 39
       -1.627904171270715e-30 9.812404597071474e-31
0007a0 dc 5a 2d ad df 40 f0 39 64 36 aa 6f 2b b4 c7 b9
       1.2821682117452722e-29 -2.33737393602467e-30
0007b0 d2 15 a3 60 17 83 de b9 29 42 bc 11 9e db c2 b9
       -6.01744586731394e-30 -1.8595306045281694e-30
0007c0 78 7e 25 af 52 42 bf 39 e8 8b 7a 68 29 58 d0 39
       1.541191346151386e-30 3.223360962954725e-30
0007d0 cb 31 74 24 9c ad bc 39 7e 49 5e ba 90 30 bc 39
       1.413942640658995e-30 1.3898599291164369e-30
0007e0 53 66 02 52 77 33 db b9 0b 1e c4 69 6d 0e eb b9
       -5.3644591477219205e-30 -1.0671851142296775e-29
0007f0 b4 26 c5 80 5f 08 e0 39 c6 f6 04 0b 3d b5 a8 39
       6.323787981235428e-30 6.090983067537304e-31

tgnn._base_tgcn.linear_z.bias f8 [32]
000000 6b ff 7d 49 e4 99 b3 3f 70 77 fc 8f b3 c3 d6 3f
       0.07656695169680254 0.3556946664920053
000010 40 42 7a fb 45 32 b4 3f 4d d3 f2 2a 77 dd ec 3f
       0.07889211072529978 0.9020343626822097
000020 e1 84 9b 28 f1 30 b8 bf 27 cc f9 4c 38 1f d3 3f
       -0.09449679604906037 0.29878051297345326
000030 3b a3 6a 54 3d d6 63 3f 3d 2a ee 27 8e a8 7a 3f
       0.002421493324920835 0.006508403107441438
000040 69 8d ff 34 c5 d8 b3 3f fe 05 49 12 c0 db b2 3f
       0.07752640289213776 0.07366562315385036
000050 4b 43 61 8d 91 1d ba bf 9a e0 91 b9 46 38 f3 3f
       -0.10201368047388575 1.2012393235036485
000060 5e 0b a9 4b 58 0d d6 3f 61 bb 1a 54 46 57 ca 3f
       0.344564508330384 0.20578841311131682
000070 9e 01 2b 0f 34 49 e8 3f b8 b3 03 cc f0 77 98 bf
       0.7589359565973159 -0.023895037128500468
000080 eb 82 d6 bb 67 96 f1 3f 0f 0e 3e de 08 3c b1 bf
       1.0992200219554273 -0.06732230592574971
000090 6e 8c 4d a5 01 36 d2 3f 81 c1 4c c4 eb 23 d9 3f
       0.2845462908064239 0.39281744165329974
0000a0 5c b2 8a 53 80 d8 eb 3f 09 b1 7f 37 09 85 9c 3f
       0.8701783782649488 0.027851242077233915
0000b0 f2 59 53 b1 bb 13 cd bf cc 78 11 25 10 2f c4 3f
       -0.22716470869518407 0.15768625078175658
0000c0 af d5 7e 90 52 e2 e2 3f f1 0d ff 19 72 34 b8 bf
       0.5901272604157181 -0.09455025801349116
0000d0 a3 be fe fe c0 c6 e8 3f a5 57 2e 19 8d de f2 3f
       0.7742619495747544 1.1793337806352409
0000e0 da d3 8e bf 1a 52 ec 3f 0b 1d 1c aa b1 61 ba 3f
       0.885022520195544 0.1030531921679662
0000f0 73 44 c8 e5 57 f4 ea 3f 46 15 6f 53 e0 a2 b6 bf
       0.8423270690856398 -0.0884227946945276

tgnn._base_tgcn.conv_r.bias f8 [32]
000000 00 00 00 00 00 00 00 00 00 00 00 00 00 00 00 00
       0.0 0.0
000010 00 00 00 00 00 00 00 00 00 00 00 00 00 00 00 00
       0.0 0.0
000020 00 00 00 00 00 00 00 00 00 00 00 00 00 00 00 00
       0.0 0.0
000030 00 00 00 00 00 00 00 00 00 00 00 00 00 00 00 00
       0.0 0.0
000040 00 00 00 00 00 00 00 00 00 00 00 00 00 00 00 00
       0.0 0.0
000050 00 00 00 00 00 00 00 00 00 00 00 00 00 00 00 00
       0.0 0.0
000060 00 00 00 00 00 00 00 00 00 00 00 00 00 00 00 00
       0.0 0.0
000070 00 00 00 00 00 00 00 00 00 00 00 00 00 00 00 00
       0.0 0.0
000080 00 00 00 00 00 00 00 00 00 00 00 00 00 00 00 00
       0.0 0.0
000090 00 00 00 00 00 00 00 00 00 00 00 00 00 00 00 00
       0.0 0.0
0000a0 00 00 00 00 00 00 00 00 00 00 00 00 00 00 00 00
       0.0 0.0
0000b0 00 00 00 00 00 00 00 00 00 00 00 00 00 00 00 00
       0.0 0.0
0000c0 00 00 00 00 00 00 00 00 00 00 00 00 00 00 00 00
       0.0 0.0
0000d0 00 00 00 00 00 00 00 00 00 00 00 00 00 00 00 00
       0.0 0.0
0000e0 00 00 00 00 00 00 00 00 00 00 00 00 00 00 00 00
       0.0 0.0
0000f0 00 00 00 00 00 00 00 00 00 00 00 00 00 00 00 00
       0.0 0.0

tgnn._base_tgcn.conv_r.lin.weight f8 [32, 1]
000000 b7 1f 88 9f f3 6f 04 3a 23 cc 5e 65 5b 11 fe 39
       3.2244391539585056e-29 2.371931259018227e-29
000010 ba 5e 29 0d f4 81 ef 39 0c dc 55 3d 3a 04 0c ba
       1.2427568832196809e-29 -4.420226466282675e-29
000020 24 62 9a bf 29 da e2 b9 85 df df ad 2a cb de 39
       -7.435881593630658e-30 6.072970733679409e-30
000030 1e ee c5 e3 83 c1 8a 39 37 2a fa d0 8b 22 11 ba
       1.6489608021529519e-31 -5.406835582172835e-29
000040 26 d0 6d a9 9d 4e d5 39 33 c8 49 61 90 60 fe 39
       4.2020832129924985e-30 2.3963387907507882e-29
000050 d5 1b 1b ca c5 73 ef 39 e1 1e ef dc c9 e5 fb 39
       1.2405719987918042e-29 2.2007335010353247e-29
000060 f0 d2 f0 4f 9a 16 15 3a 8c ef 39 39 41 01 f1 b9
       6.654291684019871e-29 -1.341450197647636e-29
000070 be 86 c2 1d 35 10 f0 b9 3f 6e 8e b6 7e a8 01 3a
       -1.2671717653708873e-29 2.7859701222797894e-29
000080 0b dd e9 81 65 fc 00 ba c8 25 cc 68 1b 07 c9 39
       -2.67990625777906e-29 2.4679278717666295e-30
000090 c9 6b e9 33 b2 40 13 3a 8d f6 76 51 94 7d 98 b9
       6.075086985379503e-29 -3.0186926609112584e-31
0000a0 8e 92 1f 6e ba 7e 16 ba e4 55 6d 89 41 66 ff b9
       -7.098180585274068e-29 -2.4769788699606074e-29
0000b0 7a fb d6 8b c6 06 f3 39 4b 47 d9 9f 34 19 82 b9
       1.500923604020613e-29 -1.1154036667998011e-31
0000c0 b1 0c d5 86 d9 2c e0 b9 7f db 39 2c f2 3e 00 3a
       -6.379989166944436e-30 2.5631483565114146e-29
0000d0 78 81 61 12 7e 19 eb b9 4a 46 99 7f 55 6b d7 b9
       -1.068889958641946e-29 -4.618637294127179e-30
0000e0 f3 81 f0 65 50 e2 05 3a 3b 4f 16 29 06 7a ec b9
       3.452692607135063e-29 -1.1232060512806988e-29
0000f0 9a 3b e5 1e 2a 10 d7 39 0d 0f b1 13 12 46 de 39
       4.548402908991657e-30 5.970437225854185e-30

tgnn._base_tgcn.linear_r.weight f8 [32, 64]
000000 bf b4 8f 0d fc ce e8 39 d6 9a 14 6c c6 85 b2 b9
       9.78524110614421e-30 -9.132326628981313e-31
000010 62 d9 46 73 5e a4 d7 39 03 85 77 32 fe 28 e3 b9
       4.6625754354049394e-30 -7.557338251183852e-30
000020 fa cb 90 a9 9c b4 89 39 72 f1 04 6c a8 81 b6 b9
       1.58422470383917e-31 -1.1096549475543062e-30
000030 1a f1 5a 26 4c d1 e1 39 48 e0 ae e5 c5 36 db 39
       7.02779149116933e-30 5.367006722263581e-30
000040 68 ef 4b d4 0c bf da b9 39 84 6a 3b df 14 ee b9
       -5.274775538409015e-30 -1.1865071986720697e-29
000050 f0 86 ab d1 af ff 97 39 c3 ca 29 82 59 b7 da b9
       2.95807759092301e-31 -5.268843310560266e-30
000060 a8 5e 1a 35 67 6f c1 b9 75 16 bb 7c 33 12 f2 39
       -1.719240357646682e-30 1.4255582831360906e-29
000070 49 b6 09 ba d0 32 e7 39 e6 d4 f3 f7 6d 83 c7 b9
       9.150193836011873e-30 -2.3185999293588043e-30
000080 b6 62 8e 6e 84 6d d8 b9 c9 86 b0 f6 02 c3 bf b9
       -4.817534499534196e-30 -1.5659758673694812e-30
000090 d0 58 a1 82 41 3f ca b9 53 22 f8 6f a3 da e5 b9
       -2.5881632281732277e-30 -8.619905340072155e-30
0000a0 5c 3d 34 c7 dc 97 ea 39 d0 ec b6 ed 70 0e dd b9
       1.0489172865256871e-29 -5.7303666026022896e-30
0000b0 43 57 30 fc c9 06 e9 39 0b fc ba dd 2f a4 c1 b9
       9.87122143267296e-30 -1.739571946724909e-30
0000c0 6f 57 f3 e1 57 99 cd 39 99 a4 d6 58 9b 2f ba b9
       2.918686468793317e-30 -1.2910677118351033e-30
0000d0 54 67 e0 2a 27 08 c5 b9 e6 cd c1 64 9e 1e cc 39
       -2.073900296800037e-30 2.7728070721140787e-30
0000e0 05 2c 7f ea ac ec ee 39 a1 ad 5e 1a a2 cf b1 39
       1.2197569852153056e-29 8.781534143944198e-31
0000f0 f7 11 12 17 e3 b2 db 39 a4 7d c7 04 5a e6 b8 39
       5.462620696752793e-30 1.2276554690720169e-30
000100 24 68 d9 42 48 57 c8 b9 0b 15 c7 14 66 7c d0 39
       -2.4002026231592962e-30 3.251276935450817e-30
000110 a9 1c 17 89 36 be db b9 fe 1a 59 79 f5 0c a1 b9
       -5.471345897842827e-30 -4.2033025092736e-31
000120 a3 3a 7a 9b 03 cb 95 39 8d 48 a6 c1 42 25 d5 b9
       2.686197574574935e-31 -4.1702244034522144e-30
000130 47 83 ee 63 26 d7 ec b9 ee e8 73 0d 0f 24 f0 39
       -1.1375543677092422e-29 1.2732889236811525e-29
000140 2c 9c 03 db c3 05 ea b9 11 81 ba f8 cd b9 c7 39
       -1.026407425020735e-29 2.339544422065313e-30
000150 40 59 d2 28 ff 1f d2 b9 ea 95 65 47 b3 c7 e7 b9
       -3.5745234473736475e-30 -9.379587452781868e-30
000160 45 90 43 43 af 8d f0 b9 0f e2 e9 e5 91 d4 c4 b9
       -1.3058373927600948e-29 -2.054031215756784e-30
000170 c3 d0 d1 82 e3 a7 c1 b9 07 9f c7 7f 54 a0 c4 39
       -1.7409978042642138e-30 2.0339091614475122e-30
000180 80 03 0a 4a 84 40 ec b9 3f d8 f2 45 71 b2 ec 39
       -1.1143456473000101e-29 1.1318986835670488e-29
000190 f5 d6 b7 ef 3f ca e4 b9 4a c9 9e 53 db 6d d2 39
       -8.200224134426901e-30 3.6345046311741014e-30
0001a0 02 fe 78 c6 e4 49 e3 b9 5e a6 3d 0d 34 4d b8 39
       -7.608029799506212e-30 1.198160177766567e-30
0001b0 e1 e7 1d 54 47 19 d2 39 83 60 9e a0 88 96 ca b9
       3.5693480195800916e-30 -2.6217814143881348e-30
0001c0 a3 d1 1b 1d 04 77 ea 39 8f f3 85 37 19 f2 e5 39
       1.0438565057044609e-29 8.656051310676177e-30
0001d0 c8 cd cf 93 16 6b b0 b9 90 53 db 0b 47 1e cd 39
       -8.094853409660597e-31 2.8712832597067708e-30
0001e0 e6 26 67 27 68 3b cb b9 02 33 3c b7 2c 4a bf 39
       -2.6852882418623167e-30 1.542703525854814e-30
0001f0 67 f8 e0 6c 57 0a d7 b9 06 8c 5c c7 02 ff e9 39
       -4.5439170107642114e-30 1.0253667747946409e-29
000200 f0 a8 e2 2d 20 ab 89 39 95 e3 76 cb cd 21 9f 39
       1.5819409692827502e-31 3.8373209886729447e-31
000210 92 35 b9 34 23 9c c9 39 c4 89 e3 2f c9 86 da 39
       2.5253323151081878e-30 5.231431154259276e-30
000220 f0 a7 ce 31 99 6f a8 39 80 91 e1 ea 0f f3 c5 b9
       6.023922154957006e-31 -2.1643840215010975e-30
000230 fd b4 f7 16 ab 15 ec b9 e3 0c 8a c1 dd 80 e3 b9
       -1.1077438004939711e-29 -7.692728471358823e-30
000240 f7 09 d0 6e 47 61 c7 b9 19 da 2c 83 82 c0 90 b9
       -2.3054456236563565e-30 -2.0648423669312753e-31
000250 8b bc f6 f0 85 2b ef 39 85 5c c2 36 5a f5 d6 b9
       1.2294402150677792e-29 -4.527747590855531e-30
000260 a7 f0 f1 03 e7 fe d1 b9 7f 5f 7f 29 35 d4 da 39
       -3.549028516252518e-30 5.2910747220955005e-30
000270 44 dd 7d c7 cb 76 d0 b9 0e 46 55 97 1a 38 be 39
       -3.246960740176524e-30 1.4899194099319743e-30
000280 f6 ee b3 67 17 4f e1 b9 27 37 8e 67 0b 22 41 b9
       -6.827177331121266e-30 -6.599386354772031e-33
000290 d2 9a 9d f2 5c b5 e2 39 d3 ab e7 b7 16 fb e3 b9
       7.379182211661759e-30 -7.881042063701208e-30
0002a0 f6 31 7d 75 e5 3c eb 39 b1 63 ee 20 a3 04 e5 39
       1.074344786358484e-29 8.29018427541708e-30
0002b0 7b 8f 9b 0a 7f a9 ed b9 0e ac 9a fd 26 fa e0 b9
       -1.1699633457017347e-29 -6.696307897032241e-30
0002c0 56 7a 8f 17 70 c7 c1 b9 e1 a2 4e 78 fe 0b d5 39
       -1.7531500927273368e-30 4.150759611816315e-30
0002d0 31 a8 17 f1 d9 64 e8 b9 95 d8 b6 06 21 b4 e3 b9
       -9.621716947501981e-30 -7.771711280967966e-30
0002e0 b0 8f 9d f2 98 c2 f3 b9 65 39 56 1c 2e a1 c5 39
       -1.5588006895108943e-29 2.132844200070621e-30
0002f0 a6 6f e2 0d 55 ab e4 39 92 27 2f f0 97 63 be b9
       8.152588170167175e-30 -1.4982952093508127e-30
000300 12 d1 4b 1c 85 41 a5 b9 88 61 ef 10 47 aa 85 39
       -5.239993119875872e-31 1.3352177642352441e-31
000310 b8 40 81 6f 22 f2 f1 39 25 39 25 f0 89 10 cf b9
       1.415676996627203e-29 -3.0632065296906443e-30
000320 e1 92 12 77 6a 20 eb 39 04 cf a4 19 e0 30 d2 b9
       1.0699566790736335e-29 -3.5875263053485536e-30
000330 de 9b c4 35 35 4b d5 39 de bd f5 1d 58 bd c9 39
       4.1994577738552905e-30 2.538123064485809e-30
000340 7c 17 6b 6d aa 98 c7 39 5d 2d 46 f3 bd 21 f0 b9
       2.3267798034936467e-30 -1.2725750028041248e-29
000350 a8 ce 10 b3 47 42 c1 39 46 a3 ea d9 4b 6a d9 39
       1.701859580240484e-30 5.0122683437854805e-30
000360 20 c7 31 a1 51 14 e1 b9 fa 89 82 bd 72 d2 da b9
       -6.73662386416915e-30 -5.289719283214827e-30
000370 7e ac b1 e3 36 bf f1 39 bd 88 28 8f d7 44 e0 39
       1.39998602872404e-29 6.416955180560461e-30
000380 ee d2 30 ec 78 7c e9 b9 86 f0 54 ac 05 dc be b9
       -1.0052541342292114e-29 -1.521488924085468e-30
000390 18 04 f9 1c 6d 58 ea 39 99 f7 89 62 2c da d4 39
       1.0391433936990665e-29 4.1123791832589086e-30
0003a0 4e cc 0e c6 d0 82 e2 39 47 40 91 01 c5 0c de 39
       7.301301371985847e-30 5.9262940966262e-30
0003b0 6e 19 3e 45 95 1b de 39 27 df 9a 83 2f d2 cb b9
       5.937706027064712e-30 -2.7433661040298036e-30
0003c0 66 e5 7b 26 74 4d ce b9 71 34 31 a6 69 3f 99 39
       -2.988062479312009e-30 3.1120200116821134e-31
0003d0 ad 8f 4f e3 75 7d e5 39 0c be 13 bb 82 cc 80 39
       8.476342011446162e-30 1.0353102837334252e-31
0003e0 33 39 57 6d 49 0d b2 39 28 d8 e5 71 c9 72 e4 b9
       8.900274677208986e-31 -8.065466265609656e-30
0003f0 79 b9 ee 39 12 56 df 39 97 96 67 0a 0e fd e5 39
       6.17997885332292e-30 8.672932229611615e-30
000400 90 28 f8 20 98 3c c6 b9 58 20 45 3a 33 33 e8 b9
       -2.19270754664786e-30 -9.545217119389727e-30
000410 6e 85 38 72 17 0b c2 b9 98 af 29 aa 5e 29 f1 b9
       -1.77920936050806e-30 -1.353811587796941e-29
000420 a1 f6 d7 05 18 8d c3 b9 6f 50 f9 fa f8 67 d3 39
       -1.9278920198637155e-30 3.8271868615458336e-30
000430 cc 20 2b 74 3d d2 e0 b9 6c 2b c6 d6 94 6b c3 b9
       -6.634813333928384e-30 -1.9149834986883163e-30
000440 56 9b 3d 05 d8 35 dc 39 a4 94 00 f0 39 9d a6 39
       5.563506114327885e-30 5.574822160714823e-31
000450 d4 da c5 51 dc 96 b3 b9 da 72 15 26 1f cd b8 39
       -9.658270240292236e-31 1.222796355417558e-30
000460 22 b4 a4 4a 0f 8c e4 b9 8b 2e 00 8c 2b 0a 99 39
       -8.104405238804912e-30 3.0863846384546566e-31
000470 96 6a ac 8b 1f 86 cb b9 b9 2c 0b f4 0d 15 f1 39
       -2.7140679421733925e-30 1.3475514591573925e-29
000480 68 56 6f 17 52 03 d3 b9 11 44 df c3 cc d3 e3 39
       -3.7496474509832645e-30 7.820507959483426e-30
000490 e4 07 9a 51 c6 ed cf b9 f0 9c d4 72 3e a6 dd 39
       -3.1484234839952345e-30 5.8473112354492824e-30
0004a0 80 ee 48 e1 02 6b d5 b9 37 fd eb 4c f2 9d e1 b9
       -4.223958220772308e-30 -6.948672788337671e-30
0004b0 ea 87 c2 36 cc 0b c3 b9 10 a3 bb 25 fd 52 ce 39
       -1.878088962712127e-30 2.9901945395317035e-30
0004c0 95 dc cc 89 1f 78 c0 b9 92 2c a1 48 eb f8 ce 39
       -1.623991582640181e-30 3.0541085353994707e-30
0004d0 7d 3d 60 fb 20 53 e4 39 d3 63 ba c9 5e 1a bf 39
       8.016689303331776e-30 1.5334967322868255e-30
0004e0 cc 7d f0 06 7f 69 d6 39 b9 53 0d 65 0b 92 d1 39
       4.4200062946756525e-30 3.465167445723676e-30
0004f0 10 8e 8b ed 0b ca b8 39 c6 bd a9 4d 1e 3c ea 39
       1.2222041162707846e-30 1.0347818786985604e-29
000500 26 46 7a b1 b3 7c d8 39 fb f2 a0 12 e9 ab c1 39
       4.829232301338547e-30 1.7425469166175855e-30
000510 a9 e8 99 66 08 85 ae b9 aa ed b1 47 8e 1a e6 39
       -7.523676927993349e-31 8.718385617229325e-30
000520 a6 5b ea 20 22 8e e8 39 c1 22 b0 6e 93 81 f2 39
       9.68532190822989e-30 1.4598782887162317e-29
000530 c7 4e e6 c8 fb c8 dd b9 35 55 1b dc c0 c7 cc b9
       -5.8740736456172925e-30 -2.8379553632231285e-30
000540 b7 29 47 17 5c fb bd 39 e9 fd 95 67 af c6 ed b9
       1.4782205138324157e-30 -1.1744606107126884e-29
000550 ff 65 f7 b4 f4 5d e2 39 e7 fa 85 39 03 b0 d5 39
       7.244510110933732e-30 4.2771149244756316e-30
000560 97 74 1e cc ff a3 ed b9 6b 64 08 ec 2d ec e6 39
       -1.1691163914691041e-29 9.041361913933912e-30
000570 f5 7a f3 ee 1e 50 c7 b9 1e 63 87 c8 98 25 eb b9
       -2.2988365250319873e-30 -1.0707549277971857e-29
000580 91 6d 1c 83 7b f6 cd 39 f9 dd aa 95 70 19 c3 39
       2.9545623751220878e-30 1.8833436981581802e-30
000590 82 48 21 fa 10 d7 ec b9 6c 50 b3 60 a1 22 db 39
       -1.1375414800554326e-29 5.35148938594541e-30
0005a0 9b b8 a4 fb 19 a3 a9 39 d1 e0 36 98 55 c7 c1 39
       6.320036849622834e-31 1.7531102238022796e-30
0005b0 67 3c 6b 3f 79 e6 d1 39 de 00 f8 ed c7 fd dc b9
       3.530209268688511e-30 -5.717532088070522e-30
0005c0 6c 0f 3a e9 bf 57 d3 39 9b 98 c1 89 ee 13 f1 b9
       3.814689173150093e-30 -1.3472054957125882e-29
0005d0 1c b3 a5 31 48 14 af b9 90 3d 65 be 4c 0a db 39
       -7.661620882171837e-31 5.332745772288276e-30
0005e0 62 a2 04 22 62 62 e3 b9 9b b5 13 6c 19 58 9b b9
       -7.645762123046793e-30 -3.3704252164760144e-31
0005f0 d9 69 14 df 97 d1 72 b9 5a 5e 3d 4a e7 62 e6 39
       -5.798966934736442e-32 8.829854891117145e-30
000600 d0 8a e5 4c b7 2a 98 39 b0 cc e5 51 a7 6b e4 39
       2.9787954086881368e-31 8.054475675543998e-30
000610 fb 59 c0 61 81 01 cb b9 85 c1 ec ee 35 93 db b9
       -2.6629854132679338e-30 -5.438218090593173e-30
000620 f0 b9 bb 8f 07 82 92 b9 17 3d cb 98 ba 0a f2 39
       -2.2812782406489672e-31 1.4232557250983453e-29
000630 48 6b bf 7e 2b a2 e4 39 05 3c 6c 4d 40 26 d7 39
       8.13847134966381e-30 4.565417843270475e-30
000640 4a 98 8b f3 d9 09 e0 b9 47 53 a7 28 f4 5b 9d 39
       -6.32606568433353e-30 3.6188000946876688e-31
000650 b9 82 cd b5 7e 23 e8 b9 54 7b cf 1a 66 d6 d9 b9
       -9.521019510173308e-30 -5.095547521111384e-30
000660 e6 31 a7 e5 d9 75 db 39 c4 a3 c0 e4 37 56 d1 b9
       5.4156003418201985e-30 -3.4190790358535184e-30
000670 53 a7 68 22 76 f1 a1 39 87 67 dc 44 e6 95 d7 b9
       4.423342489544079e-31 -4.651428570236694e-30
000680 37 8a 26 f5 b3 92 cc b9 a3 c5 24 e9 39 1a cc 39
       -2.8175210927807215e-30 2.7711151383473538e-30
000690 ef 54 e3 b5 08 0a e8 39 49 8d 6f 5e ad 0b eb b9
       9.481790726622525e-30 -1.0667613830044255e-29
0006a0 3c d7 5a ec 43 0c db b9 10 6a f0 9d 71 3b f1 39
       -5.3342599731038125e-30 1.3593810789792237e-29
0006b0 38 04 fa 9f 18 4e cb 39 2c 48 4f df 59 1a c5 39
       2.6924871136979187e-30 2.08090993672884e-30
0006c0 79 df 5a c6 ad ae ef b9 ca cd 20 4a 59 ca d3 39
       -1.2496479348363561e-29 3.902973135311285e-30
0006d0 9f 11 a2 20 17 e9 e0 39 9d 4b c3 50 74 be c6 b9
       6.670019776816684e-30 -2.2427278393272095e-30
0006e0 34 07 79 d7 cc 6b e5 b9 4a ea 11 4d 33 3a b8 b9
       -8.449131954140106e-30 -1.1945003461328934e-30
0006f0 46 0f 81 9d a9 05 81 b9 2a 6e 7e 79 b1 b1 92 b9
       -1.0490691013769607e-31 -2.304227488569359e-31
000700 3a 23 66 8b fd aa c7 b9 cc 39 c1 8b 2a ac dc b9
       -2.3338382120236835e-30 -5.654658348683165e-30
000710 96 f3 fc 3c 11 9e cd 39 93 4b df 70 86 67 f3 b9
       2.9205061048816654e-30 -1.530736872759021e-29
000720 34 13 b9 84 86 49 bd b9 f1 02 6f ec 06 85 eb b9
       -1.44397087974033e-30 -1.085458283628105e-29
000730 e9 af 16 83 1d f8 d7 39 70 fd 6e be 86 79 dd 39
       4.727091265143979e-30 5.812862052278461e-30
000740 ed 38 94 8d c6 5b e7 39 29 1e 8b 43 68 d5 c5 39
       9.21330310765226e-30 2.1529613706286296e-30
000750 81 d1 1f 9e fc 8b d3 b9 2e 9f 79 69 ff d8 e6 39
       -3.854931198365441e-30 9.011807856953012e-30
000760 12 aa c6 d5 e3 9e b9 b9 a7 8a a4 cf 03 c6 d6 b9
       -1.2631962615797333e-30 -4.491280098936335e-30
000770 73 53 55 69 11 03 bf 39 ea a0 87 61 ab 5a db 39
       1.5290088817743247e-30 5.394660319104065e-30
000780 bc d4 df 40 ae 0d c3 39 42 10 c7 97 ae ab f2 39
       1.878814255154225e-30 1.4728532312125152e-29
000790 6a 98 d4 55 6b d7 cc b9 86 e4 7f e7 26 4c e5 39
       -2.8439896560545304e-30 8.400370192149251e-30
0007a0 6c 67 c6 db 53 e2 d6 b9 b9 5d 86 1b 7a cf e4 39
       -4.5130913981707266e-30 8.208277958898469e-30
0007b0 45 30 3b 2c b1 a7 e9 b9 5e f8 f9 46 5a b5 ab 39
       -1.011913187570391e-29 6.830650133047511e-31
0007c0 a9 4a 53 8c 5b 52 bd b9 56 38 2c 7f 18 27 ba 39
       -1.445671889427215e-30 1.2894285270875608e-30
0007d0 67 30 c1 c8 11 ea b3 b9 25 f0 2a 0c e9 e5 d4 39
       -9.81852464992027e-31 4.1214210109122496e-30
0007e0 27 80 5c 09 4a 77 d3 39 5d 59 3b 70 9e 2c c7 39
       3.838986360844369e-30 2.2851616776379513e-30
0007f0 3f c5 e4 63 07 6a c6 b9 7c 0f 73 6c 82 9a b6 39
       -2.2102083237301918e-30 1.1144411856567474e-30

tgnn._base_tgcn.linear_r.bias f8 [32]
000000 10 b2 6b cf 32 e7 d3 39 e0 ee d1 f7 26 e7 df 39
       3.9251981281565356e-30 6.291745207525372e-30
000010 cf a7 62 cd ef ab b9 39 91 4f bf c2 41 20 e4 39
       1.2657089736461189e-30 7.938308641793589e-30
000020 60 31 5b b9 9b 8c e2 39 3d 93 2a 87 b2 ee e5 39
       7.31638953078113e-30 8.650811042508176e-30
000030 7a d0 9b 99 03 05 e2 39 36 ad 86 da 89 34 ce 39
       7.107473533681887e-30 2.9784654850706473e-30
000040 c8 e8 36 16 8a 09 cd b9 bd a6 6e 7e 4b bf e0 b9
       -2.8632952252132284e-30 -6.605623699508663e-30
000050 23 0a 80 f1 7b 1f ec 39 26 32 63 21 97 c0 d4 b9
       1.1092561692678693e-29 -4.0926707373982404e-30
000060 b8 7b f4 4e 0f bd e4 b9 fb 8e d7 4b f7 ed f2 39
       -8.179901793991042e-30 1.49327856493164e-29
000070 5d 9b 07 12 bc 52 d6 39 11 3a 37 38 58 c3 ba b9
       4.402471434750904e-30 -1.3195209739447155e-30
000080 c7 fd d8 11 e5 bd d1 39 6d 97 94 5f 16 d6 a7 b9
       3.4989484825909936e-30 -5.87609641955603e-31
000090 c9 84 f3 5b ab c9 bd 39 20 8f ce 40 ba e3 d5 39
       1.4686504989174436e-30 4.316954676551873e-30
0000a0 a2 3c d9 aa 83 cd d3 b9 da 36 fe ec 23 ee f0 39
       -3.9054117773404744e-30 1.335560104689264e-29
0000b0 68 1e ae ae e8 a6 a4 39 34 ac df b9 ac c9 d0 39
       5.091108096715655e-31 3.310808167020429e-30
0000c0 35 0c 96 fa 81 74 c7 b9 a6 ad 38 11 a7 7a f3 39
       -2.312852247660265e-30 1.5366309723469388e-29
0000d0 a0 b5 88 3a ad 32 b0 b9 e5 3b d1 95 49 30 d6 39
       -7.986208776934997e-31 4.375934271126217e-30
0000e0 5a 24 14 09 2c 8a f0 39 8a 7b 7d b5 5e 79 c3 b9
       1.3047549872869064e-29 -1.9202946567376912e-30
0000f0 f0 17 a8 e9 17 12 e0 39 19 9c 91 99 3d 96 b8 b9
       6.338764552422649e-30 -1.2122266495948896e-30

tgnn._base_tgcn.conv_h.bias f8 [32]
000000 ab 48 d2 6e 18 3c d5 3f 26 e3 a0 17 f3 2e c6 3f
       0.33179293463138987 0.17330778745397274
000010 58 00 2a 44 db 2a a5 3f 95 ec cb 17 12 8d d2 bf
       0.04134259421425729 -0.2898602707279648
000020 72 0c 1e 0c 34 22 f1 3f 2f ca 6f 49 4e dd d4 bf
       1.0708504174552016 -0.3260074345736567
000030 e2 1b 65 19 62 d7 f0 3f ba 49 75 7d e0 4e bb 3f
       1.0525837890615937 0.10667231619780795
000040 bf 2e ae 43 e1 f4 f0 bf 2c e2 93 b5 47 2a c6 bf
       -1.0597851413503319 -0.1731652866944996
000050 7e 9a 12 55 ab 8c a3 bf 2f 15 f0 af b8 29 a2 bf
       -0.03818259633526554 -0.0354745592849589
000060 5a 14 43 87 69 4b f0 3f b4 7e c3 57 4a 05 ab 3f
       1.0184111865685481 0.05277473756154674
000070 88 40 b9 59 93 ac c8 bf 87 02 3d e7 65 5c ce bf
       -0.1927665889838901 -0.2371947650044783
000080 d2 80 b1 f4 76 46 7c bf 9a 28 74 75 73 71 df 3f
       -0.006903137847160861 0.49129950018017043
000090 a3 84 7b 26 3d 34 ac 3f 2e 56 c7 07 56 4f d7 3f
       0.05508605093724241 0.3642172885859932
0000a0 61 38 b3 80 67 84 c5 bf a4 57 44 28 41 b8 de bf
       -0.1681031587999682 -0.4799960034591726
0000b0 f8 fb 8e 7a d4 23 d8 bf 9d d8 81 fb e9 10 ca 3f
       -0.3771868893490473 0.2036411741316372
0000c0 8d 4a 34 c1 46 81 ee 3f aa 3f 63 7a 46 f8 f0 bf
       0.9532808087845567 -1.0606140881318233
0000d0 34 e7 d1 3b 3c 24 c0 3f 40 3d 8b 9b 72 cb f0 3f
       0.12610581322570058 1.0496698451932645
0000e0 55 a3 df cb 68 5c d0 bf 18 94 9f 96 9b 50 90 bf
       -0.25564021977929957 -0.01593249422866813
0000f0 b9 3f 26 ba 88 5d ed bf ea bd a3 ad d7 cb cd 3f
       -0.9176677356463109 0.23278327921387582

tgnn._base_tgcn.conv_h.lin.weight f8 [32, 1]
000000 96 4c cd 84 3b cf 8e bf 47 f1 35 c9 c1 5b 84 bf
       -0.015043702116292839 -0.009940637543643617
000010 fe 21 88 e6 17 a9 83 bf e1 26 e2 89 d1 d7 92 3f
       -0.009599863741656552 0.018401407280669416
000020 ac 5a 01 a7 6c 6e af bf 95 1a b4 b3 f3 6d 90 3f
       -0.06138934649122993 0.016044433444245405
000030 9e ba 0c 0f a6 23 af bf 50 91 ef 75 10 50 85 bf
       -0.0608188527461284 -0.0104066167822984
000040 e8 cb 60 4c aa f9 cb 3f f6 78 35 d0 d0 b7 8c 3f
       0.2185566780986783 0.014022475580244703
000050 d3 a5 b3 13 e1 95 a2 bf c0 8e 99 6b a4 87 99 bf
       -0.036299737601278935 -0.024931496684429844
000060 a8 83 df 48 45 09 b9 bf 4d 27 2d d6 77 f6 42 3f
       -0.0977977087891434 0.0005786976947572492
000070 22 21 02 ea a4 9d 76 bf fd bb 59 35 07 d6 84 3f
       -0.005521434970553936 0.01017385131419068
000080 e2 c5 68 da bb f7 71 bf 73 2e 17 b1 b8 44 97 bf
       -0.00438664798871133 -0.022723089035749
000090 43 0c 80 bc c9 98 81 3f 30 6f 82 d5 7c f7 8d bf
       0.008592201294964968 -0.01463220144824326
0000a0 0c 24 7e cf 0d 12 91 3f 42 ff 3f 15 3a 79 9c 3f
       0.01667043284354368 0.027806193873402003
0000b0 2f 88 a3 77 5f 7e 99 3f 09 80 92 0c e7 83 65 bf
       0.02489613692967668 -0.0026263725927293574
0000c0 33 1d 59 4d 07 d3 c1 bf 7b b6 ec 88 cf f0 b0 3f
       -0.1392525794674185 0.0661744794167251
0000d0 95 a5 c6 8a 06 f4 67 bf cd ba 4e 63 40 b0 b1 bf
       -0.0029239776397004904 -0.06909563469410358
0000e0 47 0b 52 d3 64 14 a2 3f 50 0f 82 97 21 a3 59 bf
       0.03531184272380599 -0.001564772419471578
0000f0 1a 52 79 96 41 89 a9 3f 67 fc ce 9b 80 9d 8b 3f
       0.049875306719204995 0.013484005694293267
